website/models/m3.pt (torch, 669706 bytes, 40 tensors)

layer1.conv1.weight f4 [30, 30, 5]
0	0xbe014a7f	-0.12626074
1	0xbcf41c1f	-0.029798565
2	0x3e2e1289	0.16999258
3	0x3b9cbfd8	0.0047836117
4	0xbe7ba7cf	-0.24575733
5	0xbe232173	-0.15930729
6	0xbd6343d4	-0.055484608
7	0x3db94599	0.09046478
8	0x3cb66541	0.022265078
9	0xbe72cc7e	-0.2371082
10	0xbdffd76c	-0.1249226
11	0xbc148dea	-0.009067038
12	0x3b57e5a4	0.0032943273
13	0xbdf8065c	-0.12110588
14	0xbe65b044	-0.22430521
15	0x3dc9539b	0.098303996
16	0xbd45c666	-0.04828491
17	0x3d00a5bd	0.03140806
18	0x3d92a0fc	0.071596116
19	0x3c7b0516	0.015321037
20	0x3e0397ca	0.12850872
21	0x3d32f78d	0.043693114
22	0xbd8c603f	-0.06854295
23	0xbcf2a736	-0.029620748
24	0xbc2d10a5	-0.01056305
25	0x3e06c6b8	0.13161743
26	0x3cbdc750	0.023166329
27	0xbe1c4e85	-0.15264328
28	0x3b019768	0.0019774083
29	0x3d8f6746	0.0700212
30	0x3c8c164d	0.017100478
31	0x3c6e6e3c	0.014552649
32	0x3d46f939	0.04857752
33	0x3da0fb45	0.07860426
34	0xbd7eb803	-0.062187206
35	0x3d480e34	0.04884167
36	0xbca5ab97	-0.020223422
37	0x3d6abeba	0.057310797
38	0x3d3c6085	0.045990486
39	0x3d87e43a	0.06635328
40	0x3d16a4ca	0.03677825
41	0xbd2fdf48	-0.042937547
42	0x3990789e	0.00027555687
43	0xbc7fb26a	-0.015606502
44	0xbc138bf5	-0.009005536
45	0x3d6c208a	0.05764822
46	0xbd02dba0	-0.031947732
47	0xbdef5648	-0.11686379
48	0xbd7972a6	-0.060900353
49	0x3d47700c	0.04869084
50	0xbc466474	-0.012108911
51	0x3d94924c	0.072544664
52	0xbde72124	-0.11285618
53	0x3e2a7c96	0.16649088
54	0x3cf38ce7	0.029730273
55	0xbe08402d	-0.13305731
56	0x3d39ebd4	0.04539092
57	0xbdf4e835	-0.119583525
58	0x3e27f13c	0.16400617
59	0x3baaa9e1	0.0052082394
60	0x3da4ef27	0.08053427
61	0x3da2e4e9	0.079538174
62	0x3c5fafa5	0.013652717
63	0xbda19eb5	-0.07891599
64	0x3cd887ef	0.026432006
65	0x3daef439	0.085426755
66	0xbcdcc7aa	-0.026950676
67	0xbd94d503	-0.07267191
68	0x3d74dce0	0.059780955
69	0x3d9f881f	0.07789635
70	0x3ce57696	0.028010648
71	0xbdde4fa2	-0.108550325
72	0xbcfbe0da	-0.030746866
73	0x3dd19d39	0.10235066
74	0x3cd964c8	0.026537314
75	0x3d914993	0.07094111
76	0xbd6c8fa1	-0.057754163
77	0x3d5168be	0.05112528
78	0x3da8a063	0.08233716
79	0x3c82b888	0.015957132
80	0xbc08ca34	-0.00834899
81	0xbe271950	-0.1631825
82	0x3dc90303	0.098150276
83	0x3dd971fa	0.106174424
84	0xbdb0cf02	-0.086332336
85	0xbc1ea143	-0.0096820025
86	0xbddfce60	-0.10928035
87	0xbcb5ad9a	-0.022177506
88	0x3c116e58	0.008876406
89	0xbe23344e	-0.15937921
90	0xbe03ce29	-0.12871613
91	0xbc9b58cd	-0.018963242
92	0xbcbc44ba	-0.02298199
93	0xbdd3d9b7	-0.1034426
94	0xbe5a68e2	-0.21329072
95	0xbd81ba35	-0.06334344
96	0x3d49b6fc	0.049246773
97	0xbc7a1745	-0.015264337
98	0x3d317baf	0.043330844
99	0xbd435141	-0.04768491
100	0xbd50e77e	-0.05100202
101	0x3d3f53f7	0.046710934
102	0xbd8fa16a	-0.07013209
103	0x3d64754f	0.055775937
104	0x3d24ef93	0.04026754
105	0x3d552983	0.05204154
106	0x3e108889	0.14114584
107	0xbd880501	-0.066415794
108	0xbc57fcd5	-0.013182838
109	0xbd872114	-0.06598106
110	0x3d1e5f88	0.038665324
111	0x3dd143d6	0.10218017
112	0xbd589825	-0.05287947
113	0x3e06811c	0.13135189
114	0x3d78e3b2	0.060764022
115	0x3dee399c	0.11632082
116	0x3dbd03f9	0.09229273
117	0x3d5c084c	0.05371885
118	0xbd01faea	-0.03173343
119	0x3ca43e79	0.02004932
120	0x3c26722d	0.010159058
121	0x3d930541	0.071787365
122	0x3ca19095	0.019722262
123	0xbc95a93a	-0.01826917
124	0x3de46de3	0.11153772
125	0x3cc44f9b	0.02396374
126	0xbccaa7ba	-0.024738181
127	0xbc55d57e	-0.013051389
128	0xbdb0e177	-0.08636754
129	0xbd30f90f	-0.04320627
130	0xbd9d8036	-0.0769047
131	0x3daa16bb	0.08305117
132	0xbbd753d4	-0.0065712724
133	0x3b946c2a	0.0045294957
134	0xba76ebf6	-0.0009419316
135	0x3d28a294	0.04117067
136	0xbc382000	-0.011238098
137	0x3ca67c0d	0.020322824
138	0xbd3bd877	-0.045860734
139	0xbdedb6e3	-0.116071485
140	0xbc37b0d2	-0.011211591
141	0x3d8af575	0.067850985
142	0x3ad057c6	0.0015895299
143	0x3c822765	0.015887925
144	0xbd051bcf	-0.032497223
145	0xbdc6a99c	-0.09700319
146	0xbb11afae	-0.0022229957
147	0x3dfb3349	0.12265641
148	0x3dc02678	0.09382337
149	0x3d15f601	0.03661156
150	0x3d8324bd	0.06403492
151	0x3bf6249d	0.007511689
152	0xbd9554cd	-0.07291565
153	0x3e123921	0.14279605
154	0x3d5deaf9	0.054179166
155	0xbd747d3f	-0.059689756
156	0xbbe89f05	-0.0070990347
157	0x3d56ca6c	0.05243914
158	0x3d3a0020	0.045410275
159	0xbdd1029b	-0.10205575
160	0x3b3ceed4	0.0028828876
161	0x3d2b1093	0.041763853
162	0x3d182702	0.037146576
163	0xbd4112c1	-0.047137026
164	0xbbb0e51e	-0.0053984066
165	0x3e12c83d	0.14334197
166	0xbcbfb0c8	-0.023399726
167	0xbdc1f4f4	-0.09470549
168	0x3d676758	0.05649504
169	0xbb9bf34d	-0.0047592283
170	0x3e4b007c	0.19824404
171	0xbd9d054d	-0.07667027
172	0xbd9ae4e0	-0.07563186
173	0x3d6098e8	0.054833323
174	0x3dac9edc	0.084287375
175	0x3daa67a0	0.08320546
176	0x3c896ac5	0.016774544
177	0xbdcba13f	-0.099428646
178	0xbd097a40	-0.033563852
179	0x3e02dbbe	0.12779137
180	0x3da31f13	0.07964911
181	0xbdb749a4	-0.08949593
182	0x3d3da4a1	0.04629958
183	0x3dcb3f26	0.09924154
184	0x3d77da0c	0.06051068
185	0x3d84a336	0.064764425
186	0xbdc755bf	-0.09733152
187	0x3d866184	0.065615684
188	0x3dc9512f	0.09829938
189	0xbbfdb1ac	-0.0077421274
190	0x3bc4a75a	0.006001395
191	0x3cb97e0a	0.022643108
192	0x3c19abe1	0.009379358
193	0xbdde4f3a	-0.10854955
194	0xbd20b8cb	-0.039238732
195	0xbcf307cc	-0.029666804
196	0xbd58535c	-0.052813873
197	0x3dac636c	0.08417401
198	0xbdb42616	-0.08796327
199	0xbe0d538e	-0.13801405
200	0xbd8fee06	-0.07027821
201	0xbda0d64a	-0.078533724
202	0x3e3e9239	0.18610467
203	0xbd4b1824	-0.04958357
204	0xbd6a0dba	-0.057141997
205	0xbdf146b0	-0.11781061
206	0x3c5bb12a	0.013408938
207	0x3d9e7776	0.07737629
208	0x3d9ffa8b	0.07811459
209	0xbd86ab7b	-0.06575676
210	0x3dfff781	0.124983795
211	0x3d57733e	0.052600138
212	0xbd4b492c	-0.04963033
213	0x3b522bd1	0.0032069574
214	0x3d47132c	0.048602268
215	0xbd042261	-0.03225935
216	0xbaf73826	-0.0018861338
217	0x3cba85ae	0.022768822
218	0xbdc8f802	-0.09812929
219	0x3d1fc814	0.03900917
220	0x3d8689ae	0.06569229
221	0xbd81d521	-0.06339479
222	0x399bce53	0.00029717627
223	0x3c81d623	0.015849179
224	0xbb326461	-0.0027220475
225	0x3d352aac	0.04423015
226	0x3bcb2c16	0.006200324
227	0x3d666934	0.056252673
228	0x3b609f87	0.0034274773
229	0x3d610904	0.05494024
230	0x3debc3c0	0.11511946
231	0xbda26bf9	-0.079307504
232	0xbdd4d2ec	-0.10391793
233	0x3d321c20	0.043483853
234	0x3db1be26	0.08678846
235	0x3e0590e2	0.1304355
236	0xbdc393af	-0.09549653
237	0xbc336a2f	-0.010950609
238	0x3e07db75	0.1326731
239	0xbd73d77e	-0.05953168
240	0x3dcb4e7c	0.09927079
241	0xbd2f3050	-0.042770684
242	0xbdfa923a	-0.12234922
243	0xbcb65855	-0.022258917
244	0xbd1cc0f3	-0.03826995
245	0x3ce204cb	0.027590176
246	0x3dc9ae78	0.098477304
247	0xbc76a9bb	-0.015055115
248	0x3caec42c	0.021333776
249	0x3da04d99	0.078273006
250	0xbdb4ee23	-0.088344835
251	0x3e0bf4aa	0.1366755
252	0xbd93ae1b	-0.07210942
253	0xbd4af6d1	-0.04955179
254	0x3d8a40e8	0.06750661
255	0xbc465668	-0.012105562

layer1.conv1.bias f4 [30]
0	0xbd1e7345	-0.03868415
1	0xbd09f135	-0.0336773
2	0x3c6b6482	0.014367225
3	0xbd89a346	-0.06720595
4	0x3da1f628	0.07908279
5	0xbd42996c	-0.047509596
6	0xbcc20edf	-0.023688732
7	0xbc0b5347	-0.008503742
8	0x3c48adca	0.012248466
9	0x3ccc4b2d	0.02493819
10	0xbd8ae8f9	-0.06782717
11	0xbd8ea631	-0.06965292
12	0x3d4ab4c9	0.049488816
13	0xbcfe2c2f	-0.031026928
14	0xbc87b006	-0.016563427
15	0x3d6a6bc0	0.057231665
16	0x3d6d24fc	0.0578966
17	0x3c5df96f	0.013548239
18	0x3d9411a6	0.07229929
19	0xbb95a5ff	-0.0045669074
20	0xbd46a69b	-0.04849873
21	0x3d072329	0.032992516
22	0xbc4edb10	-0.012625471
23	0x3d38cc26	0.045116566
24	0x3cdcf2c7	0.026971234
25	0xbd2cb85c	-0.042168006
26	0x3d684264	0.05670394
27	0x3da2c42a	0.079475716
28	0x3c88e218	0.016709372
29	0x3c0ccdbf	0.008593976

layer1.bn1.weight f4 [30]
0	0x3f5d329e	0.8640536
1	0x3f6d22c0	0.9263115
2	0x3f8976d1	1.0739385
3	0x3f6edba4	0.93303895
4	0x3f87ab8e	1.0599229
5	0x3f615d20	0.8803272
6	0x3f6635a5	0.89925605
7	0x3f6bf7a4	0.92174745
8	0x3f779d4a	0.9672438
9	0x3f581938	0.8441348
10	0x3f7c161e	0.9847125
11	0x3f7ccdf8	0.98751783
12	0x3f7428df	0.95374864
13	0x3f62cd20	0.88594246
14	0x3f722aa5	0.9459632
15	0x3f89aefd	1.0756527
16	0x3f64a82d	0.89319116
17	0x3f74d31b	0.9563462
18	0x3f6f1256	0.93387353
19	0x3f8b3990	1.0876942
20	0x3f776f8c	0.9665458
21	0x3f85ee8f	1.0463427
22	0x3f69df20	0.91356087
23	0x3f7719fe	0.96524036
24	0x3f67ae7e	0.9050063
25	0x3f5d87fe	0.8653563
26	0x3f576364	0.84136033
27	0x3f8259a8	1.0183611
28	0x3f79df34	0.97606206
29	0x3f653a2f	0.89541906

layer1.bn1.bias f4 [30]
0	0x3df4c3e4	0.11951426
1	0x3e1e62d3	0.15467386
2	0x3e0d47ae	0.13796875
3	0xbabb2468	-0.0014277818
4	0xbd0e6d71	-0.03477234
5	0x3c9876d4	0.01861135
6	0xbcc4619e	-0.023972329
7	0xbdd6504d	-0.10464535
8	0xbe3d7954	-0.18503314
9	0xbd766ae0	-0.060160518
10	0x3c91d7fb	0.017803183
11	0xbd67234e	-0.056430154
12	0x3dc73146	0.09726195
13	0xbd81fe64	-0.06347349
14	0xbd6b2715	-0.05741032
15	0x3c7e5146	0.015522307
16	0xbd6c8daf	-0.057752308
17	0x3d987cc3	0.074456714
18	0x3d837bef	0.06420123
19	0x3e20769f	0.1567025
20	0x3db3dea6	0.08782701
21	0xbe162435	-0.1466225
22	0x3ddcbce3	0.10778215
23	0xbce735e8	-0.028223947
24	0xbd6bbf7c	-0.05755566
25	0x3d2517cc	0.040305898
26	0x3e0053ca	0.12531963
27	0x3db6ba97	0.08922308
28	0x3e07895f	0.13235997
29	0x3d7ba5b0	0.06143731

layer1.bn1.running_mean f4 [30]
0	0xbd22f6c3	-0.03978611
1	0xbcfb3f7b	-0.030669918
2	0x3c09a6c0	0.008401573
3	0xbd7bcfdd	-0.06147753
4	0x3da520a5	0.08062867
5	0xbd4cc4c3	-0.049992334
6	0xbcaddc3b	-0.021223178
7	0xbc02526e	-0.007954223
8	0x3c2b7a38	0.010466151
9	0x3cc756b1	0.02433333
10	0xbd8018ff	-0.062547676
11	0xbd8e0165	-0.0693386
12	0x3d4b83c5	0.049686212
13	0xbd04cbf3	-0.032421064
14	0xbc480187	-0.012207395
15	0x3d513085	0.051071662
16	0x3d6e1260	0.058122993
17	0x3c511d8e	0.012763394
18	0x3d98b11e	0.074556574
19	0xbc25279a	-0.0100802425
20	0xbd5e6264	-0.05429305
21	0x3d0610f1	0.032731
22	0xbc8f2320	-0.017472804
23	0x3d316be4	0.043315783
24	0x3cbfd934	0.023419
25	0xbd185237	-0.03718778
26	0x3d663f3d	0.056212652
27	0x3d95b329	0.07309563
28	0x3c512b6a	0.012766698
29	0x3b22f97c	0.0024867943

layer1.bn1.running_var f4 [30]
0	0x3eb8c07c	0.36084354
1	0x3e869537	0.26285717
2	0x3eb1a5f5	0.34696928
3	0x3fa20370	1.2657299
4	0x3ea2b35e	0.3177747
5	0x3e7df134	0.24799043
6	0x3f16a3f3	0.58843917
7	0x3e7a9836	0.24472126
8	0x3ee708f2	0.45124012
9	0x3e671ca7	0.22569524
10	0x3f56d488	0.83918047
11	0x3ee03a79	0.4379461
12	0x3e5acd5e	0.21367404
13	0x3efa99ee	0.48945564
14	0x3f078647	0.52939266
15	0x3f1fdeef	0.62449545
16	0x3ec014ad	0.37515774
17	0x3ecd82aa	0.4013875
18	0x3f1e8144	0.61915994
19	0x3f0e2bb8	0.5553546
20	0x3f0b8c99	0.5451141
21	0x3fbda714	1.4816613
22	0x3f0f72fc	0.5603483
23	0x3f068217	0.5254225
24	0x3f1a67c6	0.60314596
25	0x3f1dd598	0.61654043
26	0x3ee5c33e	0.4487552
27	0x3f1279a3	0.5721685
28	0x3e89177d	0.26775733
29	0x3f244995	0.6417478

layer2.conv1.weight f4 [30, 30, 5]
0	0xbc117453	-0.0088778315
1	0xbe09f8c9	-0.1347381
2	0xbdab3f26	-0.08361654
3	0xbd71ae38	-0.05900404
4	0xbdd6d80a	-0.10490425
5	0xbdf9c4c1	-0.12195731
6	0x3cfa4b6d	0.030553544
7	0x3d890bff	0.06691741
8	0xbd49f33e	-0.04930424
9	0xbc3ce475	-0.011529078
10	0xbc6471c7	-0.013943142
11	0xbaeb8c52	-0.0017970896
12	0xbdf357b8	-0.118819654
13	0xbdd7579c	-0.10514757
14	0xbde94c6a	-0.11391528
15	0x3b20e874	0.0024552615
16	0x3dc94781	0.098280914
17	0x3d2184eb	0.0394334
18	0xbd4e30ea	-0.050339617
19	0xbcf7902a	-0.03022011
20	0xbc492431	-0.012276695
21	0xbd0f4820	-0.034980893
22	0x3d931183	0.071810745
23	0xbdbceace	-0.09224473
24	0x3d905ad2	0.070485726
25	0xbd256e7b	-0.040388566
26	0xbd2b0090	-0.041748583
27	0x3d45cdec	0.048292086
28	0x3d48a4c5	0.04898526
29	0xbce259a7	-0.02763064
30	0xbe364869	-0.1780106
31	0x3ca6e158	0.020371124
32	0xbdab1832	-0.08354224
33	0x3c9156a8	0.017741516
34	0xbc810f58	-0.015754387
35	0xbcfc96ab	-0.030833563
36	0xbd571ef1	-0.052519742
37	0x3d3b79e2	0.045770533
38	0xbddbb811	-0.10728467
39	0xbd28cbce	-0.04120999
40	0xbd077baa	-0.03307692
41	0x3d07695b	0.03305946
42	0x3d425ae7	0.047449972
43	0x3e11cf15	0.14239152
44	0xbdfa656b	-0.12226375
45	0x3d90c67b	0.07069107
46	0xbc18d152	-0.00932725
47	0xbc7bd0f2	-0.015369641
48	0x3bca4047	0.0061722132
49	0xbdb46a22	-0.08809306
50	0xbde27c9c	-0.110589236
51	0x3de708e7	0.11280995
52	0x3d087833	0.033317756
53	0x3d08d155	0.03340276
54	0xbd652acc	-0.055949017
55	0xbd89d6ce	-0.06730424
56	0xbd9382fa	-0.07202716
57	0x3ccbad3c	0.024862878
58	0xbb866af6	-0.004102106
59	0xbd9c9244	-0.076450855
60	0x3cbca44e	0.023027565
61	0xba0ba7d1	-0.0005327436
62	0x3d2cea6d	0.042215753
63	0xbcf6c39d	-0.030122573
64	0x3c52d60e	0.012868417
65	0xbdc20765	-0.09474067
66	0xbcc75f1b	-0.024337342
67	0xbe0acb22	-0.13554052
68	0xbd02c8ba	-0.03192971
69	0x3b0f05b5	0.002182347
70	0x3d0c0ace	0.03418999
71	0xbd26d18a	-0.040727176
72	0xbd5ef139	-0.054429267
73	0xbd563460	-0.052296042
74	0x3d28347f	0.04106569
75	0x3d2eb7db	0.042655807
76	0x3e27d02d	0.16388007
77	0x3b4e2169	0.003145302
78	0x3e2eeaf9	0.17081822
79	0xbdfe6fe3	-0.124236844
80	0x3c5d3b7e	0.013502954
81	0xbde26f68	-0.11056405
82	0xbdbbd4c4	-0.09171441
83	0xbd12d088	-0.035843402
84	0xbd601643	-0.05470873
85	0xbd875680	-0.066082954
86	0xbdc30ec5	-0.095243014
87	0xbc90aeef	-0.01766154
88	0xbd255c7c	-0.040371403
89	0xbcd8e167	-0.026474668
90	0x3d3fd2d6	0.04683193
91	0xbd4d5770	-0.050132215
92	0x3da8578a	0.08219822
93	0xbcec791e	-0.028866347
94	0xbe1b357c	-0.15157121
95	0x3d8c0dec	0.06838593
96	0xbcd8705c	-0.026420765
97	0xbc818517	-0.015810532
98	0x3b9c4eaa	0.0047701197
99	0xbdb8928a	-0.09012325
100	0xbc1db30b	-0.009625207
101	0xbca0e223	-0.01963908
102	0xbd489cf2	-0.0489778
103	0x3e260d04	0.16215903
104	0x3d43483e	0.047676317
105	0xbbed3eb2	-0.00724014
106	0xbdcf5ab8	-0.10124725
107	0x3c24aabe	0.010050474
108	0xbb34037e	-0.0027467902
109	0xbd788bec	-0.060680315
110	0x3d90c1f7	0.07068246
111	0x3e3a5f23	0.18200354
112	0x3d544489	0.051823173
113	0xbdfbae0a	-0.12289055
114	0x3de02a5d	0.1094558
115	0x3c8bf5d1	0.017084988
116	0xbe0c1bfb	-0.13682549
117	0xbca2e455	-0.019884268
118	0x3da430f9	0.08017153
119	0xbe01bf7a	-0.12670699
120	0xbd82fd6e	-0.06395994
121	0x3d46e59a	0.04855881
122	0xbc9d565b	-0.019206217
123	0x3d25b12f	0.04045218
124	0x3b13e373	0.002256599
125	0xbddcf48d	-0.10788832
126	0x3da42e8d	0.08016691
127	0xbbff11c4	-0.0077841002
128	0x3d813607	0.06309133
129	0x3d77fa5c	0.060541496
130	0xbe2a90ce	-0.16656801
131	0x3cc59238	0.024117574
132	0x3bf57a34	0.0074913744
133	0xbd9d94e4	-0.07694414
134	0x3baa5a40	0.005198747
135	0x3c0eed38	0.00872355
136	0x3db0562a	0.086101845
137	0x3dcdf32d	0.10056148
138	0xbd34ac89	-0.044109855
139	0x3cf9a4fc	0.030474178
140	0xbd4d2291	-0.050081793
141	0xbe1fddc2	-0.15611938
142	0xbc5c6564	-0.013451908
143	0x3dbd12d3	0.09232106
144	0xbdc2bfbf	-0.09509229
145	0x3d736001	0.05941773
146	0x3d80e8c8	0.062943995
147	0x3e0e4f27	0.13897382
148	0x3cf2a1a2	0.029618088
149	0xbe0c4b13	-0.13700514
150	0xbd295315	-0.041339
151	0x3d4ba4f2	0.04971785
152	0xbcefea71	-0.029286595
153	0x3d4e18bb	0.050316554
154	0x3dbbd4ef	0.09171473
155	0x3dc8e8bf	0.09810018
156	0x3c01ad3a	0.007914836
157	0xbdb14f1a	-0.086576656
158	0xbccc6dda	-0.024954725
159	0xbd7036bd	-0.058645952
160	0xbdfb8e28	-0.122829735
161	0xbd66f2d7	-0.056383934
162	0xbd7c08b5	-0.06153174
163	0xbdd00e44	-0.10158971
164	0x3de24822	0.110489145
165	0xbc32c422	-0.0109110195
166	0x3df216b1	0.11820734
167	0xbdaebaf4	-0.08531752
168	0x3c1424ea	0.009042004
169	0x3d1bebc8	0.038066655
170	0xbdb84bb0	-0.08998811
171	0x3d427d50	0.04748279
172	0xbcd28f15	-0.025702992
173	0xbdaf9843	-0.085739635
174	0xbdb48ef5	-0.088163294
175	0x3d9c00c6	0.07617335
176	0x3d5fbed1	0.054625336
177	0x3cb1f8fb	0.021725168
178	0x3dab06d3	0.08350911
179	0xbdf49c71	-0.11943901
180	0xbd8da8e9	-0.06916983
181	0x3cee6d8e	0.029104974
182	0x3da1967b	0.0789003
183	0x3c3022d9	0.010750496
184	0xbce8ce1f	-0.028418599
185	0xbc2ce728	-0.010553159
186	0x3b81422e	0.003944657
187	0xbdf5e27e	-0.120060906
188	0x3db1b59e	0.08677219
189	0xbc8f2f91	-0.017478736
190	0xbd8ef3c7	-0.069800906
191	0xbdb1db99	-0.08684463
192	0xbcd43d20	-0.025908053
193	0xbd0c4fe4	-0.034255877
194	0x3cd75f3e	0.026290532
195	0x3d920b35	0.07131044
196	0x3c0f6555	0.008752187
197	0x3d74d935	0.059777457
198	0xbc298fae	-0.010349197
199	0x3cab1b0a	0.020886917
200	0xbcd22b6d	-0.025655473
201	0xbe201d21	-0.15636112
202	0x3cc1b9f6	0.023648243
203	0xbaabf8ce	-0.0013120414
204	0xbd09ac90	-0.033611834
205	0x3c4aabb5	0.01237004
206	0x3d419921	0.047265176
207	0xbd9fecf2	-0.078088656
208	0x3a9f5529	0.0012156117
209	0xbd105b7a	-0.03524349
210	0x3e0d9743	0.13827233
211	0xbc1538be	-0.009107767
212	0x3b9b666c	0.0047424342
213	0xbbd1439c	-0.0063862335
214	0x3c8913e5	0.01673312
215	0x3c38d56f	0.011281355
216	0xbd903cd3	-0.07042851
217	0x3d985c7f	0.07439517
218	0xbd4a9fb6	-0.04946872
219	0xbcd86d80	-0.026419401
220	0x3d0bf508	0.034169227
221	0x3d33277c	0.043738827
222	0xbcc453f8	-0.02396582
223	0xbdff04f1	-0.124521144
224	0xbdbbf4aa	-0.09177525
225	0xbcf0bac2	-0.029385928
226	0xbe821f51	-0.25414518
227	0xbcc0026a	-0.023438651
228	0x3d56c0b6	0.052429877
229	0xbd799547	-0.060933378
230	0xbc9f962a	-0.019480783
231	0x3d9ea830	0.07746923
232	0x3d01ada8	0.031659752
233	0x3e2387ac	0.15969723
234	0xbb82e91d	-0.0039950744
235	0xbd60b741	-0.054862265
236	0x3c4f8164	0.0126651265
237	0x3d633ead	0.055479694
238	0x3d67fcaf	0.056637462
239	0x3d64b5d7	0.05583748
240	0x3db53eec	0.08849892
241	0x3c5d37f3	0.013502109
242	0xbe0f5838	-0.13998497
243	0xbc9d1f28	-0.019179896
244	0xbdd0e295	-0.10199467
245	0xbc72d790	-0.014821902
246	0xbe412052	-0.18859985
247	0xbdd593e7	-0.10428601
248	0xbdb977e5	-0.09056071
249	0xbd29471d	-0.041327585
250	0xbe2fc500	-0.17164993
251	0xbd0e8b69	-0.03480092
252	0xbca1e2c5	-0.019761452
253	0x3d433bb0	0.047664344
254	0xbd398456	-0.04529222
255	0xbc8a574c	-0.01688733

layer2.conv1.bias f4 [30]
0	0x3cdfdcd6	0.027326982
1	0xbd8c840d	-0.06861124
2	0x3d7f724b	0.062364858
3	0xbca3c2a2	-0.01999027
4	0x3caa3b00	0.020780087
5	0xbd9e52ac	-0.07730612
6	0xbd940bdd	-0.07228825
7	0xbd06fe37	-0.032957282
8	0xbda0c8f6	-0.0785083
9	0x3c9c1223	0.019051617
10	0xbd59dc2a	-0.05318848
11	0xbd78ec5f	-0.060772296
12	0x3c265f71	0.010154591
13	0xbd9909ad	-0.07472549
14	0x3ca4485e	0.020054039
15	0xbd87482c	-0.066055626
16	0x3d9c90dc	0.07644817
17	0xbda04eac	-0.078275055
18	0x3d8500a5	0.064942636
19	0xbd0c041a	-0.0341836
20	0xbc9b0016	-0.01892094
21	0x3d899f78	0.067198694
22	0x3adbe62d	0.0016776972
23	0xbc4a3389	-0.0123413885
24	0x3c944f0e	0.018104102
25	0x3c2f03e5	0.010682081
26	0x3d279712	0.040915556
27	0x3cef7476	0.029230338
28	0xbced1345	-0.028939852
29	0xbd14dc58	-0.03634295

layer2.bn1.weight f4 [30]
0	0x3f8635aa	1.0485127
1	0x3f8fb861	1.1228143
2	0x3f95e839	1.1711494
3	0x3f925099	1.1430846
4	0x3f8006b9	1.0002052
5	0x3f7ddb7b	0.99163026
6	0x3f791369	0.9729524
7	0x3f81d48f	1.0142993
8	0x3f8cede0	1.1010094
9	0x3f8c407d	1.095718
10	0x3f87f749	1.062234
11	0x3f8ba49a	1.0909607
12	0x3f949684	1.1608434
13	0x3f8bbf71	1.0917798
14	0x3f84795d	1.0349537
15	0x3f9adbc0	1.2098312
16	0x3f95ac07	1.1693124
17	0x3f92de5a	1.1474106
18	0x3f8976ba	1.0739357
19	0x3f91f70a	1.1403515
20	0x3f90f07f	1.1323394
21	0x3f7fe686	0.99961126
22	0x3f78f815	0.97253543
23	0x3f6bb027	0.9206566
24	0x3f869585	1.051438
25	0x3f857875	1.0427386
26	0x3f904ee6	1.1274078
27	0x3f8402fb	1.031341
28	0x3f707660	0.93930626
29	0x3f787370	0.97051144

layer2.bn1.bias f4 [30]
0	0xbd7adbf3	-0.061244916
1	0xbd052d47	-0.032513883
2	0x3d16c1d4	0.036805943
3	0xbda90723	-0.08253314
4	0xbe1022e5	-0.14075811
5	0x3d7ef744	0.06224753
6	0xbc2f3eed	-0.010696155
7	0xbe288714	-0.16457778
8	0xbe4ffbf4	-0.20310956
9	0xbd439494	-0.047749117
10	0xbcb805ae	-0.022463646
11	0xbdaf7020	-0.08566308
12	0x3c9ba416	0.01899914
13	0xbde81750	-0.113325715
14	0xbbe4b3f1	-0.0069794585
15	0xbe017053	-0.12640505
16	0xbe7429f0	-0.23844123
17	0xbe42e3d1	-0.19032218
18	0xbe0940db	-0.13403647
19	0xbe5beb01	-0.21476366
20	0xbdd5829b	-0.10425302
21	0xbc2fa564	-0.010720585
22	0xbd20133f	-0.039080855
23	0xbe3b70ad	-0.18304701
24	0xbe14e7c5	-0.14541538
25	0x3d4021f3	0.046907376
26	0xbb8b8e0b	-0.004258876
27	0xbd8d18df	-0.068895094
28	0x3d9a3110	0.07528889
29	0xbde6326b	-0.11240085

layer2.bn1.running_mean f4 [30]
0	0xbecb1e1a	-0.39671403
1	0xbf1bb734	-0.6082642
2	0xbe692d33	-0.22771148
3	0xbf15e3e7	-0.58550876
4	0xbe74a7e9	-0.23892178
5	0xbda979b3	-0.082751654
6	0xbe447304	-0.191845
7	0x3e016c9f	0.12639092
8	0xbe03cdf9	-0.12871541
9	0xbe130774	-0.14358312
10	0xbe22717b	-0.15863602
11	0xbf0d303a	-0.5515171
12	0xbf0e7d0a	-0.55659544
13	0xbf12b95d	-0.5731409
14	0xbdcdf130	-0.100557685
15	0xbf04dc43	-0.5189859
16	0xbf0134e5	-0.50471336
17	0xbf39a027	-0.7251
18	0xbee65d2b	-0.44992957
19	0xbf10bb59	-0.5653587
20	0xbf39389e	-0.72352016
21	0xbe345bc0	-0.17613125
22	0x3d3c6a76	0.045999967
23	0x3d18a43d	0.037266005
24	0x3c76771f	0.015043049
25	0xbee1f813	-0.44134578
26	0xbe8d1974	-0.27558482
27	0xbeed0e2f	-0.46299884
28	0xbf2b5e9f	-0.66941255
29	0xbe6893c0	-0.22712612

layer2.bn1.running_var f4 [30]
0	0x3f091509	0.5354772
1	0x3efe3581	0.49650195
2	0x3f6c4c91	0.9230433
3	0x3f5eebde	0.87078655
4	0x3f048942	0.5177194
5	0x3f73b41f	0.9519672
6	0x3f348d8f	0.705285
7	0x3eca2681	0.394825
8	0x3f7961bb	0.9741475
9	0x3f43ee6c	0.7653568
10	0x3f31b188	0.69411516
11	0x3f243916	0.64149606
12	0x3f102e10	0.56320286
13	0x3f26cf44	0.6516001
14	0x3e71ea8e	0.23624632
15	0x3ef402b9	0.47658327
16	0x3ed5e4f4	0.4177624
17	0x3ee920c8	0.45532823
18	0x3ff226ad	1.8918053
19	0x3f07ea43	0.5309183
20	0x400f0a52	2.235005
21	0x3f2248a4	0.6339209
22	0x3f05fae4	0.52335954
23	0x3f314d69	0.69258744
24	0x3f0932c3	0.5359308
25	0x3f362868	0.71155405
26	0x3f606731	0.8765746
27	0x3fc38cc6	1.5277336
28	0x3fe571ff	1.7925414
29	0x3f05b862	0.5223447

conv1.weight f4 [30, 30, 5]
0	0xbd20538c	-0.039142177
1	0x3dfa23e9	0.122138806
2	0x3a206d70	0.0006119823
3	0xbda7b170	-0.081881404
4	0x3c981641	0.018565299
5	0x3d33ad5c	0.0438665
6	0xbd14a7c2	-0.0362928
7	0xbd09630f	-0.033541735
8	0x3c49c14a	0.01231415
9	0x3dc0dec8	0.09417492
10	0xbe23b3cb	-0.15986554
11	0xbd882335	-0.0664734
12	0x3ca7e4ca	0.020494837
13	0x3cbb3b67	0.022855474
14	0xbbbd8ada	-0.0057843747
15	0x3da17d6b	0.0788525
16	0x3d953e37	0.07287257
17	0x3df479f0	0.1193732
18	0xbd44c410	-0.048038542
19	0xbd9c5305	-0.07633022
20	0xbc092a72	-0.008371936
21	0x3d0a1c59	0.03371844
22	0x3d9697a1	0.0735314
23	0x3dabdbd4	0.08391538
24	0x3d79f47f	0.061024185
25	0xbe34469a	-0.17605057
26	0xbd74b063	-0.059738528
27	0xbd331d5b	-0.043729167
28	0x3e05a271	0.13050248
29	0x3cfe257e	0.031023737
30	0xbc82226d	-0.015885556
31	0x3de60289	0.11230952
32	0xbdd2ffe5	-0.10302714
33	0x3aebef3e	0.0018000377
34	0xbd952b00	-0.07283592
35	0x3d8a8e82	0.067654625
36	0x3d7f7585	0.062367935
37	0x3cf9199c	0.03040772
38	0x3d81ca0e	0.06337367
39	0x3d0f15bb	0.034932833
40	0xbd881936	-0.066454336
41	0xbd41e8b9	-0.047341082
42	0x3c01a46e	0.007912738
43	0xbc48a5d7	-0.012246571
44	0xbde56481	-0.1120081
45	0x3d096bc2	0.03355003
46	0x3d44ee81	0.048079018
47	0x3c9c404d	0.01907363
48	0x3d0ccf4b	0.034377377
49	0xbd035e3a	-0.032072283
50	0x3e0adc65	0.13560636
51	0xbd932c76	-0.071862146
52	0xbd7e07c8	-0.06201914
53	0xbc49f863	-0.012327286
54	0x3dc9c327	0.098516755
55	0xbd8051b2	-0.06265582
56	0x3dbc37fc	0.09190366
57	0x3e4cc191	0.19995715
58	0x3b7aed46	0.0038288399
59	0xbd8246ad	-0.063611366
60	0xbd30a14e	-0.043122582
61	0x3e06bdde	0.13158366
62	0x3e064625	0.13112696
63	0xbce64bf6	-0.028112393
64	0xbdab2aef	-0.08357798
65	0x3c94cc00	0.018163681
66	0x3dc7c6d8	0.09754723
67	0x3da11dd4	0.078670174
68	0xbd2302ae	-0.039797477
69	0xbc3915b2	-0.0112966765
70	0x3d81c7f5	0.06336967
71	0xba822dbc	-0.0009931843
72	0x3de90ea9	0.11379749
73	0x3d4f7947	0.05065277
74	0x3cc9b0e7	0.024620486
75	0x3df7ad96	0.12093656
76	0x3de03d31	0.10949171
77	0xbd54d86f	-0.05196422
78	0x3d521ff6	0.05130001
79	0x3d05c498	0.03265819
80	0x3cff273a	0.031146634
81	0x3cc43cb0	0.02395472
82	0x3c2389b7	0.009981564
83	0x3d46ccbd	0.048535097
84	0xbc82a52c	-0.0159479
85	0x3c87db2c	0.016584001
86	0x3dd22baa	0.102622345
87	0x3d48df02	0.0490408
88	0xbd40cf61	-0.047072772
89	0x3d36dfda	0.044647075
90	0x3dd5fbd0	0.1044842
91	0xbd5b212e	-0.05349844
92	0x3d927d79	0.07152838
93	0xbd69317f	-0.05693197
94	0x3cfb06a5	0.030642817
95	0xbd188a60	-0.03724134
96	0x3e0ef132	0.13959196
97	0x3dede94c	0.116167635
98	0x3c496462	0.0122919995
99	0xbc920894	-0.017826356
100	0xbcd97ce7	-0.026548816
101	0xbdcec537	-0.100962095
102	0xbe1c0015	-0.15234406
103	0xbd84c796	-0.064833805
104	0xbc862afb	-0.016377917
105	0x3cedb8e7	0.029018832
106	0xbdd1117b	-0.10208412
107	0x3d81d698	0.06339759
108	0xbc4d417a	-0.012527818
109	0xbde3d294	-0.11124149
110	0x3b967821	0.004591957
111	0x3d95df97	0.07318037
112	0xbda4ef51	-0.080534585
113	0xbd979505	-0.0740147
114	0x3d741c40	0.059597254
115	0x3b0811e6	0.0020762621
116	0x3d2a2bb9	0.041545603
117	0x3d733684	0.059378162
118	0xbd3966c3	-0.045264017
119	0xbcab00b3	-0.020874357
120	0x3d942025	0.072326936
121	0x3dbfe749	0.09370286
122	0x3c7aec5a	0.01531514
123	0x3d083cc8	0.03326109
124	0x3d62ef3d	0.055403937
125	0xbd744c68	-0.05964318
126	0x3e28ead1	0.16495825
127	0x3cad5663	0.021159356
128	0xbcdd919e	-0.027046975
129	0xbcea1f24	-0.028579302
130	0xba8b02d6	-0.0010605704
131	0xbc264d63	-0.010150286
132	0xbce84a31	-0.02835569
133	0xbd9610c5	-0.07327417
134	0x3d79009a	0.06079159
135	0xbdbe88cf	-0.09303438
136	0xbb30f9d0	-0.0027004369
137	0xbc8743c1	-0.0165118
138	0xbc857ab6	-0.016293865
139	0x3c9b2272	0.018937323
140	0xbd7485ac	-0.059697792
141	0x3c833b3d	0.016019458
142	0xbdd9f82d	-0.10643039
143	0xbceb8fa2	-0.028755013
144	0xbd7d0250	-0.061769783
145	0x3d824d9b	0.06362458
146	0x3d8482e8	0.06470281
147	0x3d66ff8a	0.056396045
148	0xbd56e6c4	-0.05246617
149	0xbd3e9418	-0.046527952
150	0xbd976e76	-0.073941156
151	0x3e3a8fb0	0.18218875
152	0x3bdd4bff	0.006753444
153	0xbdc29d94	-0.09502712
154	0xbc7cf67b	-0.015439625
155	0xbc0fc822	-0.008775743
156	0xbd031a84	-0.03200771
157	0xbc52624c	-0.012840819
158	0x3ca9e1db	0.02073758
159	0x3ddee800	0.10884094
160	0xbe1d4d57	-0.15361534
161	0xbd890aac	-0.066914886
162	0xbcc85db7	-0.02445875
163	0x3d6a2346	0.057162546
164	0xbd397a6b	-0.045282762
165	0x3d628c72	0.05530972
166	0x3e062ab6	0.1310223
167	0x3da4f09a	0.080537036
168	0xbd2081fc	-0.039186463
169	0xbd9903a3	-0.07471397
170	0x3d1db795	0.038505156
171	0x3cbcaac1	0.02303064
172	0x3de9a643	0.11408665
173	0x3dd72e12	0.10506834
174	0x3d8f2fdf	0.069915526
175	0xbe1f35fc	-0.15547937
176	0xbdf73f57	-0.12072628
177	0x3d905cdf	0.07048964
178	0x3dc51753	0.09623589
179	0x3cadbb8f	0.021207599
180	0x3c391d08	0.0112984255
181	0x3d8bef13	0.06832709
182	0xbdcaaf9c	-0.09896776
183	0x3b48a169	0.0030613786
184	0xbd94182c	-0.07231173
185	0x3e12bc8f	0.14329742
186	0xbd0dd50d	-0.03462701
187	0x3dc54976	0.09633152
188	0x3cd20d86	0.025641214
189	0x3d598d89	0.053113494
190	0xbca16572	-0.019701693
191	0xbd6d1e02	-0.057889946
192	0xbd0bb628	-0.034109265
193	0xbce03c39	-0.027372466
194	0xbd81f1bc	-0.06344935
195	0x3d2be42d	0.041965652
196	0x3d12f6cd	0.0358799
197	0x3d732f4f	0.05937129
198	0xba67c91f	-0.000884192
199	0x3ca06b43	0.019582396
200	0x3deb3382	0.11484434
201	0x3c212095	0.009834428
202	0xbdaa5e48	-0.08318764
203	0x3cdbc475	0.026827076
204	0x3d7efbf8	0.062252015
205	0xbd8ef221	-0.06979776
206	0x3da4a425	0.080391206
207	0x3e1bc6d6	0.15212569
208	0x3d5a9f13	0.05337436
209	0xbd218854	-0.039436653
210	0xbd414720	-0.04718697
211	0x3e116e5b	0.14202254
212	0x3e0d0ecd	0.13775177
213	0xbcdad1b8	-0.02671133
214	0xbd3c12e7	-0.045916464
215	0x3d345bfd	0.04403304
216	0x3db04dd3	0.08608594
217	0x3d669b5b	0.056300502
218	0x3bdc2eed	0.006719461
219	0xbc095455	-0.008381923
220	0x3d82db24	0.06389454
221	0x3ca8d4c3	0.020609265
222	0x3dc93a5a	0.09825583
223	0x3d91a449	0.07111413
224	0x3d65052f	0.055913147
225	0x3e103a53	0.14084749
226	0x3e08440f	0.13307212
227	0xbdacd8be	-0.08439778
228	0x3c23d95f	0.010000556
229	0x3d7c67df	0.061622497
230	0x3d58d02b	0.0529329
231	0x3cf52bf2	0.029928181
232	0x3d58c714	0.05292423
233	0x3b7f7226	0.003897795
234	0x3a723927	0.0009240084
235	0xbc208606	-0.009797579
236	0x3d9d25fc	0.076732606
237	0x3db97a08	0.09056479
238	0xbd8b58ca	-0.068040445
239	0x3d16b888	0.036797076
240	0x3d8ea652	0.06965317
241	0xba3b6b93	-0.00071495137
242	0x3d7433d2	0.059619732
243	0xbcc95ba2	-0.024579827
244	0x3c14e948	0.009088822
245	0xbd010106	-0.031495117
246	0x3e20c406	0.15699777
247	0x3d579964	0.05263652
248	0x3d17b0fb	0.037034016
249	0xbd3f771e	-0.04674446
250	0xbd7a2a90	-0.061075747
251	0xbe17e309	-0.14832701
252	0xbdff6adb	-0.12471553
253	0xbd9788a0	-0.07399106
254	0xbd0d6f9d	-0.03453027
255	0xbd0dda5f	-0.034632083

conv1.bias f4 [30]
0	0x3d49b80e	0.049247794
1	0xbb296950	-0.0025850125
2	0x3b2cc01f	0.002635963
3	0x3d94a6dd	0.07258389
4	0x39d8c0ce	0.0004134238
5	0xbd727133	-0.059189986
6	0x3cd84200	0.026398659
7	0x3b8088c6	0.0039225547
8	0xbd53b32f	-0.051684555
9	0xbd34b31e	-0.044116132
10	0x3b19292d	0.002337049
11	0x3d358852	0.04431946
12	0x3d118c78	0.035534352
13	0x3d8ba4ff	0.0681858
14	0xbcb24308	-0.021760479
15	0xbce67d4a	-0.028135914
16	0x3ba8f0e6	0.0051556705
17	0x3cc3a20c	0.02388098
18	0x3caf219f	0.021378336
19	0xbd66ab31	-0.056315605
20	0x3d208a44	0.03919436
21	0xbd298017	-0.04138192
22	0xbd3fd104	-0.046830192
23	0xbccd3f32	-0.025054548
24	0x3d8395ae	0.064250335
25	0xbcf34109	-0.029694097
26	0xbcd7478c	-0.026279233
27	0xbca27988	-0.019833341
28	0x3d8eb093	0.069672726
29	0xbd456dab	-0.04820029

bn1.weight f4 [30]
0	0x3f7af438	0.980289
1	0x3f817c3c	1.0116038
2	0x3f85278b	1.0402693
3	0x3f835827	1.0261277
4	0x3f86d120	1.053257
5	0x3f86e84d	1.0539643
6	0x3f8517d2	1.0397894
7	0x3f84fafd	1.0389096
8	0x3f851cad	1.0399376
9	0x3f860cf0	1.0472698
10	0x3f8422d2	1.0323126
11	0x3f7d7c14	0.99017453
12	0x3f81569f	1.010456
13	0x3f833613	1.0250877
14	0x3f824f15	1.0180384
15	0x3f800c49	1.0003749
16	0x3f80a592	1.0050528
17	0x3f778378	0.9668498
18	0x3f786750	0.9703264
19	0x3f79a9f4	0.9752495
20	0x3f7a70ab	0.9782817
21	0x3f775de2	0.9662763
22	0x3f7ab915	0.9793866
23	0x3f7d8672	0.9903327
24	0x3f7ceb66	0.9879669
25	0x3f74bdbb	0.95602006
26	0x3f76f209	0.96463066
27	0x3f749c74	0.9555123
28	0x3f7c2637	0.9849581
29	0x3f7b23d4	0.98101544

bn1.bias f4 [30]
0	0xbd29931c	-0.04140006
1	0xbc9ce779	-0.019153344
2	0x3ad26100	0.0016050637
3	0x3b8aa237	0.0042307633
4	0x3b53d39e	0.0032322179
5	0x3bf87b3b	0.0075830496
6	0x3ab72251	0.0013972019
7	0x3bcffec1	0.0063475077
8	0x3c85ad28	0.016317919
9	0x3b953418	0.004553329
10	0x3c60aeeb	0.013713579
11	0xbb82822a	-0.003982802
12	0xbbcd23e9	-0.0062603843
13	0xbc0618d2	-0.008184629
14	0xbc7af454	-0.015317041
15	0xbc8e9c9d	-0.017408663
16	0xbc404909	-0.011736163
17	0x3b199214	0.0023433017
18	0xba755f77	-0.00093602337
19	0x3bce9001	0.0063037877
20	0xbbaa2a8d	-0.0051930607
21	0xbbe45f4f	-0.0069693695
22	0x3c29ec1b	0.010371233
23	0x3bd3bb0f	0.006461508
24	0xbb36a82f	-0.0027871241
25	0x3a23f604	0.0006254616
26	0xbb9b950b	-0.004747992
27	0x3c47967c	0.012181874
28	0x3cb57ee5	0.022155235
29	0x3ce02731	0.027362438

bn1.running_mean f4 [30]
0	0x3f1c8781	0.6114426
1	0x3f18dbf8	0.59710646
2	0x3f27bbf4	0.6552117
3	0x3f323a91	0.69620615
4	0x3f2d1cf8	0.6762233
5	0x3f19d7dd	0.60095006
6	0x3f473783	0.7781908
7	0x3f47f468	0.7810731
8	0x3f2f7ff0	0.6855459
9	0x3f226fdb	0.6345193
10	0x3f1a6a0f	0.6031808
11	0x3f3ba36e	0.7329625
12	0x3f4a65d8	0.7906165
13	0x3f4d1761	0.801138
14	0x3f2cc654	0.67490125
15	0x3f4100f4	0.7539208
16	0x3f4aeffa	0.79272425
17	0x3f461f9a	0.7739197
18	0x3f435a5d	0.7630976
19	0x3f300f5e	0.6877345
20	0x3f759ee1	0.95945555
21	0x3f533624	0.8250449
22	0x3f4bbea7	0.7958779
23	0x3f55866c	0.83408237
24	0x3f5c587c	0.86072516
25	0x3f51bc4f	0.8192796
26	0x3f4c7f5c	0.79881835
27	0x3f450875	0.7696603
28	0x3f3a347c	0.72736335
29	0x3f2d1e34	0.6762421

bn1.running_var f4 [30]
0	0x4021f4f3	2.5305755
1	0x40409ea8	3.0096836
2	0x403ef6c1	2.9838107
3	0x402a7167	2.6631715
4	0x40357f3a	2.8358903
5	0x403ec8ad	2.9809983
6	0x403d3925	2.9566128
7	0x40405ec7	3.0057847
8	0x4035c26c	2.8399916
9	0x403b1bee	2.9235797
10	0x40174810	2.3637733
11	0x40232191	2.5489237
12	0x402d2529	2.705393
13	0x4022c911	2.5435221
14	0x40127824	2.2885828
15	0x40282bac	2.6276655
16	0x40178a59	2.367819
17	0x400cc4e5	2.1995175
18	0x400462f6	2.06854
19	0x400d31e0	2.2061691
20	0x4016884a	2.3520684
21	0x4015ae2d	2.3387558
22	0x40148efa	2.3212266
23	0x4019e3b7	2.4045236
24	0x401149e7	2.2701356
25	0x401c013b	2.437575
26	0x401f45c3	2.488633
27	0x400b84c1	2.1799777
28	0x3f98a79d	1.1926152
29	0x3fe856e3	1.8151516

dense_1.dense.weight f4 [256, 512]
0	0x3c301237	0.01074653
1	0x3d29fb71	0.04149956
2	0x3dd8ad77	0.10579961
3	0x3b88406a	0.0041580694
4	0xbdf67a24	-0.12035015
5	0xbd0a23e7	-0.033725645
6	0x3dbdfbb7	0.092765264
7	0xbb836496	-0.0040097935
8	0xbdc1bc1b	-0.094597064
9	0x3b36af01	0.0027875307
10	0xbd55cfeb	-0.05220024
11	0xbac148dc	-0.0014746445
12	0xbd6aa9c9	-0.057290826
13	0xbdc35cb8	-0.09539169
14	0x3b044ac1	0.0020186158
15	0x3cd5f453	0.02611748
16	0x3dbf3b58	0.09337491
17	0xbd22d931	-0.03975791
18	0xbdb3095b	-0.08742019
19	0x3cc89a1e	0.024487551
20	0x3d1bb2fe	0.038012497
21	0xbd65ee16	-0.05613526
22	0xbd4a7764	-0.049430266
23	0xbd3560a8	-0.04428163
24	0x3ab42401	0.001374364
25	0xbd4e081d	-0.050300706
26	0xbccd5087	-0.025062812
27	0x3c5eb339	0.013592535
28	0xbc5f4f33	-0.013629722
29	0xbc9774c8	-0.018488303
30	0x3cc64086	0.024200689
31	0xbd121604	-0.035665527
32	0xbc979e0d	-0.018507982
33	0x3da19c7c	0.07891175
34	0x3dc9baab	0.09850057
35	0x3d38752a	0.04503361
36	0x3ddb58e4	0.10710314
37	0x3bc4cc7f	0.006005823
38	0xbd3702f5	-0.044680554
39	0x3d8ef662	0.069805875
40	0x3d1c7374	0.038196042
41	0x3d413438	0.04716894
42	0x3d133682	0.035940655
43	0xbdf4acbb	-0.11947008
44	0xbd813467	-0.06308823
45	0xbdbb1152	-0.09134163
46	0xbcd3cb9c	-0.025853924
47	0x3d4efa7d	0.050531853
48	0xbc5815d1	-0.013188795
49	0x3db3a840	0.087723255
50	0x3d8ec9ce	0.06972085
51	0xbd28f69c	-0.04125081
52	0xbe1819fd	-0.14853664
53	0x3d37a09b	0.0448309
54	0xbb936840	-0.0044985116
55	0x3d296b6a	0.041362204
56	0x3ddbb38b	0.107276045
57	0xbc8caff1	-0.01717374
58	0x3a418b57	0.0007383129
59	0x3e101872	0.14071825
60	0x3c8ec754	0.017429031
61	0xbc4baf89	-0.012431988
62	0x3bea69a2	0.0071537057
63	0xbd8a8412	-0.06763472
64	0xbd06cfaa	-0.032912888
65	0xbb128183	-0.0022355027
66	0xbd806b10	-0.062704206
67	0xbcabaa06	-0.020955097
68	0x3d6fa60a	0.058507957
69	0x3d32d322	0.043658383
70	0xbd27e7ca	-0.040992536
71	0xbcb28503	-0.02179194
72	0xbdf98355	-0.12183253
73	0x3d28c73d	0.041205633
74	0x3cb8c518	0.02255492
75	0x3c27477f	0.010209917
76	0x3d1a20ab	0.03762881
77	0xbcb44729	-0.022006588
78	0xbd9f3255	-0.07773272
79	0xbc78036a	-0.015137533
80	0xbd9e7652	-0.077374116
81	0xbd0cb933	-0.034356307
82	0x3c7bf18a	0.015377412
83	0xbd9d489c	-0.07679865
84	0xbd0322f6	-0.032015763
85	0xbd74e7e4	-0.05979146
86	0xbd24e8a9	-0.040260945
87	0x3dbdd469	0.0926903
88	0x3de7d256	0.11319415
89	0x3d7f7e4d	0.06237631
90	0x3da50617	0.08057802
91	0xbd1041a5	-0.035218854
92	0x3cf48042	0.029846314
93	0x3de7ff77	0.11328023
94	0x3d427cd5	0.04748233
95	0xbdaeb232	-0.08530082
96	0x3d90730d	0.07053194
97	0x3d9a72e8	0.07541448
98	0x3d1c3827	0.03813949
99	0xbd9a187b	-0.075242005
100	0xbe0534a6	-0.13008365
101	0xbbaf2207	-0.0053446325
102	0xbc4fb558	-0.012677513
103	0x3d41f39a	0.047351457
104	0xbd144c1b	-0.036205392
105	0xbd18992a	-0.037255444
106	0x3ca2c620	0.019869864
107	0x3bfc9f53	0.0077094226
108	0x3dbd48e0	0.092424154
109	0x3d77ec52	0.060528107
110	0xbc80cfeb	-0.015724143
111	0x3d7e4662	0.06207884
112	0x3cbf372a	0.023341734
113	0xbd87fd4e	-0.06640111
114	0xbd8e6fce	-0.06954919
115	0x3d7f9e8a	0.062407054
116	0x3ce84f24	0.02835805
117	0xbdbfecec	-0.09371361
118	0xbce973d6	-0.028497618
119	0xbd839d76	-0.06426518
120	0xbd2d9831	-0.04238147
121	0x3ce17f59	0.027526544
122	0xbdb9d5e1	-0.09073997
123	0x3d5ca4aa	0.053867973
124	0x3c6a9dd6	0.014319858
125	0x3c90dae9	0.01768251
126	0x3d4439ae	0.04790657
127	0x3d2ae0c7	0.04171827
128	0x3db31170	0.0874356
129	0x3e173302	0.14765552
130	0x3d7254a6	0.05916276
131	0x3c9abe83	0.018889671
132	0xbbf779a1	-0.007552341
133	0x3bc8c2d1	0.0061267396
134	0x3db9d3ac	0.09073576
135	0xbce893a0	-0.028390706
136	0xbde343b8	-0.11096901
137	0xbcd4143e	-0.025888558
138	0xbcfa63d2	-0.030565176
139	0x3d8324f2	0.06403531
140	0x3d285af7	0.041102376
141	0x3c874689	0.016513126
142	0x3cb5b61f	0.022181569
143	0xbc81fb8c	-0.015867017
144	0xbd048941	-0.032357458
145	0x3bf668c3	0.007519813
146	0xbc6019fb	-0.013678069
147	0xbcf8db0d	-0.030377889
148	0x3c8ffff3	0.0175781
149	0xbc471ebc	-0.012153324
150	0xbc1f6ecb	-0.009731005
151	0x3d25db26	0.0404922
152	0x3da89877	0.08232205
153	0xbd4acd2c	-0.049512073
154	0xbd93f466	-0.0722435
155	0x3d54cf64	0.051955596
156	0xbd40407d	-0.0469365
157	0xbc11929a	-0.00888505
158	0x3c08d3d7	0.008351288
159	0xbd3d9b7c	-0.04629086
160	0x3d52de35	0.051481444
161	0xbc9e83c7	-0.019349946
162	0x3d99e2d9	0.07513971
163	0x3da687ed	0.081313945
164	0x3d9db557	0.077006035
165	0x3a850cde	0.001015093
166	0xbd8a9359	-0.067663856
167	0xbc92e4c1	-0.017931344
168	0xbc626a1c	-0.013819244
169	0xbe24e73a	-0.16103831
170	0x38f336c4	0.00011597344
171	0xbc9fb74d	-0.019496584
172	0x3d8b75ed	0.06809602
173	0x3ac32f59	0.001489143
174	0x3d06efb4	0.032943442
175	0x3d2fa51e	0.042882077
176	0xbc4bbd3c	-0.012435254
177	0x3e0a504b	0.13507192
178	0x3d411fb6	0.047149383
179	0xbd74048f	-0.05957466
180	0x3e10b799	0.14132537
181	0xbcd47eaa	-0.025939304
182	0xbc105901	-0.008810283
183	0xbdaaa22f	-0.08331715
184	0xbd2e33de	-0.042529933
185	0xbdf58fe3	-0.11990335
186	0xbdd744cd	-0.105111696
187	0x3c347e10	0.011016384
188	0x3cafbbc9	0.021451848
189	0x3e02f284	0.12787825
190	0x3e0792b3	0.13239555
191	0x3ce21f4f	0.02760282
192	0x3bfed2dc	0.0077766012
193	0x3d8c5e41	0.06853915
194	0x3b2e4813	0.0026593253
195	0xbd902eab	-0.07040151
196	0xbd18c97e	-0.037301533
197	0x3cf35b66	0.029706668
198	0xbda8fbc4	-0.082511455
199	0xbd9f3396	-0.07773511
200	0x3da66f30	0.08126676
201	0x3c842860	0.016132534
202	0xbc887e66	-0.016661834
203	0x3c3b2c90	0.011424199
204	0xbced7c7e	-0.028990027
205	0xbdd36b38	-0.10323185
206	0xbd7b5696	-0.06136187
207	0xbc998314	-0.01873926
208	0xbddb2a40	-0.10701418
209	0xbcfbbf70	-0.030730933
210	0xbc6b67a5	-0.0143679725
211	0x3b66869c	0.0035175448
212	0x3e067d94	0.13133842
213	0x3d6a849a	0.057255365
214	0x3c1d2e22	0.009593518
215	0xbd499e0c	-0.04922299
216	0x3d9e2105	0.07721142
217	0x3c822e95	0.015891353
218	0x3d70baf4	0.058772042
219	0x3d996808	0.074905455
220	0xbd21c7dc	-0.03949724
221	0xbd1ab600	-0.037771225
222	0xbca3cb5e	-0.019994434
223	0xbd88b586	-0.06675248
224	0x3d754d8e	0.059888415
225	0x3da5219b	0.0806305
226	0x3c6077c2	0.0137004275
227	0xbda9da6e	-0.08293615
228	0x3d3a3ae4	0.04546632
229	0x3d35f173	0.044419717
230	0x3c82af10	0.015952617
231	0x3c5a972e	0.013341708
232	0xbde0ea1f	-0.10982155
233	0x3c524483	0.012833717
234	0x3cbc4e07	0.022986425
235	0xbd58d3b0	-0.052936256
236	0xbdb73f15	-0.08947579
237	0x3d4147ab	0.04718749
238	0xbce3436e	-0.027742114
239	0xbe0b7b02	-0.13621143
240	0xbd25553e	-0.040364496
241	0x3d7c39ac	0.061578438
242	0x3d83ed89	0.064417906
243	0xbd2102ba	-0.03930924
244	0x3cd063aa	0.025438149
245	0x3c295043	0.010334077
246	0xbd191894	-0.037376955
247	0x3ca142e1	0.01968521
248	0x3d6d5852	0.057945557
249	0xbb989152	-0.0046559954
250	0xbce86180	-0.028366804
251	0x3d669bcc	0.056300923
252	0xbabc01ff	-0.0014343857
253	0x3d4a0d89	0.049329314
254	0x3c782f42	0.015147986
255	0xbc9a56eb	-0.018840274

dense_1.dense.bias f4 [256]
0	0xbbee73b6	-0.0072769774
1	0x3c992e41	0.018698813
2	0xbccbf1eb	-0.024895629
3	0xbca9af9d	-0.020713622
4	0xbd005f06	-0.03134062
5	0x3cac7336	0.02105103
6	0xbd114988	-0.035470515
7	0xbb64e18c	-0.0034924475
8	0x3c94b061	0.01815051
9	0x3cfe6617	0.03105454
10	0xbcbc5980	-0.022991896
11	0xbcc703da	-0.024293829
12	0xbcffc485	-0.031221638
13	0x3d16d5a9	0.036824856
14	0x3c4fa37a	0.012673253
15	0xbb839d16	-0.004016529
16	0x3b9e8865	0.004838037
17	0x3d0e6ce0	0.0347718
18	0x3d01ca03	0.031686794
19	0x3bec2306	0.0072063236
20	0x3d29cbf0	0.041454256
21	0xbd159702	-0.036520965
22	0xbc9dc87b	-0.019260636
23	0x3c2e004a	0.010620186
24	0xbb4ad922	-0.0030952175
25	0x3d222803	0.03958894
26	0xbca32cb7	-0.019918783
27	0x3cbba524	0.022905894
28	0x3cea9ec2	0.028640155
29	0x3d1aa781	0.0377574
30	0xbb9c9425	-0.0047784024
31	0x3ba221f2	0.0049478943
32	0x3c88d0d0	0.016701132
33	0x3d2b6ba3	0.041850697
34	0x3c491b42	0.012274565
35	0xbaa72bf0	-0.0012754183
36	0xbc8d1848	-0.017223492
37	0xbcb023de	-0.021501478
38	0x3d04aa7f	0.03238916
39	0xbd0fa091	-0.035065237
40	0xbd2f7614	-0.042837217
41	0xbba05be0	-0.004893765
42	0x3cbf1236	0.023324113
43	0x3b9df19b	0.0048200614
44	0xbcf2a6e2	-0.029620592
45	0x3c9656bb	0.018351903
46	0xbc6d3bc9	-0.014479586
47	0x3d1544f2	0.036442704
48	0xbcb16255	-0.021653334
49	0x3cff5bf2	0.031171773
50	0x3c9dd105	0.019264707
51	0x3c210e00	0.009829998
52	0xbb870aa1	-0.00412114
53	0xbcdaad06	-0.026693832
54	0xbce822a5	-0.028336832
55	0x3d30b7e2	0.043144114
56	0x3c7053f2	0.014668452
57	0x3cf1cf4e	0.029517796
58	0x3cb85de9	0.022505717
59	0xbd042836	-0.03226491
60	0xbacbb72e	-0.0015542263
61	0x3c473270	0.012158021
62	0xbd1591b9	-0.036515925
63	0x3cdb3111	0.026756795
64	0xbcaff898	-0.021480843
65	0x3d09a471	0.03360409
66	0xbc30b686	-0.0107857045
67	0xbb955591	-0.0045573195
68	0xbcf451ef	-0.029824225
69	0xbc75479a	-0.014970684
70	0x3c32ec16	0.010920545
71	0x3d1230e8	0.035691172
72	0xbceea1cc	-0.029129885
73	0xbd109bae	-0.035304718
74	0xbd2e7b37	-0.042597976
75	0x3ce6f952	0.028195057
76	0x3aad1d19	0.0013207524
77	0xbd150464	-0.03638114
78	0xbd032472	-0.03201718
79	0x3d111a8e	0.035425715
80	0x3cfacb4a	0.030614514
81	0xbd2aa217	-0.041658487
82	0xbd12a1ac	-0.035798714
83	0x3cdd428d	0.027009273
84	0x3c2fe390	0.0107354075
85	0x3c55648c	0.0130244605
86	0xbc8b2571	-0.016985627
87	0x3ca08040	0.019592404
88	0x3b3570e7	0.0027685703
89	0xbd2fec75	-0.042950112
90	0xbca5cd24	-0.02023942
91	0xbcc6a05e	-0.02424639
92	0xbc081ef1	-0.008308158
93	0x3c62a8c2	0.01383418
94	0x3cd3444b	0.0257894
95	0x3cccdfd1	0.025009068
96	0xbd113c65	-0.035457987
97	0xbd1f61fb	-0.0389118
98	0xbd0cef94	-0.034408167
99	0x3c4eeed4	0.012630183
100	0x3b74e515	0.003736799
101	0x3d152fae	0.036422424
102	0xbd0c716f	-0.034287866
103	0xbb203640	-0.0024446398
104	0xbd07dc66	-0.033169173
105	0x3bcff8c4	0.006346794
106	0x3cdde373	0.027085995
107	0x3d28f841	0.04125238
108	0xbca2c1fb	-0.019867888
109	0xbc67e70b	-0.014154206
110	0xbd1c0fae	-0.03810089
111	0xbcc3b03a	-0.023887742
112	0xbd0888fd	-0.033333767
113	0xbab38342	-0.0013695734
114	0x3ccfcec0	0.02536714
115	0x3d1c90aa	0.0382239
116	0x3bbb1fab	0.005710562
117	0x3c1e7064	0.009670351
118	0x3d0b0d66	0.033948325
119	0x3a4615d6	0.00075563544
120	0x3a64995d	0.00087203627
121	0x3c4708b4	0.012148071
122	0xbba3684e	-0.0049867993
123	0xbc85e126	-0.01634271
124	0xbcf06dca	-0.029349227
125	0x3b4b09b1	0.0030981118
126	0xbbef5fbd	-0.007305114
127	0xbbe6d89e	-0.0070448657
128	0xbcbf0a74	-0.023320414
129	0x3c3f1e0f	0.011664881
130	0xbc8a0c07	-0.016851438
131	0x3c36e1a4	0.011162195
132	0xbbd3fbc4	-0.006469222
133	0x3be099ed	0.006854287
134	0xbd0e7977	-0.034783807
135	0x3cee4220	0.029084265
136	0x3d158595	0.036504347
137	0x3cce2d21	0.025168004
138	0x3cf07a57	0.029355211
139	0xbc7f0174	-0.015564311
140	0x3d2656ec	0.04061024
141	0xbd3d2fb1	-0.04618806
142	0xbc07d86b	-0.008291344
143	0xbca521dd	-0.020157749
144	0xbcd7bfca	-0.02633657
145	0x3ce55e95	0.027999202
146	0x3be9ee2b	0.0071389875
147	0x3c8f25f8	0.01747416
148	0x3c50e8ad	0.012750787
149	0xbc8098df	-0.015697895
150	0xbcdfa38c	-0.027299665
151	0x3d234428	0.03985992
152	0x3ca49fd3	0.020095741
153	0xbd22bc21	-0.039730195
154	0xbd09d921	-0.033654336
155	0x3bbc6a62	0.0057499865
156	0x3d0ea707	0.03482726
157	0x3b48b27b	0.003062396
158	0xbd064909	-0.032784496
159	0x3ced5d6e	0.028975215
160	0x3d271a6e	0.04079669
161	0x3c9d8003	0.01922608
162	0x3b55f354	0.0032646256
163	0xbd02dc50	-0.031948388
164	0xbc116d14	-0.008876104
165	0x3d332ccc	0.043743894
166	0xbaa3135a	-0.001244168
167	0xbd1e41e7	-0.038637068
168	0x3c8fefca	0.017570395
169	0x3cdd7a81	0.027035953
170	0x3b0d964a	0.0021604472
171	0xbc882997	-0.016621394
172	0x3d1185c0	0.035527945
173	0xbc68936a	-0.0141953025
174	0xbca04f75	-0.019569138
175	0x3cb455fb	0.022013655
176	0xbca14014	-0.019683875
177	0xbc9be3a1	-0.01902944
178	0xbd36a31b	-0.044589143
179	0xbc9eebdc	-0.019399576
180	0x3d2869f4	0.04111667
181	0xbce50a5c	-0.027959041
182	0x3c22fb99	0.009947681
183	0x3c021ed0	0.007941917
184	0xbc901f4d	-0.01759305
185	0xbcb8cc18	-0.022558257
186	0xbc553c3f	-0.013014852
187	0xbb64cfbd	-0.003491386
188	0xbd1e8001	-0.038696293
189	0x3b4f0b91	0.0031592587
190	0x3aa7889f	0.0012781805
191	0xbae317eb	-0.0017325854
192	0xbce7fb0a	-0.028317947
193	0x3d191592	0.037374087
194	0x3d29165a	0.04128108
195	0xbbaf8332	-0.005356216
196	0xbc5e1377	-0.0135544455
197	0xbbc73470	-0.006079249
198	0x3d0c893d	0.034310568
199	0xbcfe221f	-0.03102213
200	0xbc560569	-0.013062813
201	0x3cbfaace	0.023396876
202	0x3d13d6d4	0.036093548
203	0xbd1f555c	-0.038899764
204	0xbce4b869	-0.027919965
205	0xbb4f4ac6	-0.0031630262
206	0xbd05e8d0	-0.03269273
207	0x3c80cb14	0.015721835
208	0x3cb63903	0.022243982
209	0xbc24d336	-0.010060122
210	0xbd2f82bb	-0.042849284
211	0xbc7192ef	-0.014744504
212	0xbd29d830	-0.041465938
213	0xbb08f1b6	-0.0020896024
214	0x3cfd765f	0.030940233
215	0xbc4b4945	-0.012407606
216	0x3d14d06d	0.036331583
217	0x3cde7194	0.027153768
218	0xbb5d1ede	-0.0033740322
219	0xbc77368e	-0.01508869
220	0x3d216ce9	0.039410505
221	0xbc864303	-0.016389376
222	0x3a3dcdc8	0.00072404416
223	0x3d1255e5	0.035726447
224	0x3cc185f3	0.023623442
225	0x3cc16edc	0.023612432
226	0xbd4572b9	-0.04820511
227	0x3d0886b5	0.03333159
228	0xba7b303f	-0.00095820794
229	0xbbfe9605	-0.0077693486
230	0x3c988a11	0.018620523
231	0x3cec65fe	0.028857227
232	0xbc1c0d54	-0.009524662
233	0x3cd65bb2	0.02616677
234	0x3d22230a	0.039584197
235	0x3ca9ca32	0.020726297
236	0x3cec3e01	0.02883816
237	0x3d242d93	0.040082525
238	0x3cb17805	0.021663675
239	0xbd0d416a	-0.03448621
240	0x3d15d73b	0.036582213
241	0xbcf8553b	-0.030314079
242	0x3c15b27c	0.009136792
243	0x3bdda7ce	0.0067643886
244	0x3b87b543	0.004141481
245	0xbcb61475	-0.022226552
246	0xbc61b97e	-0.013777135
247	0x3d045d15	0.032315332
248	0xbd28dc61	-0.041225795
249	0x3d0a62ca	0.03378562
250	0x3c84d0f7	0.016212923
251	0x3cf7f4c8	0.030268088
252	0xbcb54704	-0.02212859
253	0xb8fbeac0	-0.00012012338
254	0x3ced26e4	0.028949209
255	0xbd0d7258	-0.034532875
