mRNAlocalization/cnn_models/CNN_model_fold5.pth (torch, 531886 bytes, 22 tensors)

layers.bn1.weight f4 [64]
0	0x3f7fd24a	0.9993025
1	0x3f7f9b4d	0.99846345
2	0x3f8037a3	1.0016979
3	0x3f7fa2ca	0.9985777
4	0x3f8049a7	1.0022477
5	0x3f800cf7	1.0003957
6	0x3f800a74	1.000319
7	0x3f8027fe	1.0012205
8	0x3f7f8736	0.9981569
9	0x3f7fe863	0.9996397
10	0x3f80012c	1.0000358
11	0x3f8033df	1.001583
12	0x3f802d7f	1.0013884
13	0x3f802d09	1.0013744
14	0x3f7fb3b4	0.9988358
15	0x3f8018c5	1.0007559
16	0x3f80398e	1.0017564
17	0x3f80106e	1.0005014
18	0x3f7ffe12	0.99997056
19	0x3f7f66c6	0.99766195
20	0x3f7fc110	0.99903965
21	0x3f7fb31f	0.9988269
22	0x3f8031cc	1.0015197
23	0x3f7ff015	0.9997571
24	0x3f801430	1.0006161
25	0x3f7fb918	0.99891806
26	0x3f801c46	1.0008628
27	0x3f8006e4	1.0002103
28	0x3f801773	1.0007156
29	0x3f800f0c	1.0004592
30	0x3f7fda91	0.9994288
31	0x3f7fd814	0.99939084
32	0x3f800573	1.0001663
33	0x3f7f9025	0.9982932
34	0x3f8036a5	1.0016676
35	0x3f7fcfa3	0.99926203
36	0x3f80011f	1.0000342
37	0x3f7fd898	0.9993987
38	0x3f802494	1.0011163
39	0x3f803716	1.0016811
40	0x3f7f8b42	0.99821866
41	0x3f7f8d4f	0.99824995
42	0x3f7fe44b	0.9995772
43	0x3f7ff333	0.9998047
44	0x3f8015f7	1.0006703
45	0x3f802b6c	1.0013251
46	0x3f802a1d	1.0012852
47	0x3f7fd488	0.9993367
48	0x3f802791	1.0012075
49	0x3f802fed	1.0014626
50	0x3f80029a	1.0000794
51	0x3f7fdd33	0.999469
52	0x3f7fbc2e	0.99896514
53	0x3f801f4a	1.0009549
54	0x3f7fc125	0.9990409
55	0x3f801207	1.0005502
56	0x3f80387a	1.0017235
57	0x3f8008e0	1.0002708
58	0x3f7fcafe	0.99919116
59	0x3f802b13	1.0013145
60	0x3f7ff2d3	0.99979895
61	0x3f7f9bbc	0.99847007
62	0x3f800321	1.0000955
63	0x3f7fc990	0.99916935

layers.bn1.bias f4 [64]
0	0xbac01006	-0.0014653213
1	0x37bd5c24	2.2573462e-05
2	0x3aad2aa9	0.0013211566
3	0xba9a3b13	-0.0011766873
4	0x3aa7aac8	0.0012791986
5	0xb811a7e0	-3.472704e-05
6	0xb9c2fda4	-0.0003719154
7	0x3ad18a1a	0.0015986592
8	0xbb181917	-0.0023208314
9	0x39343c3c	0.00017188577
10	0x38616d44	5.3745942e-05
11	0x3af457eb	0.0018641924
12	0x3a59978d	0.0008300476
13	0x3b0d1200	0.0021525621
14	0xba52c343	-0.00080399605
15	0xba0c992a	-0.00053633994
16	0x3a743d2c	0.00093169766
17	0x39f8adf2	0.00047431845
18	0x3aa6eed0	0.0012735967
19	0xbabeaf46	-0.0014548085
20	0xbae0c53b	-0.0017148623
21	0xba0824a5	-0.0005193449
22	0x3a43af4f	0.00074647827
23	0xbaa21e6c	-0.0012368686
24	0x3ac52554	0.0015041032
25	0xba589ab8	-0.0008262801
26	0x3a9f59b8	0.0012157476
27	0xb9c0b573	-0.00036756284
28	0xba794dcb	-0.0009510188
29	0xbaf7db84	-0.0018910025
30	0x386a419c	5.585105e-05
31	0xbabbb808	-0.0014321813
32	0x3a1b4fec	0.000592469
33	0xbb02074e	-0.001984078
34	0x3a3a0013	0.0007095348
35	0x39b41b39	0.00034352558
36	0x3ab3dfc9	0.0013723309
37	0x3aafe29f	0.0013418979
38	0x3a2e4cf4	0.000664904
39	0x3ad3cf2c	0.0016159764
40	0xbb0127d9	-0.001970759
41	0xbaf4f1d9	-0.0018687799
42	0xba93ed74	-0.0011285977
43	0xb8a1debb	-7.718565e-05
44	0x392736ad	0.0001594673
45	0xbacf0838	-0.0015795296
46	0x3ac537ee	0.0015046576
47	0x3a6c7176	0.00090195925
48	0x3afef3d8	0.0019451333
49	0xb891b61f	-6.9480615e-05
50	0x391789ba	0.0001445179
51	0xb9cdcaae	-0.00039251655
52	0xbadaa964	-0.0016682562
53	0x3b00b24f	0.001963753
54	0xba4d389e	-0.0007828566
55	0x3a37d415	0.00070124987
56	0x3ace8715	0.001575681
57	0xb93fb9f3	-0.00018284451
58	0xba95574d	-0.0011393816
59	0xb9aa993e	-0.000325391
60	0xbadc2d5e	-0.0016798188
61	0xba28438d	-0.0006418757
62	0xba62507c	-0.0008633209
63	0xba233019	-0.00062251237

layers.bn1.running_mean f4 [64]
0	0xbcb3bd19	-0.021940755
1	0xbc6871c4	-0.01418728
2	0xbaa13c3a	-0.0012301274
3	0x3d969256	0.0735213
4	0x3dafb5ba	0.085795835
5	0x3d2d67e1	0.042335395
6	0x3cb37d59	0.021910356
7	0x3df353b1	0.11881197
8	0x3d738cdb	0.059460502
9	0xbd9dbc2f	-0.07701909
10	0xbd450d8a	-0.048108615
11	0x3be87f2a	0.0070952373
12	0x3b33e2cd	0.0027448416
13	0xbc6cdbee	-0.014456732
14	0x3c8772a6	0.01653416
15	0xbdb58b76	-0.08864491
16	0xbd821c43	-0.06353047
17	0x3d0dfeb3	0.03466673
18	0x3d29a8d7	0.041420784
19	0xbcb27d2c	-0.021788202
20	0xbd2a725f	-0.04161298
21	0x3db44637	0.08802455
22	0x3d9b2be6	0.07576732
23	0x3db3ff74	0.08788958
24	0x3dafdf98	0.08587569
25	0x3c435de8	0.011924244
26	0xbc22751b	-0.009915615
27	0xbac05414	-0.0014673495
28	0xbd2eb520	-0.042653203
29	0xbe0d105d	-0.13775773
30	0x3cc51b69	0.024060922
31	0xbc9e589b	-0.01932936
32	0x3c571c19	0.013129258
33	0xbd411bcb	-0.047145646
34	0x3cb7a2a6	0.022416424
35	0x3cd7e30d	0.026353383
36	0xbde26580	-0.11054516
37	0x3c847362	0.0161683
38	0xbd40edb5	-0.047101695
39	0xbd4c45b0	-0.049871147
40	0xbdbf472c	-0.09339747
41	0x3d0e0d2a	0.034680523
42	0xbd037c99	-0.032101247
43	0x3cf258c1	0.029583337
44	0x3e04c0a8	0.12964118
45	0x3d73a6f3	0.059485387
46	0xbc397cd8	-0.011321269
47	0xbd8a8feb	-0.067657314
48	0x3da8768b	0.08225735
49	0x3ccf2f28	0.02529104
50	0x3ded028b	0.11572751
51	0xbd99d97c	-0.07512185
52	0xbda6a224	-0.081363946
53	0xbc7586ed	-0.014985782
54	0xbd83f13a	-0.06442495
55	0x3be3c8e7	0.0069514397
56	0x3dab810e	0.083742246
57	0x3d56288c	0.052284762
58	0xbd7de392	-0.061984606
59	0xbc501698	-0.012700699
60	0x3ae81e9f	0.0017709321
61	0x3d9e165d	0.07719109
62	0xbc93a946	-0.018025052
63	0x3d0fb017	0.03508004

layers.bn1.running_var f4 [64]
0	0x3cec605e	0.028854545
1	0x3cccf4b9	0.025019037
2	0x3cce5a5e	0.025189575
3	0x3c8f092a	0.017460424
4	0x3cb34250	0.021882206
5	0x3d017470	0.031605184
6	0x3cd7fcee	0.026365723
7	0x3cd86ba8	0.026418522
8	0x3cd2a69a	0.025714207
9	0x3cd4a257	0.025956316
10	0x3c8b98d2	0.017040644
11	0x3d192fdf	0.03739917
12	0x3cdec0d5	0.027191559
13	0x3d2d2669	0.04227296
14	0x3c9d2895	0.01918439
15	0x3d03ba06	0.032159828
16	0x3cb3959b	0.021921923
17	0x3cd6eb30	0.026235193
18	0x3cc1b4b1	0.02364573
19	0x3cdf3587	0.027247204
20	0x3cc46e28	0.023978308
21	0x3cbd977d	0.023143524
22	0x3cd51148	0.026009217
23	0x3cc21f44	0.02369655
24	0x3d1b2517	0.03787717
25	0x3cbf8e8c	0.023383401
26	0x3cf87856	0.030330818
27	0x3cc31e9f	0.023818312
28	0x3ca5b09c	0.020225815
29	0x3caac435	0.020845512
30	0x3cf321e2	0.029679243
31	0x3cb98b6b	0.022649487
32	0x3d0de165	0.03463878
33	0x3ceb3420	0.028711379
34	0x3ca925ba	0.020647872
35	0x3cf4d0f7	0.029884798
36	0x3d49e095	0.049286444
37	0x3cda5fc0	0.026656985
38	0x3ce16805	0.02751542
39	0x3d1cb44f	0.038257893
40	0x3cc30e0c	0.023810409
41	0x3ce98be9	0.028509097
42	0x3ccb7847	0.024837626
43	0x3caca89f	0.021076499
44	0x3d184bf2	0.037181802
45	0x3cac164d	0.021006728
46	0x3cc61c1b	0.024183324
47	0x3d211395	0.039325316
48	0x3d2443c1	0.040103678
49	0x3d001496	0.031269632
50	0x3d0e7bc8	0.034786016
51	0x3cf7204d	0.03016677
52	0x3c8ca2a8	0.017167404
53	0x3d33f5c3	0.04393555
54	0x3d0b25db	0.03397165
55	0x3cb722aa	0.022355396
56	0x3cb1f5dc	0.02172368
57	0x3c9eebc5	0.019399533
58	0x3cddae91	0.027060779
59	0x3ccfa9bc	0.02534949
60	0x3ce3985b	0.02778261
61	0x3ce8ce2a	0.02841862
62	0x3cd905e7	0.026492072
63	0x3d1e4efe	0.03864955

layers.bn2.weight f4 [32]
0	0x3f805dd8	1.0028639
1	0x3f805c19	1.0028106
2	0x3f7fdc27	0.999453
3	0x3f7fb537	0.99885887
4	0x3f7fb332	0.99882805
5	0x3f7fab1b	0.9987046
6	0x3f7f495e	0.99721324
7	0x3f7f5b8b	0.9974906
8	0x3f7f612c	0.9975765
9	0x3f7f5daf	0.99752325
10	0x3f7fae71	0.9987555
11	0x3f7f6150	0.9975786
12	0x3f7fe07c	0.9995191
13	0x3f7fbcb3	0.9989731
14	0x3f7fb17f	0.9988021
15	0x3f7f4a7c	0.9972303
16	0x3f7f98c4	0.99842477
17	0x3f7f5ec3	0.9975397
18	0x3f7f4c2c	0.99725604
19	0x3f7f9ca7	0.9984841
20	0x3f7f6446	0.9976238
21	0x3f7fca37	0.9991793
22	0x3f7fb8cb	0.99891347
23	0x3f7fae2c	0.9987514
24	0x3f7fe2dd	0.9995554
25	0x3f7f598e	0.99746025
26	0x3f7f7d27	0.9980034
27	0x3f7fa938	0.9986758
28	0x3f7f5e68	0.9975343
29	0x3f7f4387	0.99712414
30	0x3f7fa9cb	0.9986846
31	0x3f7fbd26	0.9989799

layers.bn2.bias f4 [32]
0	0x3b367ce0	0.0027845427
1	0x3b393704	0.0028261552
2	0xb9e21c15	-0.00043127002
3	0xb9ce307e	-0.0003932751
4	0xbabc3ad5	-0.0014360795
5	0xba9dde27	-0.0012044356
6	0xbb306fc2	-0.0026922082
7	0xbb2b1c3c	-0.0026109358
8	0xbb299b4f	-0.0025879925
9	0xbb290fce	-0.0025796774
10	0xbabf7563	-0.0014607128
11	0xbb27e67a	-0.0025619552
12	0xba61cb2a	-0.00086133427
13	0xba94aec9	-0.0011343594
14	0xbac26d3f	-0.0014833583
15	0xbb3d3eaa	-0.0028876462
16	0xbadce57d	-0.0016853061
17	0xbb2a5893	-0.0025992736
18	0xbb3d346c	-0.0028870357
19	0xba61ffed	-0.0008621205
20	0xbb27b449	-0.0025589636
21	0xba2bc119	-0.0006551906
22	0xba96d8f6	-0.0011508751
23	0xba807196	-0.0009799476
24	0xb9d31fef	-0.00040268849
25	0xbb2ca0f0	-0.0026341043
26	0xbb03c0ee	-0.0020104009
27	0xba91e5b1	-0.0011131075
28	0xbb2b4dee	-0.002613898
29	0xbb402730	-0.0029320233
30	0xbacd820e	-0.0015679018
31	0xba73fc48	-0.0009307307

layers.bn2.running_mean f4 [32]
0	0xbdcc9c44	-0.09990743
1	0xbe3ef290	-0.18647218
2	0xbe9b91eb	-0.30384764
3	0xbea6679b	-0.3250092
4	0xbe54414a	-0.20728031
5	0xbe835792	-0.25652748
6	0xbe3b46ae	-0.18288681
7	0xbc853de0	-0.016264856
8	0xbd3abdb4	-0.04559107
9	0x3cd801ef	0.02636811
10	0xbe629989	-0.22128882
11	0xbd55c911	-0.052193705
12	0xbe703422	-0.23457387
13	0xbe5e0ff3	-0.21685772
14	0xbe2ed34d	-0.17072792
15	0x3e500b44	0.20316797
16	0xbe5b052d	-0.21388693
17	0xbc968a3d	-0.018376464
18	0x3e984a9f	0.2974443
19	0xbe9c6cae	-0.30551666
20	0xbc1e32a5	-0.009655629
21	0xbe801620	-0.2501688
22	0xbe6577f4	-0.2240904
23	0xbe87c607	-0.2651827
24	0xbe51ade9	-0.20476498
25	0x3d68c2e0	0.056826472
26	0xbe324de1	-0.17412521
27	0xbe7af6f1	-0.24508263
28	0x3d0da2d8	0.034579128
29	0x3d10c73d	0.03534626
30	0xbe39ea15	-0.18155701
31	0xbe877aaa	-0.26460773

layers.bn2.running_var f4 [32]
0	0x3eb9ab10	0.36263323
1	0x3ec3e2b5	0.382589
2	0x3f097380	0.53691864
3	0x3f10dd12	0.56587327
4	0x3ef0afe2	0.47009188
5	0x3ee871b7	0.45399258
6	0x3f025c57	0.5092215
7	0x3f133b2f	0.5751218
8	0x3efd8e72	0.4952274
9	0x3f153ce2	0.58296025
10	0x3eb6139f	0.35561845
11	0x3ed3878c	0.41314352
12	0x3eeae5a8	0.4587834
13	0x3eb2d0d3	0.34924945
14	0x3ebc04b4	0.36722338
15	0x3f3f61a4	0.7475836
16	0x3edbfc22	0.429658
17	0x3f0e1f66	0.5551666
18	0x3f9109bb	1.1331095
19	0x3f1b277a	0.6060711
20	0x3ef77f21	0.4833918
21	0x3f14b7f7	0.5809321
22	0x3ebe681c	0.37188804
23	0x3f011696	0.5042509
24	0x3ec68a5f	0.38777444
25	0x3eb734ff	0.3578262
26	0x3ec34594	0.3813902
27	0x3eefd75d	0.46843997
28	0x3f41a459	0.756414
29	0x3f203529	0.62581116
30	0x3ec966d1	0.39336255
31	0x3f04b69c	0.5184114

layers.conv1_1.weight f4 [64, 4, 9]
0	0xbdf5931a	-0.11990948
1	0x3deffe08	0.117183745
2	0x3cb42ecc	0.02199497
3	0xbdc04688	-0.09388453
4	0xbe0aef7e	-0.13567922
5	0xbdefb1e3	-0.11703851
6	0xbd73be41	-0.059507612
7	0x3cc3c604	0.023898132
8	0xbd99e6e8	-0.07514745
9	0xbdf9fbd9	-0.12206239
10	0xbe10c6cf	-0.1413834
11	0x3da45ff2	0.080261126
12	0xbdc93e36	-0.09826319
13	0xbe276a7a	-0.16349211
14	0x3d7b8bf1	0.061412755
15	0xbe137a9f	-0.14402245
16	0x3cffdbe3	0.03123278
17	0xbd840516	-0.064462826
18	0xbd83fc5f	-0.0644462
19	0xbe25f6a3	-0.16207366
20	0xbe0352a3	-0.12824492
21	0x3de13174	0.109957606
22	0x3dac5f1d	0.08416579
23	0x3e1b3b4d	0.1515934
24	0xbda16f1d	-0.07882521
25	0xbdae1271	-0.08499611
26	0x3dd2f624	0.10300854
27	0x3e0c4f8d	0.13702221
28	0x3d28337d	0.041064728
29	0x3caa1094	0.020759858
30	0xbe1aeccf	-0.15129398
31	0xbdb96e4c	-0.090542406
32	0xbdc9a571	-0.098460086
33	0xbcb44a74	-0.022008158
34	0xbbb299ec	-0.005450478
35	0x3e0ae948	0.13565552
36	0xbc5781ad	-0.013153476
37	0x3df7b340	0.12094736
38	0xbd86ffbd	-0.06591747
39	0xbd860a24	-0.06544903
40	0x3e107002	0.14105228
41	0xbd0a66d8	-0.033789486
42	0xbe1b6908	-0.15176785
43	0x3d445aca	0.047938146
44	0xbd7a613a	-0.06112788
45	0x3d609282	0.05482722
46	0x3d91f760	0.07127261
47	0xbe2af101	-0.16693498
48	0x3d8b1e80	0.06792927
49	0x3d65052f	0.055913147
50	0x3e1e7b17	0.15476643
51	0x3e01076a	0.12600484
52	0x3d2775aa	0.040883698
53	0x3d8baf4a	0.06820543
54	0x3bee46ee	0.007271639
55	0x3d968a04	0.07350543
56	0x3e0fd47e	0.14045903
57	0x3dc8f2bb	0.09811922
58	0x3d707c61	0.058712367
59	0xbe186d6e	-0.14885494
60	0xbde77006	-0.11300664
61	0x3dad5e89	0.08465297
62	0xbc14069d	-0.00903478
63	0xbdd93e0b	-0.10607537
64	0xbe0d9cac	-0.13829297
65	0xbe114ea5	-0.14190157
66	0x3dab9481	0.08377934
67	0x3c824e45	0.015906462
68	0xbd842fff	-0.06454467
69	0x3d2888e3	0.04114617
70	0x3d856375	0.065131105
71	0xbe0208df	-0.12698697
72	0xbc7d7d33	-0.015471744
73	0x3dce39f1	0.10069645
74	0x3d02863f	0.03186631
75	0xbe0e33fc	-0.13887018
76	0xbd30072e	-0.042975597
77	0x3da7f8e7	0.08201771
78	0x3e09e75f	0.13467167
79	0xbe29a8f6	-0.1656836
80	0x3e0aa4f9	0.13539495
81	0x3d83c71e	0.06434463
82	0xbde1beaa	-0.110226944
83	0x3c379687	0.011205322
84	0xbe228405	-0.15870674
85	0x3e046c50	0.12931943
86	0x3e141707	0.14461909
87	0x3e104279	0.14087857
88	0xbe16eb8f	-0.14738296
89	0x3d8cdc74	0.068779856
90	0x3dc4ed52	0.09615578
91	0x3db367b2	0.08760013
92	0x3dd27893	0.10276904
93	0x3d85aca8	0.06527072
94	0x3dedde0b	0.11614617
95	0xbda1fa54	-0.079090744
96	0xbdcdef88	-0.100554526
97	0xbe0c6a8b	-0.13712518
98	0xbccbb4e2	-0.024866525
99	0xbdcc9b18	-0.09990519
100	0xbde106c0	-0.109876156
101	0x3e264e2e	0.1624076
102	0xbd917f51	-0.07104362
103	0xbdb19d2d	-0.08672557
104	0xbc00c31e	-0.00785902
105	0xbce2d0ab	-0.027687391
106	0x3d951e5f	0.072811835
107	0x3dd62a73	0.10457315
108	0x3c9bd616	0.019022983
109	0xbdd0575b	-0.10172912
110	0x3bc26174	0.0059320275
111	0xbdd55a73	-0.104176424
112	0x3e126d97	0.14299618
113	0x3cf5df6a	0.030013759
114	0xbc005178	-0.007831924
115	0xbde57fcc	-0.11206016
116	0xbda5d2b4	-0.08096829
117	0x3e036fac	0.12835568
118	0xbdd8f684	-0.10593894
119	0x3d888f5f	0.06667971
120	0x3c2c8c7d	0.010531542
121	0xbc1cf926	-0.009580886
122	0x3d0913e0	0.03346622
123	0x3d83470b	0.06410035
124	0xbdd2ab64	-0.102865964
125	0x3c9c0907	0.019047273
126	0x3d6de46e	0.058079176
127	0x3d5b3d84	0.053525463
128	0x3d7e6dd7	0.06211647
129	0x3c2a4059	0.010391318
130	0x3d940901	0.0722828
131	0x3dab1d20	0.083551645
132	0xbd011e87	-0.031523254
133	0xbdc7b85d	-0.097519614
134	0x3d4bb5d9	0.04973397
135	0xbe2a170a	-0.16610351
136	0x3d822d9c	0.063563555
137	0xbe20dd43	-0.15709405
138	0x3d7462a0	0.05966437
139	0x3dfffbd8	0.12499207
140	0xbd087946	-0.03331878
141	0x3d822e87	0.06356531
142	0x3afd9880	0.0019347817
143	0xbe16b217	-0.14716373
144	0x3d73d9e9	0.059533987
145	0x3d4e47c4	0.05036141
146	0x3de01de8	0.10943204
147	0x3ce0fd7a	0.027464617
148	0xbe21e438	-0.15809715
149	0x3dc090a7	0.0940259
150	0x3cbbf740	0.022945046
151	0xbe10afa3	-0.141295
152	0x3e18ac55	0.1490949
153	0xbda01316	-0.0781614
154	0x3d848078	0.06469816
155	0xbd86bdc3	-0.06579163
156	0xbd7f3a88	-0.06231168
157	0x3e0ef2cb	0.13959806
158	0xbd88c92c	-0.066789955
159	0xbcb46e1d	-0.022025162
160	0xbd53ee99	-0.051741216
161	0xbd484bae	-0.0489003
162	0x3e175fd2	0.14782646
163	0x3dcf5f59	0.10125608
164	0xbe030357	-0.12794243
165	0x3d1a1b67	0.03762379
166	0x3d1775fc	0.036977753
167	0xbdc9c9ba	-0.098529294
168	0xbc2cc40e	-0.01054479
169	0xbe288edf	-0.16460751
170	0xbd31c22d	-0.04339807
171	0xbc0352f6	-0.008015385
172	0x3d5f5a79	0.05452964
173	0x3ce00c76	0.027349692
174	0x3ce80c05	0.028326044
175	0xbdc8e5b1	-0.09809435
176	0x3dc2fe61	0.09521175
177	0xbc855b49	-0.01627888
178	0xbc04bb73	-0.008101332
179	0x3d6e32b8	0.058153838
180	0xbe03d7d9	-0.12875308
181	0x3db52126	0.08844213
182	0xbdd62e66	-0.104580685
183	0x3deb35d9	0.1148488
184	0xbe17195b	-0.14755766
185	0xbe04dcef	-0.12974904
186	0xbe243fce	-0.16039965
187	0xbe03cfc9	-0.12872232
188	0xbdf16366	-0.11786537
189	0x3d32107e	0.04347276
190	0xbe048a5c	-0.12943405
191	0x3d6a33e6	0.0571784
192	0x3e2957fa	0.16537467
193	0xbdd66984	-0.10469344
194	0xbe02f32d	-0.12788077
195	0xbe293466	-0.16523895
196	0x3d6c1fba	0.057647444
197	0x3da56cf2	0.0807742
198	0x3d678c12	0.056530066
199	0xbe0f8cf4	-0.14018613
200	0x3e0410fc	0.12897104
201	0x3d56658b	0.052342933
202	0xbdce2e51	-0.10067428
203	0xbd2da723	-0.042395722
204	0x3d748dde	0.059705608
205	0xbd06252e	-0.0327503
206	0xbd67bbb9	-0.05657551
207	0x3e1e4769	0.15456928
208	0x3d90c0bb	0.070680104
209	0x3e18cd5e	0.14922091
210	0xbded601c	-0.11590597
211	0x3d897d5a	0.06713362
212	0x3e20f1f8	0.15717304
213	0x3d48f631	0.04906291
214	0x3d017dbf	0.03161406
215	0xbd422539	-0.04739878
216	0x3e13ab3b	0.14420788
217	0x3cd48410	0.025941879
218	0xbd7fa7c8	-0.062415868
219	0x3dfeb829	0.124374695
220	0x3db19f1e	0.08672927
221	0xbce62f7d	-0.028098816
222	0xbe1ee3c8	-0.15516579
223	0x3dbd11d6	0.092319176
224	0xbe1aad8d	-0.15105267
225	0x3cc74046	0.02432264
226	0xbe221261	-0.15827323
227	0xbe0f6a38	-0.14005363
228	0x3cc6f1c4	0.024285205
229	0x39fa2507	0.00047711303
230	0x3cbd31f2	0.023095105
231	0x3e28e826	0.16494808
232	0x3d625b56	0.055262886
233	0x3e0af265	0.13569029
234	0x3bd3527b	0.0064490414
235	0xbd8a6fc9	-0.067596026
236	0x3dc3a7f5	0.0955352
237	0xbc87fc16	-0.016599696
238	0xbe1ef222	-0.15522054
239	0xbcc0babb	-0.02352654
240	0xbd8b3770	-0.06797683
241	0xbd40bf7a	-0.047057606
242	0x3dc40634	0.09571496
243	0xbe2589de	-0.16165873
244	0xbdda371d	-0.10655043
245	0x3d6068e5	0.054787535
246	0xbd1991de	-0.037492625
247	0xbd03eb78	-0.032206982
248	0x3d951679	0.07279677
249	0x3dc534a0	0.09629178
250	0x3d9d5955	0.07683054
251	0x3db70176	0.089358255
252	0x3db26b55	0.08711878
253	0x3df1f2dd	0.118139006
254	0xbd921faf	-0.071349494
255	0x3dd3b736	0.10337679

layers.conv1_1.bias f4 [64]
0	0x3d13e7cd	0.036109734
1	0xbdcf3ce5	-0.101190366
2	0xbd671901	-0.05642033
3	0x3e2a2cc2	0.16618636
4	0x3db4102e	0.087921485
5	0xbbe65973	-0.007029706
6	0xbd5a2f52	-0.053267784
7	0x3d519cd0	0.05117494
8	0x3e11a59d	0.14223333
9	0xbddebe49	-0.10876138
10	0x3b8574df	0.00407277
11	0xbe0938cc	-0.13400573
12	0x3c92a872	0.017902587
13	0x3c870e0a	0.016486187
14	0xbdcfe302	-0.1015072
15	0xbe0d8fbc	-0.13824362
16	0xbdf3db53	-0.11907067
17	0x3d02b24c	0.03190832
18	0x3d249774	0.0401835
19	0xbdbdf2c1	-0.09274817
20	0xbd8f1724	-0.069868356
21	0x3de57af8	0.11205095
22	0x3bc1f9c2	0.005919666
23	0x3e142552	0.14467362
24	0x3de2d99b	0.11076661
25	0x3ce6fdc8	0.028197184
26	0xbc5af49a	-0.013363982
27	0xbcefd921	-0.02927834
28	0xbceb3a10	-0.02871421
29	0xbe2a1a4a	-0.16611591
30	0x3df44ef3	0.11929121
31	0xbdf87374	-0.12131396
32	0xbdb57b75	-0.08861438
33	0x3c70d3d0	0.014698938
34	0x3d054c91	0.032543723
35	0xbdb16e6b	-0.08663639
36	0xbdc46b5d	-0.095907904
37	0x3cb049c1	0.021519544
38	0xbd30e127	-0.043183472
39	0xbddd9ca7	-0.10820895
40	0xbe05ec54	-0.13078433
41	0x3d991037	0.07473796
42	0xbc6ab612	-0.0143256355
43	0xbcf58769	-0.029971795
44	0x3e257853	0.16159181
45	0x3ca1e199	0.019760894
46	0xbd037cb5	-0.03210135
47	0x3dd8f5b2	0.10593738
48	0x3dfa117d	0.12210367
49	0x3b99ae3d	0.0046899603
50	0x3e1f540b	0.15559404
51	0xbda82021	-0.08209253
52	0xbde79084	-0.11306861
53	0x3e228338	0.15870368
54	0xbe237eb7	-0.15966307
55	0xbdc9a160	-0.09845233
56	0x3d925d60	0.07146716
57	0x3dc1e03a	0.09466596
58	0xbd59c49a	-0.05316601
59	0x3d93d902	0.07219125
60	0xbc07eb38	-0.008295827
61	0xbcf4e301	-0.0298934
62	0x3dee5b53	0.116385125
63	0xbd4e93ee	-0.050434045

layers.conv1_2.weight f4 [32, 64, 9]
0	0xbcdee6c1	-0.027209641
1	0xbc6dc8a2	-0.014513167
2	0xbd1504eb	-0.036381643
3	0xbc1c955f	-0.009557097
4	0x3c98b6bd	0.018641824
5	0x3b5d0cd6	0.0033729575
6	0x3be0bbdc	0.006858332
7	0x3d196071	0.03744549
8	0x3d1d555b	0.03841148
9	0x3c5e6e55	0.01357611
10	0x3d0b0bce	0.033946805
11	0x3ca08eab	0.01959928
12	0xbbf4095e	-0.0074474057
13	0xbcd7b829	-0.026332932
14	0x3d21d98a	0.039514102
15	0x3c9bb82d	0.01900872
16	0x3ceefcdf	0.029173313
17	0x3ce5fdbe	0.028075095
18	0xbd181655	-0.037130672
19	0x3c5d012a	0.013489047
20	0x3c79f4af	0.015256091
21	0xbd19df86	-0.037566684
22	0xba22899a	-0.0006200314
23	0x3cde4583	0.027132755
24	0x3d04c5f0	0.03241533
25	0xbd1c54d1	-0.038166825
26	0xbd0db249	-0.034593854
27	0xbd1a75d4	-0.037710026
28	0x3c8445e7	0.016146613
29	0xbc2bdfc2	-0.01049036
30	0xb9aeebd7	-0.0003336358
31	0x3c712ef3	0.014720666
32	0xbcb7f971	-0.02245781
33	0xbcacc1ca	-0.0210885
34	0xbb18187e	-0.0023207958
35	0x3d14307d	0.036179055
36	0xbd0758c7	-0.03304365
37	0x3c39dcf1	0.01134418
38	0xbd0377e9	-0.032096777
39	0xbd17f37e	-0.037097447
40	0xbc7d03db	-0.015442814
41	0xba874486	-0.0010320104
42	0x3cb3931a	0.02192073
43	0x3d19d31a	0.037554838
44	0x3c08eab0	0.008356735
45	0xbb61afac	-0.0034436984
46	0xbbb5a7d0	-0.0055436864
47	0x3d0a5340	0.0337708
48	0x3cb8cd36	0.02255879
49	0xbb1f54fc	-0.002431213
50	0xbd22933d	-0.0396912
51	0x3be725c8	0.0070540644
52	0xbc8d475c	-0.01724594
53	0xbd2309f3	-0.03980441
54	0xbd25a605	-0.04044153
55	0xbcdd2429	-0.026994782
56	0xbbdb69a8	-0.006695945
57	0xbcd401c6	-0.025879752
58	0x3cee0f99	0.029060172
59	0xbce0bfda	-0.027435232
60	0x3ce3c092	0.027801786
61	0x3c79b94b	0.015241931
62	0x3cfef39e	0.031122025
63	0x3d22dcf6	0.039761506
64	0x3ce68720	0.028140604
65	0xbcc55ada	-0.024091173
66	0x3d068c18	0.032848448
67	0x3d1d8bcb	0.038463395
68	0xbaba376b	-0.001420719
69	0xbc96ab95	-0.018392364
70	0x3cfe8b74	0.031072356
71	0x3ae0c3de	0.0017148217
72	0xbca42d89	-0.020041244
73	0x3c0c359d	0.008557704
74	0x3d19defc	0.03756617
75	0xbd0597dd	-0.03261553
76	0xbc24e825	-0.010065113
77	0xbd05a061	-0.032623652
78	0xbd0b4066	-0.033996962
79	0xbc57b817	-0.013166449
80	0xbc309529	-0.01077775
81	0x3d014996	0.031564318
82	0x3c0d1751	0.008611516
83	0xbc17c54e	-0.00926335
84	0xbcfd3bc5	-0.03091229
85	0xbb752691	-0.003740702
86	0x3bd759b8	0.0065719746
87	0x3c1e68ca	0.009668538
88	0x3ca4a336	0.020097356
89	0xbce08bda	-0.027410436
90	0xbcdeba7f	-0.027188538
91	0x3cf913ca	0.030404944
92	0x3c801d7f	0.015639065
93	0xbbfdbcf0	-0.0077434704
94	0xbc7f3b6d	-0.015578133
95	0x3ccfe26c	0.025376521
96	0x3d132c03	0.035930645
97	0xbc1c5229	-0.009541073
98	0xbd2cb4d7	-0.04216465
99	0x3c847224	0.016167708
100	0xbcbba442	-0.022905473
101	0x3cbf60a4	0.023361512
102	0x3cbc60b0	0.022995323
103	0x3c4820fa	0.0122148935
104	0xbd13dcc2	-0.036099203
105	0xbd2ce45c	-0.042209968
106	0x3c2a93fe	0.010411261
107	0x3cf094b8	0.02936779
108	0xbd1af533	-0.037831496
109	0x3cbd525c	0.023110561
110	0xbbf23bd9	-0.0073923883
111	0x3ca54f18	0.020179316
112	0x3c0cdb4a	0.008597204
113	0xbbd1c71e	-0.0064019104
114	0xbd1282fd	-0.03576945
115	0x3c104b06	0.0088069495
116	0x3cc1cd61	0.023657503
117	0xbcfda63c	-0.030963056
118	0xbb3dac05	-0.0028941643
119	0x3d2162f7	0.03940102
120	0x3ca8aca6	0.020590138
121	0xbc395001	-0.011310578
122	0x3c728c87	0.014804012
123	0xbccd48f4	-0.0250592
124	0xbc2de684	-0.010614041
125	0x3cab0c2f	0.020879833
126	0x3cba7958	0.02276294
127	0x3c950360	0.018190086
128	0xbb9a93ec	-0.0047173407
129	0x3d058b09	0.032603297
130	0xbcb4bfe7	-0.022064162
131	0xbc479584	-0.012181643
132	0x3cd8fd12	0.02648786
133	0x3d1f0b93	0.038829397
134	0x3cc6d030	0.024269193
135	0xbb0304d7	-0.0019991898
136	0xbd14ba7e	-0.036310665
137	0x3c283586	0.010266667
138	0x3cc89d80	0.024489164
139	0xbc99de33	-0.01878271
140	0xbd1ab45b	-0.037769657
141	0xbbb4ba5b	-0.0055153794
142	0xbc75af5d	-0.014995423
143	0xbc68b8fd	-0.014204261
144	0xbd29b2e0	-0.041430354
145	0xbd29dccc	-0.041470334
146	0x3c077a4e	0.008268906
147	0xba9c7d46	-0.001193919
148	0xbc160282	-0.009155871
149	0xbc8fc307	-0.017549051
150	0xbd2fcb5a	-0.04291854
151	0xbd0d1156	-0.03444036
152	0xbcbb26aa	-0.022845585
153	0xbcf00335	-0.029298404
154	0x3d182bfb	0.037151318
155	0x3cb913ad	0.02259239
156	0xbd06dfee	-0.0329284
157	0xbc1beade	-0.009516446
158	0x3c1541ee	0.009109957
159	0x3d2ba5fb	0.04190634
160	0xbc6391c8	-0.013889737
161	0x3c8d9011	0.01728061
162	0x3c70556b	0.014668803
163	0x3bbb867c	0.005722819
164	0xbb4f8e0c	-0.003167036
165	0xbd1053ba	-0.035236098
166	0xbaa8cc36	-0.0012878242
167	0xbd160c56	-0.03663286
168	0x3c15213e	0.009102164
169	0xba6ef5cb	-0.00091156055
170	0xbca9617b	-0.020676365
171	0x3d132dbb	0.035932284
172	0xbc5a8d31	-0.013339327
173	0xbc43d7ed	-0.011953336
174	0x3d09cf58	0.033645004
175	0xbd157b85	-0.03649475
176	0xbc25d7c4	-0.010122243
177	0xbc885419	-0.016641663
178	0xbd171b8a	-0.036891498
179	0xbd1f86a4	-0.038946763
180	0xba24b4b7	-0.0006283032
181	0x3bfc2110	0.007694371
182	0xbbafc3d6	-0.0053639216
183	0x3c98d8f9	0.018658148
184	0xbcb35724	-0.021892138
185	0xbcba7a8a	-0.02276351
186	0x3ce4a2de	0.027909692
187	0xbcd080e0	-0.025452077
188	0x3c3de496	0.011590144
189	0xbc1b578a	-0.00948132
190	0x3cd0f74c	0.025508545
191	0xbcbd9f7c	-0.023147337
192	0xbc86200b	-0.016372701
193	0x3d0a41df	0.033754226
194	0xbc9ed24e	-0.01938739
195	0x3cd33572	0.02578232
196	0x3cdd244e	0.02699485
197	0x3d019ffc	0.031646714
198	0xbd0abd70	-0.033872068
199	0x3c8359ac	0.01603397
200	0x3cd6d6bb	0.026225438
201	0x3c5f6a60	0.013636202
202	0xbd0718ca	-0.032982625
203	0x3ccb4e07	0.02481748
204	0xbd2cfb22	-0.042231686
205	0x3cd938ac	0.026516281
206	0xbd02c811	-0.03192908
207	0xbd03a255	-0.032137234
208	0x3c58a359	0.013222539
209	0x3d29dcc7	0.041470315
210	0x3c2a9758	0.01041206
211	0xbd1e50a1	-0.038651112
212	0x3ceb985e	0.028759178
213	0x3c34c85b	0.011034097
214	0x3c687283	0.014187458
215	0xbc547c22	-0.012969049
216	0x3c569f3d	0.013099489
217	0xbb412288	-0.0029470045
218	0xbcb330f1	-0.021873923
219	0x3d1b0fff	0.037857052
220	0x3c7d18b7	0.015447787
221	0xbd1b20ab	-0.03787295
222	0x3b250430	0.0025179498
223	0x3cc728af	0.024311392
224	0x3cb83660	0.022486866
225	0x3c989d2d	0.018629635
226	0xbc8b5904	-0.01701022
227	0xbcbfdbe1	-0.023420276
228	0xbb928bfe	-0.004472255
229	0xbcd7c285	-0.026337871
230	0xbc1ebf00	-0.009689093
231	0x3d0bf7d0	0.03417188
232	0xbc72eedb	-0.014827455
233	0x3d279c6c	0.04092066
234	0x3c60c64a	0.013719151
235	0xbc9bcea4	-0.019019432
236	0x3caf621c	0.021409087
237	0xbce99d88	-0.0285175
238	0x3d1db029	0.038498078
239	0x3d0d11ba	0.034440733
240	0x3addac14	0.0016912245
241	0xba027f20	-0.00049780495
242	0xbc702125	-0.01465634
243	0xbcd0f233	-0.025506115
244	0x3b8d239a	0.0043072226
245	0x3ce51150	0.027962357
246	0x3cca27aa	0.024677116
247	0xbd19fbd8	-0.037593693
248	0xbb9374ad	-0.004499993
249	0xbc309428	-0.010777511
250	0x3cbcc6a3	0.023043936
251	0x3ceb47ca	0.028720755
252	0xbd1a78c1	-0.037712816
253	0xbc0cb5a5	-0.008588229
254	0x3bab9539	0.0052362946
255	0x3be4537d	0.0069679604

layers.conv1_2.bias f4 [32]
0	0xbc083293	-0.008312839
1	0x3bd5ca55	0.006524364
2	0xbd2a7a5e	-0.041620605
3	0xbcd162bc	-0.025559776
4	0x3c71d300	0.014759779
5	0xbc651c30	-0.013983771
6	0x3d08f6ce	0.033438496
7	0x3bb9cfd6	0.005670528
8	0xbd208a75	-0.039194543
9	0x3cd56772	0.026050303
10	0x3d12662c	0.03574197
11	0x3c7697f6	0.015050879
12	0xbcb9fe0e	-0.02270415
13	0x3ce0ef9a	0.027458
14	0x3cd5d959	0.026104616
15	0x3ce3d3ec	0.027811013
16	0xbcae231f	-0.021256981
17	0xbcef72a2	-0.029229466
18	0x3c8f01fa	0.017456997
19	0x3cce6f3e	0.025199529
20	0x3c6de08d	0.014518869
21	0xbc647038	-0.013942771
22	0x3d142d71	0.03617615
23	0x3ceb1358	0.028695747
24	0xbd021dc4	-0.031766668
25	0xbc11419e	-0.008865742
26	0x3b436258	0.0029813256
27	0x3c793dca	0.015212486
28	0xbc9500c2	-0.018188838
29	0x3d0a9e18	0.033842176
30	0xbc1535a1	-0.009107024
31	0x3c6b2547	0.014352149

layers.conv2_1.weight f4 [64, 4, 20]
0	0xbdbac192	-0.09118952
1	0xbd4f8e38	-0.05067274
2	0x3bf52980	0.007481754
3	0xbbefb948	-0.0073157884
4	0x3a936be6	0.0011247366
5	0xbdd83a50	-0.10557997
6	0xb9483ddb	-0.0001909653
7	0x3d844e2b	0.06460222
8	0x3d06e56a	0.03293363
9	0x3db76a70	0.08955848
10	0xbdda0c4c	-0.10646877
11	0x3db6f50f	0.0893346
12	0x3db6606d	0.089051105
13	0xbd706f23	-0.05869974
14	0x3d649179	0.055802796
15	0xbd99b068	-0.0750435
16	0xbd23b927	-0.039971497
17	0x3d8a340e	0.0674821
18	0xbd04dbcf	-0.03243619
19	0xbd9630c8	-0.07333523
20	0xbd6b0bf4	-0.057384446
21	0xbdba7952	-0.09105171
22	0xbd8c3955	-0.06846873
23	0x3c3285e4	0.01089618
24	0x3dd2cae9	0.10292608
25	0xbda34e36	-0.07973902
26	0x3c8487ad	0.016177977
27	0x3de3098e	0.11085807
28	0x3d7d3a62	0.061823256
29	0xbda8dcd8	-0.082452476
30	0x3cb82064	0.022476383
31	0x3da84b08	0.08217436
32	0x3cfb8632	0.030703638
33	0xbd5ca5d2	-0.053869076
34	0x3d9611fe	0.073276505
35	0x3d49f2b8	0.04930374
36	0xbd9fbbd6	-0.07799499
37	0xbda2fcf9	-0.07958407
38	0x3db18467	0.08667832
39	0x3de362f7	0.111028604
40	0x3cc5eb1c	0.02415996
41	0xbdafd7cf	-0.08586084
42	0xbd04b5fd	-0.03240012
43	0xbc9c8d26	-0.019110274
44	0x3c317ce3	0.010832998
45	0x3b8059b8	0.0039169453
46	0x3d923286	0.07138543
47	0x3dd70a53	0.10500016
48	0x3c767562	0.015042635
49	0xbcbeedbc	-0.02330672
50	0xbdbc8e7a	-0.09206863
51	0x3d9a4325	0.07532338
52	0xbdce51d6	-0.10074203
53	0xba75ccf4	-0.00093765487
54	0xbce0df04	-0.027450092
55	0x3db50f7e	0.088408455
56	0x3d5ac9ef	0.053415235
57	0x3d837352	0.0641848
58	0xbc54f3dd	-0.012997595
59	0xbc89bb09	-0.016812818
60	0x3da5f5b8	0.08103508
61	0xbc04154f	-0.008061721
62	0x3d36a48d	0.04459052
63	0xbc84737e	-0.016168352
64	0x3dd9a665	0.1062744
65	0x3d1aca19	0.03779039
66	0xbd8d5091	-0.069001324
67	0xbcddc950	-0.027073532
68	0x3dad811d	0.08471892
69	0xbd786508	-0.060643226
70	0xbd322842	-0.043495424
71	0x3d235454	0.039875343
72	0xbd31b0de	-0.043381564
73	0xbdd54fca	-0.10415609
74	0x3dabfad6	0.083974525
75	0xbd37cddd	-0.04487406
76	0xbd6a9721	-0.057273034
77	0xbdba862a	-0.09107621
78	0xbd8e6384	-0.06952575
79	0x3daeaa46	0.08528571
80	0xbd8b4c8f	-0.06801712
81	0xbd554d80	-0.052075863
82	0x3d8fbadf	0.07018065
83	0xbdd33bc2	-0.10314132
84	0xbd98df02	-0.0746441
85	0xbdd6e06c	-0.10492024
86	0x3c0e9996	0.00870361
87	0x3db5b00a	0.088714674
88	0xbd774f52	-0.06037838
89	0xbdaf8a07	-0.085712485
90	0x3da8c119	0.082399555
91	0x3dda2378	0.106512964
92	0x3c141cfc	0.009040114
93	0x3c83abe0	0.016073167
94	0xbdb7c26d	-0.08972631
95	0x3db7e352	0.08978905
96	0xbca49d2f	-0.020094482
97	0xbaa1833e	-0.0012322438
98	0xbd97551b	-0.073892795
99	0xbce1bd39	-0.027556049
100	0xbdc48abc	-0.09596774
101	0x3c8b88dd	0.017033035
102	0xbde70c77	-0.11281674
103	0x3d82c920	0.06386018
104	0xbd52355c	-0.05132042
105	0xbddfde07	-0.1093102
106	0x3d2e03f0	0.042484224
107	0x3d8a565e	0.067547545
108	0xbd86be84	-0.06579307
109	0xbdd9e4e8	-0.106393635
110	0xbd27cd14	-0.040967062
111	0x3db3eb4d	0.087851144
112	0x3ddc0c95	0.10744587
113	0xbdd4a2b7	-0.10382598
114	0xbcbecbb0	-0.023290485
115	0xbdbd7d1b	-0.092523776
116	0x3d36f5c9	0.044667993
117	0x3d98653c	0.07441184
118	0x3caf9b7b	0.021436444
119	0x3d977a27	0.073963456
120	0x3d367012	0.044540472
121	0x3dd0ec1f	0.102012865
122	0x3d5a1d71	0.053250734
123	0x3cf75c08	0.030195251
124	0xbd18fd40	-0.037350893
125	0xbda8571f	-0.08219742
126	0xbd1edb6b	-0.038783472
127	0x3ccac635	0.024752716
128	0x3d1c40a4	0.038147584
129	0xbd89f4e9	-0.06736166
130	0x3ddd1240	0.107944965
131	0x3dc6130d	0.096716024
132	0x3d9560f5	0.07293884
133	0xbd044228	-0.032289654
134	0xbd0c604d	-0.034271527
135	0xbdadd062	-0.084870115
136	0xbcae066b	-0.021243295
137	0xbd8c481a	-0.0684969
138	0x3d6fec73	0.058575105
139	0xbd289226	-0.041155003
140	0xbd38eb50	-0.045146286
141	0x3d803575	0.06260196
142	0xbde719e2	-0.11284234
143	0xbcf1ddd1	-0.029524716
144	0xbd1337a4	-0.035941735
145	0xbcbdcbcc	-0.023168467
146	0x3d51d58f	0.051229056
147	0xbd324c88	-0.043530017
148	0x3da03e43	0.078243755
149	0xbce18eb9	-0.027533876
150	0xbc6f5f14	-0.014610071
151	0x3d191e8b	0.037382644
152	0xbd9ae78b	-0.075636946
153	0xbd6d5743	-0.057944547
154	0xbdbe07e9	-0.092788525
155	0x3d6b6491	0.057468954
156	0xbcd57f53	-0.02606169
157	0xbcf7ebf1	-0.030263873
158	0x3c61ba4c	0.013777327
159	0xbd4413a6	-0.0478703
160	0x3da6689f	0.08125424
161	0xbd18337f	-0.037158486
162	0xbd3ae8cc	-0.04563217
163	0xbdd60abc	-0.10451266
164	0xbd4d7f2f	-0.05017012
165	0x3dcf3497	0.101174526
166	0xbd38759d	-0.04503404
167	0x3c8c62a6	0.017136883
168	0xbdc420d9	-0.09576578
169	0xbdab59c2	-0.08366729
170	0x3da5da38	0.080982625
171	0x3d2abe3c	0.041685328
172	0xbdcba712	-0.099439755
173	0x3d1f9250	0.038957894
174	0x3d92a1e6	0.07159786
175	0xbbe74fbc	-0.0070590656
176	0xbd963200	-0.073337555
177	0xbccb889d	-0.024845416
178	0xbdd36a63	-0.10323026
179	0xbb4cf439	-0.0031273498
180	0xbd41317f	-0.047166344
181	0xbd8ed995	-0.06975094
182	0xbc3593b2	-0.011082577
183	0xbdde8429	-0.10865051
184	0x3dded267	0.10879975
185	0x3dbbfc70	0.09179008
186	0xbb22d16b	-0.002484406
187	0x3dd48707	0.10377317
188	0xbde3d870	-0.111252666
189	0xbdbd9c72	-0.09258355
190	0xbca471be	-0.020073768
191	0x3dbfb800	0.09361267
192	0x3a104981	0.0005504117
193	0xbda3fc6a	-0.080071285
194	0x3b3be37e	0.0028669531
195	0xbd992d32	-0.074793234
196	0xbdda3c03	-0.106559776
197	0x3d9a6119	0.07538051
198	0xbd716241	-0.058931593
199	0x3c503b0d	0.012709391
200	0xbdcd3f7c	-0.10021874
201	0xbd045a67	-0.032312777
202	0xbde2cc35	-0.11074106
203	0xbd016b98	-0.03159675
204	0xbd92addc	-0.07162067
205	0xbb1a56eb	-0.0023550342
206	0xbd40c329	-0.04706112
207	0x3d010222	0.031496175
208	0xbd0b14ce	-0.033955388
209	0xbd84a4fb	-0.0647678
210	0xbd128775	-0.035773713
211	0x3d43bff6	0.04779049
212	0x3dc5a78b	0.09651097
213	0x3d67ac0d	0.056560565
214	0x3d3a465c	0.045477256
215	0xbc98daed	-0.01865908
216	0xbd59ee03	-0.0532055
217	0xbd54a414	-0.05191429
218	0x3be0f642	0.0068652937
219	0x3d307c18	0.043087095
220	0xbd2d9763	-0.0423807
221	0x3de0f924	0.1098502
222	0xbd250ca8	-0.040295273
223	0xbd8b7965	-0.068102635
224	0x3dc9ac5e	0.098473296
225	0xbd79fe4e	-0.06103354
226	0x3d2d3b62	0.04229296
227	0xbc5f5fc2	-0.01363367
228	0xbc0b0f82	-0.008487584
229	0xbdbed2e6	-0.093175694
230	0x3d597e67	0.053099062
231	0x3da0d66e	0.07853399
232	0xbd2f5ed3	-0.04281504
233	0x3d437256	0.04771646
234	0x3c7f787c	0.015592691
235	0xbd6bb0fd	-0.057541836
236	0x3d3cbe58	0.046079963
237	0x3d995fe1	0.074889906
238	0xbc29f199	-0.010372543
239	0x3ca3f70e	0.020015266
240	0x3d57429f	0.05255377
241	0xbc451c35	-0.012030651
242	0xbd1dcad6	-0.038523518
243	0x3dc074dd	0.0939729
244	0xbc8e8033	-0.017395115
245	0x3dad5bb9	0.0846476
246	0xbc9a86d8	-0.018863127
247	0xbdbbc05a	-0.091675475
248	0x3d01eb9c	0.031718835
249	0x3d98703c	0.07443282
250	0x3dbd3c9a	0.092400745
251	0x3b5ec57c	0.0033992222
252	0xbde0b97c	-0.10972878
253	0x3db3c3f3	0.08777609
254	0xbc67e14d	-0.014152837
255	0x3c59f8c4	0.013303939

layers.conv2_1.bias f4 [64]
0	0x3be6cd7c	0.0070435386
1	0x3de3a8bd	0.11116169
2	0x3dbdc8bc	0.09266803
3	0xbc25e3ca	-0.01012511
4	0x3ccbd2a1	0.02488071
5	0x3d731c7f	0.059353348
6	0x3d05bc86	0.032650493
7	0x3dba8342	0.09107067
8	0x3cf7c279	0.030244099
9	0x3d22292d	0.03959005
10	0xbd8d5ae2	-0.069021
11	0xbcb08e88	-0.02155234
12	0xbd5f13a8	-0.054462105
13	0xba57e75a	-0.0008236073
14	0x3dc63abf	0.09679174
15	0xbd472c0d	-0.048625994
16	0xba94433f	-0.0011311545
17	0xbc90f0c1	-0.017692925
18	0xbd6b7084	-0.05748035
19	0x3dd8d44c	0.105873674
20	0x3d5451ba	0.051835753
21	0xbc871a44	-0.016492017
22	0x3d9e54f7	0.077310495
23	0x3994a71d	0.0002835327
24	0x3c995f4a	0.018722195
25	0xbd1a07c8	-0.037605077
26	0xbdcdab47	-0.10042434
27	0x3cc99e8b	0.024611732
28	0xbd0b8fc3	-0.03407265
29	0xbda9f39b	-0.08298417
30	0x3d75b64d	0.05998831
31	0x3d376a4a	0.0447791
32	0xbb4d83bc	-0.0031359037
33	0xbc9fcc38	-0.019506559
34	0xbac556c1	-0.0015055762
35	0xbcabe31a	-0.020982314
36	0x3dc36c73	0.095421694
37	0x3d9c7ee3	0.07641389
38	0xbc8f38d5	-0.017483154
39	0x3d856ec1	0.06515265
40	0xbdcf277a	-0.101149514
41	0xbd0f8e5c	-0.035047874
42	0xbd570982	-0.0524993
43	0x3cc17f72	0.023620341
44	0xba71e3ae	-0.00092273473
45	0x3ddd3ee9	0.10803015
46	0xbc33a4b0	-0.0109645575
47	0xbd7bab29	-0.061442528
48	0xbbef1c9e	-0.0072971126
49	0xbcc967df	-0.024585662
50	0xbcc982ef	-0.024598567
51	0xbcc4a788	-0.024005666
52	0xbd08be35	-0.03338452
53	0xbd857dc6	-0.0651813
54	0x3dd5d764	0.10441473
55	0x3d3bfb5a	0.045894004
56	0x3d4d6eb9	0.05015442
57	0xbc5720a5	-0.013130342
58	0xbca1aa7d	-0.019734615
59	0xbd9d3548	-0.07676178
60	0x3dd1d94b	0.102465235
61	0x3dca09b3	0.09865131
62	0xbdc737e6	-0.09727459
63	0x3d9296dc	0.071576804

layers.conv2_2.weight f4 [32, 64, 20]
0	0xbc91a43f	-0.017778514
1	0xbc4f4357	-0.012650332
2	0x3c1a4d13	0.00941779
3	0xbc7ad90a	-0.015310535
4	0x3cc96b36	0.024587255
5	0x3b9c6a35	0.004773403
6	0xbcd23fbd	-0.025665158
7	0xbc3c738c	-0.011502158
8	0xbab5aa04	-0.0013859873
9	0x39e80e33	0.00044261068
10	0x3be08960	0.006852314
11	0xbb502af8	-0.0031763893
12	0x3cab1a87	0.020886673
13	0x3ca045df	0.019564567
14	0xbcb166c1	-0.021655442
15	0x3cceca36	0.025242906
16	0xbc577f27	-0.013152874
17	0xbc7af440	-0.015317023
18	0xbc574102	-0.013138058
19	0x3cc65245	0.024209151
20	0xbc8d9892	-0.017284665
21	0x3c87008d	0.016479755
22	0xbbc5df2a	-0.006038566
23	0x3c8164dd	0.015795166
24	0x3c3838c1	0.011244
25	0xbc3d1551	-0.011540727
26	0xbb488ee7	-0.0030602755
27	0x3c9ed4ab	0.019388517
28	0x3bbb411d	0.005714549
29	0xbc814dfb	-0.015784254
30	0x3c9a6d17	0.018850846
31	0x3b8ad357	0.0042366195
32	0x3cbb8ba0	0.022893727
33	0xbb1c4b3e	-0.0023848559
34	0x3ca9786d	0.020687306
35	0x3c25822f	0.010101839
36	0x3c985a35	0.018597702
37	0x3cc3723c	0.023858182
38	0x3cb196ac	0.021678291
39	0xbcbef0a9	-0.023308115
40	0xbc003c8b	-0.007826935
41	0x3caa6846	0.020801675
42	0x3c2fb70a	0.010724792
43	0xbc288302	-0.010285141
44	0x3be97a07	0.0071251425
45	0x3c1f5504	0.009724859
46	0xbc90c1ca	-0.01767053
47	0x3c9adfa9	0.018905478
48	0x3c4afd4f	0.012389495
49	0xbcab7a2d	-0.020932281
50	0x3ce5966c	0.028025828
51	0xbc842af1	-0.016133757
52	0x3c913dc2	0.017729644
53	0x3b439b90	0.002984736
54	0xbccb679c	-0.024829678
55	0x3cc9f970	0.024655074
56	0x3c79896f	0.015230521
57	0x3b95b4b9	0.004568663
58	0xbcb7a747	-0.022418631
59	0xbb95c847	-0.004570994
60	0xbc2ff9c2	-0.010740699
61	0x3ba82585	0.005131426
62	0xbb431701	-0.002976835
63	0x3c345ddc	0.011008706
64	0x3c753c1c	0.0149679445
65	0x3abf6fd6	0.0014605473
66	0xbc26e2cd	-0.010185909
67	0x3c1c7be7	0.009551025
68	0xbbb79fd5	-0.0056037703
69	0x3c9cf6d3	0.019160664
70	0xbc996d48	-0.018728867
71	0x3bef8411	0.0073094447
72	0x3c3a81b9	0.011383467
73	0xbcc7a95e	-0.024372753
74	0xbce89384	-0.028390653
75	0x3cbde493	0.023180282
76	0xbce38d93	-0.027777469
77	0xbca79bd3	-0.020460045
78	0x3c571730	0.013128087
79	0xbbc1ef4e	-0.00591842
80	0xbc917a45	-0.017758498
81	0xbbcca312	-0.0062450254
82	0x3bfbf828	0.0076894946
83	0xbca5faa7	-0.020261122
84	0xbc9c30a5	-0.019066164
85	0xbc38f67b	-0.011289234
86	0x3cb5389d	0.022121722
87	0x3c9fda53	0.019513285
88	0xbcba282d	-0.022724235
89	0x3c6f8dba	0.014621193
90	0xbc9a3169	-0.018822389
91	0xbc636325	-0.013878618
92	0xbc7e551c	-0.015523221
93	0xbcb10ce3	-0.02161259
94	0xbccc184f	-0.024913935
95	0x3bd56af0	0.006512992
96	0xbca0a15e	-0.019608196
97	0x3c24ae93	0.010051387
98	0xbc36439e	-0.01112452
99	0xbc6bfcd8	-0.014403544
100	0xbc263c46	-0.010146206
101	0xbbd9d851	-0.0066481014
102	0x3c59341d	0.013257054
103	0x3c8ac8fe	0.016941544
104	0x3cb3a85f	0.021930872
105	0xbc9098f8	-0.017651066
106	0xb99f5dd9	-0.00030396765
107	0x3cabaeb7	0.020957334
108	0x3ca8a6c8	0.02058734
109	0x3c177971	0.0092452625
110	0x3c8238d7	0.015896244
111	0x39c8ef90	0.0003832546
112	0x3c34394e	0.010999991
113	0xbba276e1	-0.004958019
114	0xbc92c387	-0.0179155
115	0x3c766fe0	0.0150413215
116	0xbc6fd0c2	-0.014637174
117	0x3bb9b20f	0.005666978
118	0xbcb44a34	-0.022008039
119	0x3cd54b47	0.026036872
120	0x3c70c299	0.014694833
121	0x3c1a5b68	0.009421207
122	0xbcc07e05	-0.02349759
123	0x3a81ef4e	0.0009913237
124	0x3ca51b08	0.020154491
125	0xbc413b15	-0.011793871
126	0xba30af6d	-0.00067400077
127	0xbc071240	-0.008244097
128	0x3cb8a225	0.022538254
129	0xbb867975	-0.0041038343
130	0x3bd089bd	0.006364076
131	0x3c5f36e5	0.013623928
132	0xbc29e100	-0.010368586
133	0x3ccc1434	0.024911977
134	0x3c558c2b	0.013033907
135	0x3be01457	0.006838362
136	0x3c8795e8	0.016550973
137	0x3c863ec8	0.016387358
138	0xbb668d06	-0.0035179271
139	0x3c098508	0.0083935335
140	0x3cd2d7fb	0.025737753
141	0x3c7794ec	0.015111189
142	0x39a57d6b	0.00031564696
143	0x3c384359	0.011246526
144	0xbb7954fb	-0.0038045037
145	0x3bbecdf8	0.005822893
146	0x3c8c6812	0.017139468
147	0xbb8fd8da	-0.0043898644
148	0x3c925e2c	0.01786717
149	0xbc7140b1	-0.014724896
150	0xbc8765f4	-0.016528107
151	0xbce9d4d1	-0.028543862
152	0xbc07a752	-0.008279638
153	0x3c5e3e74	0.013564695
154	0xbc35fbc7	-0.011107392
155	0xbcad55ba	-0.021159042
156	0xbcc22451	-0.023698958
157	0x3cb5669c	0.022143655
158	0x3cc726e4	0.024310537
159	0xbb917f35	-0.004440213
160	0x3c9726b2	0.018451069
161	0xbbbd8db6	-0.0057847155
162	0xbc4df028	-0.012569465
163	0xbcc8f82d	-0.024532402
164	0x3c24b9da	0.010054076
165	0x3cc54783	0.024081951
166	0x3c80a15b	0.01570194
167	0x3cd7286d	0.026264394
168	0xbc34f2cb	-0.0110442145
169	0xbc4d879f	-0.012544542
170	0xbba90e19	-0.0051591513
171	0x3b8bcf23	0.004266636
172	0x3b69388f	0.003558669
173	0x3c8b3dc9	0.016997235
174	0x3c7c3163	0.015392634
175	0xbbb202f9	-0.0054324833
176	0xba6211d0	-0.000862387
177	0x3b8514aa	0.0040613012
178	0xbceae60e	-0.028674152
179	0xbbc9d939	-0.006159928
180	0x3c403e81	0.011733652
181	0x3ad7c957	0.0016463202
182	0xbc9f0d6c	-0.01941558
183	0xbc91df12	-0.017806564
184	0xbcc02690	-0.023455888
185	0x3cd8fe00	0.026488304
186	0x3cbef87b	0.023311844
187	0x3bdb230a	0.0066875266
188	0x3c0a2abf	0.008433043
189	0x3bff20e6	0.007785904
190	0x3ba80635	0.005127693
191	0x3c86db69	0.016462045
192	0x3c742c32	0.014903115
193	0xbc7776fe	-0.015104054
194	0xbc69e540	-0.014275849
195	0x39950388	0.00028422126
196	0x3c94cb37	0.018163307
197	0xbc91c61e	-0.017794665
198	0x3bcf5dbd	0.006328313
199	0x3be757d8	0.0070600323
200	0x3b846e17	0.004041444
201	0xbc96e4f0	-0.018419713
202	0x3c510288	0.012756951
203	0x3c9bd013	0.019020116
204	0xbb94907a	-0.0045338245
205	0xbcd0099f	-0.025395213
206	0x3b5c0667	0.0033573152
207	0x3a92202b	0.0011148503
208	0x3bfe30c6	0.007757279
209	0xbc9933ce	-0.01870146
210	0x3bf27e26	0.007400292
211	0xbb9ace7b	-0.0047243214
212	0x3badb2d1	0.0053008576
213	0x3be843ac	0.0070881452
214	0xbc85d2d8	-0.01633589
215	0x3bc89dd3	0.0061223297
216	0xbc66bf58	-0.014083706
217	0x3bee8e08	0.007280115
218	0xbb632030	-0.0034656636
219	0x3b3e58d0	0.0029044636
220	0xbc95f29f	-0.018304167
221	0xbce2a08e	-0.027664449
222	0x3bec515e	0.007211848
223	0xbc04ad9c	-0.008098032
224	0xbbd35300	-0.0064491034
225	0x3c747b6c	0.014922004
226	0xbc178a72	-0.0092493165
227	0x3b3a1e04	0.0028399238
228	0x3a9881d1	0.0011635368
229	0xbc91e0be	-0.01780736
230	0x3c975af7	0.018475993
231	0xbb08319e	-0.0020781527
232	0x3cc309fb	0.02380847
233	0xbc51654b	-0.012780498
234	0x3c19ea1a	0.009394193
235	0xbb286125	-0.0025692668
236	0x3bd2d21d	0.006433739
237	0x3cbc3556	0.022974651
238	0x3bdddb88	0.006770555
239	0x3adf53e5	0.0017038552
240	0xbc7a824c	-0.015289854
241	0xbc7a1faa	-0.015266338
242	0x3b17e6b0	0.0023178272
243	0x3cb7a071	0.022415372
244	0x3b986df8	0.004651781
245	0x3bdcdce5	0.0067402
246	0x3cd49501	0.025949957
247	0xbc905786	-0.01761986
248	0x3c5d5af8	0.013510458
249	0xbc5d01a6	-0.013489163
250	0x3cbac5d5	0.022799412
251	0x39fbc086	0.00048017892
252	0x3b826f8b	0.003980582
253	0xbc01fc18	-0.007933639
254	0xbb1ed53d	-0.0024235987
255	0xbab217fb	-0.0013587469

layers.conv2_2.bias f4 [32]
0	0xbb964212	-0.004585513
1	0xbbca18d3	-0.00616751
2	0x3caea5d7	0.021319313
3	0x3bbdc9f0	0.005791895
4	0x3c02702f	0.007961317
5	0xbca5d6a9	-0.02024396
6	0xbc42c724	-0.011888299
7	0xbcc2dce0	-0.023786962
8	0xbc3d8a71	-0.011568652
9	0xbb70a0f9	-0.003671704
10	0x3cd0f25e	0.025506195
11	0xbbd50b87	-0.0065016183
12	0x3ca849a7	0.020542933
13	0x3cdff7c2	0.02733982
14	0x3ca8fdc4	0.020628817
15	0xbc7f1d98	-0.015571021
16	0xbcad0ad2	-0.021123324
17	0xbc70e8d4	-0.014703948
18	0xbbb35166	-0.00547235
19	0x3c2542f1	0.010086761
20	0xbad6b9b7	-0.0016382252
21	0xbbb6ffb5	-0.005584682
22	0x3c7cab09	0.015421637
23	0xbc2c17a4	-0.010503683
24	0xbc1c3b56	-0.009535631
25	0x3ca1d20c	0.019753478
26	0x3c446698	0.011987351
27	0xbbbf69f3	-0.0058414876
28	0x3ba7be04	0.005119087
29	0xbafbea50	-0.0019219611
30	0xbc702fa0	-0.014659792
31	0xbbbfbbff	-0.0058512683

layers.conv3_1.weight f4 [32, 4, 49]
0	0xbd05c6e9	-0.0326604
1	0xbc8c2f35	-0.017112354
2	0xbd1aa64d	-0.037756253
3	0x3d6fe9e9	0.058572683
4	0x3bf0b723	0.0073460503
5	0xbd3f31da	-0.0466784
6	0xbd24bd89	-0.040219817
7	0xbd810c87	-0.063012175
8	0xbc7fcebd	-0.015613255
9	0xbd224716	-0.039618574
10	0xbd121575	-0.035664994
11	0x3d8beead	0.06832633
12	0x3ad6f15a	0.0016398833
13	0xbd862b65	-0.065512456
14	0x3d926398	0.07147902
15	0xbd8d19f1	-0.068897136
16	0xbc9b8de6	-0.01898856
17	0xbd2122b4	-0.039339736
18	0xbd5bde52	-0.053678818
19	0x3caca1ba	0.021073211
20	0x3d5d933d	0.054095495
21	0x3ced5b5e	0.028974231
22	0x3d957699	0.07298011
23	0x3d896bdd	0.067100264
24	0x3d50b459	0.050953243
25	0x3d051ae3	0.032496344
26	0xbc802c6e	-0.015646186
27	0xbb1541a5	-0.0022774723
28	0x3cf708b7	0.030155523
29	0xbd85ea6f	-0.06538855
30	0xbd74f77b	-0.05980633
31	0xbd363f95	-0.04449423
32	0x3d81d072	0.06338586
33	0x3d0c2e8f	0.03422409
34	0xba7fa08e	-0.00097514025
35	0x3d5a852f	0.05334967
36	0xbd7def9c	-0.061996087
37	0x3d5b6d89	0.053571258
38	0xbd5abf52	-0.053405114
39	0xbd0e6b1b	-0.034770112
40	0xbcc8d050	-0.024513394
41	0x3d331cec	0.043728754
42	0xbc0b7864	-0.00851259
43	0x3d799873	0.060936403
44	0x3b85d5ab	0.004084309
45	0xbd26ba96	-0.040705286
46	0xbc1c70a0	-0.009548336
47	0xbd84479d	-0.06458972
48	0xbd37ca9c	-0.044870958
49	0xbd2717cd	-0.040794183
50	0x3ce29f3d	0.027663821
51	0x3d67e636	0.05661603
52	0xbcc1a34c	-0.023637436
53	0x3cd155cb	0.025553605
54	0xb95313c1	-0.00020129887
55	0xbc23525a	-0.009968365
56	0x3d70c0a0	0.05877745
57	0x3c2ad8db	0.010427679
58	0x3b95b595	0.0045687654
59	0xbce031c1	-0.027367475
60	0x3d1b075b	0.03784881
61	0x3d90e10f	0.070741765
62	0xbd8c3adc	-0.06847164
63	0xbbe9c14e	-0.0071336394
64	0xbd52e369	-0.051486406
65	0x3d0fa36e	0.035067968
66	0xbd15035e	-0.036380164
67	0x3c27e2b8	0.010246925
68	0x3d541315	0.05177601
69	0x3d60bd88	0.05486825
70	0x3d94e2f8	0.07269853
71	0xbd1b3bb5	-0.037898738
72	0x3b0f43cf	0.0021860485
73	0xbaae508c	-0.0013299151
74	0x3d7739d6	0.06035789
75	0xbd86881e	-0.06568931
76	0x3cb03e5b	0.021514108
77	0xbd02f601	-0.03197289
78	0xbd3f6eac	-0.046736404
79	0xbd74b92b	-0.059746902
80	0x3ab7f3a3	0.0014034401
81	0x3d4a9761	0.049460772
82	0xbd04aaa0	-0.032389283
83	0x3d92d32e	0.071691856
84	0x3d8c54b0	0.0685209
85	0x3c8b6ab3	0.017018652
86	0x3d8eec5b	0.06978675
87	0xbd7225b1	-0.059117977
88	0xbb99b222	-0.0046904245
89	0xbd1dd961	-0.038537387
90	0x3d015d38	0.03158304
91	0x3d80b145	0.062838115
92	0xbb565d98	-0.0032709595
93	0xbbb11f22	-0.0054053226
94	0x3d09e69f	0.033667203
95	0x3d30e80c	0.043190047
96	0xbd53166e	-0.051535062
97	0x3d950c11	0.07277692
98	0x3c4a1fce	0.012336684
99	0xbcab7c85	-0.020933399
100	0x3d8bb950	0.06822455
101	0x3cf7a232	0.030228708
102	0xbd1844ce	-0.037174992
103	0xbd141b18	-0.03615865
104	0x3d633f31	0.055480186
105	0x3ca7ccc6	0.020483386
106	0xbd6174ef	-0.055043157
107	0xbd51e845	-0.0512469
108	0x3cfede02	0.031111721
109	0xbd2e9ca7	-0.042629864
110	0x3c83aa86	0.016072523
111	0x3d47dd80	0.048795223
112	0x3cd629d3	0.02614299
113	0xbca367eb	-0.019947013
114	0x3d1b6e41	0.037946943
115	0xbd42195f	-0.047387477
116	0xbbbbd663	-0.005732344
117	0x3d1ff1dc	0.039049014
118	0xbd1495c1	-0.03627563
119	0x3d9283cd	0.07154045
120	0x3d1a939a	0.03773842
121	0xbd6df40f	-0.05809408
122	0x3ce611bb	0.028084626
123	0x3d61cea2	0.0551287
124	0x3b58bbba	0.0033070878
125	0x3d4b814c	0.049683854
126	0xbd6ffac4	-0.058588758
127	0xbd20ca18	-0.03925523
128	0xbcd3fe1f	-0.02587801
129	0xbc03a05c	-0.008033838
130	0x3cadf9ce	0.02123728
131	0x3d1e9e6f	0.038725313
132	0x3cfd1488	0.03089358
133	0x3d8c7e67	0.06860047
134	0x3cf4345c	0.029810123
135	0xbcb7cc03	-0.022436148
136	0x3d8b89eb	0.06813415
137	0xbd62f01d	-0.05540477
138	0xbd7cc539	-0.061711524
139	0x3ca9ec34	0.020742513
140	0x3d4c986d	0.049950052
141	0x3d2d5769	0.04231969
142	0xbd8ca2ec	-0.068670124
143	0xbd5e405f	-0.054260608
144	0xbd7cb59d	-0.061696637
145	0xbd0e9734	-0.034812167
146	0xbca05995	-0.019573966
147	0x3cd324dc	0.025774412
148	0xbd386fa7	-0.045028355
149	0xbcb99f86	-0.022659075
150	0x3cdcd1e1	0.026955547
151	0x3d0f407b	0.034973603
152	0x3d8e0603	0.069347404
153	0xbd0dc758	-0.034613937
154	0x3d82917b	0.063754044
155	0xbd87cd38	-0.06630939
156	0x3d8b7394	0.06809154
157	0xbbc9fe4a	-0.006164347
158	0xbccb417d	-0.0248115
159	0xbccf191a	-0.025280524
160	0xbc52dfb0	-0.012870714
161	0x3d8f4b6f	0.0699681
162	0xbce56b8c	-0.028005384
163	0x3d7709a6	0.060311936
164	0xbd6b8c10	-0.05750662
165	0xbcf936b7	-0.030421598
166	0x3c3c4a2d	0.011492294
167	0xbd861fb4	-0.06549016
168	0x3d8908e5	0.066911496
169	0xbd819119	-0.06326503
170	0xbd09330d	-0.03349595
171	0xbccd55a8	-0.025065258
172	0xbd172be6	-0.0369071
173	0xbc9f2cab	-0.019430479
174	0x3d57cb58	0.052684158
175	0x3cbb47d5	0.0228614
176	0x3cf23c23	0.029569691
177	0xbd7de2e3	-0.061983954
178	0xbca86d47	-0.02055992
179	0x3c6970c1	0.014248074
180	0xbd1ba27c	-0.037996754
181	0x3c97023f	0.018433688
182	0xbc1ab032	-0.009441422
183	0xbd5fc826	-0.054634236
184	0xbd7b7100	-0.061387062
185	0x3bf5db3c	0.0075029414
186	0x3d3728d7	0.044716682
187	0x3d15fe62	0.03661955
188	0xbd803be6	-0.06261425
189	0x3d1a7f53	0.037719082
190	0x3c8c8a08	0.017155662
191	0x3d1e0726	0.038581036
192	0xbbed5899	-0.0072432277
193	0xbd8bca71	-0.06825722
194	0x3b8f3f55	0.0043715634
195	0x3c836d39	0.016043292
196	0xbd7b0fae	-0.06129425
197	0x3d37b623	0.044851433
198	0x3c59b87d	0.013288614
199	0x3c7ef7c9	0.015562006
200	0xbc8803a2	-0.016603295
201	0x3d7ec456	0.06219896
202	0xbd283d3b	-0.04107402
203	0xbceb7c33	-0.028745746
204	0x3d6627ee	0.056190424
205	0xbd76cbe8	-0.060253054
206	0x3c3b6339	0.011437231
207	0xbd1a583d	-0.037681807
208	0xbd097309	-0.03355697
209	0xbc75c956	-0.0150016155
210	0x3d438b78	0.04774043
211	0xbd2c6b36	-0.04209443
212	0x3d3a08c2	0.04541851
213	0x3b7422fc	0.0037252298
214	0xbd1a2ee4	-0.037642375
215	0xbd3e0722	-0.04639352
216	0x3d0a7dcd	0.03381138
217	0x3d2947c7	0.041328218
218	0x3d0ba45a	0.034092285
219	0x3c58d301	0.013233901
220	0x3d7ddd1e	0.061978452
221	0xbd0fd382	-0.03511382
222	0x3b79a1ef	0.0038090905
223	0xbd386983	-0.0450225
224	0x3d0c390f	0.034234103
225	0x3d239943	0.039941084
226	0xbc012cc4	-0.007884208
227	0x3b258bf2	0.0025260416
228	0xbd82bd38	-0.06383747
229	0x3d855698	0.06510657
230	0xbd1d8a9a	-0.03846226
231	0x3cea9a06	0.028637897
232	0xbc4aa175	-0.012367596
233	0xbc2bf91b	-0.010496403
234	0x3d324853	0.043526005
235	0xbd8f3aa7	-0.06993609
236	0x3d3f6ed2	0.046736546
237	0xbca504a7	-0.02014382
238	0xbd2c9217	-0.04213151
239	0x3d4ccee3	0.05000199
240	0xbd8be488	-0.06830698
241	0xbd511fc1	-0.051055674
242	0x3d2e1e26	0.04250922
243	0xbca59b66	-0.020215701
244	0xbd847e0c	-0.06469354
245	0x3d13715d	0.035996784
246	0xbb92c09a	-0.0044785263
247	0x3d79c3cb	0.06097774
248	0xbcb109d7	-0.021611137
249	0x3d1205f3	0.035650205
250	0x3d712623	0.05887426
251	0x3b0a10fe	0.0021067257
252	0x3ce744bd	0.02823102
253	0x37a06e8b	1.9124962e-05
254	0x3d51d1df	0.05122554
255	0x3d58e3ae	0.052951507

layers.conv3_1.bias f4 [32]
0	0xbcba1f15	-0.0227199
1	0xbc9610b8	-0.018318519
2	0x3cbe92ae	0.023263302
3	0xbcfb7195	-0.030693809
4	0xbc193bce	-0.009352637
5	0x3d0986d8	0.033575863
6	0xbd247ab1	-0.04015607
7	0x3d81c5bc	0.06336543
8	0xbb08c4dc	-0.002086929
9	0x3cf747cf	0.030185608
10	0xbd3afd8b	-0.045651954
11	0x3bdfdb2a	0.0068315463
12	0xbbcc091e	-0.006226673
13	0xbcc20f19	-0.02368884
14	0xbcbae64f	-0.022814898
15	0x3d38b589	0.045095
16	0xbd1db2e8	-0.038500696
17	0x3d60b8e7	0.054863837
18	0x3cf4c5e3	0.029879516
19	0xbd46ecac	-0.04856555
20	0xbd0005cb	-0.031255525
21	0xbd40e5ce	-0.04709416
22	0x3c8961c6	0.016770255
23	0xbd2d2c30	-0.04227847
24	0x3d449d9e	0.048001878
25	0xbd49653c	-0.04916881
26	0xbd06a2c8	-0.032870084
27	0x3d227120	0.039658666
28	0xbcce526b	-0.025185784
29	0x3cdaf81e	0.02672964
30	0xbd1b4c82	-0.03791476
31	0xbd21d7c4	-0.03951241
