mRNAlocalization/cnn_models/cnn_model_fold2.pth (torch, 531886 bytes, 22 tensors)

layers.bn1.weight f4 [64]
000000 8d d1 7f 3f 99 48 80 3f 48 49 7f 3f 6b a1 7f 3f
       0.99929124 1.0022155 0.99721193 0.9985568
000010 6f 2a 80 3f 4e e5 7f 3f 06 38 80 3f 2b 32 80 3f
       1.001295 0.99959266 1.0017097 1.001531
000020 58 93 7f 3f 00 79 80 3f 98 38 80 3f b4 77 80 3f
       0.99834204 1.0036926 1.0017271 1.003653
000030 a6 63 80 3f 50 10 80 3f 89 21 80 3f c9 7c 80 3f
       1.003041 1.0004978 1.0010234 1.0038081
000040 a2 5f 7f 3f e7 eb 7f 3f 60 76 80 3f 3e d9 7f 3f
       0.997553 0.99969333 1.0036125 0.9994086
000050 b0 3d 7f 3f 7f 60 80 3f a9 7e 7f 3f bd 74 80 3f
       0.997035 1.0029448 0.99802643 1.0035626
000060 03 28 7f 3f f3 b5 7f 3f 82 9c 7f 3f 73 3a 80 3f
       0.9967043 0.9988701 0.99848187 1.0017837
000070 58 8d 7f 3f 19 29 7f 3f 46 4d 80 3f 67 22 80 3f
       0.9982505 0.99672085 1.0023582 1.0010499
000080 75 69 7f 3f 59 48 7f 3f fb 72 7f 3f 0a ca 7f 3f
       0.9977029 0.9971977 0.9978482 0.9991766
000090 ec 94 7f 3f e8 d3 7f 3f 73 04 80 3f 3a c3 7f 3f
       0.9983661 0.9993272 1.0001358 0.9990727
0000a0 46 11 80 3f 55 1d 80 3f ba 4a 80 3f 37 d3 7f 3f
       1.0005271 1.0008951 1.0022805 0.99931663
0000b0 e2 26 80 3f 1b 1f 7f 3f a4 62 80 3f c1 03 80 3f
       1.0011866 0.9965684 1.0030103 1.0001146
0000c0 68 8f 80 3f 64 b7 7f 3f 62 51 80 3f d5 f2 7f 3f
       1.0043764 0.99889207 1.0024836 0.9997991
0000d0 dd f7 7f 3f 30 13 80 3f c1 79 80 3f 64 2f 7f 3f
       0.99987584 1.0005856 1.0037156 0.9968169
0000e0 09 1f 80 3f 8d 3b 7f 3f bf f0 7f 3f e0 32 80 3f
       1.0009471 0.9970024 0.99976724 1.0015526
0000f0 f3 3d 80 3f 6b 04 7f 3f 9b 74 80 3f e8 a1 7f 3f
       1.0018905 0.99616116 1.0035585 0.99856424

layers.bn1.bias f4 [64]
000000 94 13 25 bb ee 5b 92 3a bd 1c 12 bb 10 95 66 3b
       -0.0025188671 0.0011166313 -0.0022294961 0.0035184063
000010 0e 3f 55 3b 30 0f 11 bb 7f 5a ea 3a e5 6b 65 ba
       0.0032538804 -0.0022134297 0.0017879753 -0.0008751734
000020 a4 69 a8 3a 63 6b 6a 3b cb 3c 26 3b a6 7b 34 3b
       0.0012848866 0.0035769574 0.0025365825 0.002753952
000030 e8 7b 28 3b a2 5d 8e ba 22 61 50 3a 6d 3a 6a 3b
       0.002570862 -0.0010861645 0.0007949044 0.003574039
000040 6c ff 8f ba 86 4b a8 3a f0 a5 a0 3b d9 b4 0a bb
       -0.0010986156 0.001283989 0.004902594 -0.0021164923
000050 2c cc a7 3a 2b d7 bf ba cf f8 d5 ba 3a 80 45 3b
       0.0012801937 -0.0014636269 -0.0016324761 0.0030136243
000060 b9 1b 33 bb a4 e3 b2 ba b4 2d a1 ba 46 a6 1d bb
       -0.0027329756 -0.0013648164 -0.0012296946 -0.0024055406
000070 a4 d8 01 bb 6b 93 10 bb be d0 fb 3a 1c a4 35 3b
       -0.0019812966 -0.0022060524 0.001921199 0.0027716225
000080 ff 26 12 bb f2 b6 d7 ba fd a2 09 3b 25 c0 d7 ba
       -0.0022301076 -0.001645772 0.002100169 -0.0016460462
000090 dc 26 78 bb 7d ac e4 ba 64 87 16 3a 6b 3b e3 ba
       -0.003786496 -0.0017446425 0.00057422207 -0.0017336434
0000a0 d3 e0 24 3b c9 fe 52 3b e2 9e 1d 3b ec 4d a1 39
       0.002515842 0.003219532 0.0024051 0.0003076637
0000b0 cd 8a a3 ba b5 a9 5d bb 4f 46 87 3b c9 5c b3 3a
       -0.0012477279 -0.0033823077 0.0041282545 0.0013684268
0000c0 4e 2a 6e 3b 39 34 ab b9 ac 15 df 3a b3 ec 97 ba
       0.0036341134 -0.0003265457 0.0017020009 -0.0011590928
0000d0 50 62 50 3a d3 f2 03 3a f2 71 7d 3b 61 1a 42 bb
       0.000794922 0.0005033437 0.0038672653 -0.0029617774
0000e0 43 be 2e 3a aa fa 3b bb 78 47 c4 b9 da 8d 49 b8
       0.00066659244 -0.0028683343 -0.00037437282 -4.8054244e-05
0000f0 53 cd 17 3b b8 90 9c bb 5a 70 83 3b b7 47 8f ba
       0.0023163154 -0.004777994 0.004011196 -0.0010931407

layers.bn1.running_mean f4 [64]
000000 d7 92 03 be 2c 85 03 bd f6 50 2b 3e f7 8e af 3d
       -0.12848984 -0.032109424 0.16730103 0.0857219
000010 1f 8b 98 3d ed 38 a9 3d 23 72 f0 3a 91 2d ac 3d
       0.0744841 0.08262811 0.0018344562 0.084071286
000020 46 d0 b8 bd 16 f4 5a bd 21 2f e5 3d ff ce 23 3d
       -0.090241 -0.053455435 0.1119063 0.03999233
000030 cb a8 04 3e 24 ec 7e 3b 58 fc 9f 3c 03 c1 1f bd
       0.12955014 0.0038898075 0.019529507 -0.03900243
000040 bf d9 ed 3c 08 81 07 be ae b6 df 3d b2 b2 e5 3c
       0.029034493 -0.13232815 0.10923515 0.02803931
000050 c7 03 f3 bc 1e 69 31 3d 44 b1 4a 3d ce 00 ab 3d
       -0.029664887 0.04331314 0.04948546 0.08349763
000060 1d a4 60 bc 52 68 7b 3d 07 e1 59 bd 77 00 a2 3d
       -0.013711003 0.061378784 -0.05319312 0.07910245
000070 01 76 07 3e 7c 43 35 bc 50 01 dc 3c 8c 1c 57 3e
       0.13228609 -0.011063453 0.026856095 0.21006984
000080 5a 51 f0 bd d2 02 30 3d 6e f2 88 3d 50 cc aa 3d
       -0.117342666 0.04297144 0.06686865 0.08339751
000090 e7 62 84 bc 2b c0 f3 3c 97 33 7d 3d 1b b3 4a 3d
       -0.016160442 0.029754719 0.061816778 0.049487215
0000a0 4b 9f d3 bd ae f1 85 ba b3 5f bc bc dc a5 04 3d
       -0.10333117 -0.0010219121 -0.022994852 0.03238474
0000b0 a1 1f ac bc c9 ec 80 bd 44 7d 31 3e d9 11 a1 3c
       -0.021011176 -0.06295163 0.17332941 0.01966183
0000c0 b2 d1 80 3d 23 d9 fc 3d 83 67 4c 3d f7 31 8a 3b
       0.06289996 0.12346103 0.049903404 0.004217382
0000d0 83 ec a3 3d 96 98 cc bd 28 50 3d 3e 72 41 b9 bd
       0.080040954 -0.09990041 0.18487608 -0.09045686
0000e0 c2 78 5d 3b d5 4d 27 3d 15 a5 80 bd 14 c4 11 bd
       0.00337939 0.04084571 -0.06281487 -0.035587385
0000f0 69 52 f4 3b 10 0f 83 bc f5 11 48 bd d9 a7 e1 bc
       0.007456113 -0.015998393 -0.04884525 -0.027545856

layers.bn1.running_var f4 [64]
000000 ae 9a 45 3d bd c4 dd 3c 1e 4a 0d 3d 1c 34 45 3d
       0.048243217 0.027071351 0.03449451 0.0481454
000010 d0 c9 e0 3c a7 92 25 3d 5f 53 0c 3d 34 85 f0 3c
       0.027439982 0.04042306 0.034259196 0.029360391
000020 d8 23 24 3d 97 15 16 3d 0d 6b 20 3d 55 f1 2a 3d
       0.040073246 0.036641683 0.03916459 0.04173406
000030 88 dc 1b 3d 46 75 d8 3c 49 e2 20 3d fa 6d 03 3d
       0.038052112 0.026423108 0.039278302 0.032087304
000040 ff 72 26 3d 83 69 0c 3d 45 d0 05 3d b7 33 16 3d
       0.040637013 0.03428031 0.032669324 0.036670413
000050 21 bc 1d 3d d3 e2 06 3d 9c e6 04 3d 93 1a f4 3c
       0.03850949 0.03293116 0.03244649 0.029797828
000060 09 c2 07 3d 28 0f 0d 3d 23 d8 0c 3d c8 24 03 3d
       0.03314403 0.034438282 0.03438581 0.0320175
000070 f7 5d d5 3c cd 15 07 3d ed c2 02 3d 29 a0 24 3d
       0.026045782 0.032979775 0.031924177 0.040191803
000080 da f8 d1 3c 06 d2 11 3d fc a4 33 3d 13 1e 15 3d
       0.025631357 0.035600685 0.043858513 0.036405634
000090 56 ea 06 3d b4 ef 0e 3d e9 de 0e 3d 16 e5 0c 3d
       0.032938324 0.034896567 0.034880552 0.03439816
0000a0 ba c7 14 3d ae 4d 6e 3d 04 52 e7 3c 75 10 20 3d
       0.036323287 0.05817955 0.02823735 0.039078195
0000b0 1e a4 13 3d 3c 44 f9 3c 35 b4 28 3d a1 5e 01 3d
       0.036045186 0.030428044 0.041187484 0.031584386
0000c0 2d 19 ef 3c 84 6d 1b 3d d8 88 c3 3c 08 68 fd 3c
       0.02918681 0.03794624 0.023868963 0.030933395
0000d0 5b 93 e4 3c bd 2c 0c 3d ad 9d f1 3c 54 e7 07 3d
       0.027902296 0.034222353 0.029494131 0.033179596
0000e0 e4 8b e2 3c f4 0e 0f 3d 0d 81 25 3d c2 ec 08 3d
       0.027654596 0.03492637 0.040406276 0.033428915
0000f0 85 0c 25 3d a5 69 31 3d c4 12 35 3d 4d f4 e2 3c
       0.040295143 0.04331364 0.04420735 0.027704382

layers.bn2.weight f4 [32]
000000 8d d4 80 3f be cc 80 3f be b5 7e 3f e2 3b 7f 3f
       1.0064865 1.0062482 0.99496067 0.9970075
000010 a7 cc 7e 3f 12 a9 7e 3f dc 0a 7f 3f bf 11 7f 3f
       0.99531025 0.9947673 0.99625945 0.99636453
000020 84 4b 7f 3f ce 9b 7e 3f 46 8e 7f 3f 7b b3 7e 3f
       0.997246 0.9945649 0.9982647 0.99492615
000030 e1 71 7f 3f 97 40 7f 3f 81 8d 7e 3f b0 1e 7f 3f
       0.9978314 0.9970793 0.9943467 0.996562
000040 6d 8d 7e 3f b6 84 7e 3f 50 95 7f 3f 26 a9 7e 3f
       0.9943455 0.9942125 0.9983721 0.9947685
000050 3e a2 7e 3f 20 bd 7e 3f 14 b8 7e 3f 67 b9 7e 3f
       0.9946631 0.9950733 0.9949963 0.9950165
000060 1a c0 7e 3f 15 35 7f 3f 35 45 7f 3f 82 88 7e 3f
       0.99511874 0.9969037 0.99714977 0.99427044
000070 ec af 7e 3f 38 90 7e 3f e1 4f 7f 3f 65 10 7f 3f
       0.99487185 0.9943881 0.9973126 0.9963439

layers.bn2.bias f4 [32]
000000 38 0d d5 3b 17 18 c7 3b 36 47 a6 bb 93 6f 70 bb
       0.00650182 0.00607587 -0.005074407 -0.0036687597
000010 55 22 9d bb 44 40 a7 bb bd d8 8d bb 43 0d 8e bb
       -0.0047953525 -0.0051040966 -0.0043288157 -0.004335077
000020 5b 42 77 bb f2 07 b1 bb c7 9d df b9 d8 48 a5 bb
       -0.003772876 -0.0054025585 -0.00042651428 -0.005044084
000030 41 a7 14 bb b7 da 48 bb 74 5c b0 bb c9 fe 96 bb
       -0.00226827 -0.0030647942 -0.005382115 -0.0046080095
000040 75 b8 b3 bb 8a 20 b6 bb cb dd 06 bb e9 3e a7 bb
       -0.0054846355 -0.005558078 -0.0020578976 -0.005103935
000050 5a 67 ae bb 11 d0 a5 bb 46 b1 a2 bb e0 50 a6 bb
       -0.005322379 -0.005060204 -0.0049649803 -0.005075559
000060 da b6 9f bb 39 f0 86 bb 95 6c 82 bb e9 a1 b2 bb
       -0.0048740925 -0.0041179922 -0.003980229 -0.00545143
000070 30 31 a8 bb 22 81 b1 bb 89 45 79 bb e1 86 8c bb
       -0.0051328167 -0.005417005 -0.003803583 -0.0042885398

layers.bn2.running_mean f4 [32]
000000 94 72 22 3e ff 1a 34 be e9 11 c0 bd 50 68 d9 be
       0.1586402 -0.17588423 -0.09378416 -0.42462397
000010 5e 5d fd 3c ff 52 4f bd fd ce bc be f1 5f ea be
       0.03092831 -0.05061626 -0.3687667 -0.45776322
000020 96 33 7e be e2 da ee bd 99 57 e6 be 8b 79 dc 3d
       -0.24824366 -0.11662842 -0.44988707 0.1076537
000030 ff 43 e0 be dc b8 a4 be 5d a3 b2 3e 84 ec b0 be
       -0.43801877 -0.32172287 0.3489026 -0.34555447
000040 a8 d0 60 3e 3d f9 41 3e 56 b5 b8 be dc fb 70 ba
       0.21954596 0.18942733 -0.36075848 -0.00091928034
000050 39 5d 9f 3e e8 e2 fe 3d d9 ef ff 3d 81 08 42 bc
       0.3112581 0.12445623 0.12496919 -0.011842848
000060 bb cf 08 be a6 59 8e be ab f9 cc be f8 b1 23 be
       -0.13360493 -0.2780277 -0.40034232 -0.15985858
000070 53 b8 ce 3e 32 53 cc bc 9d 38 8b be 44 03 ca be
       0.40375003 -0.024942014 -0.2719163 -0.39455616

layers.bn2.running_var f4 [32]
000000 24 94 c0 3f 5a c0 41 3f 75 ac 34 40 fe b3 93 3f
       1.5045209 0.7568413 2.823026 1.1539304
000010 3b cf 2f 40 c2 a0 98 3f ba a3 7d 3f 7b 31 76 3f
       2.7470233 1.1924059 0.9907795 0.9616925
000020 69 e6 5a 3f d6 6c af 3f dc 68 64 3f 82 4d dc 3f
       0.8550783 1.3705089 0.892225 1.7211154
000030 7d 88 af 3f 61 53 8c 3f 22 25 ca 3f 32 bf 41 3f
       1.3713528 1.0962945 1.5792582 0.75682366
000040 cf 91 28 40 7b cf 33 40 4d 76 6c 3f c5 3b eb 3f
       2.6338995 2.8095386 0.9236801 1.8377615
000050 c1 c5 50 40 72 0e ce 3f b1 69 bb 3f 8e 63 51 40
       3.26207 1.6098158 1.464163 3.2717013
000060 b1 06 36 40 0f a4 4d 3f 35 25 8e 3f b5 f3 9e 3f
       2.8441584 0.8032846 1.1105105 1.2418123
000070 c5 f8 57 40 a8 47 89 3f 41 7f 57 3f 28 ae 83 3f
       3.3745587 1.0724993 0.8417855 1.0287523

layers.conv1_1.weight f4 [64, 4, 9]
000000 b4 07 0e 3e 21 38 11 3e 42 ca d0 3d 00 80 4f 3d
       0.13870126 0.14181568 0.101948276 0.05065918
000010 78 46 2b 3e 30 33 05 bd e6 d4 ad bd e8 01 22 be
       0.167261 -0.03251952 -0.08487873 -0.1582104
000020 c7 4a 24 be ae 84 65 3d 24 d6 0a be 25 76 13 3e
       -0.1604415 0.056034736 -0.1355825 0.14400537
000030 0f 2c 48 bd c0 d1 a1 bc 0f 65 e4 3c 47 6e 01 3e
       -0.048870143 -0.019753337 0.02788022 0.12639724
000040 f3 da 5b bd 10 73 0a be 44 f4 ec 3c fb 73 d4 3c
       -0.053675603 -0.13520455 0.028925069 0.02593421
000050 e5 1e 8e bd 3e 78 f9 bd 7f 87 a4 3d af 82 3e 3d
       -0.069394864 -0.121811375 0.08033656 0.04651135
000060 a2 ba 02 3c 7f fd be 3d 66 5f 08 be 8c b4 e4 3b
       0.007979067 0.09325694 -0.13317642 0.0069795307
000070 96 d8 76 ba ff c0 f7 bc 5f e1 c6 bd 7a c0 f5 bd
       -0.0009416429 -0.030243395 -0.09710955 -0.119996026
000080 92 81 e4 3d de 1c f9 3c 1e 29 78 bd 18 49 2e bc
       0.11157526 0.030409273 -0.060586087 -0.010637544
000090 c8 a4 cc 3b ef 53 39 3d f8 18 07 bd 82 22 c4 bc
       0.0062452294 0.04524606 -0.032982796 -0.023942236
0000a0 66 e7 eb bd 5d d4 14 be 16 89 23 be 04 c9 d8 bd
       -0.11518745 -0.14534135 -0.15970263 -0.10585216
0000b0 14 38 fe bc b2 10 6a bc f5 1a 8f 3d 62 6d c3 bd
       -0.0310326 -0.014286207 0.069875635 -0.095423475
0000c0 d3 f7 c6 3d 54 ec 94 3d a8 ca 03 bd 4a 36 a0 3d
       0.097152375 0.072716385 -0.03217569 0.07822855
0000d0 b8 cd 13 3e c8 30 bb bd d6 9e d3 3d 9b 18 31 bd
       0.14433944 -0.09140164 0.1033303 -0.043236356
0000e0 91 55 a6 bc c0 cd 57 3c 69 25 0f be 12 25 b3 3c
       -0.020304473 0.013171613 -0.13979115 0.021868262
0000f0 b7 d8 23 be f1 18 27 bd a2 c9 18 3e c1 12 8c 3d
       -0.16000639 -0.04079527 0.14920667 0.068395145
000100 09 69 81 3c dd 2c ab 3d 41 e6 09 3c 9c 72 6b bd
       0.015797155 0.08358166 0.008416713 -0.057482347
000110 5b e3 85 3d b3 08 01 be 42 19 d0 bd 61 8e 25 3e
       0.06537505 -0.12600975 -0.101610675 0.16167594
000120 a3 14 04 3e 7e 00 08 bd a2 d0 82 3d fd 07 50 bd
       0.12898497 -0.033203594 0.0638745 -0.05078887
000130 75 e9 cd 3c 08 ac 11 3e 43 5b 0b be 3e d8 2a 3e
       0.025135735 0.14225781 -0.13609032 0.16684052
000140 67 d3 23 bd 7e 15 96 3c 44 69 1e bd f3 e0 bc 3d
       -0.03999653 0.018320795 -0.038674608 0.09222593
000150 ed 4d cb bd 07 e4 34 3c a8 ce 19 be 00 03 e1 bd
       -0.099269725 0.011040694 -0.1502024 -0.109869
000160 2a 3a 2c bd a5 c6 31 3c 20 f1 cf 3d 16 49 b5 bd
       -0.042047657 0.010850583 0.10153413 -0.08851831
000170 55 bb 22 3e 64 1f 1e 3e cc aa 5b 3c 5a a9 92 bd
       0.15891774 0.15441662 0.01340742 -0.071612075
000180 52 70 c7 3d ad 54 09 3e a5 b7 4b 3d fa 4c 96 bd
       0.0973822 0.13411207 0.049735684 -0.07338901
000190 01 4a 03 3e a1 d0 9a bd 70 fd 23 bd c4 4f cc bd
       0.12821199 -0.07559324 -0.04003662 -0.099761516
0001a0 73 73 dd 3c 08 4d b1 3c c3 ac 02 3d 87 87 5e 3d
       0.02703259 0.021643177 0.03190304 0.054328468
0001b0 5f 28 6b bb d2 6a ff bd 9c fd 5c bd aa 98 f9 bc
       -0.0035882217 -0.12471546 -0.0539528 -0.030468304
0001c0 56 36 24 be ed 25 6f bd 77 81 1f 3e 74 db af 3c
       -0.16036353 -0.05838578 0.1557673 0.021466948
0001d0 aa 59 00 be 73 7c 2a be cf c8 0e 3e f0 8c 59 3d
       -0.12534204 -0.16649036 0.1394379 0.053112924
0001e0 a0 af 14 bd bd e5 b9 bd 25 47 ae bd 6e 4e 0b be
       -0.0363003 -0.09077022 -0.085096635 -0.13604137
0001f0 7b dd 0e 3c 9b 56 f7 3d 0e 06 0e 3d 7f 36 d7 bd
       0.008719797 0.120770656 0.034673743 -0.10508441
000200 ab 74 d7 3c 34 47 51 bc 8d 72 2e 3d ae e5 84 bd
       0.026300749 -0.012773324 0.042589713 -0.064891204
000210 8c fe 25 3e 2d c8 79 bd 04 6e 17 3c 04 0e a5 bc
       0.16210383 -0.060981918 0.009242538 -0.020148285
000220 d9 19 09 3e ef 85 22 3b e2 76 7f bd f2 a0 8b bd
       0.13388766 0.002479907 -0.062369235 -0.06817807
000230 ac 02 94 bd 63 4d ca bd 49 81 2b ba 2f 4a f8 bc
       -0.07227072 -0.098780416 -0.00065423973 -0.030308811
000240 06 ac da 3d 20 5a 19 3c 23 57 1d 3c 2b 84 56 bd
       0.10677342 0.009359866 0.009603295 -0.05237214
000250 ee 9c 9c 3d f9 ca b9 3d 27 91 0d 3e f3 72 0e be
       0.076471195 0.09071917 0.13824902 -0.13911037
000260 01 1c cb 3b be 0b 01 3e 56 c6 b2 3c db a3 87 3c
       0.0061984067 0.12602136 0.02182309 0.016557625
000270 0f 2e 03 3e ef 3a 8f 3d 99 6a 5c 3d 3c 88 75 3c
       0.12810539 0.069936626 0.053812597 0.014986094
000280 b8 34 f1 bc 93 2e 72 bc ad 66 49 bb f1 db f9 3d
       -0.029444084 -0.014781612 -0.0030731366 0.122001536
000290 96 17 c0 bd 2b fa 9c 3d 75 2e a0 bd 26 ab 1a 3e
       -0.09379499 0.07664903 -0.07821361 0.1510435
0002a0 4b 86 0c 3e 81 69 11 be 9e a9 1d 3c 54 da 92 bd
       0.13723104 -0.14200403 0.009622959 -0.07170549
0002b0 9f 9a 24 3e 25 f2 b7 bd f0 6f 2d bc 4c 98 ac bd
       0.16074608 -0.08981732 -0.01058577 -0.08427486
0002c0 b7 1b c1 bc f2 82 22 3e ba 82 aa bd c9 04 9d bd
       -0.023572786 0.15870264 -0.08325715 -0.07666928
0002d0 dc 37 f0 bd 4b 16 c1 3d dc ea b9 3c 1c 09 e9 3d
       -0.11729404 0.0942808 0.022694997 0.113786906
0002e0 11 e2 02 3e 11 2e 97 3d 84 d2 f0 bd 01 9e d9 3c
       0.1278155 0.07381833 -0.11758903 0.0265646
0002f0 29 b4 b7 3d 62 64 28 3e d3 81 e1 bd 3f bf 0d be
       0.0896991 0.16444543 -0.1101109 -0.13842486
000300 c0 df 7d 3d 57 a6 25 bd 46 3a d3 bd de cb 96 3c
       0.061980963 -0.040441837 -0.10313849 0.018407758
000310 f6 08 e9 3b 1b 17 a3 3d 00 d5 e5 3d d5 36 e5 bd
       0.007111664 0.079633914 0.11222267 -0.11192099
000320 8c 80 0f be 23 e9 87 3d 3b be af 3d 71 d0 42 3d
       -0.1401388 0.06636264 0.085812055 0.047562066
000330 98 12 78 bd b5 79 0b 3e 7b 62 12 be 72 fe 15 bc
       -0.060564607 0.13620646 -0.1429538 -0.009154903
000340 28 2f a9 bd d9 bd 00 3e 1f de 5d 3d 1e a6 0a be
       -0.082609475 0.12572421 0.05416691 -0.13539931
000350 58 38 d7 bd 8d 52 f9 bc 79 07 04 be 9d 88 1a bd
       -0.105087936 -0.030434871 -0.12893476 -0.03772794
000360 d2 a6 58 bd b6 56 b9 3c c0 1e 9c 3d c2 24 51 bd
       -0.052893467 0.022624355 0.076230526 -0.051060446
000370 09 e5 32 bd f8 89 09 3e f0 7e 58 bd f9 9b 8d 3d
       -0.043675456 0.13431537 -0.052855432 0.06914515
000380 df 4a 4a bd fb b7 37 bd df 16 c1 bd d7 62 3f bd
       -0.04938781 -0.04485319 -0.094281904 -0.04672512
000390 34 de a0 bd 89 ec 24 3e 74 74 01 bd a4 7e 94 3d
       -0.07854882 0.16105856 -0.0316052 0.07250717
0003a0 6e 5d 19 3e dc 2f 44 3d 66 e9 78 3d dc 36 05 3c
       0.14977047 0.047897205 0.06076946 0.008130755
0003b0 47 e1 f5 bd 11 3c 69 bd 24 d8 4e 3d f3 e4 15 be
       -0.12005859 -0.05694205 0.050499097 -0.14638118
0003c0 64 8f 0b bd b5 00 c6 bd e0 d6 78 3d 04 65 8b bd
       -0.034072295 -0.096681036 0.060751796 -0.068063766
0003d0 a5 ff 0b 3e 8a 15 cc 3d 83 5b 55 bd 85 52 11 3e
       0.1367174 0.09965046 -0.052089226 0.14191635
0003e0 84 c2 ed 3d ea 6f 07 3e ce 75 e4 3c d8 48 30 3d
       0.116093665 0.13226286 0.027888205 0.04303822
0003f0 ca 17 cb 3d 41 c0 ec 3d 32 e1 5d bd a2 91 17 3c
       0.09916647 0.11560107 -0.05416984 0.00925103

layers.conv1_1.bias f4 [64]
000000 f0 5d 30 3d f5 ce ca 3d c0 d2 21 3e d1 91 e2 3d
       0.043058336 0.09902755 0.15803051 0.110629685
000010 c2 68 9c 3d 38 68 20 bc 90 62 81 3d 19 cb 4a 3d
       0.076371685 -0.009790473 0.063176274 0.049510095
000020 62 23 e2 3c 46 62 27 be be 43 a9 3d 54 3d 44 3d
       0.027604762 -0.16346082 0.08264874 0.04791005
000030 28 c0 02 3e 93 aa 97 bc af c1 10 bd c3 a8 d7 bd
       0.12768614 -0.018513953 -0.03534096 -0.105302356
000040 b9 a3 ec bd dc eb 24 be a5 3a 23 3d 3a 18 4f 3d
       -0.11554665 -0.16105598 0.03985085 0.050560214
000050 53 b9 03 be bb ef 96 3b 95 a6 23 3e 45 13 f7 3d
       -0.12863664 0.004606215 0.15981515 0.12064222
000060 56 54 dd bd a3 7b 25 bc 46 c8 cc bd d4 51 d7 3d
       -0.108071014 -0.010100278 -0.099991366 0.10513654
000070 c3 b3 dd 3d 0f 32 12 bd d3 70 07 bd 34 35 15 3e
       0.108253025 -0.03569227 -0.033066582 0.14571077
000080 27 d9 09 be 56 3a 57 3d 9b 2b 05 be ea 20 74 3c
       -0.13461743 0.052545868 -0.13004915 0.014900425
000090 1b 10 4b 3d c5 00 7b bd 38 fc 97 3d 8a c0 03 3e
       0.049575906 -0.06128003 0.07421154 0.12866417
0000a0 2f 20 17 be 93 fc 0b 3e 11 79 e3 bd 34 b8 20 3d
       -0.14758371 0.13670568 -0.11107076 0.03923817
0000b0 6e 5c 56 bd fa 33 b3 bd 90 ea 28 3e a8 61 a3 bd
       -0.05233424 -0.08750148 0.16495728 -0.07977611
0000c0 59 c8 95 3c 3e 6b d0 bc 80 e2 ce bb b8 99 18 bd
       0.01828401 -0.025441762 -0.006313622 -0.037255973
0000d0 b6 22 19 3d 51 f0 ee bd 41 ae 20 3e 6e a5 22 be
       0.03738662 -0.116669305 0.15691473 -0.15883419
0000e0 e1 a7 82 bd 67 77 c7 3d fe 0f 06 3e 79 c6 0b be
       -0.063796766 0.09739571 0.13092038 -0.1364993
0000f0 76 e9 04 be 97 83 47 bc 59 8f 0f be 90 59 f7 3d
       -0.12979683 -0.01217737 -0.14019527 0.120776296

layers.conv1_2.weight f4 [32, 64, 9]
000000 a0 7e d4 3b c4 fa 33 bc ce e4 d0 bc 40 91 32 3d
       0.0064848214 -0.01098508 -0.025499728 0.043595552
000010 c0 9d 0e 3d 7b 29 33 bc 2d cd 34 3c ed df f5 bb
       0.03481841 -0.010935183 0.011035246 -0.0075035007
000020 2a 8c 07 3d 75 97 40 bc 7d cf 1a 3d 8e f1 31 3d
       0.033092655 -0.01175486 0.037795532 0.043443255
000030 8a 70 1e bd e3 e4 27 3b 1d e0 33 3d 12 bd ca 3c
       -0.038681544 0.0025618605 0.043914903 0.024748359
000040 4b a7 6f bc f4 9d 91 bc 8e 5b 0a bb 9a ea 19 3d
       -0.014627288 -0.017775513 -0.00211117 0.03757725
000050 1d 77 88 3c 44 82 f9 bc a7 05 14 bd a8 42 50 3c
       0.01665836 -0.030457623 -0.036138203 0.012711205
000060 a5 b8 aa 3b cb 20 7a ba f9 b4 33 bc 5d d7 40 bc
       0.0052099996 -0.00095416297 -0.01096844 -0.011770097
000070 75 fc 7f 3b 47 24 f5 bb 9e 6d 13 3c 2c 42 ae 3c
       0.0039060388 -0.0074811312 0.008998303 0.021271788
000080 28 83 7c bc 89 fe 0d 3d 53 03 1a bd 2f c1 17 bc
       -0.015412129 0.03466657 -0.037600826 -0.009262367
000090 46 52 36 3c d2 20 48 3c ce 70 0c 3d b7 4f 9e 3c
       0.011128014 0.012214856 0.034287266 0.01932512
0000a0 d7 0f 27 3d eb 55 31 3c ec 53 c7 ba 2b 63 4b 3a
       0.04078659 0.010823707 -0.0015207506 0.00077586126
0000b0 5c 2f 61 3c 59 35 a0 3c e5 33 1b bd d5 72 5a 3c
       0.0137442015 0.019556688 -0.037891287 0.013333042
0000c0 a4 4c fe 3c b5 31 8c bc 24 59 1d 3d d7 70 80 3c
       0.031042404 -0.017113546 0.03841509 0.015678806
0000d0 71 9f e9 3c d8 9e 06 3d 39 9f e4 3c 2e 31 b0 bc
       0.02851841 0.03286633 0.027907955 -0.021507826
0000e0 29 62 e3 bc c6 35 af bc f4 6e d4 3c b8 31 1b bd
       -0.027756767 -0.021387946 0.025931813 -0.037889212
0000f0 e9 99 ba 3b 07 7d db bc 2e 5f 00 bd 4e 34 07 3d
       0.005694617 -0.026793016 -0.03134077 0.033008866
000100 0e 1a bd bc f1 8a 28 bd 78 a6 8c bc c3 e4 86 bc
       -0.023083713 -0.04114813 -0.017169222 -0.016466504
000110 48 ab 0b 3d af 42 dc bc 40 cd 1f 3d f9 4f 4e bc
       0.034098893 -0.026887266 0.0390141 -0.012592309
000120 f6 bc fc 3c 9b ed a1 bb 4d ca 0b bd 8b 11 fe 3c
       0.030851822 -0.004941655 -0.034128476 0.031014225
000130 8b 70 08 bc 79 a1 64 bc e6 0c 16 bd c8 c4 05 3d
       -0.008327614 -0.013954514 -0.036633395 0.03265837
000140 1c 67 19 bd 06 ea a0 bc 9c b0 d2 3c a4 f9 26 3d
       -0.03745185 -0.019642841 0.02571898 0.04076542
000150 ac 84 8d 3c 9b ab 3e 3b 9b 42 94 3c 60 e2 c3 bb
       0.017275177 0.0029093984 0.018098166 -0.0059779137
000160 b6 d4 9e 3c f4 61 04 3d da 0c 07 bd 1f 96 12 3d
       0.019388538 0.032319978 -0.03297124 0.035787698
000170 5e 7c b7 3c 0c 96 69 bc 73 af 75 3c 9c a1 a9 bb
       0.02239817 -0.014256965 0.014995444 -0.005176736
000180 bb c5 47 bc 09 46 b0 3c da fa 10 3d 4b f5 12 3d
       -0.012193139 0.02151777 0.03539548 0.03587846
000190 35 49 1b bc 39 a5 f2 bc da 00 0d 3d 08 d2 e6 ba
       -0.009477903 -0.0296198 0.03442464 -0.0017610202
0001a0 bb 58 d5 3c 7e cb 21 3d 04 92 ae bc ae af a1 3c
       0.026043287 0.039500706 -0.02130986 0.01973709
0001b0 2c 8a 12 bd 09 48 d6 3c d8 f0 a0 3c b9 85 a2 bb
       -0.035776302 0.026157396 0.019646093 -0.0049597886
0001c0 d5 33 ee 3a 8a 79 ab 3c 98 f4 1e bd 4e e0 7b 3c
       0.0018173406 0.020931978 -0.03880748 0.015373303
0001d0 96 d6 b6 bc 83 39 09 bd 2a 10 10 bd 82 e5 ac 3b
       -0.02231912 -0.033502113 -0.035171665 0.005276383
0001e0 6e c4 a3 bc 38 db 58 bc a5 f0 01 bd be a6 ab 3c
       -0.019991126 -0.01323586 -0.031723637 0.020953532
0001f0 44 4c 8e 3c 74 59 20 3d d6 77 39 bc 6b e2 26 3d
       0.01737035 0.03914781 -0.011320075 0.040743273
000200 78 8f ef 3c e4 6a d9 bc be 13 ce 3c 56 6c bc 3c
       0.029243216 -0.026540227 0.025155898 0.023000877
000210 be d3 b4 bc 09 67 c3 3c 4f c5 66 3c 8d 17 b1 3c
       -0.022073623 0.023852842 0.014085128 0.021617675
000220 65 78 89 3c 1f c5 13 3c 77 fd 0a bd c8 4e 12 3d
       0.016781041 0.009019165 -0.03393313 0.035719663
000230 91 cc 12 bc 57 1e 02 bd 7f 29 2a bc cb e1 0e 3d
       -0.008959905 -0.031767216 -0.01038587 0.0348833
000240 93 48 a0 bb a9 8b 71 bc 0b bd bd bc 84 04 93 3b
       -0.004891464 -0.01474277 -0.023161432 0.0044866223
000250 45 de d3 3c 3b 00 bc 3c 1a f0 d5 bc 13 e6 e8 3b
       0.025862822 0.022949329 -0.026115466 0.007107505
000260 0b ac 33 3c 96 b9 0e 3d ed 08 d3 bc 2f 00 5b 39
       0.010966311 0.034844957 -0.025761092 0.00020885536
000270 3b 21 ef bc 85 69 e3 bc d4 e6 d5 bc e4 ca bf bc
       -0.02919065 -0.027760277 -0.026111044 -0.023412175
000280 d4 25 44 3c d4 37 05 bd c4 19 8c bc 0a fe 4b b9
       0.01197191 -0.032523945 -0.01710213 -0.00019454226
000290 4b 90 11 bc ae af 0f 3d 6f f0 c6 3c 4b 3b 02 3d
       -0.0088845 0.03507965 0.02428457 0.031794827
0002a0 e4 9b 0a 3d 10 aa 64 3c 74 39 6c 3c cf 17 fb 3c
       0.033840075 0.013956562 0.014417995 0.030651001
0002b0 d0 71 2e bc 5c 76 02 3d 28 be 14 3d 05 a8 23 3c
       -0.010647252 0.031851158 0.03631416 0.009988789
0002c0 25 bf fe 3c eb 72 7a 3c bf 07 12 bd 5a ca 9e bc
       0.031097004 0.015286188 -0.03565192 -0.019383598
0002d0 54 ec 0d bd f5 ab 2b bc cc 40 07 bd 0b 4a fc 3c
       -0.03464921 -0.0104780095 -0.03302078 0.030797025
0002e0 98 2f b0 3c ac cb 08 3d ca 90 a9 bc 37 10 71 3c
       0.02150707 0.03339736 -0.020698924 0.014713339
0002f0 c3 a6 da 3c 06 d9 fd 3c ec 24 5b 3c b0 f3 81 bc
       0.026690846 0.030987274 0.013375502 -0.01586327
000300 03 af 34 bd 8a fe 42 b7 b2 36 ce bb 57 ad 03 3d
       -0.044112217 -1.1622566e-05 -0.0062931413 0.03214773
000310 f1 12 35 3d f2 fd 09 3c b3 92 56 bc fe 01 ca bc
       0.044207517 0.008422362 -0.013096499 -0.024659153
000320 71 1e 12 ba 2d 85 cd bc 6e 2a fe bb 3a c0 1e bd
       -0.0005573994 -0.025087917 -0.007756523 -0.03875754
000330 4c 16 7f 3c 94 46 ee bc 8a 98 04 bc cc da 18 bd
       0.015569281 -0.029086389 -0.008093009 -0.037318036
000340 1b 02 f5 3c ad e4 6e 3c 14 cc 15 3d 9a 55 cd 3c
       0.02990823 0.014580888 0.036571577 0.025065232
000350 4d 65 98 bb 49 38 18 bd 64 c5 12 3c 25 ba 94 3c
       -0.004650748 -0.037163053 0.008958194 0.018155167
000360 0f e5 a2 3b 0b e3 19 bd ec e3 e3 bc b1 ba 08 3d
       0.0049711536 -0.03757004 -0.027818643 0.033381168
000370 ae fd e9 3a b5 34 29 3d 9b e6 cb bc ed a1 52 ba
       0.0017852092 0.04131003 -0.024890235 -0.0008034993
000380 85 35 13 3d fb 91 53 bc 90 6d 0b 3c e4 81 dd bc
       0.035939712 -0.012913222 0.008510008 -0.027039476
000390 79 ba 27 bd e8 fc 82 3c 4b 5c 1c 3d 78 e4 0f 3d
       -0.04094932 0.015989736 0.038173955 0.035129994
0003a0 bd 18 78 3c aa 5b 21 3d d3 0d 81 bb 7b bc 24 3d
       0.015142617 0.03939406 -0.0039384156 0.04021881
0003b0 64 d0 09 3d 54 9c b4 3c 9b 6f b0 3c b2 43 60 bc
       0.033646002 0.0220472 0.021537593 -0.013688015
0003c0 4e 93 c5 bc 3e 22 a9 3c 59 4b 1a bd db 2b 9d 3c
       -0.024118092 0.02064621 -0.037669513 0.019185951
0003d0 cd 69 0c 3d 2b 4e b0 bc 87 9c 4b bc af 0f 08 bd
       0.034280587 -0.021521648 -0.012427456 -0.033218082
0003e0 98 87 e0 bc 1c f1 e1 bc de 3c e2 3c ef 22 23 3d
       -0.027408406 -0.02758079 0.027616914 0.039828237
0003f0 08 e1 1b 3d 03 c1 ea 3c b5 b3 b4 3c d7 45 b3 3c
       0.038056403 0.028656488 0.022058347 0.021883888

layers.conv1_2.bias f4 [32]
000000 41 21 c3 3a 4c 5e 11 bd 20 86 b7 bc dd 07 a4 bc
       0.001488723 -0.03549032 -0.022402823 -0.02002328
000010 0a 2c a3 bc 0a 77 86 bc bb 80 04 bc 06 99 1e bc
       -0.01991846 -0.016414184 -0.008087332 -0.009680038
000020 8e 36 7b bc 23 92 e4 3b 32 ad c6 3c 43 c2 7e 3b
       -0.015332831 0.0069754287 0.024252508 0.0038873113
000030 23 fa d2 bc 5d 00 8f 3b af 99 85 bc 5e b5 22 bd
       -0.02575404 0.004364057 -0.016308634 -0.039723746
000040 a1 27 3f ba b9 5e 02 3c af 72 53 3c 1c ed 0e 3d
       -0.0007291977 0.007957154 0.012905761 0.034894094
000050 d9 4b 00 bc ca b7 09 3d 38 e0 c5 bc 89 12 05 bc
       -0.0078305835 0.03362254 -0.024154767 -0.008122095
000060 2b 14 a2 3a 18 b9 22 bd 13 ec 0e 3b 42 bf fa 3c
       0.001236563 -0.0397273 0.0021808192 0.030608777
000070 77 2d 06 3d 11 ee 89 3b e4 37 e2 bc ad 2c 28 bd
       0.032758202 0.004209288 -0.027614541 -0.04105823

layers.conv2_1.weight f4 [64, 4, 20]
000000 67 67 d4 3d 18 0f b6 3d 92 c0 8a bd 27 71 2b 3c
       0.10371285 0.08889598 -0.06775011 0.010463989
000010 d3 5f bd 3c d8 e1 8c 3d 2b 9f cb bd 1e fd 93 3d
       0.023116982 0.06879014 -0.09942468 0.07226013
000020 f7 29 e1 bd 0f 54 4e bd 03 1d 99 bd cd ec c0 bc
       -0.10994332 -0.050373133 -0.07476237 -0.023550415
000030 03 da b2 3c 2c b2 57 bd af 7a 5d 3d e4 ea d3 bd
       0.021832472 -0.052660152 0.05407208 -0.10347536
000040 db b9 7c bd e8 59 8f 3d 9b aa cd bd d6 56 0b 3d
       -0.061700683 0.0699957 -0.10042306 0.03401836
000050 e7 9e cb 3d 96 2c da bd 28 20 92 b8 0e 59 76 bd
       0.099424176 -0.10653035 -6.967812e-05 -0.060143523
000060 83 3f 51 3d 5b e5 0d bd fa 79 cf bd 15 aa de bd
       0.05108596 -0.03464256 -0.10130687 -0.10872284
000070 c5 3c 72 bb 13 f0 bf bd 44 9b b6 3c 78 ae c8 3d
       -0.003696249 -0.093719624 0.022290833 0.09798902
000080 05 0c de bb 18 70 32 bb 83 18 c9 3d b2 05 23 bd
       -0.006776335 -0.0027227458 0.09819128 -0.039800353
000090 e2 92 b2 3c 7b ae d1 3d a6 fc a7 bd 48 89 ae 3d
       0.021798555 0.10238358 -0.08202486 0.08522278
0000a0 33 73 3f 3d ca 1d 9a bd bc 10 f7 3c 3d cf a6 bd
       0.046740722 -0.07525213 0.030159347 -0.08144996
0000b0 8a 9c b4 bd e9 4d 44 bd b6 71 16 bd 89 bb f9 bc
       -0.0881892 -0.047925863 -0.036729537 -0.030484932
0000c0 78 a1 58 3d 8a 2b 18 3d c6 f7 86 bd af 4b 87 bd
       0.052888364 0.037150897 -0.06590228 -0.066062324
0000d0 8f 98 9c bd bb 7d e6 bd 4f 0e 90 bd eb 91 b7 bd
       -0.07646286 -0.1125445 -0.07033979 -0.089633785
0000e0 15 b7 83 bb 98 43 a1 bd 3b ae 19 3d 65 9d fc bc
       -0.004019628 -0.078742206 0.037519675 -0.03083677
0000f0 14 34 eb bd 52 4f 90 bd 83 b9 69 3d 3c 97 ac 3c
       -0.114845425 -0.07046379 0.057061683 0.021068208
000100 34 9b e6 bc ae fc 8e bd ea 3b b6 bd 7b d7 aa bd
       -0.028150178 -0.069817886 -0.088981465 -0.08341881
000110 9b b0 e7 bd aa 8d 97 3b 74 87 a8 3b 15 63 d4 bd
       -0.11312982 0.004625042 0.0051431004 -0.10370461
000120 37 79 68 bd e9 d2 27 3d e0 12 30 bd cd d3 6d 3d
       -0.056756224 0.040972624 -0.04298675 0.058063317
000130 29 f8 ae 3c f0 76 15 3d 97 f1 11 3c 12 91 c8 bc
       0.021358566 0.03649038 0.008907697 -0.024483237
000140 b8 2f 8a bd ae 61 78 bd 4e 52 83 3d 57 d5 94 bd
       -0.06747383 -0.06064003 0.06412183 -0.07267254
000150 c7 dc be bc 1c a1 b2 bc df 83 e8 3b b4 08 ba bd
       -0.023298634 -0.021805339 0.0070957984 -0.09083691
000160 fc 8e 3b bd cb 33 5f 3d 11 bc d2 3d c7 13 cf 3d
       -0.045790657 0.054492753 0.10289777 0.10111194
000170 98 1f c7 bb 97 36 bd bd c2 56 90 bd c0 3c 97 3d
       -0.0060767643 -0.09238928 -0.07047798 0.07384634
000180 05 93 4b 3c a5 05 58 3d ba d4 52 3d ec 31 8c bd
       0.012425189 0.052739758 0.051472403 -0.06845459
000190 02 cd 89 3d 7e 33 1c bd 49 1b f0 3c 0a a8 a1 bc
       0.06728555 -0.038135044 0.029309886 -0.019733448
0001a0 91 05 a9 3d ac bd 47 bd 3b 2b d1 3c 90 a4 81 3d
       0.08253015 -0.04876487 0.02553331 0.06330216
0001b0 32 f7 8f 3d 1b cf bd bd 31 f4 47 bd c2 c3 d4 bd
       0.07029571 -0.09268018 -0.048816863 -0.103889
0001c0 81 fa 98 3d b8 89 b3 bd fe 05 e7 bc 6e b1 5e bd
       0.07469655 -0.08766502 -0.0282011 -0.05436843
0001d0 a8 da a8 3d 9f b0 b0 3d 01 f7 5f bd 00 62 aa 3c
       0.0824483 0.08627438 -0.05467892 0.020798683
0001e0 83 d9 03 bd b4 04 a8 3d 0a c1 c2 bb 11 cd bb 3d
       -0.032189857 0.08204022 -0.005943422 0.09169973
0001f0 44 f0 c2 bc cd 94 8f 3d 98 71 16 3d b6 a3 8e bd
       -0.023796208 0.07010803 0.036729425 -0.06964819
000200 b0 9a 62 3b 47 58 9c 3c e0 8a 11 3d e7 03 ab 3c
       0.0034577064 0.019085063 0.035532832 0.020875884
000210 49 25 52 3c c3 8c 90 bc f1 31 07 3d c6 ec b2 3c
       0.012826272 -0.017645245 0.033006612 0.021841418
000220 f2 f3 83 bd 3a 06 69 3c 8d 25 10 bc 48 6d 3e 3b
       -0.06443013 0.014222676 -0.008798015 0.0029056836
000230 bb 96 d6 bc bf 19 aa 3c f0 f7 3e bd 4a 52 ca bd
       -0.02619492 0.02076423 -0.04662317 -0.09878977
000240 10 d8 47 3d d3 82 be bd 55 01 c8 bd 13 3f 6e bd
       0.048790038 -0.093022965 -0.09765879 -0.05816562
000250 08 e4 c8 3d 65 9d ce 3d 62 dc 93 bd 24 34 1a 3d
       0.098091185 0.100886144 -0.07219769 0.03764738
000260 99 ec d6 3b bf bf 7e bc 24 70 91 bd f4 ab a4 bb
       0.0065589664 -0.0155486455 -0.07101467 -0.005025381
000270 11 92 93 3a 51 0f 27 3d 2b 1f 83 bd 6e 2a b9 bd
       0.0011258741 0.04078609 -0.06402429 -0.09041296
000280 77 6c e7 ba d2 73 a3 3d ac af 95 39 5e 8f dd 3d
       -0.0017656226 0.07981075 0.0002855038 0.10818361
000290 73 c7 aa bd 21 cb e6 3d 56 09 d5 3d 3e 70 7d bd
       -0.08338823 0.112692125 0.10402171 -0.06187462
0002a0 d2 85 92 bd e1 e6 28 3d b4 79 6d 3d 84 cb 96 b8
       -0.071544304 0.04123581 0.057977393 -7.190465e-05
0002b0 33 d0 ed 3d 23 d4 b3 3d 4e ee 9e 3d 37 2e 66 3c
       0.116119765 0.08780696 0.07760297 0.014049104
0002c0 10 1a 5a bd 86 6a 1c 3c ab 59 3b bd c2 4e ce bc
       -0.05324751 0.009546882 -0.04573981 -0.025184039
0002d0 64 85 72 bc 47 bb 15 bd 0f 9c b9 bd 39 45 c0 bc
       -0.014802311 -0.036555555 -0.09062969 -0.023470508
0002e0 39 39 5f 3d 39 60 83 bd 45 13 e0 3d 68 f2 b6 3b
       0.05449793 -0.064148374 0.10941175 0.0055830963
0002f0 38 8e cd 3d 46 c1 11 bc 85 be e8 3d 26 26 67 3d
       0.10036892 -0.008896178 0.11364464 0.056432866
000300 23 02 a2 3d 97 3c 74 bd 46 e7 c7 bc 50 82 31 bc
       0.07910564 -0.059628095 -0.024402272 -0.010834292
000310 65 77 a0 3d cb ad 21 3c 61 20 9c 3d 9c c5 b3 bc
       0.07835273 0.009868096 0.07623363 -0.021944813
000320 70 f4 d3 bb 69 15 c2 bd d4 9f d7 bc 99 de b3 bd
       -0.006468348 -0.0947674 -0.02632133 -0.087826915
000330 03 3a 9f bd fc 55 b0 3c 93 e1 9d bd 60 ed b7 3c
       -0.07774737 0.021525376 -0.077090405 0.022452056
000340 d1 61 7e 3d ca 72 82 3d 8f 59 27 3d 9e e5 79 bd
       0.062105004 0.063695505 0.040856894 -0.061009996
000350 a9 d6 d2 bd c8 0b 04 bd 69 56 c9 bd 5f ca e1 bd
       -0.102948494 -0.032237798 -0.098309346 -0.11024927
000360 8a ba cc bd 9f 27 79 bc d5 cc 5c 3d 81 04 b9 bd
       -0.09996517 -0.0152072 0.05390628 -0.09034062
000370 7b 03 24 bd c4 41 39 3d 80 4b a4 3d 81 79 db 3d
       -0.04004238 0.045228735 0.08022213 0.107165344
000380 7c 5f da 3d f7 9a c0 bd 28 35 c6 bd 84 bd 80 bc
       0.106627434 -0.09404557 -0.096781075 -0.015715368
000390 e0 61 88 3c 84 c4 38 bc 65 ce 5d 3c fb 60 9f bd
       0.016648233 -0.011277322 0.013537978 -0.077821694
0003a0 ce 6a cc 3d f4 c7 7f 3c 8a 99 c4 bd 0a ce 98 bd
       0.09981309 0.015611637 -0.09599598 -0.07461174
0003b0 8d 8b 27 bd 6f 54 b0 3d d7 7a 8c 3d 36 ea 19 3c
       -0.04090457 0.086098544 0.06859367 0.009394219
0003c0 e1 c7 8c 3d c1 75 52 bd b5 a6 8f bd 54 82 c8 3d
       0.068740614 -0.05138183 -0.07014219 0.09790483
0003d0 c9 ea 97 3c 0f 63 e9 ba 4b 24 33 3d 3e f0 74 3d
       0.018544571 -0.0017806011 0.043735784 0.059799425
0003e0 08 56 af 3d 68 4c 9b bd fc 0e aa 3d e8 f3 1d 3c
       0.08561331 -0.07582933 0.08303639 0.009640671
0003f0 32 6e 99 bd 64 63 a4 3c ae 69 aa 3d 74 e9 73 3d
       -0.07491721 0.020066924 0.08320938 0.05954881

layers.conv2_1.bias f4 [64]
000000 1a 28 c4 bd 41 c0 ac bd 61 8f d0 3d 28 e8 a0 bc
       -0.09577961 -0.08435107 0.10183597 -0.01964195
000010 7f 0c a9 bd fc 92 68 3d 04 3d 18 bd 37 84 d1 3d
       -0.082543366 0.0567808 -0.037167564 0.10230296
000020 35 aa bc bd 33 52 b9 bd 45 a0 a5 bb 20 f3 cb bd
       -0.09212152 -0.090488814 -0.005054506 -0.09958482
000030 db a3 08 bd 38 4e 12 3c ac dd d2 bd 36 1c 1f bd
       -0.03335939 0.008929782 -0.10296187 -0.038845263
000040 93 54 8a 3a ab 00 a3 bc 86 2a d5 3b 01 b0 86 bb
       0.001055377 -0.01989778 0.0065053133 -0.004110337
000050 a6 e5 af 3d 8f 01 e5 3d ad d4 6b bd e8 e2 01 bd
       0.08588724 0.11181938 -0.05757587 -0.031710535
000060 5b 92 98 3d 4b 92 bf 3d 3c 0e 43 bd 8b cb 60 3d
       0.0744979 0.09354075 -0.047620997 0.054881614
000070 fa da b9 3d 26 be 65 bb 2e 64 7c 3b a9 0e 89 3d
       0.090749696 -0.0035055964 0.003851186 0.06692249
000080 1a c4 86 bd d3 8b be bd 76 b8 ce 3d c9 cb 41 3d
       -0.06580372 -0.09304013 0.10093777 0.047313485
000090 df 7b 56 bd 49 0d ae 3d a8 84 e4 3d dc be 64 bd
       -0.052364226 0.08498628 0.11158115 -0.05584608
0000a0 06 c3 b5 3b 6a e5 ee 3c 1c ba f2 3c 35 83 a9 bc
       0.0055469302 0.029162128 0.02962976 -0.020692447
0000b0 66 86 40 bd 02 e4 fb 3c 95 32 a4 ba 7a ce 02 bd
       -0.047003172 0.030748371 -0.0012527282 -0.031935193
0000c0 8c 4d e6 3c ed 5e 95 3d 3a 37 90 3d 48 59 a9 bc
       0.02811315 0.07293496 0.07041784 -0.020672455
0000d0 e9 f0 ef 3c 4f 53 6e bd 33 ee da 3d 01 ec ef b7
       0.02928968 -0.058184918 0.10689964 -2.8600918e-05
0000e0 b8 68 70 3d c9 35 c5 bd ca 71 c0 bd be a8 3b 3b
       0.058693618 -0.09629399 -0.093967035 0.0028634514
0000f0 b8 66 6e 3c d9 73 9c 3d 00 95 1e bd a1 16 b9 bd
       0.014550857 0.07639284 -0.038716316 -0.09037519

layers.conv2_2.weight f4 [32, 64, 20]
000000 27 34 db bc 9b 43 49 bc b1 55 a9 bc 55 64 5d 3c
       -0.026758267 -0.012284185 -0.020670744 0.013512691
000010 ab f4 bd 39 e7 29 03 bd 47 0c 5c 3c 20 19 76 3c
       0.0003623118 -0.032022383 0.0134306615 0.015020639
000020 44 20 a5 3c 49 3b 05 3c 74 45 08 3c 41 d9 2e bc
       0.020156987 0.00813181 0.00831734 -0.010671915
000030 06 58 f7 bc be 67 43 bc 98 11 83 bc e2 ec 2b bc
       -0.03019334 -0.0119265895 -0.0159996 -0.010493489
000040 6b 4e 35 bc b1 dd c0 bc 10 d8 b7 bc 19 87 4c bc
       -0.01106606 -0.02354321 -0.022441894 -0.012483382
000050 92 1e 2e 3c 19 1e ac bc f8 7c 03 ba 74 ae 8c 3b
       0.010627406 -0.021010445 -0.0005015875 0.0042932574
000060 ff 63 cb ba 4d bb f2 bb 5a e8 ce 3c b6 49 bb 3b
       -0.0015517472 -0.007407582 0.025257278 0.005715574
000070 9a c8 74 3c b9 6b 63 3c 12 8c 83 bc a5 e3 04 bb
       0.014940405 0.013880664 -0.016058002 -0.0020277288
000080 bb bd 88 3b 5d 97 9e bc 17 e1 65 3c 26 fa 9a 3c
       0.0041730083 -0.019359285 0.014030716 0.018918108
000090 00 48 f1 ba 57 c2 2a bc e8 71 8d 3c ef fa 63 3c
       -0.0018408298 -0.010422311 0.017266229 0.013914808
0000a0 c7 5f c9 3b c5 a6 d1 3c 68 32 52 bc b5 27 94 3b
       0.0061454508 0.025592217 -0.012829401 0.004521335
0000b0 0c f1 8f 3c 20 4e 6b 3c 4d 45 f3 ba e9 19 9c 3c
       0.017570995 0.014361888 -0.0018560082 0.019055324
0000c0 1d 71 c2 3a 2b 85 78 bc 9a 5a 65 3c ce 03 ad bc
       0.0014834736 -0.0151684685 0.013998652 -0.021119978
0000d0 d4 86 b4 3a 95 db 00 3d f4 6c 78 bc 87 9d 53 3c
       0.0013773092 0.03145941 -0.015162695 0.012915975
0000e0 0b 26 90 3c 31 7d 24 3c ac 95 df 39 e2 04 47 3c
       0.017596265 0.010039614 0.0004264539 0.01214716
0000f0 6c a2 c8 3c 9f e6 5b 3c 11 98 ae 3c 0e 91 4f bc
       0.024491511 0.013421684 0.021312745 -0.012668861
000100 81 ae f6 bb 6f f1 89 bc 70 da b7 bc a4 b4 d9 ba
       -0.0075281267 -0.016838757 -0.022443026 -0.0016609621
000110 ba 63 a6 3c c7 a4 09 3c e0 f4 07 38 fa 04 44 bc
       0.020311225 0.008401102 3.2414566e-05 -0.011964077
000120 0d 19 6f 3c a8 30 93 3c 01 35 3d 3c 69 89 2a 3b
       0.014593375 0.017967537 0.011548282 0.0026021844
000130 81 f5 e4 3b b6 e4 79 bc 4a 67 84 3c b3 7c 04 bc
       0.006987274 -0.015252283 0.016162533 -0.008086371
000140 87 a6 2f 3c 0c 1b b5 ba 29 e4 9e bc ec 1b f5 3b
       0.010720856 -0.0013817265 -0.019395905 0.007480135
000150 e8 8e 2a 3c c1 35 94 bc 09 7c 5b bc 1d 5d ae bc
       0.010410048 -0.018092038 -0.0133962715 -0.021284634
000160 cc 3a ae 3c 31 58 73 bb 5d 0a 9e 3c 3d 20 21 bb
       0.02126827 -0.0037131424 0.019292051 -0.0024585866
000170 56 64 ae 3c 4a 9a 52 3c 9e 99 58 bc a3 25 c0 3c
       0.021288078 0.012854168 -0.013220219 0.023455447
000180 05 a5 a7 3c 8d 9d 10 bc a3 cf eb 37 d6 05 a2 b9
       0.02046443 -0.0088266255 2.8110871e-05 -0.00030903396
000190 39 91 d8 bb d2 31 ee bb 3d 52 00 3d c2 11 00 3d
       -0.0066091088 -0.0072691226 0.03132843 0.031266935
0001a0 ff 0f 7d 3b 85 99 40 3c 75 e7 75 bc ea c9 ac bc
       0.003861427 0.011755352 -0.015008797 -0.021092374
0001b0 19 2d 94 bb 00 e1 44 bc 0d 9e 10 bb 50 14 25 bc
       -0.0045219776 -0.012016535 -0.0022066862 -0.010075644
0001c0 89 ab 24 bb 75 d3 66 bb 89 af 42 3c 5b 10 b0 3c
       -0.0025126657 -0.0035221253 0.011882671 0.021492174
0001d0 53 de f5 3c ea ff 3d bc 95 e8 b0 bc 7e 10 d5 3b
       0.030013239 -0.011596659 -0.021595279 0.00650221
0001e0 3c ec 59 3c 09 68 f5 bb ad 16 f3 3b bf 75 b0 3c
       0.013300952 -0.0074892086 0.0074184746 0.02154052
0001f0 e5 df 95 3c bf c5 a4 3c 99 9b d8 3b 2a b5 b2 bc
       0.018295238 0.020113824 0.0066103456 -0.021814901
000200 f0 95 81 bc a0 16 a5 bc 5b 35 ed ba fa 22 f1 3c
       -0.015818566 -0.02015239 -0.0018097566 0.029435623
000210 ef ef a9 3c b4 e7 57 bb b0 8a 35 bc 20 b1 e8 bc
       0.020744292 -0.0032944502 -0.011080429 -0.028404772
000220 04 2d b9 3c 29 c0 bf 3a da e1 b8 3c 3e fe 86 3c
       0.022604473 0.0014629412 0.022568632 0.016478654
000230 a4 6f 5e 3a ed 21 fc 3c ca 6a 6b 3b b6 a5 72 bc
       0.00084852637 0.030777896 0.0035921806 -0.014810016
000240 1d f6 2e bc 4d 20 9d 3c b1 4a 9d bc 93 cc 7c 3c
       -0.010678795 0.019180441 -0.019200655 0.015429634
000250 a5 b8 94 3b 6d 0b b0 3c d1 e6 de 3c bd 37 a5 3b
       0.004538613 0.021489823 0.027209671 0.005042045
000260 71 8a 33 bc 1e 48 09 bc 10 d0 b3 3c 12 5c b1 3b
       -0.0109583 -0.0083790105 0.021949798 0.005412587
000270 3f 67 18 3c 77 75 37 bb f6 41 88 3c d0 79 4a bb
       0.00930196 -0.0027993598 0.016633015 -0.003089536
000280 82 2a 91 3c da 92 87 3c 7a 4f a1 3c cb a2 9e 3c
       0.017720465 0.016549516 0.019691218 0.019364735
000290 d3 20 c5 bb 9f 7b 8f 3c 1e 29 33 bb 35 c1 73 bb
       -0.006015876 0.017515002 -0.002733774 -0.0037194018
0002a0 82 b4 c5 bc 5d c5 8c 3c db e8 da bb 36 96 90 bc
       -0.024133924 0.017183954 -0.0066805906 -0.017649751
0002b0 13 6a e5 3b cb 64 f0 3b c4 4c b4 3c 13 cf 03 bc
       0.0070011704 0.007336234 0.022009261 -0.008044976
0002c0 e4 16 3e 3c e3 7e 0f ba c5 1b b2 3c cf 3a a3 3b
       0.011602137 -0.00054739247 0.021741757 0.0049813758
0002d0 ee 12 bb 3c 2e e3 c0 3c f4 30 1b 3c d3 7e 85 3c
       0.022836175 0.023545828 0.009472121 0.016295826
0002e0 9c d6 9e 3c b8 f8 de b9 2c 32 61 3c 0f c4 e9 3c
       0.019389443 -0.0004252845 0.013744872 0.02853587
0002f0 2b 68 bc 3c 2d d2 ed ba 9c d3 d6 bb 36 1c 86 3c
       0.02299889 -0.0018144302 -0.0065559875 0.016370874
000300 7b 23 b7 3c 63 e8 1e 3c 27 6e 04 bc fe 13 94 bc
       0.022355786 0.00969896 -0.008082903 -0.01807594
000310 b7 c6 c7 3c cc c8 df bb 56 f8 aa 3c 12 d2 f9 3c
       0.024386747 -0.006829357 0.020870369 0.030495677
000320 e2 8c 69 3b e8 9b 79 3c 0d 1f e8 3c c7 0d fe ba
       0.0035636951 0.015234925 0.028335119 -0.0019382768
000330 7c 6a 56 3c 95 b1 10 bc 28 5b ed 3c aa f4 8b 3c
       0.013086911 -0.008831401 0.02897413 0.017084438
000340 f2 12 41 3b ba f7 90 39 0e 5d 28 3c d7 31 2e bc
       0.0029460755 0.0002765039 0.010276092 -0.010632
000350 fb 4c 10 bc 30 69 97 bc 31 90 8d bc 42 c8 a3 3c
       -0.008807416 -0.018482774 -0.01728067 0.019992951
000360 d9 e6 0a bc 64 a4 90 3c b3 bf 88 3b a8 3e 4f 3b
       -0.00847789 0.017656513 0.004173243 0.003162304
000370 ac 36 7d bc 47 75 00 3c e4 e2 a8 bc 6f f4 d8 3b
       -0.015454929 0.007840461 -0.020616002 0.0066209356
000380 42 46 9b 3c d1 27 92 bc 55 72 e5 3c 58 b8 a0 3c
       0.0189544 -0.017841252 0.02800862 0.019619152
000390 22 a6 77 3c 51 1e d7 3c c0 bf 93 bc 25 44 99 3c
       0.015115293 0.026259573 -0.01803577 0.018709252
0003a0 85 c4 b7 bb 77 e4 92 bc 5a 98 15 3c 5a 23 3a bc
       -0.0056081438 -0.017931206 0.009130562 -0.0113609675
0003b0 47 23 14 3c 6e d0 4a bc bc fd 73 3c cb ed 9c bc
       0.009041614 -0.012378795 0.014892038 -0.019156357
0003c0 51 12 89 bc d3 39 c3 3c de 27 8c 3c 70 c9 74 bc
       -0.016732367 0.023831284 0.017108854 -0.014940605
0003d0 e0 38 af bc b6 1b f7 3a eb a8 87 3c dd e1 0d 3a
       -0.021389425 0.0018852863 0.016560039 0.00054123794
0003e0 df 08 35 3b b6 ed 19 3c ed af ea 3c 63 3e 8d 3c
       0.0027623696 0.009395054 0.028648341 0.017241662
0003f0 96 82 17 bb ec ed ee ba 8b 0b 1d 3c 2c 2a d3 bb
       -0.0023118607 -0.0018228865 0.009585272 -0.0064442363

layers.conv2_2.bias f4 [32]
000000 05 a8 40 3c b3 c4 68 3c 74 c5 84 bb fd ec 2e 3c
       0.011758809 0.014207053 -0.0040518586 0.01067662
000010 96 62 81 bc 31 fb 90 bb c1 5a 95 bc 2d 8a d6 bc
       -0.01579408 -0.0044244756 -0.018231751 -0.026188934
000020 97 09 4a 3c cc 80 27 bc d1 35 ae bc 3d f7 12 bc
       0.012331388 -0.010223579 -0.021265896 -0.008970079
000030 80 4a 26 3c f3 76 a3 bc d7 9b ca bc 8e 62 cb bc
       0.010149598 -0.01995418 -0.024732513 -0.024827268
000040 31 cb fd bb 9c 4a cb 3c dd ca 7a bc c2 32 5b 3b
       -0.0077451696 0.02481585 -0.015307155 0.0033447002
000050 48 24 90 bb de b9 6b bb 8d aa f9 bb e9 2a b3 3c
       -0.0043988563 -0.003596894 -0.007619208 0.021871047
000060 95 b5 a3 bc 32 87 80 3b df 66 5e 3b ea 65 a3 3b
       -0.019984046 0.0039223665 0.0033935828 0.0049865143
000070 d3 63 7c 3c 1c 02 32 3c 2d 1c 93 bc d2 d6 8a ba
       0.015404659 0.010864761 -0.017957771 -0.0010592586
