mRNAlocalization/cnn_models/CNN_model_fold1.pth (torch, 531886 bytes, 22 tensors)

layers.bn1.weight f4 [64]
000000 f8 6f 80 3f 54 08 80 3f ed 6d 80 3f bd 55 7f 3f
       1.003417 1.0002542 1.0033547 0.997402
000010 ef 52 80 3f 58 58 7f 3f ec 13 80 3f 4d e6 7f 3f
       1.0025309 0.99744177 1.000608 0.99960786
000020 e4 04 80 3f 61 37 7f 3f f6 69 80 3f 6a 1b 80 3f
       1.0001493 0.99693877 1.0032337 1.0008366
000030 8b 26 80 3f d8 43 7f 3f 70 b0 7f 3f 01 66 7f 3f
       1.0011762 0.99712896 0.998786 0.9976502
000040 5d b9 7f 3f 9b 44 80 3f 1e 45 80 3f bb 48 80 3f
       0.99892217 1.0020937 1.0021093 1.0022196
000050 d4 ba 7f 3f d5 dd 7f 3f 4f 1a 80 3f 1d 5e 80 3f
       0.9989445 0.99947864 1.0008029 1.0028721
000060 b8 35 80 3f 61 bb 7f 3f 41 34 80 3f 6f 66 80 3f
       1.0016394 0.9989529 1.0015947 1.003126
000070 1b 99 7f 3f c0 92 7f 3f d0 d1 7f 3f cf 40 80 3f
       0.99842995 0.998333 0.99929523 1.0019778
000080 c9 05 80 3f 48 87 7f 3f 74 b7 7f 3f 87 2a 7f 3f
       1.0001765 0.998158 0.998893 0.99674267
000090 d9 50 80 3f 36 09 80 3f 99 f0 7f 3f 33 e2 7f 3f
       1.0024673 1.0002811 0.999765 0.9995453
0000a0 d1 f2 7f 3f 9f 67 80 3f 52 61 80 3f 88 3e 80 3f
       0.99979883 1.0031623 1.00297 1.0019083
0000b0 fe 5f 80 3f f9 f4 7f 3f f1 1d 80 3f 2a 03 80 3f
       1.0029294 0.99983174 1.0009137 1.0000966
0000c0 70 04 80 3f ca 32 80 3f 97 24 80 3f 6c 42 80 3f
       1.0001354 1.00155 1.0011166 1.002027
0000d0 94 12 80 3f b4 82 7f 3f 6e 4e 80 3f 00 8d 7f 3f
       1.000567 0.9980881 1.0023935 0.99824524
0000e0 47 1a 80 3f 5e e6 7f 3f 62 c0 7f 3f 0b 1b 80 3f
       1.0008019 0.9996089 0.9990293 1.0008253
0000f0 3d 5e 7f 3f 50 e1 7f 3f 79 8b 7f 3f da 20 80 3f
       0.9975317 0.99953175 0.99822193 1.0010026

layers.bn1.bias f4 [64]
000000 0a 00 18 3b b8 bb 96 39 24 9f 1c 3a 64 72 92 ba
       0.0023193383 0.0002875009 0.00059746415 -0.0011173007
000010 ed d0 3d 3b 98 29 1c ba e4 88 1d 3a c2 0a 5b 3b
       0.002896364 -0.00059571257 0.0006009473 0.003342316
000020 40 d7 8d 38 07 62 26 bb 43 89 ec 3a ff 2c de 3a
       6.7634974e-05 -0.0025388019 0.0018046278 0.0016950666
000030 92 a5 00 3b a8 05 5b bb fb 28 16 bb 82 06 ea ba
       0.0019629938 -0.003342012 -0.002291261 -0.0017854723
000040 4d 33 b0 3a be 3b b3 3a fe 68 46 bb c4 68 3a 3a
       0.0013443023 0.0013674421 -0.0030274983 0.0007110948
000050 a6 ea f6 ba 04 fe a1 ba a0 3a 02 bb 12 96 63 3b
       -0.0018838241 -0.0012359028 -0.001987137 0.00347269
000060 41 c7 04 ba f8 29 31 bb aa 39 d6 b7 8e 66 4c 3b
       -0.00050650915 -0.0027033072 -2.553764e-05 0.0031189057
000070 d7 3c 2a bb 94 ee 14 3a af 4e fe ba 37 c7 aa ba
       -0.0025976205 0.0005681303 -0.0019402112 -0.0013029341
000080 2e 55 0d ba bf 41 37 3a f9 65 9b ba f6 be 11 bb
       -0.0005391416 0.0006990693 -0.0011855952 -0.0022239066
000090 e7 31 37 3b 4f ec 01 3b 10 d7 07 ba 6a e3 a5 3a
       0.0027953328 0.0019824689 -0.0005181888 0.0012656276
0000a0 b6 8b 40 3b 6a 39 5b 3b c0 d7 b0 ba 35 56 53 bb
       0.002938015 0.003345097 -0.0013492033 -0.0032247428
0000b0 ac fa 3a 3b 1a c2 2f 3b 3e e5 cf 38 4f b1 10 3b
       0.002853076 0.0026818574 9.913229e-05 0.002207834
0000c0 34 0e cf 3a 55 a3 2f bb cc dc a3 3a cf c6 30 3a
       0.001579708 -0.0026800234 0.0012501716 0.0006743492
0000d0 9e 9c ff 3a 09 9d 15 bb 35 5a 3a 3b 32 6e e5 ba
       0.0019501632 -0.0022829196 0.0028435115 -0.0017504154
0000e0 04 c6 ac 3a 4d 54 cd 3a 6f 54 68 ba bd 78 b8 ba
       0.0013181572 0.0015665382 -0.0008862679 -0.0014074069
0000f0 31 0d 55 3a b8 51 84 b9 53 9a 8a 3a 22 15 43 3a
       0.0008127271 -0.00025237887 0.0010574557 0.00074418087

layers.bn1.running_mean f4 [64]
000000 13 3a df bc 0c 99 19 bd 9a 2c cf bc 41 35 26 3e
       -0.027249372 -0.037499472 -0.025289822 0.16231252
000010 61 31 34 3e d9 56 3a bc 77 d9 c6 3b 8a a1 7b 3d
       0.17596962 -0.011373245 0.0060684043 0.061433353
000020 f1 c5 f9 3d 4e 8d 0a bc 46 54 d5 bc 61 b3 30 3b
       0.121959575 -0.008456541 -0.026041161 0.0026962387
000030 bc b1 cb bd 0a 7a a7 3d bb f0 f4 3d 0e 65 6f 3d
       -0.099460095 0.08177574 0.11959978 0.058445983
000040 93 93 31 be 5c 38 05 bd 4f fc 39 bc 26 3b 86 3c
       -0.17341451 -0.03252445 -0.011351659 0.016385626
000050 3c ac 89 bc 19 1c a6 3d 9b af 4c bd a3 eb 99 3c
       -0.01680576 0.08110828 -0.049972158 0.018789118
000060 4f dc 4d bd 27 3f f0 bc 10 da 12 bd 81 83 32 3d
       -0.05025893 -0.029326988 -0.03585249 0.043582443
000070 d9 65 bf bb 75 54 ee 3d a5 b5 61 bc 2b 44 16 3c
       -0.0058409986 0.11637203 -0.013776218 0.009171526
000080 2c 02 91 3d fc 41 c9 3d 97 7b 9e bd 3f a3 37 bd
       0.070804924 0.09827039 -0.07738417 -0.044833418
000090 7a 1f 9c bb 38 bd 11 bd 7a 2f a7 bd 20 95 57 3d
       -0.0047644945 -0.035580844 -0.08163352 0.05263245
0000a0 ed 9c c0 3c 9d d7 2e 3e 49 ca 15 bc e1 1b 97 bd
       0.023512328 0.17074437 -0.009142467 -0.07378364
0000b0 11 80 fb bd 08 1e 7f bc 3b ac 81 bd 6c a2 9b 3d
       -0.12280286 -0.015571125 -0.063316785 0.07599339
0000c0 eb b6 1b 3e 6d 2e b1 bd 18 c2 20 3d 44 63 8a 3c
       0.15206496 -0.08651433 0.039247602 0.016893037
0000d0 4b e4 28 be 85 a8 58 be 6c e6 c4 bd 30 77 3f 3d
       -0.16493337 -0.21158035 -0.09614262 0.046744525
0000e0 7f 13 cd 3d 44 2c 69 bd ed bc 2c bd 95 29 21 be
       0.10013484 -0.05692698 -0.04217236 -0.15738519
0000f0 32 90 9e 3d 84 c8 1d 3d e9 7c 22 be 22 8d 11 bc
       0.07742347 0.038521305 -0.15867962 -0.008883746

layers.bn1.running_var f4 [64]
000000 be e6 ec 3c 27 00 1a 3d 96 99 eb 3c ac d3 39 3d
       0.02891862 0.0375978 0.028759759 0.04536788
000010 80 26 09 3d ba 3d d5 3c 3d 31 f9 3c 91 e5 f9 3c
       0.033483982 0.02603041 0.030418986 0.030504974
000020 fa 64 16 3d f8 01 04 3d a4 fd c7 3c 69 80 22 3d
       0.036717393 0.03222844 0.024412937 0.039673243
000030 16 6b 06 3d 0f f1 fd 3c d6 b2 d5 3c 25 f9 f9 3c
       0.03281697 0.030998735 0.026086252 0.03051431
000040 51 7e 58 3d 33 32 02 3d 15 35 1e 3d 3c 54 12 3d
       0.05285484 0.031786155 0.03862484 0.035724863
000050 56 73 07 3d d1 14 cd 3c fc 77 d6 3c 91 02 25 3d
       0.033068977 0.02503434 0.02618026 0.04028565
000060 74 03 04 3d 27 9b f9 3c 14 40 f3 3c 17 c9 04 3d
       0.032229856 0.03046949 0.02969364 0.032418337
000070 92 2d c1 3c 79 97 dd 3c 12 07 e9 3c d5 5b 01 3d
       0.0235813 0.027049767 0.028445754 0.03158172
000080 25 3f e7 3c 8d 2f f1 3c c4 ed 13 3d 32 27 04 3d
       0.028228352 0.02944162 0.036115423 0.032263942
000090 a6 5f f4 3c 37 57 10 3d 3c 53 ed 3c da fb 24 3d
       0.029830765 0.035239425 0.028970353 0.040279247
0000a0 8d 9d 21 3d 80 61 23 3d 6e 3a e1 3c 7a 34 ff 3c
       0.039456893 0.039887905 0.027493682 0.031152952
0000b0 70 43 25 3d 42 f5 d5 3c 72 d9 05 3d bf ae 11 3d
       0.040347517 0.026117925 0.032678075 0.03556704
0000c0 a5 5d 06 3d b8 9f ca 3c 8b 7a d4 3c e2 04 01 3d
       0.03280415 0.024734363 0.02593734 0.031498797
0000d0 91 2a 3e 3d 3e a7 1b 3d 5a a8 d8 3c fa 9c fc 3c
       0.046427313 0.03800129 0.026447464 0.030836571
0000e0 61 cc 15 3d f2 89 32 3d 1e e1 02 3d da a7 4a 3d
       0.036571864 0.043588586 0.03195297 0.049476482
0000f0 71 fe 3c 3d 94 48 db 3c de 88 25 3d d8 e2 00 3d
       0.04614109 0.026768006 0.04041373 0.031466335

layers.bn2.weight f4 [32]
000000 7a 9e 80 3f 3c 77 80 3f 17 b0 7e 3f 67 b8 7e 3f
       1.0048363 1.0036387 0.9948744 0.99500126
000010 c4 c5 7f 3f be c0 7e 3f a5 8d 7f 3f a8 99 7e 3f
       0.9991114 0.9951285 0.9982551 0.9945321
000020 54 9d 7f 3f 5c 56 7f 3f 52 14 80 3f a4 76 7f 3f
       0.9984944 0.9974115 1.0006201 0.99790406
000030 ec cc 7e 3f 48 75 7f 3f c5 b4 7e 3f 8b c7 7f 3f
       0.99531436 0.9978833 0.9949458 0.99913853
000040 57 73 7f 3f 17 96 7f 3f c7 98 7f 3f 81 a4 7e 3f
       0.9978537 0.99838394 0.99842495 0.99469763
000050 2f cc 7f 3f 7a d9 7e 3f 02 c7 7e 3f d4 c5 7e 3f
       0.99920934 0.9955059 0.9952241 0.9952061
000060 95 a4 7f 3f 4c 88 7f 3f 7f da 7e 3f 63 c3 7f 3f
       0.9986051 0.9981735 0.9955215 0.9990751
000070 f3 87 7f 3f ad db 7e 3f d8 a1 7f 3f 77 4e 7f 3f
       0.9981682 0.9955395 0.9985633 0.997291

layers.bn2.bias f4 [32]
000000 6e 22 a1 3b af 43 0a 3b 66 99 bb bb 9a 17 b6 bb
       0.0049174344 0.0021097471 -0.0057250736 -0.0055570127
000010 a1 c8 81 3a 56 ff b8 bb 9d 22 03 bb 5d 94 bf bb
       0.0009901711 -0.005645673 -0.0020009645 -0.0058465437
000020 25 7e 44 ba 0e a3 3d bb e5 71 37 3b 01 07 31 bb
       -0.00074956036 -0.00289363 0.002799147 -0.0027012231
000030 fb 82 b0 bb b2 7c 16 bb 12 4b b9 bb bf b6 06 39
       -0.005386708 -0.0022962508 -0.005654701 0.00012847314
000040 19 79 18 39 d4 b3 94 ba b3 67 fd ba 2f 6b bf bb
       0.00014540962 -0.0011345097 -0.0019333273 -0.0058416347
000050 91 60 09 3a 9e 40 b1 bb be f1 ae bb 48 3f b0 bb
       0.0005240525 -0.0054093143 -0.0053388765 -0.0053786375
000060 f3 78 c4 ba 10 4a 2a bb 11 80 af bb da b8 e7 ba
       -0.0014989659 -0.0025984086 -0.005355843 -0.0017678991
000070 47 59 ff ba 23 51 ac bb 5a ab fd ba f7 e8 4d bb
       -0.0019481563 -0.0052586957 -0.0019353435 -0.0031419375

layers.bn2.running_mean f4 [32]
000000 9c dd 94 3c 45 90 12 be b1 b0 ab bd dc 1e ba 3e
       0.018172078 -0.14312847 -0.083833106 0.3635167
000010 eb 1c 8b be 08 4e 9c bd 8a 32 3b be 75 69 48 be
       -0.271705 -0.07632071 -0.18280998 -0.19571479
000020 62 81 8b be ae 76 89 be 3d e9 9b be 23 ba 84 be
       -0.2724715 -0.26848358 -0.30451384 -0.2592326
000030 87 cf cd 3e 9d 3e 2b be 9c 0d 9c 3c 1b 6a 3f be
       0.40197393 -0.16723104 0.019049458 -0.1869282
000040 b1 ed 85 be 2e 0a 9d be 74 a0 2c be 3a 8b e3 bd
       -0.26157907 -0.3067183 -0.16858083 -0.1111054
000050 52 8b 8c be 08 c3 b6 3d e4 93 74 bc fd b3 45 bd
       -0.27450043 0.08923918 -0.014927838 -0.048267353
000060 da 69 a9 be 25 35 41 be 5d 1d a5 3c ef e0 58 be
       -0.3308857 -0.1886793 0.020155603 -0.21179555
000070 05 65 94 be 07 91 76 bb 9c 31 a1 be aa 34 47 be
       -0.28983322 -0.0037623064 -0.3148316 -0.19453683

layers.bn2.running_var f4 [32]
000000 06 f7 4b 3f 6e 70 fb 3e 83 63 2b 3f 5f db d0 3f
       0.796738 0.49109215 0.6694872 1.6316947
000010 a7 b7 2e 3f 6f f9 97 3f fc 34 ec 3e 2d 8e 4f 3f
       0.6824898 1.1872996 0.46134174 0.8107632
000020 59 a9 17 3f c2 ab 34 3f 8f c2 28 3f 5f 66 35 3f
       0.5924278 0.7057458 0.6592187 0.7085933
000030 9b 2f e2 3f 26 1f db 3e 52 0c 69 3f d5 50 ff 3e
       1.7670778 0.42797202 0.91034424 0.49866357
000040 50 49 4f 3f 9c 87 0a 3f 9a 4a e2 3e 4e ff 42 3f
       0.8097124 0.54113173 0.4419754 0.76170814
000050 00 14 f5 3e fa c2 90 3f 84 b4 12 3f 3d d1 17 3f
       0.4786682 1.1309502 0.57306695 0.5930365
000060 fd 8c f5 3e 3e 1a ee 3e 93 fd b7 3f 29 3c e3 3e
       0.47959128 0.46504396 1.437426 0.44381836
000070 2d 19 2b 3f 3a 29 c5 3f 4d dd 21 3f af d1 1e 3f
       0.6683529 1.5403206 0.63228303 0.620387

layers.conv1_1.weight f4 [64, 4, 9]
000000 40 94 fe 3a ef f2 79 3d 24 9f fb 3c 9d 7d ac 3d
       0.0019422844 0.061022695 0.030715533 0.08422396
000010 e8 34 f1 3d bc cd cf bd 7c f7 7a 3d a6 f6 03 bc
       0.11777669 -0.101466626 0.061271176 -0.008054411
000020 b8 67 24 3e f0 79 85 bd a0 0f a1 bd d4 10 14 bd
       0.1605519 -0.06517398 -0.07864308 -0.03614886
000030 7c ea 53 3b 3b 02 a3 bd 27 50 08 3e 48 51 88 bd
       0.0032335809 -0.0795941 0.13311826 -0.06656128
000040 b0 be 15 3e 58 ec 11 bc c9 87 4c bd fa 8e 18 3e
       0.14623523 -0.008906446 -0.049934182 0.14898291
000050 0f 59 1a be 90 f2 57 bd fb 07 a4 bd 91 60 e7 3d
       -0.15073036 -0.05272156 -0.08009335 0.112977155
000060 26 54 2e bd d8 65 dc 3d 05 69 9d 3d e6 5d 06 be
       -0.04256072 0.10761613 0.076860465 -0.13121757
000070 cc 0b 2b bd 60 32 ab bc 74 78 15 3e ef 00 17 3e
       -0.041759297 -0.020898044 0.1459673 0.1474645
000080 a8 33 27 be 15 4c ee 3c 83 cb 03 be 02 22 f2 bd
       -0.16328299 0.029089013 -0.12870602 -0.11822893
000090 55 a2 c5 3d 32 21 96 3d 83 63 01 3e 60 78 cf bd
       0.09650103 0.0733055 0.12635617 -0.101303816
0000a0 db 5e 93 bd b8 07 8b bb d2 5d 80 3d dd a7 14 be
       -0.071958266 -0.0042428635 0.06267895 -0.1451716
0000b0 c2 17 81 3d 4b 3c a8 bd fb 1f 20 bd c8 cd 55 bd
       0.063033596 -0.08214625 -0.039093 -0.0521982
0000c0 12 c1 0f 3e c5 70 48 3d 05 01 13 be 61 48 c7 3d
       0.14038494 0.04893567 -0.14355858 0.09730602
0000d0 7a d4 20 be 68 82 53 3d 75 91 09 ba 79 80 15 bb
       -0.15706053 0.051638037 -0.000524781 -0.0022812171
0000e0 79 aa 40 39 7a 7f be bd 55 50 8b bc cf f5 3a bd
       0.00018374053 -0.09301658 -0.017006079 -0.045644578
0000f0 d7 cd 86 3d 46 07 cc 3d ef 41 e6 bd 78 e2 de bd
       0.065822296 0.09962325 -0.112430446 -0.10883039
000100 a5 fd 04 be 62 7c 29 be f5 fc 6b bd 0a cf a2 3c
       -0.12987383 -0.16551355 -0.057614285 0.019874115
000110 3e aa c4 bd 19 d3 cd bd 3a fb 11 be 64 09 06 be
       -0.096027836 -0.10050029 -0.14255992 -0.1308952
000120 5e c0 41 3d 5e d8 cf bd 5a 72 17 3e 76 53 f5 3c
       0.047302596 -0.10148691 0.14789715 0.029947024
000130 aa db 83 bc e2 d2 2b bd 10 b4 6c bd 8e 5e 04 3e
       -0.016095955 -0.04194916 -0.05778891 0.12926695
000140 7b 8e 23 3e 18 ba b5 bd 8f 2f ce bd ca 65 4c 3c
       0.1597232 -0.08873385 -0.10067665 0.01247544
000150 3f f8 43 3d ec 80 2b 3e 61 8c f5 bd a3 1f 9d 3d
       0.047844168 0.16748399 -0.11989666 0.0767205
000160 d3 09 b3 3d f0 0a 20 be 82 aa d7 3c 59 d4 69 bd
       0.08742108 -0.15629172 0.026326422 -0.057087276
000170 d3 77 24 3d f4 7d 5e bd e9 ac 3b 3d eb 8c e0 bd
       0.040153336 -0.054319337 0.045819197 -0.10964378
000180 5d 6a f3 bc d8 4a 03 be 4f 13 16 3b 49 c5 0f 3e
       -0.029713804 -0.1282152 0.0022899692 0.14040102
000190 10 69 81 3d 5d 76 1f 3d f5 4d 44 3d bb a5 bf 3d
       0.06318867 0.03893124 0.047925908 0.093577825
0001a0 3d 35 05 be 6e 3f 21 bd c1 e7 ee bc ab 9f 15 be
       -0.1300859 -0.039367132 -0.029163243 -0.1461169
0001b0 19 d2 0e be ac 3f ed bd ed af 92 3d 9b 0c f3 3d
       -0.13947333 -0.1158441 0.071624614 0.11867639
0001c0 57 cc 12 be 51 3a a4 3a 72 d3 b4 bd 5e 36 fb 3d
       -0.14335762 0.0012529587 -0.088293925 0.12266229
0001d0 90 94 b5 bd c8 a2 83 bd fa 66 98 bb 97 25 c8 bd
       -0.08866227 -0.064275324 -0.0046509476 -0.09772795
0001e0 e7 99 6c bc 84 59 aa bd 2c 75 c0 3c 34 f4 db 3b
       -0.01444099 -0.08317855 0.023493372 0.006712461
0001f0 71 01 c2 3d ee e4 89 3d 2b ae 03 3e 6f 16 17 be
       0.09472931 0.06733118 0.12859409 -0.14754651
000200 67 e4 89 bd e0 23 96 bd 05 e4 8a bd ed 9f 78 3d
       -0.067330174 -0.07331061 -0.067817725 0.060699392
000210 f4 05 75 3d e5 7b df bd c7 07 08 be f2 1c 25 3e
       0.05982013 -0.10912303 -0.13284217 0.16124323
000220 30 dc 1c 3e 6c 9c 2d 3d 9c 8f 84 bd 5b a8 e5 3d
       0.1531837 0.042385504 -0.06472704 0.11213752
000230 99 db aa bc 63 f6 1c 3e e0 ef f7 3c 2f 87 06 3d
       -0.020856665 0.15328364 0.030265749 0.032843765
000240 39 25 f0 bc cf 36 b4 bd d8 4c 9b 3d d8 fc 86 3d
       -0.029314624 -0.087995164 0.07583016 0.06591195
000250 68 2d 14 3d 15 38 b0 3d f8 fc 0b be 84 78 9f bc
       0.036176115 0.08604447 -0.13670719 -0.019466646
000260 fa ef 0e be 3f 7d 0d 3d 8f 90 ca 3d 03 c4 1a 3e
       -0.13958731 0.034543272 0.098908536 0.15113835
000270 bb 5a 14 be cf 49 e3 3d d2 a0 a3 3c b5 4e 5d 3d
       -0.14487736 0.11098062 0.019974146 0.05403014
000280 62 5b f6 bd 5b ea cf 3c 7e 42 d9 3d d0 dd 0f 3e
       -0.12029149 0.025380304 0.106083855 0.14049459
000290 e1 dc 08 3e c8 36 8e 3d d9 3a 48 3d 76 aa f9 bd
       0.13365509 0.069440424 0.048884246 -0.12190716
0002a0 a2 e4 b7 3b 55 ff df 3d bf 8c d4 3c 9e 5b 45 bd
       0.005611972 0.109373726 0.02594602 -0.048183076
0002b0 42 eb 80 bd dd 33 f5 3d a2 86 d3 3d f9 87 ed 3d
       -0.06294872 0.11972783 0.103284135 0.115982
0002c0 b7 7c 42 3c 10 1b 82 bd b7 27 8a bd 52 03 d0 3d
       0.011870555 -0.06352818 -0.06745856 0.10156883
0002d0 b0 f0 31 bd c2 fc e2 3d 63 75 55 3d a7 81 13 3d
       -0.043442428 0.11083366 0.0521139 0.036012318
0002e0 ce f4 84 3d 48 0f f8 bd c1 4a d7 3d de fd c1 bd
       0.06492005 -0.1211229 0.10512305 -0.094722494
0002f0 17 92 b5 bd 2f c7 c8 3d 9e b9 1a 3c 30 cb 27 be
       -0.08865755 0.09803616 0.009443669 -0.16386104
000300 a3 fe 3a 3d d9 57 06 3e 80 80 22 3d 76 02 e3 bd
       0.045652997 0.13119449 0.03967333 -0.11084454
000310 7a 1d e0 bd 51 ec 34 bd 28 85 fb bd 39 68 00 3d
       -0.10943122 -0.04417068 -0.12281257 0.031349394
000320 f9 2b 95 3d b2 8e ff 3d 39 6c f4 3c 03 de 1f 3e
       0.07283778 0.12478389 0.02983676 0.15612034
000330 82 a2 38 bd 3e f5 02 be c3 d6 1b be 8f 05 21 3e
       -0.045076855 -0.12788865 -0.15218644 0.15724777
000340 c8 23 ad bd 07 1c 20 be 3c bb 2a 3d 28 7f 7e 3b
       -0.0845409 -0.15635692 0.041682467 0.0038833115
000350 3e 0d be 3d 11 d9 1d be 49 c1 7d 3d ff 52 94 bd
       0.092798695 -0.15414836 0.06195191 -0.07242393
000360 70 81 80 bb 71 75 8d 3d 34 97 a0 3d 47 9d c6 bd
       -0.00392168 0.06907166 0.0784134 -0.09697967
000370 64 97 d0 bd 66 51 46 3c 55 0c b3 3d 39 b5 2a 3c
       -0.101851255 0.012104368 0.087425865 0.010419183
000380 54 d8 3d 3d 0a a9 98 bd ea ff 72 3b 0c f8 d1 3d
       0.046348885 -0.07454117 0.0037078806 0.10252389
000390 b5 ef cf bd f9 b6 21 be ef 52 20 3e 94 33 80 3d
       -0.10153142 -0.15792455 0.15656637 0.06259838
0003a0 70 88 80 bc e2 25 0a 3e 48 47 10 3c 33 d9 65 bb
       -0.015690058 0.13491014 0.008806057 -0.0035072088
0003b0 22 61 05 3e 2b 1f c0 3d 57 18 23 3e ee 7d 99 3d
       0.13025334 0.09380945 0.15927254 0.07494722
0003c0 20 c4 f2 3c fe d7 0b be a1 1b fb ba 8e 05 d7 3d
       0.029634535 -0.13656613 -0.0019158014 0.10499106
0003d0 3b d1 27 3d d6 91 01 3e 40 a5 92 bd 4d c7 1f be
       0.040971022 0.12653288 -0.07160425 -0.15603371
0003e0 d3 58 09 3e 80 18 a6 bb 52 5e d6 3d db 09 30 bd
       0.1341279 -0.0050688386 0.10467209 -0.04297815
0003f0 99 68 8e bc 6e bc fe 3d 75 eb ae b8 9b 01 00 be
       -0.01738386 0.12438284 -8.340824e-05 -0.12500612

layers.conv1_1.bias f4 [64]
000000 13 96 ec bd ab 86 3d bd ab 73 b3 3d 34 77 27 3e
       -0.11552062 -0.046271008 0.08762296 0.16354066
000010 69 ca 27 3e ad 6d 18 3e b6 03 04 be e7 e0 23 3e
       0.16385807 0.14885588 -0.1289204 0.16003762
000020 7c 15 23 3e 85 ec d3 bd f5 81 39 bd c2 c6 c1 bd
       0.15926164 -0.10347847 -0.045289952 -0.09461738
000030 45 1a 87 bd 4d f5 ae 3d 4b 94 58 3d 7c 7e 8d 3d
       -0.065968074 0.08542881 0.0528758 0.069088906
000040 17 54 d1 bd c7 d3 c7 bd 76 36 e9 bd ce 8e 17 be
       -0.10221117 -0.0975719 -0.11387341 -0.1480057
000050 c9 08 33 bd 4b e3 04 3e 35 b3 c0 bc 96 97 74 bd
       -0.04370955 0.1297733 -0.023522953 -0.059714876
000060 2b a2 cf bd de 5f 91 bd 54 da 23 be 17 01 d2 3d
       -0.10138353 -0.07098363 -0.16001254 0.10254114
000070 8c 2b e5 3d 01 5b 1a 3e 0b 15 97 3d 2a f8 99 bd
       0.111899465 0.15073778 0.073770605 -0.07518037
000080 fe a5 66 bc d0 9c 0a 3e 7a 82 ff bd 69 11 28 bd
       -0.014077662 0.13536382 -0.12476058 -0.04103223
000090 c3 c8 df bc 0f 41 3e bd 29 f9 fd bd c5 5e c0 3d
       -0.02731741 -0.046448763 -0.12401039 0.09393076
0000a0 14 f5 a1 3d a2 de fb 3d c1 30 9b 3d 84 6b 0d be
       0.07908073 0.12298323 0.075776584 -0.13810545
0000b0 0a 36 0a be 08 96 3c 3d d3 30 f0 3c cc 85 17 3e
       -0.13497177 0.04604152 0.029320156 0.14797133
0000c0 72 66 f9 3d df 4b f6 bd 17 5a a3 bd 21 b7 0d 3e
       0.12177743 -0.1202619 -0.07976168 0.1383939
0000d0 13 88 81 bd 72 bd 1a be fd 8e 4e bd f9 fe 23 3e
       -0.06324782 -0.1511133 -0.050429333 0.16015233
0000e0 49 99 a4 3d d8 1f d5 bd 50 13 38 bc 52 37 00 be
       0.08037049 -0.10406464 -0.011235073 -0.12521103
0000f0 1f 0a 06 3e 42 c4 0b 3e 46 46 08 be 71 eb e2 bd
       0.13089798 0.13649085 -0.13308057 -0.11080063

layers.conv1_2.weight f4 [32, 64, 9]
000000 89 de 69 bc 70 40 b5 3c d0 54 fd 3c 35 e5 18 3d
       -0.014274248 0.022125453 0.03092423 0.037327964
000010 7e 59 06 bd a1 ad 0e 3d 20 94 0c bd 72 67 09 3d
       -0.03280019 0.034833554 -0.03432095 0.03354592
000020 d7 bb 00 bd c0 42 f8 bc 77 ef 01 3d 05 76 cc b7
       -0.031429138 -0.030305266 0.031722512 -2.4373652e-05
000030 a1 11 f8 3c 34 f5 e2 bb 1a 94 07 3d 97 56 86 3c
       0.030281844 -0.006926203 0.033100225 0.016398711
000040 26 11 b7 bc ed 63 9b bc 3f 61 1b bb ff 2e 2d 3c
       -0.022347044 -0.018968547 -0.0023709086 0.010570287
000050 90 eb d1 3b f5 b1 60 bc cf b9 1b 3d f4 58 34 bc
       0.006406255 -0.013714303 0.038018998 -0.011007536
000060 8c f8 fa bc b1 ad 13 3d 40 6f 4c bb 0d 6e 8c 3c
       -0.030636095 0.036054317 -0.003119424 0.01714232
000070 19 64 13 3d e9 64 5b 3b 88 75 95 3c ce 05 7b bc
       0.035984132 0.0033476895 0.01824452 -0.015321208
000080 32 30 0c 3d ce c8 25 3c 19 d8 bd bc 59 92 06 3d
       0.03422565 0.010118676 -0.023174332 0.03285441
000090 03 5a db bc 9d a8 78 3c dd c1 86 bc 9c 0a a7 3c
       -0.02677632 0.015176919 -0.016449863 0.020390801
0000a0 1f ad 1b bd 88 d6 15 3d 2b 9c 64 bc b1 e0 ae 3c
       -0.038006898 0.036581546 -0.013953249 0.021347376
0000b0 21 d7 a4 3c 92 8f 15 bd 65 4e fd bc ca 71 a8 bc
       0.020122113 -0.036513872 -0.03092117 -0.020562071
0000c0 73 ed b4 3b 30 f1 e0 3c 08 1f e2 3c 78 74 bb ba
       0.00552147 0.027458757 0.027602687 -0.0014301678
0000d0 1d 94 fb bc 39 81 a7 bc d4 2e 0e bc ca 39 14 bd
       -0.030710274 -0.02044736 -0.008678157 -0.036187924
0000e0 50 65 f7 3c 1c 84 0a bd df 26 05 3d a6 cb 30 3d
       0.030199677 -0.033817396 0.032507773 0.043162964
0000f0 81 07 4b bc 9d 6b bd 3c 80 aa 1e bd d8 c3 d6 3c
       -0.012391926 0.023122603 -0.03873682 0.026216432
000100 ef 3b af bb f7 01 b5 3c ec 7c 22 bd 3f 13 dd 3c
       -0.005347721 0.022095663 -0.039669916 0.026986716
000110 f1 34 15 bc e0 eb 0c bd 9b d2 74 3c 81 6d f6 3c
       -0.0091068605 -0.034404635 0.01494279 0.030081512
000120 fc a8 b5 bc 6e 1a 1e 3d 68 66 64 3c ee 23 8c bc
       -0.022175305 0.038599424 0.013940431 -0.017106976
000130 34 c3 fd bc 8e a4 0e 3d 12 9f fa 3c 5e 4b 0a bd
       -0.03097687 0.0348249 0.030593429 -0.033763282
000140 f7 c8 fd bc 87 3b 29 3d 6b b4 0b bd 4c 71 76 3c
       -0.030979617 0.041316535 -0.034107607 0.0150416605
000150 c6 d2 a5 bc 07 32 12 bd 99 8d 1f 3d 29 23 94 bb
       -0.020242106 -0.03569224 0.038953397 -0.004520793
000160 6d 3e 21 bc 00 c2 c1 3c d7 43 ad 3c 05 81 d9 bb
       -0.009841544 0.023652077 0.021150513 -0.006637695
000170 30 eb 06 bd 7f fd 44 3b 91 00 0e bd 96 ab 1e 3d
       -0.032939136 0.0030058322 -0.03466851 0.038737856
000180 47 b9 9c 3c 1c 25 83 bb d4 e3 0c 3d 16 c4 fa bc
       0.019131316 -0.0040022265 0.03439696 -0.03061108
000190 29 ee f3 bc 4f 99 a2 bc c6 f6 15 bd 0b 7b bc bc
       -0.02977665 -0.019848494 -0.036612295 -0.02300789
0001a0 6f 0d ba 3c fa 0b ee bb 65 67 0f bb 73 e9 ee 3b
       0.022711484 -0.0072646113 -0.0021881696 0.007291013
0001b0 df 58 89 3b 54 26 12 bd 24 79 b6 3c cc 7a 2f 3c
       0.0041915025 -0.035681084 0.022274561 0.010710429
0001c0 02 f5 71 bb a5 d8 ae 3c b5 fd 24 3d ba 28 12 3d
       -0.0036919718 0.021343539 0.040281016 0.03568337
0001d0 71 80 75 3c 81 fb 0c bd e5 b4 c9 bc 44 71 f8 ba
       0.014984236 -0.03441954 -0.02462239 -0.0018954654
0001e0 87 8c 5e 3c 92 d4 c0 bc 12 ea 15 bd ce ab 18 bd
       0.013583309 -0.023538861 -0.03660018 -0.03727322
0001f0 cc a8 a7 3c e5 1a 02 bc 12 4d 99 3c c8 9d fa 3b
       0.02046623 -0.0079409825 0.018713508 0.0076482035
000200 d0 dc f3 3c 10 ba f8 bb ee 40 c6 3b d7 a5 e6 bb
       0.029768378 -0.0075905398 0.0060502207 -0.0070388126
000210 02 c2 c6 ba ab 12 a1 3c 3c ca 29 3c 54 31 f8 bc
       -0.001516402 0.019662222 0.010363158 -0.030296959
000220 04 21 fc bc 46 83 08 bd 8d aa ba 3c ac 20 01 3d
       -0.030777462 -0.033328317 0.022786403 0.0315253
000230 8d 57 12 bd 75 e2 14 3d 8b 5a 1b 3d 2a 89 96 bc
       -0.035728026 0.03634878 0.037928145 -0.018375952
000240 20 43 0d bd 4c 80 0f 3d 0b a9 c2 bc 81 9d 18 3c
       -0.034487844 0.035034463 -0.023762247 0.009314896
000250 d4 6a 03 3d 01 ab bf 3b 2f f4 a5 3b c3 09 8b bc
       0.0320843 0.0058492427 0.0050645093 -0.016972428
000260 76 4a b8 bc b2 ed 11 bd e0 5d a0 3a 0d 6e 45 3c
       -0.022496443 -0.035627075 0.0012235008 0.012050164
000270 f4 65 d5 bc 1f e1 84 3b ad 7b 8a bb 1f 9c ec bb
       -0.026049592 0.004055157 -0.004226169 -0.0072207595
000280 a5 c8 a9 bc 60 95 e7 3b d3 cc c4 bc 63 78 a4 3c
       -0.020725558 0.0070673674 -0.024023449 0.020076936
000290 8d a8 1f 3d 87 e1 a7 3c c4 d5 c3 bc 79 f7 85 3a
       0.038979102 0.020493282 -0.023905642 0.0010220847
0002a0 ea 88 cd bb 42 f5 e9 bb 6e 33 22 bb 1b 75 b7 3c
       -0.006272425 -0.0071398327 -0.0024749893 0.022394707
0002b0 12 94 df 3c 58 97 90 bc 31 bf 65 3c e9 65 b8 3c
       0.027292285 -0.017650291 0.014022634 0.022509532
0002c0 3b 20 2c 3d bd 54 db bc 1d 17 3f bc 31 a0 01 bd
       0.042022925 -0.026773805 -0.0116632255 -0.03164691
0002d0 9b dc d6 39 8b f3 28 3b 75 4d bd 3c 7c 2c 21 3c
       0.00040981625 0.0025779929 0.023108223 0.009837266
0002e0 6d a3 e3 3c 3c 34 51 3c 2f c3 03 3d 94 cd f9 3c
       0.027787888 0.012768801 0.032168563 0.030493535
0002f0 9a 84 b9 bb 53 22 07 bd ff 01 1e 3d 0d d9 a3 bb
       -0.0056615593 -0.03299172 0.038576122 -0.0050002397
000300 34 5d d8 bc f8 dc 73 3b d3 32 38 bc 4a 0b 0d 3d
       -0.02641163 0.0037210565 -0.011242586 0.034434594
000310 d2 18 3b bc 8d a1 20 bd f3 ae 20 3d a7 24 ce 3c
       -0.011419492 -0.039216567 0.039229345 0.025163962
000320 24 06 09 bd 5b 95 47 3c c1 4f ed bc 2c 27 ca bc
       -0.03345312 0.012181605 -0.028968694 -0.024676882
000330 5c 11 22 3d 8c 1c 0f bd f7 7b 0c 3c 96 ca a2 b9
       0.039567336 -0.034939334 0.008574477 -0.00031049986
000340 7a b0 17 bd 43 74 04 3d b2 9f ef bc 87 96 4c 3c
       -0.037033536 0.03233744 -0.029250953 0.01248706
000350 3f 90 4f 3c 94 fd d4 bc 4c db 68 bc 07 d5 de bb
       0.012668668 -0.025999822 -0.014212441 -0.006800297
000360 d7 bd d6 bc 76 f0 86 3c e9 22 e6 3c 5e bf 90 bb
       -0.02621357 0.016472083 0.028092818 -0.004417344
000370 e4 b7 b1 3b e9 52 0d bd 43 ef 10 3d fa 97 37 3c
       0.005423533 -0.034502897 0.035384428 0.011205668
000380 dd 16 9e 3c c3 97 46 bc 0c 99 17 bb 4e 77 d1 3c
       0.019298011 -0.012121144 -0.0023131995 0.025569584
000390 99 70 6f 3c 8b 07 0d 3d 43 f0 2d 3c e3 6e 3d bc
       0.014614248 0.03443102 0.010616365 -0.011562082
0003a0 ce fe bc bc b0 3e 03 bd 9f cb 48 bc 0a e4 10 3d
       -0.02307072 -0.032042205 -0.012255578 0.035373725
0003b0 84 dc 1f bd 1b e5 84 bc ef bd 9d 3c 57 b0 be 39
       -0.03902866 -0.016222527 0.019255606 0.00036371007
0003c0 44 de dc bc 1f 35 6f 3c 78 df 48 bb fe ae fd 3b
       -0.026961453 0.014600067 -0.0030650776 0.007741808
0003d0 35 a4 1b 3c 8d 8f e9 3c e5 46 21 3d 14 89 9d 3a
       0.009499599 0.028510833 0.03937425 0.0012019002
0003e0 27 e4 d5 bc bb 81 c8 3c d6 07 27 3d 13 5e 81 3c
       -0.026109768 0.024475923 0.040778957 0.015791928
0003f0 c9 9e 44 bc f7 82 19 3d 48 07 e9 3c 33 76 b2 bc
       -0.012000748 0.037478413 0.028445855 -0.021784877

layers.conv1_2.bias f4 [32]
000000 b1 76 e7 bc 8a c5 14 3c 71 c3 d0 bc bd 38 e6 bc
       -0.028254839 0.0090803 -0.025483819 -0.028103227
000010 54 71 36 bc b4 44 83 bc 7c 29 14 bd c8 79 ee bc
       -0.011135418 -0.016023971 -0.036172375 -0.029110804
000020 58 bf 38 bc 2e c7 e8 3c 99 d3 8b 3c 3a 7d 23 3d
       -0.011276089 0.028415289 0.017068671 0.039914347
000030 ec 3d a7 3c 89 25 ad bc 81 8a 90 3b ca 12 27 bd
       0.020415269 -0.021136062 0.004411042 -0.040789403
000040 16 12 04 bc 4f a5 0f 3d 33 17 8b 3b c9 a9 56 bc
       -0.008060953 0.03506976 0.004244709 -0.013102003
000050 be 7f 27 3d a3 b6 0a bd a1 c8 12 3d a5 cc 4d 3b
       0.04089331 -0.033865582 0.035835866 0.0031402495
000060 e5 f0 12 bd 44 ab 5f b9 04 d3 21 3d 87 1a 05 bd
       -0.035874266 -0.00021330739 0.03950788 -0.032496
000070 f0 a7 47 3c 40 f7 14 bd d7 50 8a bb 63 67 e8 3c
       0.0121860355 -0.03636861 -0.0042210626 0.028369611

layers.conv2_1.weight f4 [64, 4, 20]
000000 f5 63 62 bd ee a3 69 bd f6 a3 23 bd df 04 19 3d
       -0.055271108 -0.0570411 -0.039951287 0.03735816
000010 c4 f4 a0 3c f4 63 f9 3b 60 3e ce 3d 17 e8 88 bc
       0.019647963 0.0076107923 0.10070491 -0.016712232
000020 2a 1b 52 bd 33 7f 94 bd 69 25 c8 3d 96 f7 08 3b
       -0.051295437 -0.07250824 0.097727604 0.0020899526
000030 b1 b7 c7 bc 21 ce f6 3c b4 af 58 3d 3f 1c 20 3c
       -0.024379583 0.030127587 0.05290194 0.009772359
000040 a5 68 87 3c ef 29 82 3c 59 6e d4 bd 01 8e e1 3d
       0.01652939 0.015889136 -0.1037261 0.11013413
000050 59 72 6e 3c f5 2c ac bd 53 0b 95 bd 52 2e 47 3d
       0.01455363 -0.084070124 -0.072775505 0.04862816
000060 95 96 ca bd 8c f2 b4 3c 52 eb dc bc 54 ce d6 bd
       -0.098920025 0.022088312 -0.026967678 -0.10488573
000070 69 b3 ce bd 95 c4 c8 3d a1 c3 ad 3c 7a e3 b7 bd
       -0.100928135 0.0980312 0.021211447 -0.089789346
000080 fc c6 ca 3d 09 58 7d 3d 94 82 b3 bd 5e 94 9f 3a
       0.099012345 0.061851535 -0.0876514 0.0012174954
000090 bc 3f b6 3d 78 18 87 bd 2e 0f df bd 97 e4 33 bd
       0.08898875 -0.06596464 -0.10891567 -0.043919172
0000a0 83 a8 b3 bd 67 10 95 bb 2d 20 8f 3d b0 d0 45 3d
       -0.087723754 -0.0045490745 0.06988559 0.048294723
0000b0 72 38 94 3d 5e cf ee bc d1 5a cf bc b0 03 b3 3c
       0.072373286 -0.029151615 -0.02531186 0.021852344
0000c0 47 a7 9a bd d0 74 58 bd ca a9 cb bc e0 3a d5 3b
       -0.07551437 -0.052845776 -0.024861235 0.0065072626
0000d0 e0 52 37 3d b5 2c 3b bc a5 2c da bd 12 8d 98 3d
       0.04475677 -0.011424233 -0.106530465 0.07448782
0000e0 e3 6d aa 3d 3b ca 0f bc 38 91 39 bd 4a 38 84 bd
       0.083217405 -0.008776243 -0.045304507 -0.06456049
0000f0 43 24 a8 bd 37 c4 96 bd 66 05 51 3d 07 66 0d 3d
       -0.082100414 -0.07361644 0.05103054 0.03452113
000100 ea 48 cc bc 26 12 2a bd bb 9f 60 bd 70 a8 0a 3d
       -0.024937112 -0.041521214 -0.05483983 0.03385204
000110 53 8e 36 bc dc 1f 96 bc 1c d7 5f 3d 28 be 9b 3d
       -0.011142331 -0.018325739 0.054648504 0.07604629
000120 76 6b ce bd 9f 3b 40 bd 34 f9 cf bc d4 16 36 3d
       -0.1007909 -0.04693186 -0.025387384 0.044455364
000130 81 ca b1 3c c6 f1 53 3d c7 90 26 3d c0 18 9d 3d
       0.021703007 0.051744245 0.040665414 0.07670736
000140 a8 dd a2 bd 28 1e e1 3d b9 42 46 bd b4 e7 4d 3d
       -0.07952434 0.1099208 -0.048403475 0.050269797
000150 72 71 8e bc c3 85 ba 3c 33 37 60 bd 06 3f 98 bd
       -0.01738808 0.02276886 -0.054740142 -0.07433896
000160 38 4c b8 bd fb 82 5f 3d a9 a8 1d bd 8b 65 98 3d
       -0.089989126 0.054568272 -0.038490925 0.07441243
000170 2f 7e 55 bc 55 55 a0 bd f0 fd dc 3c 25 1a b4 bd
       -0.013030573 -0.07828776 0.026976556 -0.08794049
000180 1f 07 32 bd 21 f6 7c bd 8d 96 90 bc ee af 13 bd
       -0.043463822 -0.061758164 -0.017649913 -0.03605645
000190 f2 2f 6d 3d 2a 8b cb 3d b7 2e 56 3d 43 dc 89 3c
       0.057907052 0.09938653 0.052290644 0.016828662
0001a0 91 a5 d5 3d 17 20 b6 3d a3 34 ca bd 5c a9 ea 3c
       0.1043197 0.088928394 -0.09873321 0.02864521
0001b0 d6 23 08 3c 69 ed 46 3d a5 6a c6 3d ad d3 5c 3d
       0.008309325 0.048566256 0.096883096 0.053912807
0001c0 1d 2e b8 bd 26 7b 0c 3d f7 f5 ea 3d 39 e9 94 bd
       -0.089931704 0.03429713 0.11472695 -0.07271046
0001d0 c6 e3 b8 3d 63 34 d2 3d c9 d6 87 bd c5 d3 a5 bd
       0.09027819 0.10263898 -0.06632764 -0.080970325
0001e0 b6 c9 a0 3d 11 10 d4 bc eb 6b dc bd 7e c4 bc bd
       0.07850973 -0.025886567 -0.10762771 -0.092171654
0001f0 ba de 93 3d 49 c6 b3 bb 0a 8d 09 bd 1c b8 32 3c
       0.07220216 -0.005486284 -0.03358177 0.010908153
000200 02 73 c0 bd 8a c7 7f 3d 54 17 80 3d 24 28 bf bd
       -0.09396936 0.062446155 0.062544495 -0.09333828
000210 b8 ef 13 bd cd 8b a0 3c 95 7c 20 bb 49 3c cc bc
       -0.036117285 0.019597912 -0.002448832 -0.02493109
000220 23 8d 71 3c cc 6d 2b 3d bb 68 5e 3b 7f 9c 7d bd
       0.014743122 0.041852757 0.0033936936 -0.061916824
000230 dc 50 a2 3d fc 5d 92 bc 2f 1c a4 bd 12 54 c6 3d
       0.07925579 -0.01786708 -0.08013188 0.09684004
000240 85 d9 9d bd 6d 81 d8 3d c2 81 be bc 76 fa 38 3d
       -0.07707504 0.10571561 -0.023255233 0.045160733
000250 d1 94 c0 bd ef 19 e4 3d 72 fb 91 bd 01 11 9d bc
       -0.094033845 0.11137759 -0.071280375 -0.019173147
000260 77 3c 87 bd d0 cd d6 3d 18 76 94 bd 5f 3f df 3d
       -0.0660333 0.10488474 -0.07249087 0.10900759
000270 ad f3 e3 3b c4 da cb bd 16 b9 00 3d fc d9 03 3c
       0.0069565387 -0.099538356 0.03142651 0.008047577
000280 02 a7 a5 3d e7 af 95 bd 06 9b 93 3d ac b5 6e bd
       0.08088495 -0.07308941 0.07207303 -0.058278725
000290 2a 76 c6 3d fe 91 9c bd d8 f1 a8 bc ab 32 2f bd
       0.09690507 -0.07645033 -0.020623133 -0.04277293
0002a0 db 1d 4b 3d cd 45 d0 bd 03 48 8c bc 46 8a 74 3c
       0.04958902 -0.101695634 -0.017124182 0.014925545
0002b0 6c 36 07 bc 98 54 4f bd 9c 6e a1 3c fe 5c 42 bd
       -0.008252721 -0.050617784 0.019706063 -0.047451966
0002c0 9d da ac bd bd 74 d0 3c c5 83 e8 3c d7 dc 93 bc
       -0.08440135 0.02544629 0.028383145 -0.01804964
0002d0 78 b5 80 bd 66 a6 3b bc b5 3f a3 3d c9 a3 b8 3d
       -0.062846124 -0.011453247 0.079711355 0.090156145
0002e0 41 3b b4 bd 92 2d 76 3d dc 42 95 bd 41 be 77 bd
       -0.08800364 0.060102053 -0.07288143 -0.060484175
0002f0 df 78 a5 3d 39 6b d8 bd df b3 b5 3b 9a 29 76 bd
       0.08079695 -0.10567326 0.005545124 -0.060098268
000300 7c 82 af bd 09 b2 19 bd 32 77 33 3d aa f4 a3 bd
       -0.0856981 -0.037523303 0.043814845 -0.0800565
000310 1d 69 eb bb d1 a4 8f 3d 9c 2c eb bd 27 e9 1e bd
       -0.0071841613 0.07013858 -0.11483118 -0.03879657
000320 6a 80 8c 3d be 21 a7 bd 2a 2b c8 3b 1a b9 60 bd
       0.068604305 -0.08160733 0.006108661 -0.054864027
000330 7f 9e d3 3d a1 a3 c3 bd 2a ca ae bd 32 11 ae bd
       0.10332965 -0.09552694 -0.085346535 -0.084993735
000340 75 84 bb 3c 33 a5 a0 3d 5f 11 a4 bc 44 52 7d 3d
       0.022890309 0.07844009 -0.020027814 0.061846033
000350 e8 0e 2e bd d7 78 df bd 68 62 5a bd 80 54 52 bd
       -0.042494684 -0.1091172 -0.053316504 -0.051350117
000360 cd a4 08 3d 00 1c b1 bc 25 b9 06 bd 5a eb e1 3c
       0.03336029 -0.021619797 -0.03289141 0.027578045
000370 0e aa 96 3d 3a 26 7c 3c 77 6b 86 3d 4c ef 74 bd
       0.07356654 0.015389973 0.06563466 -0.059798524
000380 3e c8 f1 3c 75 96 38 bc 0a c8 87 bd c1 4d 8f ba
       0.029514428 -0.0112663405 -0.06629951 -0.0010933207
000390 47 93 f3 3c 9a 51 cb 3d eb 7b 3d bd 95 f6 9a 3c
       0.029733313 0.09927674 -0.046260756 0.018916408
0003a0 89 62 c7 bd 23 b2 af 3c 2c db a6 bd 02 a8 fe bc
       -0.09735591 0.021447247 -0.081472725 -0.031085972
0003b0 da 7c 04 bd 0e 51 84 bc cf 39 59 3d cc 3f 3e bd
       -0.03234563 -0.016151931 0.053033646 -0.04644756
0003c0 54 da 9b bd b2 87 6f bd 77 d9 8c bd f5 bb 9c bd
       -0.07610002 -0.05847902 -0.068774156 -0.076530375
0003d0 78 21 6a 3d d1 00 c7 3d 4c 86 8d 3d bc f1 c2 3d
       0.057160825 0.097169526 0.06910381 0.095187634
0003e0 c6 22 0b bd c8 7a 19 3c 72 15 91 3d d8 41 91 bb
       -0.03396871 0.009367652 0.070841685 -0.004432898
0003f0 d5 8a 0d bd 94 25 39 bd 10 d1 af 3d 8e 7a 9a 3c
       -0.03455623 -0.045201853 0.085847974 0.018857267

layers.conv2_1.bias f4 [64]
000000 b5 83 aa 3d a3 33 8e 3d 28 e5 b9 bc 04 9f 7c 3c
       0.083259024 0.06943443 -0.022692278 0.015418772
000010 81 fa 60 3d f6 66 c3 bd 92 9c 5b 3b e5 01 61 3d
       0.0549264 -0.095411226 0.0033510071 0.054933447
000020 60 15 86 bd 11 53 0b bd a6 fa 72 bd e2 93 40 bd
       -0.06547046 -0.034014765 -0.05932107 -0.047016032
000030 d0 75 d6 bd 78 3f 10 bb ef cb a7 3d ba f7 b3 3b
       -0.1047169 -0.0022010487 0.08193194 0.005492178
000040 90 44 8f bc 63 93 d0 3d 9b c9 d4 3c c5 5d ad 3d
       -0.017488748 0.10184362 0.02597504 0.08465151
000050 3d 14 5e 3d c0 1e 41 3d ee b3 e3 bc 49 43 97 bd
       0.05421852 0.047148466 -0.027795758 -0.073858805
000060 6b 06 7c bd 08 45 42 bd 2b 67 08 3d 7d 69 be bd
       -0.06152956 -0.047429115 0.033301514 -0.09297464
000070 e6 45 c7 bd e5 49 53 3d b0 1e d9 bd 55 8d 62 3d
       -0.09730129 0.051584143 -0.10601556 0.055310566
000080 33 c7 d4 3d 3f 7e 4a 3c 9a 17 87 3d c5 af 8b bd
       0.10389557 0.012359201 0.065962985 -0.06820635
000090 c9 94 56 bd a2 cb 9d bd 85 d9 fa bc b0 53 69 3b
       -0.052387986 -0.077048555 -0.0306213 0.003560286
0000a0 49 9f 80 bd 4f 51 09 bc 53 9d c0 bd 08 5a de 39
       -0.06280381 -0.008381202 -0.09405007 0.00042410218
0000b0 7c d8 58 3d ad 59 20 bd 60 cd a4 bd 59 60 c5 3d
       0.05294083 -0.03914802 -0.08046985 0.096375175
0000c0 65 f1 6f 3d f7 b7 f4 bc 39 6d 36 3d 46 81 c9 bd
       0.05857982 -0.029872878 0.044537757 -0.0983911
0000d0 e4 c5 94 bd fa 2d e3 bd 0a 08 e3 bd f1 fc a5 bd
       -0.07264307 -0.11092754 -0.11085518 -0.08104885
0000e0 6b 27 7b 3c 42 08 43 3d 9f e2 a8 b8 97 d6 ef 3c
       0.015329222 0.047615297 -8.053076e-05 0.02927713
0000f0 c3 6a e1 bd b3 6c cb 3c eb 63 04 39 50 2f 5c 3c
       -0.11006691 0.024832105 0.00012625723 0.013439015

layers.conv2_2.weight f4 [32, 64, 20]
000000 4a 6f da 3c 9b 60 17 ba 7b 57 62 bb d3 70 85 3c
       0.026664395 -0.0005774588 -0.0034537006 0.01628915
000010 9b 82 82 3c 32 7e ee bb c1 8f 66 bc 1d 06 93 3c
       0.015931418 -0.0072782272 -0.01407236 0.017947251
000020 68 1f b5 3c 10 02 a1 3c 0e 2d 98 3c 91 a1 77 3c
       0.022109702 0.019654304 0.018576171 0.015114204
000030 55 e1 95 ba 8e c2 71 3b c2 b3 e6 3c 31 aa fe 3a
       -0.0011434952 0.0036889645 0.028161887 0.0019429383
000040 39 23 30 3c 4a 41 75 bc ff 88 34 bb 93 65 60 bc
       0.010750585 -0.014969179 -0.0027547476 -0.013696092
000050 ae 9d 4d bc 0c ce 1e bb 84 5b fd 3b 10 48 61 3c
       -0.012549801 -0.00242317 0.007731857 0.013750091
000060 b8 4c c9 3c 9a d9 e9 3b f4 78 78 3c 95 93 9c bc
       0.024572715 0.007136536 0.015165556 -0.019113341
000070 f1 1e 3f 3c 68 95 d2 3c 93 8d 80 bc 2c bb 01 3b
       0.011665092 0.025706008 -0.015692508 0.00197954
000080 6e b4 9a bc 03 67 8f 3c b3 f2 99 3c 7d 02 c8 3c
       -0.018884864 0.017505175 0.018792486 0.024415249
000090 3e 07 83 3b 90 8e 30 3c 91 d9 a2 3c 0f 76 d8 3c
       0.003998666 0.010776177 0.019879134 0.026423482
0000a0 c6 9d b3 bc c9 f0 ce bc 24 e8 18 3b ba e8 8a 3c
       -0.021925818 -0.0252613 0.0023331726 0.016956676
0000b0 05 4d e0 bc 86 0b ae 3c f8 aa 87 3c cc 2f a7 3b
       -0.027380476 0.02124573 0.016561016 0.0051021334
0000c0 9a ec 2a 3c c4 67 a2 ba b8 06 e8 39 60 bb bc bc
       0.010432387 -0.0012390544 0.00044255494 -0.023038566
0000d0 d3 ec 8e bc fa ec 46 bc 3c c1 73 bc 33 53 48 3b
       -0.017446911 -0.012141461 -0.014877614 0.0030567169
0000e0 d5 ee f8 bc 06 93 39 bc 4c 8d c8 3a 32 29 2b bc
       -0.030387321 -0.011326557 0.0015300899 -0.010446833
0000f0 2a f1 4a 3b 1e f9 80 bc 27 06 89 bc 66 66 f3 bb
       0.00309665 -0.015743788 -0.016726566 -0.0074279783
000100 2d cf 39 bc 4a 39 94 bc 23 53 fe 3c 2c ba c4 3c
       -0.011340898 -0.018093724 0.031045502 0.024014555
000110 43 ef ef 3c f7 83 c6 3c dd 1d cd 3c c1 81 f3 bb
       0.029288894 0.024232848 0.025038654 -0.0074312394
000120 6c 61 17 bc 4a 11 7c 3b 4d de 44 3c cf c4 9c ba
       -0.009239536 0.0038462454 0.012015891 -0.0011960509
000130 49 a4 96 3c aa e9 b0 bc db d4 cf 3c 12 03 41 3b
       0.018388884 -0.021595795 0.025370052 0.0029451293
000140 d0 d2 b6 bc 57 0f 51 3c 8c 0b a5 bb 20 27 4a 3c
       -0.02231732 0.012760005 -0.005036777 0.01233843
000150 23 62 b7 3c 5a 76 4b bc e2 ea 09 3c a9 dc 2c bc
       0.022385662 -0.012418354 0.008417817 -0.010550656
000160 88 ea b8 3c 0f 9e f9 3a 25 73 f0 3c 74 b1 93 3c
       0.02257277 0.0019044298 0.02935178 0.018028952
000170 e9 cd ea 3b f5 47 04 3c e0 3f 44 bc f9 bc 45 3c
       0.0071656597 0.0080737965 -0.01197812 0.01206898
000180 91 a6 c8 3c 2b 2f 06 3c f8 a9 72 3c 4d cc a0 3c
       0.024493488 0.008189957 0.0148110315 0.019628668
000190 e9 57 51 bc 27 85 4d bb 8b 5c ba 3c 51 20 21 bc
       -0.012777307 -0.0031359883 0.022749206 -0.009834365
0001a0 92 8a f0 3c a2 62 8d 3c 48 08 1b 3c 1a b3 3a bc
       0.02936295 0.017258946 0.009462424 -0.01139524
0001b0 95 60 bb 3b 62 e3 8a ba 0f fe be 3c c3 5a 5d 3c
       0.0057183006 -0.001059633 0.023314504 0.013510409
0001c0 66 9b 2c bc 5c 4b b6 bc 8a e4 84 3c c6 70 2d 3b
       -0.010535097 -0.022252731 0.016222257 0.0026464923
0001d0 2e 29 67 bc 6f ad 9e 3c f5 8f f4 3b 75 7f 45 bc
       -0.014108939 0.019369809 0.00746345 -0.012054314
0001e0 34 c7 f1 bb e0 94 b7 bc dc 46 c0 bc 92 15 a9 3c
       -0.007378483 -0.022409856 -0.023471288 0.020640168
0001f0 bf 8d a0 bc 39 b7 b3 3c fa 18 7d bc 96 07 9e 3c
       -0.01959884 0.021937953 -0.015447849 0.019290727
000200 11 4d 91 3c 7d 55 2c 3c cd e6 d6 3c 15 3f d1 3b
       0.017736943 0.010518429 0.026233101 0.006385694
000210 bf d0 c1 3c f8 18 86 3a 27 a6 46 bc 6b dc d2 3b
       0.023659108 0.001023083 -0.012124575 0.0064349673
000220 e4 be f8 3c eb 16 c9 bb f0 9e ef 3c 2f 5b a8 3b
       0.030364461 -0.0061367652 0.029250592 0.005137823
000230 11 e1 ee 3c 26 64 b5 bc 8e 64 a3 3c 05 2b fe 3b
       0.029160054 -0.022142481 0.01994541 0.007756593
000240 22 b1 1f bc a8 fa 97 3c f8 70 3a bc 35 99 9f bc
       -0.009746822 0.01855214 -0.011379473 -0.019482234
000250 68 4f b5 3c 37 e9 35 ba 2b ca a0 bc a0 61 80 3c
       0.02213259 -0.0006939354 -0.019627651 0.015671551
000260 06 53 60 bc dc 99 b4 bb 2e 0f ca 3c 0f 95 97 3c
       -0.013691669 -0.0055115055 0.024665441 0.018503694
000270 96 ce 6f bc 44 2e bc 3c c8 83 ed 39 63 cd 97 3b
       -0.014636656 0.02297128 0.00045302347 0.0046326383
000280 59 f7 97 bb 41 02 81 3c 6a c7 e7 ba c4 62 38 bc
       -0.0046376404 0.015748145 -0.0017683331 -0.011254016
000290 f7 b0 84 bc 37 89 42 3c 17 67 be 3b 5e 34 94 3c
       -0.016197665 0.011873535 0.005810629 0.018091377
0002a0 8f 40 fc 3a 86 4c 8a bc d6 30 6c bb 8c 6c 5f bc
       0.0019245314 -0.016882192 -0.003603985 -0.013636719
0002b0 74 36 bd 3c 9f 5b 69 3b e7 1e 07 bc 86 39 fe 3c
       0.023097254 0.003560759 -0.008247114 0.031033289
0002c0 cc a8 84 bc 9b d1 e9 3c 6f 9e 28 bc 35 8c e0 3c
       -0.01619377 0.02854233 -0.01029168 0.027410606
0002d0 25 8c 41 bc 07 7c a3 3c 7e a8 c2 3b cf 13 9a bc
       -0.011813198 0.019956602 0.005940496 -0.018808274
0002e0 7a 52 9b ba 6a 65 de 3c 3e 16 7c bc f8 84 62 bc
       -0.0011850141 0.027147967 -0.015386162 -0.0138256475
0002f0 21 92 95 bc 2b e8 6b bc 31 79 e8 3c fd 0c d6 bc
       -0.018258156 -0.014398615 0.028378101 -0.02612924
000300 d6 c1 b9 bc aa c5 53 bc f3 6a e1 3c f0 54 e9 3c
       -0.022675436 -0.012925545 0.027516818 0.028482884
000310 9a 25 a3 3c a9 e0 bb bc 5c cd 2f bc 35 2b 2e bc
       0.01991539 -0.022934275 -0.010730114 -0.010630419
000320 76 8a f0 3c 72 15 de 3c ce e5 83 bc 4d 91 fa 3c
       0.029362898 0.027109835 -0.01610079 0.030586863
000330 40 20 40 39 b5 4d 10 bc 0d ee 67 bc fa 23 cb 3c
       0.00018322561 -0.008807589 -0.014155877 0.024797428
000340 b3 14 de 3b cf 74 f0 3c 0f 59 92 3a 96 b9 b3 bb
       0.00677737 0.029352574 0.0011165458 -0.00548477
000350 cc d1 b9 3c a8 f8 7a 3c 5d c1 a0 bc cc ba 5d bc
       0.022683047 0.015318073 -0.019623453 -0.013533305
000360 ba 75 63 3c bf bf 3a b9 58 91 e7 3c 0c 8f a9 3c
       0.013883049 -0.00017809773 0.028267547 0.020698093
000370 40 6e b1 3c 3b 63 83 bb 0c 62 a7 3b a7 a8 19 bc
       0.021659017 -0.004009632 0.0051081236 -0.009378589
000380 f3 58 e5 3c 85 ff b6 bc bf dd 08 bb 97 59 9c 3b
       0.027996516 -0.022338638 -0.0020884124 0.004771422
000390 5f 91 5e bc b5 60 82 bc 8b af aa 39 b5 67 d1 3c
       -0.013584464 -0.015915254 0.00032555716 0.025562147
0003a0 de 7d c6 3c 52 1c ec 3b de 41 9e 3c 45 34 33 bc
       0.02422994 0.0072055245 0.019318517 -0.010937755
0003b0 d7 59 78 bc 29 00 e4 3b b8 23 ee 3c d0 6c 57 3b
       -0.015158138 0.006958027 0.029069766 0.0032871254
0003c0 24 93 58 bc ba 36 d6 bb c3 cb c1 bb 2e fd 16 bc
       -0.013218675 -0.0065372856 -0.005914183 -0.009215636
0003d0 ef b5 cb bc be 42 c4 3b 4e b6 b2 bb f2 ef fc bc
       -0.024867026 0.0059894016 -0.0054538613 -0.030876134
0003e0 c4 66 cb bc fa 83 91 3c f6 42 b2 bb 3e 5c a0 3c
       -0.024829276 0.017763127 -0.0054401113 0.019575235
0003f0 51 4e a6 3c 6e b6 0d bc 05 90 ad 3c 6e ed 83 3b
       0.020301016 -0.008649452 0.021186838 0.0040261066

layers.conv2_2.bias f4 [32]
000000 94 37 2d bc 16 21 86 3a 00 85 08 3c 76 cb db 3c
       -0.010572333 0.0010233249 0.008332491 0.026830416
000010 c1 9b 11 bc 03 7a 3e 3b c8 19 d7 3c 94 ee ff 3b
       -0.008887232 0.0029064424 0.02625741 0.007810423
000020 60 e8 68 bc 8e 55 3e bc c0 31 e1 3c a9 46 95 bc
       -0.014215559 -0.0116170775 0.027489543 -0.01822217
000030 6c 1b 4e 3c d6 de 26 bc ee 98 85 bc c2 98 73 bc
       0.01257978 -0.010184964 -0.016308274 -0.014867963
000040 ba 95 aa 3c c8 07 ce 3c 88 23 ac bc 14 5f 79 3c
       0.020823348 0.025150195 -0.021013036 0.015220422
000050 8c a4 6e bc 72 37 4b bb c8 80 40 3c bb cb 2b bc
       -0.014565598 -0.003100839 0.011749454 -0.010485585
000060 ed bb a2 bb 27 73 73 3c 68 ff 71 39 f2 6e 3f 3c
       -0.00496625 0.014858997 0.00023078697 0.011684166
000070 96 8e 85 3c 76 29 b1 3c 83 71 f2 b9 da 98 56 bb
       0.016303342 0.021626215 -0.0004624241 -0.0032744915
