mRNAlocalization/cnn_models/CNN_model_fold3.pth (torch, 531886 bytes, 22 tensors)

layers.bn1.weight f4 [64]
00000000: 0741 813f 3f73 7f3f 41c8 803f c0d8 7e3f
00000010: c246 813f 5247 7e3f 31db 803f 07a2 7f3f
00000020: fd9b 7f3f 5da6 7e3f 581a 813f 572e 803f
00000030: a0bc 803f d89d 7d3f 8203 7f3f bbc3 7f3f
00000040: f8c0 7f3f 7e46 803f 96d0 803f 174c 803f
00000050: 315f 7f3f a785 7f3f 67d7 7e3f 83c4 803f
00000060: 3e74 803f 18c1 7e3f be7e 803f 6eb8 803f
00000070: f69d 7f3f 753d 7f3f 09f2 7f3f 705b 803f
00000080: 5f4c 803f 2c01 7f3f df44 7f3f 87f0 7e3f
00000090: b9f4 803f 8c0c 803f ec11 803f 5be5 7f3f
000000a0: 3d42 803f 29e7 803f 61e7 803f 68f0 7f3f
000000b0: 206b 813f fe7d 7f3f 3974 7f3f 2b2d 803f
000000c0: 5aca 7f3f 2807 803f 9a3e 803f bf7e 803f
000000d0: 785b 803f 7645 7e3f 8893 803f c7cb 7f3f
000000e0: d127 7f3f b4b6 7f3f 9c99 7f3f 0c14 803f
000000f0: a663 7f3f 4471 7e3f 4aba 7f3f 24b5 803f
1.009797 0.99785227 1.0061113 0.99549484 1.0099719 0.99327576 1.0066892 0.9985661
0.99847394 0.994726 1.0086164 1.0014142 1.0057564 0.99068975 0.9961473 0.99908036
0.9990382 1.0021513 1.0063655 1.0023221 0.99754626 0.9981331 0.9954743 1.0059971
1.0035474 0.9951339 1.0038679 1.0056283 0.99850404 0.9970315 0.9997869 1.0027905
1.0023307 0.99611163 0.99714464 0.99585766 1.0074683 1.0003829 1.0005469 0.99959344
1.0020214 1.0070544 1.0070611 0.99976206 1.0110817 0.99801624 0.99786717 1.0013784
0.9991814 1.0002184 1.0019104 1.003868 1.0027914 0.9932474 1.0045023 0.99920315
0.9967013 0.9988816 0.99843764 1.0006118 0.99761426 0.9939158 0.9989363 1.005528

layers.bn1.bias f4 [64]
00000000: 1736 273c c981 f23b 1b55 3c3b 8aa8 cbba
00000010: 6b5d 663c 6853 86bb 28ff 1f3c 0d47 283c
00000020: f541 b33a 312b 01ba 58f4 a83b 365c 823b
00000030: 1545 253c 7723 f9bb 020d 84bb fab0 873b
00000040: e8c0 033b 6777 6e3a 6f2c 29bb 2755 3b3b
00000050: 6b21 3eba 341f 2ab9 3e51 b6bb 13d4 223c
00000060: ca8d e1ba e84f a0bb 7db2 ea3a 8da4 833b
00000070: f028 67bb 7509 043b b820 ee39 8b3b dfba
00000080: ead1 713b 2557 a43a 166d b239 fc47 c8ba
00000090: 9d64 383c 7ddd e73b 398c 17bb 9e32 213c
000000a0: f489 4a3c f10a 1c3c fa89 b93a 2cae 27bc
000000b0: 2573 283c 9c63 ac3b 24e8 57bb 8690 1e3c
000000c0: a84b 313b 92c7 c2bb d2ea b23b ab2a 713b
000000d0: d60e 5c3b 5f79 d8bb a30c 2d3c 1097 b03b
000000e0: bd41 ef3a 7a18 cd3b 0cf5 e2ba c58f a4b9
000000f0: c605 143b 5729 8bb8 61a9 2d3c ff6a fd3b
0.010205767 0.0074007255 0.002873725 -0.00155379 0.0140603585 -0.0040992983 0.009765424 0.010270846
0.0013676273 -0.00049273955 0.005156081 0.0039782776 0.010087271 -0.0076031047 -0.004029871 0.0041409703
0.0020103995 0.0009096772 -0.0025813838 0.002858469 -0.00072529045 -0.00016224087 -0.005563884 0.009938258
-0.0017208394 -0.004892338 0.0017905977 0.0040174187 -0.0035272203 0.0020147238 0.00045419275 -0.0017031295
0.00368988 0.0012538178 0.0003403208 -0.0015280242 0.011254457 0.007075964 -0.002312435 0.009838728
0.012361992 0.009524093 0.00141555 -0.010234397 0.010281359 0.005260898 -0.0032944763 0.009678012
0.0027053151 -0.005944201 0.0054601217 0.0036799114 0.003357818 -0.0066062654 0.010562095 0.005389102
0.0018253844 0.0062590213 -0.0017315461 -0.00031387634 0.002258645 -6.635737e-05 0.010599465 0.007733702

layers.bn1.running_mean f4 [64]
00000000: 0052 9d3c fdd7 11bc 009c 98bd 7568 433e
00000010: 6404 6b3e c167 e23c b99d 323d bd91 cc3d
00000020: 4592 233e a64e 123d 8ec8 c53c 1d98 073d
00000030: 2dab 19be 6cea f33d f051 1f3e 20d3 783d
00000040: 77c5 6ebe 5b69 aebd cf1c f83c e282 4e3d
00000050: f215 813c 6e95 023e 7be6 d1bb 538e 433d
00000060: a1df 4cbc 9707 723c 4fc3 3b3c 231c 9d3d
00000070: 4f91 213d 5c91 1f3e b583 043d fd4d 6f3d
00000080: 6543 f43d 73c9 0a3e 58d7 0cbd e57a b3bc
00000090: 5e77 3f3d 76f6 99bc 75d2 f4bc f0cf fe3a
000000a0: e860 4e3d 3342 543e f78a 1c3d f348 00bd
000000b0: 9899 cabd d4e5 493c 673a afbc 333f d83d
000000c0: 27b9 3f3e f10a 35bd ee1c af3d b6ab 6f3d
000000d0: a977 58be 0193 8bbe bdd9 87bd ebcb bb3d
000000e0: 040f 133e b5e8 d2bd 4302 8c3a d185 5abe
000000f0: 6e85 e13d f74c ee3c 3f1a 67be b137 123d
0.01920414 -0.008901593 -0.0745163 0.19082816 0.22950894 0.027637364 0.043607447 0.09988735
0.15973766 0.035719536 0.024143483 0.03310405 -0.15006705 0.11909947 0.155586 0.06074822
-0.23317514 -0.08516189 0.030287175 0.05041779 0.015757535 0.12752315 -0.0064056492 0.047743153
-0.012504489 0.014772317 0.011460139 0.07671382 0.039445218 0.15582794 0.032352168 0.058423985
0.11926917 0.1355341 -0.034385055 -0.021909187 0.046744697 -0.01879428 -0.02988551 0.0019440632
0.050385386 0.20728378 0.038218465 -0.03131957 -0.09892577 0.012322862 -0.021390153 0.10558929
0.18722974 -0.044199888 0.0855044 0.058513366 -0.21139397 -0.27260593 -0.06633327 0.09169754
0.14361197 -0.102982916 0.0010681826 -0.2134011 0.11011778 0.029089434 -0.22568606 0.035697643

layers.bn1.running_var f4 [64]
00000000: b2bd f03c 2301 363d 29df 4f3d d854 643d
00000010: f408 413d e946 da3c 6c9b 1b3d 5265 173d
00000020: a7ac 463d 9b6f 2b3d 269d 083d 02ea 463d
00000030: bf53 573d fd0e 383d 2a27 0b3d c713 063d
00000040: e944 b03d 3c9c 553d 059f 493d 65b2 383d
00000050: 0928 063d 5d2b fb3c e541 ed3c 8961 4a3d
00000060: 6fbe 2c3d 7585 233d d9dc 1e3d ab83 273d
00000070: ab37 f53c 2d51 0d3d 0abd 143d 1cab 1a3d
00000080: 9316 083d 87c1 1d3d f8c2 263d 6b12 2c3d
00000090: f675 123d f2f0 333d e45c 153d 0c38 783d
000000a0: 8c2c 5e3d bd0a 503d b6f3 153d ac72 0e3d
000000b0: 64f5 3a3d 3ef7 093d 9568 123d 284d 323d
000000c0: 0e2c 303d 4f64 e53c f27f 0d3d 6e17 203d
000000d0: bbe3 953d 742d 7b3d 5d14 0a3d 7652 033d
000000e0: ae47 2c3d 91bb 873d 5566 103d ec8e 9a3d
000000f0: e772 703d a52b eb3c 90ff 7c3d cef5 183d
0.029387329 0.044434678 0.05074993 0.055744976 0.04712768 0.02664514 0.03799002 0.03696186
0.048504498 0.041854482 0.033352993 0.04856301 0.0525701 0.04493617 0.033972897 0.032733705
0.086068936 0.05215095 0.04922392 0.045092005 0.032753024 0.030660326 0.028962085 0.049409423
0.0421738 0.039922196 0.038784835 0.040897053 0.029933771 0.034501243 0.036313094 0.03776084
0.033224653 0.03851464 0.04071328 0.042009752 0.035757028 0.043930955 0.03646554 0.060600325
0.054241702 0.05079149 0.036609374 0.03477733 0.04564418 0.033683054 0.03574427 0.043530613
0.043010764 0.028001932 0.034545846 0.039084844 0.07318827 0.061322644 0.033710826 0.032061063
0.042060547 0.06627572 0.03525384 0.075467914 0.05870333 0.028707335 0.06176716 0.037343793

layers.bn2.weight f4 [32]
00000000: 2504 823f f4fd 813f 4505 7a3f d72c 7a3f
00000010: 5cf7 7b3f fc50 7a3f de0a 7c3f 56ee 793f
00000020: f6f3 7b3f eaef 7b3f 64b9 7c3f 008d 7b3f
00000030: 235a 7a3f 066f 7c3f 031f 7a3f 1f4a 7c3f
00000040: c266 7b3f 58b9 7b3f 5e23 7c3f 18fe 793f
00000050: b031 7c3f 2f6c 7a3f 472a 7a3f 111e 7a3f
00000060: e3e1 7b3f d709 7c3f 6a5e 7a3f 920c 7c3f
00000070: a79c 7b3f 5463 7a3f 5ab4 7b3f 6b04 7c3f
1.0157515 1.0155625 0.9766429 0.9772467 0.98424315 0.9777982 0.9845408 0.97629297
0.9841913 0.98412955 0.98720384 0.98262024 0.9779379 0.9860691 0.9770357 0.985506
0.9820367 0.9832969 0.98491466 0.9765334 0.9851332 0.97821325 0.9772076 0.9770213
0.9839155 0.98452514 0.97800314 0.9845668 0.9828591 0.9780781 0.9832207 0.9844424

layers.bn2.bias f4 [32]
00000000: 8328 893c 38e9 713c 7aea c0bc 15b2 bcbc
00000010: 8c9b 8b3b 2ba8 bbbc 904f bfb9 fca9 c2bc
00000020: f917 043b 8ecb 4fbb b02d 023c 65d7 90ba
00000030: c1c6 b9bc 102d 1bb9 b41b bebc c73d 9b3b
00000040: dce8 043b 31d6 933a e8c8 41ba 7366 c1bc
00000050: bbc5 b93b 9ab8 b9bc 944d bcbc cfbc bdbc
00000060: 3a53 a839 1d39 09bb 40a2 bbbc 5c5f 0d3b
00000070: 2ce1 103a fa86 babc f4b8 633a 10bf 23bb
0.01674295 0.014765076 -0.023549307 -0.023034135 0.004260486 -0.022907337 -0.00036489638 -0.023762695
0.002015589 -0.0031707021 0.007945463 -0.0011050521 -0.022677781 -0.00014798739 -0.02320657 0.004737589
0.0020280397 0.0011279044 -0.0007392303 -0.023608422 0.0056693233 -0.022671033 -0.02298621 -0.02316132
0.00032105466 -0.0020938583 -0.022904515 0.0021571731 0.0005526717 -0.02276944 0.0008686923 -0.0024985708

layers.bn2.running_mean f4 [32]
00000000: 882e a23e eef8 48be d5d4 a3bd aa8b 3e3f
00000010: 761c 94be c346 5c3e 123e b6be 63ad 863c
00000020: ff8a abbe 0813 d1be 0d19 edbe e1cd 8abe
00000030: 9fc1 853f 8c5c b7be 37dc f03e d6f8 bfbe
00000040: ed65 bbbe 5103 dfbe aa3a abbe 5865 c2bd
00000050: d7d3 0cbf fcb6 e73e 9e37 a03d db82 573c
00000060: 7aec fcbe 6ff2 b9be a142 9d3d efa4 c1be
00000070: 28af c3be 9207 793d 6caf 00bf 1f4a b2be
0.31676126 -0.19626209 -0.07999579 0.7443186 -0.28927964 0.21511368 -0.3559423 0.0164401
-0.33504483 -0.40834832 -0.46308175 -0.27110198 1.0449713 -0.35812795 0.4704301 -0.37494534
-0.366012 -0.43557218 -0.33443195 -0.09491986 -0.5501074 0.45256793 0.07823108 0.013153757
-0.49399167 -0.36317775 0.07678724 -0.37821147 -0.3821957 0.060798235 -0.5026767 -0.34822175

layers.bn2.running_var f4 [32]
00000000: 72b8 4641 19e4 ce40 82e9 0341 4a86 8341
00000010: 9122 ef40 33bf 6541 bd16 ca40 97c8 0841
00000020: f2bd de40 3ad6 0b41 cfc2 fb40 e121 f840
00000030: 1ac8 ad41 02e6 b440 9a9a 5541 ab2a c640
00000040: 3b94 0e41 b2f8 e640 3540 b840 b008 0b41
00000050: 4bb9 cb40 4a0a 6041 7776 e440 5c54 e240
00000060: 6493 c940 6525 c340 ff13 7a41 5e23 bd40
00000070: 833f f040 b93c 7b41 f633 ff40 77d3 fd40
12.420031 6.465344 8.244509 16.44057 7.4729695 14.3591795 6.3152757 8.548972
6.9606867 8.739801 7.8675303 7.7541356 21.722706 5.653077 13.3502445 6.1927085
8.911189 7.2178583 5.757838 8.689621 6.366369 14.002512 7.139461 7.072798
6.299242 6.098315 15.629882 5.9105673 7.507753 15.702325 7.975093 7.9320636

layers.conv1_1.weight f4 [64, 4, 9]
00000000: eb27 273c 5fe4 813d 96f9 0f3d 57a9 b13d
00000010: 7f0a 003e 2d6d c5bd bde4 823d da56 adbb
00000020: c17a 293e 4c1f 74bd 1c08 9fbd 627d 01bd
00000030: 0850 0b3c cc2e 9abd 4874 073e ac4b 80bd
00000040: 81fe 173e 25ce 98bb 1358 61bd 6eed 1a3e
00000050: 1462 18be cb9f 41bd 3708 b0bd a6db eb3d
00000060: 69cd 29bd b173 e23d 43d8 953d 6f7e 03be
00000070: f693 0fbd 75ca 9ebc 8a00 143e 9551 1c3e
00000080: 79f3 1ebe 00d6 0a3d 4e2d fdbd cbaf e3bd
00000090: cc3a b63d e806 8a3d 06cb ee3d cede d0bd
000000a0: 41bb 97bd 903a 43bc 6dfc 763d 8ae8 1bbe
000000b0: 5887 803d 5e48 a0bd 3ca4 31bd 48da 54bd
000000c0: 2b9f 073e 7403 2e3d 19bd 14be f2e6 bf3d
000000d0: 1be8 23be 134f 453d dbd0 efbb f4bd e1bb
000000e0: 4210 92ba bede c4bd 248a a2bc b7c8 29bd
000000f0: d9b0 743d 79d0 c93d fb50 f5bd d1c4 e6bd
00000100: d7c9 05be b7a4 2bbe faf9 79bd 6816 7a3c
00000110: 052e d9bd 66f7 d7bd 799e 1abe 9a31 0cbe
00000120: 6f2d 4b3d 2a97 c7bd 05fd 183e f1ff 073d
00000130: ae05 8dbc e40a 17bd 89eb 5ebd c9f8 093e
00000140: 6c29 223e 9b68 aebd 2a01 c3bd 36d7 9b3c
00000150: 9a80 5b3d 9603 333e 4fcf f0bd 9c1d a53d
00000160: c469 b93d 9dd1 18be e2a5 e93c 0be0 4fbd
00000170: 49e8 2e3d 7f88 5bbd 8128 553d ba39 d8bd
00000180: 1647 eabc e348 00be d8c1 ae3b 5d38 153e
00000190: 441c 793d e6ec 2a3d 58c1 533d 8786 be3d
000001a0: 0508 03be 2711 0dbd 1eed debc c8e5 0ebe
000001b0: 52e9 0dbe 9f3a edbd f6e1 933d 0df6 ee3d
000001c0: 4bac 14be 4a92 edba ee71 b5bd 1fb1 f63d
000001d0: b1cd bbbd 5b44 76bd 15f2 83ba f1f3 c2bd
000001e0: d16c 07bc c001 a2bd 5f31 f83c 450f 073c
000001f0: c57f c73d efa4 8b3d e178 043e 5642 16be
00000200: 80de 89bd f0bc 90bd bcfb 8dbd b333 823d
00000210: fc6a 833d 2899 dabd f779 05be 80a6 243e
00000220: 70b4 1c3e c70a 323d 541b 8abd 388d eb3d
00000230: 1c9e c0bc f968 1b3e be93 003d 74f8 123d
00000240: 213a d3bc 8687 aebd 253c 9e3d 31e9 843d
00000250: cb63 1d3d 4164 ab3d 6672 07be 5d15 c9bc
00000260: 8f42 0cbe f9e6 193d 3958 ca3d 33bb 203e
00000270: bfc9 0fbe 74b4 ec3d af70 a53c 0f05 513d
00000280: e817 f4bd 3aa1 e23c e468 d53d 75a6 103e
00000290: fee1 063e eac3 923d c69a 313d 8f3c f3bd
000002a0: 4368 d73b c641 f03d 7dc3 e03c 387a 41bd
000002b0: eb03 78bd f715 f53d 325d d43d 8f0b f43d
000002c0: d099 833c bf39 78bd 218f 88bd c1f4 ce3d
000002d0: fd4b 20bd e75a e73d 10c7 563d 7ef4 113d
000002e0: a2ff 843d c396 febd cd7e d23d 115d c9bd
000002f0: 0906 bcbd c496 ce3d 232e 4f3c c4a3 27be
00000300: 26fe 3c3d 0a30 063e c405 343d ced1 dabd
00000310: 282b d7bd 1e0f 28bd 2dfd f8bd ede9 f53c
00000320: 83ee 953d d7b9 033e 2bfa 003d 140d 263e
00000330: a673 34bd e622 03be 2517 1dbe ecf6 1d3e
00000340: 4c85 acbd 8119 1cbe 84dd 2b3d 223a dc3b
00000350: 0834 b73d 18de 1abe b57c 863d 1604 8abd
00000360: 1cb3 273b 329f 883d 4113 a53d b632 c8bd
00000370: b9d9 d1bd 1077 6c3c c661 aa3d 45ac 493c
00000380: e2f9 353d 2540 94bd 28fa 113c 8bf6 d33d
00000390: f96a d4bd d42b 1ebe 37ba 223e b120 8a3d
000003a0: 29ec 44bc 9973 083e 0cb7 813b cf71 9cba
000003b0: 10ce ff3d 48f2 c23d 7dae 263e 7ca5 9b3d
000003c0: 6a30 e13c e71a 0fbe c5ec 73bb 6bc6 d53d
000003d0: 41a7 1e3d 7e9a 053e 66bb 8abd a144 23be
000003e0: 226b 063e 5ee0 81ba 4913 d53d 0c77 0fbd
000003f0: 3bfd b0bc d225 f63d 56a2 34bb 3723 03be
0.010202388 0.063423865 0.035150133 0.08674877 0.12504004 -0.09639964 0.063912846 -0.0052898945
0.16550733 -0.05960016 -0.077652186 -0.031613715 0.008502968 -0.07528457 0.13227952 -0.06264433
0.1484318 -0.004663246 -0.055015635 0.15129635 -0.14881164 -0.04727153 -0.08595317 0.11516504
-0.04145566 0.11057223 0.07316639 -0.128412 -0.035053216 -0.019383648 0.1445333 0.15265496
-0.15522565 0.033895493 -0.12362157 -0.11117514 0.08897933 0.067395985 0.116598174 -0.101987466
-0.07408763 -0.011915818 0.060299326 -0.15225425 0.06275815 -0.07826303 -0.043369517 -0.05196598
0.13244312 0.042483762 -0.1452526 0.09370221 -0.1600651 0.048171114 -0.0073185987 -0.0068890993
-0.0011143761 -0.09612797 -0.019841261 -0.041451182 0.059738968 0.09854216 -0.119783364 -0.112680085
-0.13065277 -0.16762052 -0.06102941 0.015264131 -0.10604481 -0.105452344 -0.15099515 -0.13690796
0.049603876 -0.09745629 0.1494027 0.03320307 -0.017214622 -0.03687562 -0.054423843 0.1347381
0.15836114 -0.08516046 -0.095217064 0.019023519 0.05358944 0.17481837 -0.11758291 0.08062288
0.09053376 -0.14923711 0.028521482 -0.050750773 0.042701993 -0.05359697 0.05204058 -0.105578855
-0.02859835 -0.12527804 0.0053331666 0.14572282 0.06081797 0.04172983 0.05169806 0.09303003
-0.12796028 -0.034440186 -0.027212676 -0.13954842 -0.13858536 -0.11583447 0.07220833 0.11668024
-0.1451885 -0.0018125263 -0.08859621 0.12045502 -0.09170092 -0.060123783 -0.0010066653 -0.095191844
-0.00826569 -0.0791049 0.03029698 0.008243387 0.09741167 0.06818568 0.12936737 -0.14673743
-0.06731892 -0.07067287 -0.0693278 0.06357517 0.0641689 -0.106737435 -0.13034807 0.1607914
0.15303206 0.04346731 -0.06743494 0.11501545 -0.023512892 0.15176763 0.031390898 0.035881475
-0.025784554 -0.08521943 0.077263154 0.0648979 0.038425248 0.08368731 -0.13227233 -0.02454632
-0.13697265 0.03757379 0.098801084 0.15696411 -0.14041804 0.11557856 0.020195333 0.051030215
-0.11918622 0.02766477 0.10420397 0.14125998 0.13172147 0.07166274 0.043360494 -0.11876785
0.0065737083 0.11731295 0.027436966 -0.047235698 -0.06055061 0.1196708 0.10369338 0.11916267
0.016064554 -0.060601946 -0.06667925 0.10105277 -0.039134968 0.11296635 0.052435935 0.035633557
0.064940706 -0.12431099 0.102780916 -0.09832204 -0.091808386 0.1008735 0.012645277 -0.16371065
0.046140812 0.13104263 0.04395081 -0.10684548 -0.10506278 -0.041030042 -0.121576644 0.030018771
0.07320883 0.12863861 0.03148858 0.16215926 -0.044055603 -0.12806281 -0.1534086 0.15426224
-0.08423862 -0.15244104 0.0419593 0.006720797 0.08945471 -0.15123785 0.06566755 -0.067390606
0.0025588935 0.06670989 0.08060313 -0.09775297 -0.102466054 0.014432684 0.0831943 0.012309139
0.04442776 -0.07238797 0.00890974 0.10349759 -0.10371966 -0.15446407 0.15891348 0.06744517
-0.012019196 0.13325347 0.0039585885 -0.0011935773 0.12490475 0.09518868 0.162775 0.07599923
0.027488906 -0.13975106 -0.0037219983 0.10438236 0.038733725 0.13047215 -0.06774025 -0.15944149
0.13126805 -0.0009908786 0.10404069 -0.03502564 -0.021605125 0.120189324 -0.002756258 -0.12806402

layers.conv1_1.bias f4 [64]
00000000: 56de edbd 8ddb 3ebd 6b2d b33d b13c 273e
00000010: 5449 283e d946 183e 2169 04be 2801 243e
00000020: 841f 233e 3520 d4bd 6ff5 38bd e24c c1bd
00000030: 04b2 86bd 7fb7 ad3d b8e6 553d 2a70 8d3d
00000040: 0bf0 d0bd 016f c7bd 9d62 e9bd b084 17be
00000050: 7264 31bd 74c5 043e a357 bebc 8d0c 75bd
00000060: 1576 d0bd 21fc 90bd 0f48 24be 6409 d23d
00000070: 01fd e33d 86ae 1a3e 1b98 973d 0b60 99bd
00000080: 7a08 62bc 7b53 0a3e bd4e febd 3e9c 28bd
00000090: 4762 e1bc ff4d 3dbd 76cd fcbd 2a13 c03d
000000a0: 72e4 a13d 76be fb3d 3001 9b3d 416c 0dbe
000000b0: c7b6 0abe 494d 3c3d 75ee f33c 6a69 173e
000000c0: 00da f83d 9989 f5bd a03c a4bd 8ee3 0d3e
000000d0: a0b3 81bd a41f 1abe 1859 50bd e04e 243e
000000e0: 0e05 a43d 0251 d6bd 3033 32bc 8f46 ffbd
000000f0: a5ab 053e cfbb 0b3e 3bbb 08be 72e2 e3bd
-0.11614673 -0.0465961 0.08748897 0.16331746 0.16434222 0.14870776 -0.12930728 0.16016066
0.15929991 -0.103577055 -0.04515594 -0.09438492 -0.065769225 0.08482265 0.052221984 0.06906159
-0.102020346 -0.09737969 -0.11395762 -0.1479671 -0.043308683 0.12965947 -0.023235148 -0.059826422
-0.10178772 -0.0707934 -0.16043113 0.10255697 0.11132241 0.15105638 0.07402059 -0.07489022
-0.013795966 0.13508408 -0.12417362 -0.04116463 -0.027512683 -0.04621696 -0.12343876 0.09378655
0.079049006 0.12292187 0.07568586 -0.13810827 -0.13546287 0.045972142 0.029776791 0.14786306
0.12150955 -0.11989135 -0.08019376 0.13856336 -0.06333089 -0.15051132 -0.050866216 0.16045713
0.080087766 -0.1046467 -0.010876462 -0.1246463 0.13053758 0.13645862 -0.13352673 -0.111271754

layers.conv1_2.weight f4 [32, 64, 9]
00000000: cb9b 87bc 71d5 d33c f3b2 cf3c 9730 293d
00000010: e47a 0dbd ccb4 f83c 44cf 14bd 1ec9 173d
00000020: 655a 02bd 02dc 13bd 0dab 023d 8ddd f639
00000030: 2ad8 f33c 988c 54bc 695d e83c a842 3f3c
00000040: 7935 a8bc c8cc 72bc f0ff b439 857c db3b
00000050: 0e90 ef3b 2aef 60bc 60b1 1d3d efdb 37bc
00000060: 34f5 cebc 7ad9 183d 5d79 91bb ec2a a33c
00000070: 4d01 063d 68c8 323b 9e32 a53c 8c2e 71bc
00000080: 050b f63c 7658 e93b 0c43 e3bc ad07 f93c
00000090: b350 cdbc a434 8e3c 6bde 7bbc b82f 6d3c
000000a0: a61e 1bbd 5605 183d 3eee 91bc a465 cf3c
000000b0: 85e4 bc3c 39d4 17bd 77f1 cfbc bb48 c1bc
000000c0: 1c3e 223c 972d b13c 2e16 ea3c 4f06 78ba
000000d0: 8891 ecbc b6de c3bc cd32 05bc 922c 24bd
000000e0: b1a9 bd3c 1f0e 10bd 5158 1f3d 8a43 413d
000000f0: 931c 52bc b724 8e3c cbdb 2cbd 5945 013d
00000100: 69e6 46bc dc0f 643c 47a4 26bd 08ba c83c
00000110: 47f4 40bc d30e 13bd 8dff 903c fe78 c93c
00000120: 434b a1bc 5b70 163d c5db 623c 768c bbbc
00000130: 976e 00bd f3e7 0f3d 5076 da3c 75d9 16bd
00000140: 0f6f debc 492b 2c3d b104 00bd b243 8a3c
00000150: 751a 87bc caaf 0abd 3ca7 223d fbc0 ea39
00000160: c752 4fbc d636 b73c 37a3 c43c a4b7 adbb
00000170: 08be 06bd cd31 9a3b 99dc 17bd 377a 153d
00000180: b0f3 bd3c 3750 adbb 0060 073d ae49 bfbc
00000190: d49f 13bd a57f c0bc 98f1 12bd 2b87 a0bc
000001a0: 9a1a ab3c 3883 97bb 44ce 7cbb 45f8 1b3c
000001b0: d9d5 eb3b 595a 25bd 99ab b33c 3f07 093c
000001c0: d8ee a1bb 1bc8 b13c d594 403d 4cf1 063d
000001d0: 7bb2 2b3c e82f e2bc fe99 d8bc 0e1e dbba
000001e0: a0e7 413c 2410 9fbc 4b4a f5bc 9878 15bd
000001f0: 329a 953c 14c8 24bb 19ce 703c 13c5 1c3c
00000200: 8eaa f33c dcb1 13bc fb29 7e3b c62a 97bb
00000210: d0f9 133b efb4 873c 603c e23b db1d cfbc
00000220: be3b e7bc b048 fbbc b870 c93c b533 ea3c
00000230: b2de 02bd 9050 253d 8216 263d 7fbd d1bc
00000240: 4cd6 0fbd a638 093d 79cc a6bc 72c7 793c
00000250: fac5 0c3d 68d3 dd3b e094 3f3b 33e7 97bc
00000260: fc05 9cbc f2ff 12bd 7782 90b8 f31a 653c
00000270: fd0d fcbc 7caa 823b 79db ffba 3a42 bdbb
00000280: ef79 9ebc caa9 133c 3ec0 f0bc 395d 7c3c
00000290: cec7 213d d9bc 8f3c 1d80 c4bc 8b67 a33b
000002a0: 74e3 06bc ebd3 a2bb aab7 9bbb e2af c53c
000002b0: c2a2 e93c 8b40 cebc fa2f 223c 965d 923c
000002c0: 0518 283d 4a61 dfbc 1102 5fbc 2aa2 00bd
000002d0: c25e 4ab9 5f95 063b b73f ad3c 15d2 4e3c
000002e0: b91f b43c c264 0e3c 3481 c53c 03be 163d
000002f0: f112 e4bb b004 d2bc 098c 0a3d d4e4 97bb
00000300: ef0e cdbc 2952 2c3c 408f d1bb f27e 093d
00000310: 37d6 54bc f1a4 35bd 54f0 323d cf00 ab3c
00000320: 0b10 f1bc c93e 543c 75f6 dbbc aa9c f3bc
00000330: e0b8 2f3d 6cfd 02bd 1bdd 2b3c 18bf 183b
00000340: 2969 1bbd 0922 1d3d 3229 e7bc 69cb 2d3c
00000350: b26f 423c b251 c4bc 9657 4bbc 4bec 23bc
00000360: 2839 aebc 9c7c 633c b0b2 cd3c 84ff fdbb
00000370: 0b02 6c3b 561e 05bd fb3c 273d fe41 003c
00000380: 4b93 9c3c fcf9 22bc b35c d5b9 61c9 c53c
00000390: 6146 6d3c 772e 013d 174f 333c 5d7e 21bc
000003a0: 09f0 8dbc eaa9 febc fe21 3dbc bf67 313d
000003b0: 4bad 12bd cf7e a1bc 2cbf a93c f557 1ebb
000003c0: 1425 d9bc c5a7 8f3c 6de5 88bb 3d6e 7b3b
000003d0: fb4a 073c 1279 f73c 7143 363d 4102 90bb
000003e0: 155c d5bc fcdd c03c 040e 253d cf6a 973c
000003f0: 840a 7bbc 701f 0d3d 5a2f de3c 02a9 afbc
-0.01655378 0.025858613 0.025353884 0.041306105 -0.034541026 0.030359648 -0.036330476 0.037057035
-0.03182449 -0.036098488 0.031901408 0.00047085845 0.029766161 -0.012972973 0.028364854 0.011673607
-0.02053331 -0.0148193315 0.00034522964 0.0066981935 0.007310874 -0.013728896 0.038499236 -0.01122187
-0.025263406 0.037316777 -0.0044395165 0.019917928 0.032716084 0.0027280096 0.020165738 -0.01472057
0.030034551 0.007121141 -0.027741931 0.030399168 -0.025062894 0.017359085 -0.015372853 0.014476709
-0.037871026 0.037114464 -0.017813798 0.02531702 0.023058185 -0.037067626 -0.025383694 -0.02359425
0.009902503 0.021628184 0.02857503 -0.0009461389 -0.028877988 -0.023909908 -0.008129788 -0.040081568
0.023152204 -0.035169717 0.038902584 0.04718355 -0.012824195 0.017351491 -0.0422018 0.031560276
-0.012139895 0.013919797 -0.04068401 0.02450277 -0.01177699 -0.03590281 0.017699981 0.024593826
-0.019689208 0.036728244 0.013846342 -0.022894125 -0.031355467 0.035133313 0.026667744 -0.036828477
-0.027152566 0.042033467 -0.031254474 0.016877983 -0.016492108 -0.03385905 0.03971027 0.0004477574
-0.012654013 0.022365015 0.024003608 -0.0053014327 -0.03289607 0.0047056437 -0.037075613 0.036493506
0.023187488 -0.0052891034 0.033050537 -0.023350563 -0.036041096 -0.023498366 -0.035874933 -0.019595703
0.020886708 -0.004623797 -0.0038575092 0.009519641 0.0071971235 -0.040369365 0.02193241 0.008363544
-0.0049418025 0.021701863 0.047016937 0.032944962 0.010479565 -0.027610734 -0.026440617 -0.0016717331
0.011835009 -0.019416876 -0.029942652 -0.03649196 0.018262003 -0.002514367 0.014697575 0.0095684705
0.029744413 -0.009014573 0.0038782347 -0.0046132533 0.002257932 0.016565768 0.00690417 -0.02528279
-0.02822673 -0.030674309 0.024589881 0.028589109 -0.03195066 0.040360034 0.04054881 -0.025603054
-0.03511648 0.03350129 -0.020361172 0.015245305 0.034368493 0.0067695864 0.0029233024 -0.018542862
-0.019045822 -0.03588862 -6.890756e-05 0.013983476 -0.030768389 0.0039876085 -0.0019520364 -0.005775717
-0.019345252 0.009012649 -0.029388543 0.015403085 0.03949719 0.017546104 -0.02398687 0.0049867085
-0.00823294 -0.0049691102 -0.004752119 0.024131719 0.028519992 -0.02517726 0.009899134 0.01786689
0.04103853 -0.02726807 -0.0136113325 -0.03140465 -0.00019299521 0.002053581 0.021148546 0.01262333
0.021987783 0.008691015 0.02410946 0.036802303 -0.006960266 -0.025637 0.033824954 -0.0046354327
-0.025031535 0.010517635 -0.0063952506 0.03356833 -0.012990526 -0.044346754 0.043686226 0.020874409
-0.029426595 0.012954422 -0.026850918 -0.02973779 0.04290092 -0.031979963 0.010489727 0.002330726
-0.037942085 0.038362537 -0.028217886 0.010607579 0.011867451 -0.023964737 -0.012411019 -0.010005067
-0.021267489 0.01388469 0.025109619 -0.007751407 0.003601196 -0.032499634 0.04082964 0.007828234
0.019113204 -0.009947296 -0.00040695592 0.024143877 0.014482112 0.031538453 0.010944149 -0.0098567875
-0.017326372 -0.03108688 -0.011543749 0.04331183 -0.035809796 -0.019713787 0.02072104 -0.0024161313
-0.026506938 0.017536053 -0.0041777403 0.0038365268 0.008257623 0.030209098 0.04449791 -0.0043948
-0.026044885 0.02354335 0.04029657 0.018483547 -0.015322331 0.03445381 0.027122188 -0.021442894

layers.conv1_2.bias f4 [32]
00000000: c293 fdbc 7655 0f3c 1483 d0bc 3312 e3bc
00000010: 29db 35bc 5427 83bc 66fe 13bd a6f8 e8bc
00000020: 5358 38bc 3146 e93c c809 8c3c 47a2 233d
00000030: 187b a73c 83c6 acbc 9568 a63b 8df7 26bd
00000040: cc74 03bc 4bc2 0f3d 9725 8c3b d21c 4fbc
00000050: 9181 273d 248e 0abd f77e 143d 7e8e 633b
00000060: 02c7 12bd de28 31b9 a3dc 213d 8413 05bd
00000070: 61f0 473c a2da 14bd 8592 89bb bce5 e83c
-0.030954245 0.008748403 -0.025453128 -0.027718639 -0.011099615 -0.016009964 -0.036131285 -0.028438877
-0.011251527 0.028475853 0.017094508 0.03994968 0.020444438 -0.021090752 0.005078385 -0.040763427
-0.008023452 0.0350974 0.004276942 -0.012641149 0.04089505 -0.033826962 0.036253896 0.0034722383
-0.03583432 -0.0001689526 0.039517056 -0.032489315 0.012203307 -0.036341317 -0.0041983747 0.028429858

layers.conv2_1.weight f4 [64, 4, 20]
00000000: f7fc 2cbd 41f4 3dbd e439 f7bc 8f15 423d
00000010: e4c2 f53c 8c42 803c e29c d53d 7ee2 e7bb
00000020: 0630 2bbd 9823 88bd 696e df3d 2d84 4b3b
00000030: bbde 8bbc 73c8 223d 607c 7b3d 33fc 7e3c
00000040: 56f4 d63c 70a1 dc3c 63cd c1bd f166 fb3d
00000050: c479 8d3c 5d6a 97bd b963 8fbd 53f8 6d3d
00000060: 04aa b8bd 3079 023d 3757 80bc 60fe babd
00000070: c0d6 bcbd 58ee d63d f622 ee3c d16d 9dbd
00000080: ad61 d53d d43b 8b3d 86d8 a3bd 94cd 043c
00000090: 9ce8 c53d 1c40 7ebd 1b18 c6bd f0c3 23bd
000000a0: 57dc 9fbd 3940 56bb 899a 913d 3244 753d
000000b0: ed20 963d 43f9 b7bc 9413 9fbc a7be d03c
000000c0: 7284 82bd f522 28bd 10ee 7ebc 1df3 863c
000000d0: 752b 663d dd8c 1038 61c0 c3bd fe4c a23d
000000e0: ad60 b13d b8f7 57bb f91b 1cbd 84c8 60bd
000000f0: 9ed8 95bd 48f6 78bd 7081 863d 4b85 143d
00000100: 6456 49bc 593b f5bc 49dc 2dbd 1e20 313d
00000110: 3d69 72bb 6f98 1ebc 0b44 823d e850 b53d
00000120: 7e06 bebd d9b7 1abd c87b 58bc 9419 6c3d
00000130: f3b5 0b3d 86ac 833d be20 463d c086 b03d
00000140: facb 80bd d294 fd3d 38b9 09bd 11ef 823d
00000150: a652 54bb 0786 173d fcee 27bd aa19 7abd
00000160: b017 9dbd 7d67 8d3d a7b0 cfbc 62bc b13d
00000170: c47e e039 6639 81bd 4ea0 2b3d 4996 95bd
00000180: b24c e4bc 7a13 3cbd ed5f e9ba 6594 aabc
00000190: 7bc6 793d ce80 ca3d 53c1 683d 46a1 873c
000001a0: 43c1 e53d 57a8 bb3d 81d0 bebd 0d73 0f3d
000001b0: 8e6d 3f3c 736c 563d cdd4 d13d ba02 693d
000001c0: 16c4 b9bd c522 253d 7430 e33d 2eb1 88bd
000001d0: d129 b93d 0179 d03d 8ad3 8bbd 8ee0 9fbd
000001e0: c0a6 a03d 65cf bebc df78 d7bd 40f8 b2bd
000001f0: 44f3 923d 1746 4aba c961 1dbd 80c2 663c
00000200: 00cc b2bd 3429 833d d554 8d3d 3a50 acbd
00000210: 32d2 e7bc 5d7a d13c 6378 883b 9d04 e9bc
00000220: 1bd1 8d3c 1ed0 2f3d e771 c13b 54a9 68bd
00000230: 688a bf3d adde 49bb c9ff 86bd 1a66 e43d
00000240: 4a6b 81bd 6d16 f33d cc5a 13bc bc77 703d
00000250: 03f2 a4bd 5b14 003e 89f4 6dbd 3e85 cdbb
00000260: 5fee 5cbd 6532 ed3d eda8 6ebd 2fff f93d
00000270: 161a a43c 77fb aebd a8c5 363d 200e a63c
00000280: 324d 883d f8eb acbd e8a0 6f3d 00e1 90bd
00000290: 043d aa3d 6a0f aebd a890 0bbd ea32 5ebd
000002a0: a5bd 193d 8d87 e2bd ce94 ebbc 1188 223b
000002b0: 6777 aabc 2f8f 7fbd 2c93 eb3b d0a4 75bd
000002c0: a5de bebd e70c 543c e9da 6f3c 8643 efbc
000002d0: fc74 94bd 679c c0bc ff81 893d 5c64 9e3d
000002e0: 6918 c4bd 18af 3f3d fd59 afbd 8fce 93bd
000002f0: 499c 8e3d 1fc6 e7bd 7a66 b7bb 247f 8bbd
00000300: 4c59 c6bd 211e 4abd 215c 023d b635 b7bd
00000310: 5cfc a1bc 7b3a 6c3d 4a86 f4bd fa90 4abd
00000320: b479 6e3d 4bcb c0bd e013 19bb 9301 88bd
00000330: ec34 bd3d 8789 d9bd 984e c0bd d343 c2bd
00000340: cad8 2b3c 6cc8 873d cfae 04bd 52f4 493d
00000350: 152e 5fbd 5f61 f2bd 4f52 85bd 4a97 7fbd
00000360: 99fc a13c 063e 09bd dd70 29bd 4142 5b3c
00000370: 5978 753d 2575 d13a c062 593d 7e2a 95bd
00000380: ff3c 893c d182 c2bc 242e a0bd c3c1 6ebc
00000390: 86e7 8b3c c768 af3d d604 70bd 6dde d83b
000003a0: 3aa6 ddbd 34f5 0e3c a0a6 bbbd 894a 35bd
000003b0: cb71 32bd 9a77 dcbc d9d4 203d 1bf5 6cbd
000003c0: 3f9e 74bd d6ad 30bd bfb5 62bd 2c14 85bd
000003d0: fefe 8b3d 1d12 ca3d 3cbc a23d b62d c93d
000003e0: 0a65 dabc 98cc 8b3c 30ff a83d b5aa f13b
000003f0: 8896 dfbc 5d51 26bd b012 c83d 999b de3c
-0.042233434 -0.046375517 -0.030178972 0.04738384 0.030000158 0.015656732 0.10430314 -0.0070765605
-0.041793846 -0.06647414 0.10909731 0.0031054125 -0.01707398 0.039741945 0.06139791 0.015563059
0.026239555 0.026932448 -0.094630025 0.12275494 0.017269976 -0.07393334 -0.070014425 0.05809815
-0.09016803 0.031853855 -0.015666587 -0.091305494 -0.09220648 0.10494679 0.029069405 -0.076869614
0.10419021 0.06798521 -0.08000283 0.008105654 0.09663507 -0.06207286 -0.096725665 -0.039981782
-0.07805698 -0.0032692088 0.07109553 0.05987949 0.07330499 -0.022457724 -0.019418515 0.025481535
-0.06372918 -0.041048963 -0.015559688 0.016473347 0.056193788 3.4463465e-05 -0.09558178 0.07924841
0.086610176 -0.0032954048 -0.038112614 -0.054878727 -0.07316707 -0.060781747 0.06567657 0.03625993
-0.012288664 -0.029935526 -0.04244641 0.04324352 -0.0036988996 -0.009679898 0.063606344 0.08853322
-0.09278582 -0.037772987 -0.0132131055 0.05764158 0.034109067 0.064293906 0.04837107 0.086194515
-0.062889054 0.12381901 -0.033623904 0.063932545 -0.0032397895 0.036993053 -0.040999398 -0.06105963
-0.07670534 0.069045044 -0.02535279 0.08678509 0.00042819057 -0.06309776 0.041900925 -0.07304055
-0.027868602 -0.04591701 -0.0017805077 -0.020822713 0.0609803 0.09887849 0.056824993 0.016556393
0.11218502 0.09162968 -0.09317113 0.03502183 0.011683835 0.05234952 0.10245667 0.056887366
-0.090706035 0.040316362 0.11093226 -0.06674419 0.09041179 0.1017933 -0.06827457 -0.07806502
0.07844305 -0.023292253 -0.10521101 -0.08738756 0.071753055 -0.00077161327 -0.038423333 0.014084458
-0.08730316 0.06404343 0.06900946 -0.084137395 -0.028298471 0.025571043 0.004164742 -0.028444583
0.017311623 0.042923085 0.005903471 -0.05680211 0.09352571 -0.003080289 -0.06591756 0.11152287
-0.06319292 0.11869512 -0.008993816 0.058707938 -0.080539726 0.12507765 -0.058094535 -0.006271987
-0.053938266 0.115818776 -0.05826657 0.122068755 0.02003197 -0.08544057 0.044622093 0.020270407
0.06655349 -0.08443445 0.05850306 -0.07074165 0.08312419 -0.08499034 -0.0340735 -0.054247774
0.037534375 -0.110610105 -0.028757479 0.002480034 -0.020808889 -0.06239241 0.007189175 -0.05997163
-0.0931981 0.012942529 0.014639595 -0.029207002 -0.072488755 -0.023512078 0.06714248 0.07733986
-0.09574968 0.04679784 -0.08562086 -0.07217132 0.06963403 -0.113170855 -0.005596933 -0.068113595
-0.09685001 -0.04934514 0.031826142 -0.089457914 -0.019773655 0.05767296 -0.11939676 -0.049454667
0.058221534 -0.09413775 -0.0023357794 -0.06640925 0.0923861 -0.106219344 -0.093899906 -0.09485593
0.010488698 0.06630024 -0.032393273 0.049305268 -0.054487307 -0.11834978 -0.0650984 -0.06240014
0.019773768 -0.033506416 -0.0413674 0.013382495 0.059929226 0.0015980346 0.05307269 -0.07283495
0.016752718 -0.023744019 -0.078213006 -0.014572564 0.017078172 0.085649066 -0.058598362 0.006618312
-0.10822721 0.008725453 -0.091626406 -0.044260535 -0.043565553 -0.0269125 0.039265487 -0.05785094
-0.059721228 -0.043134533 -0.055349108 -0.06497988 0.06835745 0.09866736 0.07946059 0.09823172
-0.026659507 0.017065331 0.08251798 0.007375086 -0.027293459 -0.040604938 0.09769189 0.027173804

layers.conv2_1.bias f4 [64]
00000000: d366 aa3d 942f 8e3d a475 babc 2f49 7c3c
00000010: cccb 603d d759 c3bd 78dc 583b c502 613d
00000020: 653a 86bd 6e77 0bbd e514 73bd 16b5 40bd
00000030: 4881 d6bd 9d65 12bb 07cf a73d 62ce b33b
00000040: a4f0 8fbc 6a94 d03d 8e79 d43c 4541 ad3d
00000050: 7d08 5e3d ab0e 413d ac78 e3bc a956 97bd
00000060: cc3b 7cbd ae79 42bd 0c2f 083d 6f85 bebd
00000070: c254 c7bd 3d2d 533d 6237 d9bd fb63 623d
00000080: e4b9 d43d 65a6 493c ee02 873d a2ca 8bbd
00000090: 1ccb 56bd 21dd 9dbd a7e1 fabc b02c 673b
000000a0: a4a5 80bd e5fe 09bc f9b1 c0bd 50ce d539
000000b0: 0ec0 583d 0683 20bd 6fb6 a4bd 7753 c53d
000000c0: 31ec 6f3d b192 f4bc 5f51 363d caa1 c9bd
000000d0: 401b 95bd 4552 e3bd b623 e3bd 79de a5bd
000000e0: e6ec 7a3c 12a6 423d 0a74 c1b8 2649 ef3c
000000f0: f076 e1bd 0a97 cb3c 3812 1e39 c6f1 5b3c
0.083203934 0.069426686 -0.022761174 0.015398308 0.054881856 -0.0953862 0.0033090394 0.05493428
-0.065541066 -0.034049444 -0.0593461 -0.047047697 -0.10473877 -0.0022338398 0.08193784 0.005487249
-0.017570801 0.10184558 0.025936868 0.08459715 0.054207314 0.04713313 -0.027767502 -0.07389576
-0.061580464 -0.047479324 0.033247992 -0.09302794 -0.09732963 0.051556814 -0.106062666 0.05527113
0.10387018 0.012307738 0.06592356 -0.068257585 -0.052439794 -0.077081926 -0.030625178 0.0035274439
-0.062815934 -0.008422588 -0.094089456 0.0004078024 0.052917533 -0.039187454 -0.08042609 0.0963506
0.05857486 -0.029855104 0.044511195 -0.09845312 -0.07280588 -0.11099676 -0.11090796 -0.08099074
0.01531527 0.04752166 -9.224571e-05 0.029209685 -0.11009014 0.024852294 0.00015074841 0.0134243425

layers.conv2_2.weight f4 [32, 64, 20]
00000000: 89a3 bd3c 9680 4d3c 3ec8 073b 1964 6f3c
00000010: c12f 853c 9594 d23b 1b9b 1ebb a483 8f3c
00000020: 1e16 d23c 98e2 903c 5a98 ec3c 824c b13c
00000030: 2c9c 0b3c 3054 573c 654c a43c 2726 543c
00000040: 9d95 c73b d18e 6e3a 3f42 513b 8e15 c3bb
00000050: 41ed 99bb 3d40 143b 5d44 233c f958 833c
00000060: 0af7 c13c 6df7 633c b193 bd3c 67bb afbb
00000070: e58e a73c 5dda bd3c d829 13ba 6644 1c3b
00000080: 79e5 b4bb 7849 c23c 0da1 623c da7a d33c
00000090: 21c5 713c e905 0c3c 5f98 a13c 7b08 993c
000000a0: cdd1 03bd 1c87 07bd b1d3 20bc 0be2 f03a
000000b0: 4672 0dbd fdf6 1f3c c4d7 e93a 3c80 0bbc
000000c0: cb99 11bb 1fd8 81bc f1d8 50bc 7922 fabc
000000d0: f2a2 b0bc fe8e d1bc 6c70 c7bc 8899 32bc
000000e0: 5ba6 20bd 7ef1 c2bc 4f5b 3abc 2a41 b8bc
000000f0: a96d b63a 48f2 40bc 5a33 0bbc 7758 98bb
00000100: 5803 35bb 34ad 24bc f264 0e3d 360f d83c
00000110: 61bf d23c 72e7 ea3c 6e58 f43c 2b38 a63b
00000120: 5621 a93a 2f36 693c ef66 ab3c 4e2e ff3b
00000130: cc84 f43c bfb8 05bc e843 113d 3fda 1f3c
00000140: 0b51 01bc 6be1 c23c 26dc 0c3c bc3d c73c
00000150: 8733 dc3c 779b 103b 8804 943c dd90 23bb
00000160: 6bf1 fe3c 0e4a 503c 5482 0c3d 8259 b83c
00000170: 5165 833c e91f 4b3c 4a2a 0b3a 7203 ac3c
00000180: f69c d73c ff38 973c 889c ce3c 2156 a03c
00000190: ba89 053b 7389 e53b 93db 853c fb8a 1f3b
000001a0: e9c6 913c 0100 9f3c f5ac 303c 5dad 37ba
000001b0: 4ebc 323c 4f75 373c 443d 803c 9c4e ca3b
000001c0: eda2 973b accf 05bc b1d5 283c 6086 0c3c
000001d0: 6505 163a bcc8 013c 1ab1 0b3c a58b bcbb
000001e0: 829b da3b 25fb d6bb 0edb 00bc 48d1 d93c
000001f0: af95 b6bb 32af c03c f152 1aba d522 ec3c
00000200: d370 a83c 8570 be3c ac07 043d e0c9 ab3c
00000210: 7a22 083d 4e4d 523c 776a 90ba f88f 933c
00000220: a9ff f23c ea22 4b3b 3635 f13c 114f 6a3c
00000230: 5a82 dc3c 65fd d7bb bf9b a53c 54f4 863c
00000240: 0911 e43a ae9c ac3c 61b8 86bb e47e ddbb
00000250: f644 803c 21b5 143c e925 94bb c9d9 843c
00000260: 4978 d13a 4450 e83b c9d7 d23c ef8d 933c
00000270: b8be 5cba 354f 573c 2211 e13b bfda 723c
00000280: bf65 073c 1988 d03c 1107 7b3b ffbb 4cb9
00000290: db9b 8cbb 4cd2 823c 0d61 583c 4088 d03c
000002a0: 2f2b 1c3c 22ec b7bb fa3e b13b 2946 61bb
000002b0: a5f4 013d 53a7 7e3c 50f9 133a deb5 133d
000002c0: 1151 8fbb 4270 0d3d 4314 513b c7b3 f23c
000002d0: 2e67 a63a d29c a63c 34eb 8f3b cc27 00bc
000002e0: 6c3e 553b 34b7 b23c 625a 34bb 3c94 72ba
000002f0: 9e81 eebb 53ec 6bbb ac34 ea3c e22e 85bc
00000300: da8a 18bc de5f 57b9 f7f9 a03c d7ef e43c
00000310: b45a 7a3c 11a1 10bc 3937 ec3a 008b 3e3b
00000320: 8b61 0a3d b79a ad3c fd1e 05bb bf90 0d3d
00000330: 10f2 273c 45ff 4a3b c9ec d7ba f807 f03c
00000340: bf7a 133c 33e3 eb3c e1c4 263c 7551 d33b
00000350: 80a4 e03c 929b c13c 52aa 97bb dfbc 353a
00000360: 22ae c93c 0367 623c 066c f63c 88d2 ec3c
00000370: 2a0b c13c f8b8 a73b 5d4c 2b3c 02c0 79ba
00000380: 2d8f 043d d6ec 91bc b3fc b43b daa4 e73b
00000390: 6b8a 4abb 168a cbbb 3148 f53b 977a 003d
000003a0: 9c79 d73c 155b 853c 73b8 b13c 503d bb3a
000003b0: 5280 babb a3f2 343c ce26 ed3c 19eb f23b
000003c0: a4be cabc 853c 58bc a621 8ebc 0f17 9dbc
000003d0: c6c3 12bd 8a98 02bc 00d1 95bc dafc 0bbd
000003e0: c9d8 e2bc 4891 f93a 3788 9ebc 4674 913b
000003f0: 55e5 e53b 8fbf 9ebc ae8a 663c 3482 24bc
0.023149269 0.012542864 0.002071872 0.0146112675 0.016258122 0.0064264038 -0.0024201337 0.017518826
0.025645312 0.017686173 0.02888124 0.021642927 0.008521121 0.01314263 0.020055959 0.012948549
0.0060908333 0.0009100261 0.0031930355 -0.0059534973 -0.0046974723 0.0022621297 0.00996503 0.016033636
0.023677368 0.013913971 0.023141714 -0.0053629163 0.02045388 0.023175413 -0.000561384 0.002384448
-0.0055205193 0.023716673 0.013832343 0.025815416 0.014756472 0.008546331 0.019725977 0.018680802
-0.032182503 -0.033087835 -0.009816096 0.0018377913 -0.034532808 0.009763476 0.0017840792 -0.00851446
-0.0022216912 -0.015850125 -0.012747035 -0.030534016 -0.021562073 -0.02558088 -0.0243456 -0.0109008625
-0.03922115 -0.023796793 -0.011374309 -0.02249201 0.0013918179 -0.011776514 -0.00849613 -0.0046492177
-0.0027620401 -0.0100510605 0.034764238 0.02637444 0.025726022 0.028674815 0.029827323 0.0050726137
0.0012903612 0.01423411 0.020923106 0.0077875024 0.029848479 -0.008161723 0.03546515 0.009756624
-0.007892857 0.023789128 0.008597409 0.02432143 0.026880039 0.002206532 0.018068567 -0.0024958171
0.031120976 0.0127129685 0.034303978 0.022503618 0.016039522 0.012397745 0.0005308731 0.020997737
0.026319962 0.018459795 0.025221124 0.01957232 0.002037628 0.0070049106 0.016340053 0.0024344313
0.017795043 0.019409182 0.010783424 -0.0007006729 0.010909153 0.011197402 0.015654214 0.0061739217
0.0046275766 -0.008167189 0.010304854 0.008576959 0.000572285 0.007921394 0.008526111 -0.0057539516
0.00667137 -0.0065607005 -0.007864727 0.02658905 -0.005572043 0.02352104 -0.0005886993 0.028825203
0.020561611 0.023247013 0.03223388 0.020970285 0.033236004 0.012835814 -0.0011018057 0.018012986
0.029662924 0.0030996152 0.029444318 0.014301077 0.026917625 -0.0065914863 0.020215867 0.016473927
0.0017400096 0.021070804 -0.004111335 -0.0067595113 0.015657883 0.009076388 -0.004521121 0.01621713
0.0015981282 0.0070896465 0.02573766 0.018012015 -0.00084207533 0.013141443 0.0068684975 0.014822661
0.008264004 0.025455521 0.0038303772 -0.0001952499 -0.0042910404 0.015969418 0.013206732 0.025455594
0.00953178 -0.005612866 0.0054091187 -0.0034374094 0.03172745 0.015542823 0.00056447554 0.036062114
-0.0043736775 0.034530886 0.0031902946 0.02962674 0.0012695545 0.02033845 0.004392052 -0.007821988
0.0032538427 0.021815874 -0.0027519693 -0.0009253656 -0.007278635 -0.0035999015 0.028589569 -0.016257707
-0.009310449 -0.00020539711 0.019650443 0.027946396 0.015280414 -0.008827464 0.0018021829 0.002907455
0.03378443 0.021191938 -0.002031266 0.03456187 0.010250583 0.0030974906 -0.0016473766 0.029300675
0.009001433 0.02879486 0.0101787755 0.0064489194 0.02742219 0.023633752 -0.004628458 0.0006932746
0.024619166 0.013818505 0.030080806 0.028908983 0.023564894 0.0051184855 0.010455218 -0.00095272076
0.032363106 -0.017813127 0.005523288 0.0070692124 -0.0030905257 -0.0062115295 0.0074854125 0.03136691
0.026303105 0.016278783 0.021694398 0.001428524 -0.0056915665 0.011044177 0.028949168 0.0074132797
-0.024749108 -0.013198023 -0.01735003 -0.019176034 -0.035831235 -0.007970938 -0.018288136 -0.034176685
-0.027691262 0.001904049 -0.019352062 0.0044389097 0.007015864 -0.019378452 0.01407115 -0.0100408085

layers.conv2_2.bias f4 [32]
00000000: 90c9 28bc 0213 863a 9091 083c eecd db3c
00000010: 49a5 11bc 80d2 4b3b 6319 d73c 3e06 003c
00000020: 59da 68bc ae4e 3ebc ec3a e13c c947 95bc
00000030: e483 513c 90c7 26bc 1b10 83bc f277 73bc
00000040: 9997 aa3c 780d ce3c 590b acbc 3572 793c
00000050: 929d 6ebc a278 3ebb b0c7 403c 05ac 2bbc
00000060: a666 a2bb a475 733c 81f7 7039 2e9b 3f3c
00000070: 3d8c 853c 973d b13c fd83 f2b9 1f64 56bb
-0.0103019625 0.0010229053 0.008335486 0.026831593 -0.008889505 0.003110081 0.026257223 0.007813988
-0.014212214 -0.011615438 0.027493916 -0.018222706 0.012787793 -0.010179415 -0.01599889 -0.01486014
0.02082424 0.025152907 -0.021001505 0.015224983 -0.014563935 -0.0029063602 0.011766359 -0.010478024
-0.0049560843 0.014859591 0.00022980386 0.011694713 0.016302222 0.021635814 -0.00046256176 -0.0032713485

layers.conv3_1.weight f4 [32, 4, 49]
00000000: 1e22 8dbd c8af a6bd 59a2 50bd 9ad7 5fbd
00000010: 0f53 cabc 2640 0c3d 8ad5 78bd 51aa 99bd
00000020: 2a12 9fbd 08de e13b ed44 37bc b7c3 48bd
00000030: b6c1 4fbc fff1 69bd 867f 87bd 8e08 683d
00000040: 65da a7bb 4d7e f03c cb96 e0bc a8d1 88bb
00000050: 6d25 9dbd ab41 71bd deda 833b 3852 41bd
00000060: 27e0 86bd 7dbc 6dbc 0963 2abc 6b39 863c
00000070: 6a9a 62bd c50a eabc a295 913b 72a0 31bd
00000080: b03e fc3c 5170 97bd 39e8 02bb 20f1 25bc
00000090: b6af 163d 6922 763c c5a5 993c f129 7dbd
000000a0: f817 a23c 7e84 ec3c b004 1fbc bcc9 0dbc
000000b0: e5a2 b0bc 89b2 8cbd 9e12 36bd 5e5f 913c
000000c0: b088 37bc b07e 85bd 4eba 1c3c d199 01bd
000000d0: f6bb 1bbd 051a a6bd 2db2 9bbd ab25 7cbc
000000e0: ae1e e1bb 1c7d 103d e9ca 18bd 29a6 c03c
000000f0: 8da7 77bc 1ce3 07bd 98b7 8fbd 3317 1f3d
00000100: 039c 99bd 6e91 2c3d 82e7 72bd e68e 673d
00000110: 12c8 0f3d 9dca 6d3d ac57 30bd b9b0 25bd
00000120: 40c4 84bd c9e3 73bd d7ef 263d 2210 103d
00000130: f801 b8bc 2a89 323d 76fd 0a3d 6cab 0fbd
00000140: adaf 17bc 931d 58bd cbbf 5ebd 799b 6bbc
00000150: ce0f d93c 8e18 12bd 1c46 8c3c e1e2 613d
00000160: 4e85 33bd 21c1 c03c f0fc 323c ae22 29bd
00000170: 2de2 9e3c 89b5 89bd 0a8e efbb 6efb a7bb
00000180: 9a5b 613d 2940 92bd c0b3 6c3c 319c 533c
00000190: 93fe 1d3d cfc3 a0bd ddb8 bfb8 a081 0b3d
000001a0: 5344 363d 57b8 0bbd 305b 18bd 27d6 ecbc
000001b0: bee7 8dbd dece 6b3d 0ebb 57bd a586 1cbd
000001c0: 62bc 8abd 4c04 8dbd 63cb 86bd 7ef6 e7bc
000001d0: 1f6b 6fbd 3864 6d3c 20d2 18bd 7959 00bc
000001e0: fb07 e13b 04e2 f0bc 9afe 93bd 2702 0fbd
000001f0: 4801 743d 4b93 5cbd 2690 07bc 71a3 23bd
00000200: 8d05 7e3d d8e1 b3bc b359 16bc 0a28 ac3b
00000210: 390b 053c b659 99bd 366d a03c 0801 9cbd
00000220: 9f37 8bbc ed1e 063d 7c04 e4bc 027b 8fbd
00000230: d31e 073d 5b7b c03b 6842 87bd c66b 5cbc
00000240: a63c 7c3b 0772 99bd 4879 113c 8e68 233c
00000250: b543 ad3c 7a79 3abd 49ba 5abd 6841 69bd
00000260: 6b1d 85bd 6699 f03c 272e 70bc ce89 1dbd
00000270: bc54 103d 80c6 74bb 111d 47bc 6989 2dbd
00000280: ecf0 933c ed9f 4ebd 7907 d3bc 1b53 64bc
00000290: a7d6 98bd 52f7 87bd 18c0 94bd d7a3 76bd
000002a0: 5171 d3bc d706 13bd 91ce 99bc e5ee e13c
000002b0: 8afb 993c d651 22bd 14ac 72bb 86cf 1b3c
000002c0: 6685 93bd 010d de3c 2374 8c3c 70ab 80bd
000002d0: f228 4c3d 28ef af3b 2991 f23b eb87 31bd
000002e0: 0ca4 d2bb 5e89 46bd a704 57ba 8db6 21bd
000002f0: ed6e 1ebd e7bd 2cbd 25d4 73bd 784d d93a
00000300: ee51 18bc 4b58 babb 585e 85ba b403 233d
00000310: 6c4b 28bc 396f a5bc 0a64 283d 926c 3c3d
00000320: 4e9a 1c3d d25f 733d 7b27 533d ccc2 ad3b
00000330: 8bac 7d3d 4ac8 153d 71dd 2c3d 5b1f d4bc
00000340: bfea e13c ef90 af3d 27bb 0fbd 14ff 8f3d
00000350: 3d10 98bb d7fa 953d c48f ccbc 488f 443d
00000360: 4729 7abc 0f49 9f3d 7803 91bc cfbd 2d3d
00000370: 9c9a 803d 8ef7 95bb 97af 96bc 16c2 b33d
00000380: be33 bb3b d409 e13c 4ae4 5bbb 7024 f1bc
00000390: e61a 913d c6cf d5bc f904 ee3c 3422 123d
000003a0: aed4 343c 7081 603d 2088 34bb 3e03 d6bc
000003b0: 0e49 463d 0599 d63b 972a 7b3c 44d9 443d
000003c0: 0f9e 6b3d c696 5c3d 817f febc 9df1 babc
000003d0: 8737 7a3d a1d4 26bd e19e f4bc 5cae 3c3c
000003e0: b72f 873c bcdf 333b c343 953d fe7e 113d
000003f0: 9fd8 cf3c a6b6 813d 1b56 79bc 5e08 33bd
-0.06891273 -0.08138996 -0.050936077 -0.054648973 -0.024697809 0.034240864 -0.06075052 -0.075031884
-0.077671364 0.0068929233 -0.011185867 -0.049014773 -0.012680462 -0.05711555 -0.0661612 0.056648783
-0.00512247 0.0293571 -0.027415654 -0.0041753836 -0.07673154 -0.058900516 0.0040238937 -0.04719755
-0.065857224 -0.014510271 -0.010399588 0.0163848 -0.055323042 -0.028569588 0.0044428864 -0.043365903
0.03079161 -0.073944695 -0.0019974841 -0.010128289 0.036788665 0.015022852 0.018755803 -0.061807577
0.01978682 0.028871771 -0.009705707 -0.008654054 -0.02156205 -0.068699904 -0.04445135 0.01774567
-0.011202022 -0.06518304 0.009565903 -0.03164083 -0.03802105 -0.081104316 -0.07602344 -0.01538984
-0.0068701124 0.035275564 -0.037302885 0.023516731 -0.015115631 -0.033175573 -0.070174396 0.038840484
-0.0750046 0.04213088 -0.059302814 0.056532763 0.03510291 0.058054555 -0.04305236 -0.04045174
-0.06482744 -0.059543405 0.040756073 0.035171635 -0.022461876 0.04358784 0.033933125 -0.03507559
-0.009258193 -0.05276258 -0.054382127 -0.014380329 0.026496794 -0.03566795 0.017123275 0.05514801
-0.0438283 0.023529591 0.010924563 -0.04129284 0.019394958 -0.06724078 -0.0073106335 -0.0051264083
0.055019 -0.07141144 0.014447153 0.012915657 0.03857286 -0.078498475 -9.142023e-05 0.034059167
0.044498753 -0.034111347 -0.03719634 -0.02891071 -0.06928967 0.05757033 -0.052668624 -0.038214345
-0.067742124 -0.06885585 -0.06581762 -0.028315779 -0.058451768 0.014489226 -0.037309766 -0.007833832
0.0068674064 -0.029404648 -0.07226296 -0.034914162 0.059571534 -0.053851407 -0.008274114 -0.03995079
0.062017012 -0.021958277 -0.009176659 0.0052537965 0.0081203515 -0.07487814 0.019583326 -0.07617384
-0.016994296 0.032744337 -0.02783417 -0.07005884 0.03298838 0.00587408 -0.06604463 -0.01345343
0.0038488298 -0.07492452 0.008879013 0.009973658 0.02115045 -0.045526005 -0.05340031 -0.056947142
-0.06499752 0.029370021 -0.014659441 -0.0384615 0.03523706 -0.003734976 -0.012152926 -0.042367373
0.018059216 -0.050445486 -0.0257604 -0.0139358295 -0.07462817 -0.066389695 -0.072632015 -0.060214844
-0.02581087 -0.035895195 -0.018775256 0.027579734 0.018796701 -0.039628826 -0.0037028836 0.009509927
-0.07203178 0.02710581 0.017145222 -0.06282699 0.049843736 0.005369086 0.0074025583 -0.043342512
-0.0064282473 -0.048470847 -0.00082022924 -0.039480735 -0.038680006 -0.042173292 -0.05952849 0.0016578874
-0.009296877 -0.005686795 -0.0010175211 0.039798453 -0.010271888 -0.020194637 0.04111103 0.04600198
0.038233094 0.059417553 0.051551323 0.0053027626 0.061932128 0.036567964 0.04220337 -0.025893858
0.027577756 0.08572566 -0.03509059 0.07031074 -0.0046406076 0.073232345 -0.024970897 0.047988206
-0.01526863 0.07777607 -0.01770185 0.042417344 0.062794894 -0.00457663 -0.018394275 0.08777253
0.0057129553 0.027470507 -0.003355282 -0.02943632 0.070852086 -0.02610005 0.029055106 0.03567715
0.011037035 0.05481094 -0.0027546957 -0.026124593 0.048409514 0.006549003 0.015329978 0.048058763
0.057523783 0.053854726 -0.031066658 -0.022820288 0.06108811 -0.040730122 -0.029860916 0.01151618
0.016502244 0.0027446589 0.07288315 0.0355215 0.025371848 0.063336655 -0.015218283 -0.04370915

layers.conv3_1.bias f4 [32]
00000000: b79e 3cbd 3700 5a3d 9edf 1fbd 2abd 4abd
00000010: ff1b 8fbd a5e5 c3bb 828d c63c c081 a63c
00000020: 0c46 773d d04c 4a3d 79b6 f93c cfe7 afbc
00000030: 71c4 8f3c 2165 c0bc 5ccb 453d c9eb e63c
00000040: 6d52 f13c 11b9 8abd 8d33 4b3d 1e13 80bd
00000050: eacd 1abd 623b 0e3d 7c48 e63c 8424 603d
00000060: 60f7 1cbd 6203 3a3d 7eb9 793d 2ee1 e6bc
00000070: 30bd c43c de37 5abd 002c 7fbd cf1d 793d
-0.0460498 0.05322286 -0.039031617 -0.049496807 -0.06987762 -0.0059783035 0.024237398 0.020325541
0.060369536 0.04938966 0.030482518 -0.02147284 0.017549725 -0.023485722 0.04828964 0.028188603
0.029458249 -0.0677358 0.04960971 -0.06253646 -0.03779403 0.0347246 0.028110735 0.054722324
-0.038321853 0.045413382 0.060967915 -0.028183546 0.024015993 -0.053275935 -0.06229782 0.060819443
