mRNAlocalization/cnn_models/CNN_model_fold1.pth (torch, 531886 bytes, 22 tensors)

layers.bn1.weight f4 [64]
0	0x3f800e49	1.000436
1	0x3f802f76	1.0014484
2	0x3f802788	1.0012064
3	0x3f802612	1.0011618
4	0x3f7f8c85	0.9982379
5	0x3f801237	1.0005559
6	0x3f7fd7db	0.99938744
7	0x3f7fc39f	0.9990787
8	0x3f7fcd53	0.99922675
9	0x3f802d8e	1.0013902
10	0x3f80005a	1.0000107
11	0x3f800cb4	1.0003877
12	0x3f800fcd	1.0004822
13	0x3f7fddc2	0.9994775
14	0x3f800b8b	1.0003523
15	0x3f800f3d	1.000465
16	0x3f80207d	1.0009915
17	0x3f800b43	1.0003437
18	0x3f800c57	1.0003766
19	0x3f7fd9f2	0.99941933
20	0x3f801495	1.0006281
21	0x3f80049e	1.0001409
22	0x3f7fd66c	0.99936557
23	0x3f7ffeb2	0.9999801
24	0x3f7feda7	0.99972004
25	0x3f7fd49c	0.9993379
26	0x3f7fed07	0.9997105
27	0x3f7fca5a	0.9991814
28	0x3f7ff1dd	0.9997843
29	0x3f80167b	1.000686
30	0x3f7febb2	0.9996902
31	0x3f7fce8a	0.9992453
32	0x3f8032a6	1.0015457
33	0x3f803730	1.0016842
34	0x3f800c9f	1.0003852
35	0x3f80139f	1.0005988
36	0x3f800382	1.000107
37	0x3f7ffe9d	0.99997884
38	0x3f7fea7a	0.9996716
39	0x3f801d00	1.000885
40	0x3f7fd93b	0.9994084
41	0x3f801c43	1.0008625
42	0x3f7fd2df	0.9993114
43	0x3f7fecc7	0.9997067
44	0x3f7fd61a	0.9993607
45	0x3f7ff5f0	0.99984646
46	0x3f7ff49c	0.9998262
47	0x3f7ff6d4	0.99986005
48	0x3f7fb014	0.9987805
49	0x3f7fc763	0.99913615
50	0x3f8019c9	1.0007869
51	0x3f80156d	1.0006539
52	0x3f801851	1.0007421
53	0x3f800ef2	1.0004561
54	0x3f7fce9d	0.9992464
55	0x3f7ff343	0.9998056
56	0x3f8029fd	1.0012814
57	0x3f7fff21	0.9999867
58	0x3f800fdb	1.0004839
59	0x3f7fc396	0.99907815
60	0x3f7fe9f0	0.99966335
61	0x3f801c48	1.0008631
62	0x3f7fae2b	0.99875134
63	0x3f8028ff	1.0012511

layers.bn1.bias f4 [64]
0	0x3a1c36a3	0.0005959069
1	0x3a9bbede	0.0011882444
2	0x3ae208c8	0.0017245049
3	0x3a8707c2	0.0010301995
4	0xbae3b79a	-0.0017373443
5	0x3a5665b1	0.00081786053
6	0x3a93b8c2	0.0011270272
7	0xbae1360c	-0.0017182245
8	0xba842831	-0.0010082779
9	0xb981164f	-0.0002462142
10	0xb8a7078d	-7.964587e-05
11	0x3a164adb	0.00057332
12	0xba00445c	-0.0004892999
13	0xba36fc82	-0.00069803756
14	0x3aa03893	0.0012223892
15	0xba25ea44	-0.0006329159
16	0xb67d9596	-3.7787008e-06
17	0x3a2dace6	0.000662519
18	0xb9cb5230	-0.00038780412
19	0xba81ad4f	-0.0009893569
20	0x3a86e37f	0.0010291188
21	0xba134a4d	-0.00056186767
22	0xba6edcda	-0.0009111889
23	0x365f5373	3.3278163e-06
24	0xb93c52f4	-0.0001795998
25	0xba3e121d	-0.0007250624
26	0xb9d63fba	-0.0004086474
27	0xb9b1b61d	-0.00033895756
28	0x38dc01bd	0.00010490741
29	0x3aa59b00	0.0012634695
30	0xbacf9528	-0.0015837299
31	0xb98bd882	-0.00026673457
32	0x3a087deb	0.00052067515
33	0x3b006b3f	0.0019595174
34	0x395cb0e1	0.00021046727
35	0x3a4e281a	0.0007864252
36	0xb9a16349	-0.00030782286
37	0x3801a2f7	3.090777e-05
38	0xba388ef8	-0.0007040347
39	0x3a15aa17	0.0005709244
40	0xba0b1242	-0.000530515
41	0x37fae290	2.9907824e-05
42	0x393abc5b	0.0001780851
43	0xb9c284b4	-0.00037101435
44	0xba8d22ea	-0.0010767851
45	0x398e94f2	0.00027195323
46	0xb8390b26	-4.411782e-05
47	0x399b94be	0.00029674725
48	0xba94896c	-0.0011332459
49	0xbae05807	-0.0017116078
50	0xb9e27831	-0.0004319563
51	0x398c7f0f	0.00026797547
52	0xbaa5d5f6	-0.0012652266
53	0x3aa1d399	0.0012346386
54	0xba474912	-0.0007602136
55	0xb985d22f	-0.00025524336
56	0x3a8c4424	0.001070146
57	0x3ac48464	0.0014993069
58	0xba03550c	-0.00050099264
59	0xba160d7a	-0.0005724054
60	0x3930d199	0.00016862749
61	0x3a0aa397	0.0005288659
62	0xba558d88	-0.0008146395
63	0x39da6bfd	0.00041660658

layers.bn1.running_mean f4 [64]
0	0xbd4ac47a	-0.04950378
1	0x3dab834e	0.08374654
2	0x3e282c2d	0.16423102
3	0x3d867d2b	0.06566843
4	0x3dab3bc5	0.083610095
5	0x3d4bd614	0.049764708
6	0xbddb6614	-0.10712829
7	0xbc2054af	-0.009785815
8	0xbd3b9f4b	-0.04580621
9	0x3d7a5671	0.061117593
10	0x3d1c9f77	0.038238015
11	0x3dc01b6d	0.09380231
12	0x3c394804	0.011308674
13	0xbd71b665	-0.059011836
14	0xbd3dea67	-0.04636612
15	0xbd7cd677	-0.061727967
16	0x3d9eca23	0.07753398
17	0x3d21af8d	0.03947406
18	0xbdbbaa1c	-0.09163305
19	0xbca39ccf	-0.019972233
20	0xbcfdf05f	-0.030998407
21	0x3d8fd1d4	0.070224434
22	0xbe17956c	-0.14803094
23	0xbdc46e1d	-0.09591315
24	0xbe5b48be	-0.21414468
25	0x3db9c0dc	0.09069988
26	0x3db76f90	0.08956826
27	0xb9811ac7	-0.00024624748
28	0xbd680ba1	-0.056651715
29	0x3de7bfaf	0.113158576
30	0xbe0169db	-0.12638037
31	0x3db328f1	0.08748043
32	0xbd7d7dc7	-0.06188753
33	0x3dd85c10	0.105644345
34	0x3e0db897	0.13839947
35	0x3e0b10a6	0.1358057
36	0xbd1dc2d5	-0.038515884
37	0xbd805f6a	-0.06268199
38	0xbc6c5a3a	-0.014425809
39	0xbd84ad69	-0.06478388
40	0x3debfb98	0.11522597
41	0x3d830ce1	0.06398941
42	0xbe148495	-0.14503701
43	0xbce1dfbd	-0.027572507
44	0x3d08d1b4	0.033403113
45	0x3c8957a5	0.016765425
46	0x3d81b736	0.06333773
47	0x3ccb2f00	0.024802685
48	0xbd43361c	-0.047659025
49	0xbdbd0715	-0.092298664
50	0xbd8b10ee	-0.067903385
51	0xbcc3f0e9	-0.023918586
52	0x3d349dcd	0.044095803
53	0x3c24dd26	0.0100624915
54	0xbd317357	-0.043322887
55	0xbdb3e70f	-0.08784305
56	0x3ddf4da8	0.10903484
57	0xbd1a9029	-0.037735138
58	0x3d444c85	0.047924537
59	0x3dd55fcb	0.10418662
60	0xbda292f2	-0.07938184
61	0x3def29a5	0.11677865
62	0x3b9486c7	0.0045326683
63	0xbd9434df	-0.07236647

layers.bn1.running_var f4 [64]
0	0x3d1035a4	0.035207406
1	0x3d132349	0.035922322
2	0x3d1928e6	0.03739252
3	0x3cf76377	0.030198796
4	0x3d1232f8	0.03569314
5	0x3d0ab123	0.033860337
6	0x3d1ce9ce	0.03830891
7	0x3d3c9787	0.046042945
8	0x3d2cd37c	0.042193875
9	0x3cf7161c	0.03016191
10	0x3d0c80ed	0.03430264
11	0x3d043107	0.03227332
12	0x3ced64e9	0.028978782
13	0x3d0519d5	0.03249534
14	0x3cf2423f	0.029572604
15	0x3d1868fe	0.037209503
16	0x3cf95419	0.030435609
17	0x3d047f29	0.032347832
18	0x3d0083f8	0.031375855
19	0x3d287be2	0.04113377
20	0x3d02a3ca	0.031894483
21	0x3ce24faf	0.027625887
22	0x3d04e7e2	0.032447703
23	0x3d084f13	0.033278536
24	0x3d42bcf2	0.047543474
25	0x3cc9241a	0.024553347
26	0x3cfb98d0	0.030712515
27	0x3d0fd16f	0.03511184
28	0x3d253306	0.040331863
29	0x3cf94a61	0.030430974
30	0x3d03da3b	0.032190543
31	0x3cf2a7b7	0.029620988
32	0x3cf18ebd	0.029487008
33	0x3d3ae8a3	0.045632016
34	0x3d0f56d1	0.034994904
35	0x3d047007	0.0323334
36	0x3cda3e34	0.026640989
37	0x3d22d29a	0.039751627
38	0x3ce0a4c8	0.027422324
39	0x3d0d8a03	0.034555446
40	0x3d16c4f3	0.03680892
41	0x3cf4293e	0.029804822
42	0x3d32fe18	0.043699354
43	0x3d0cba69	0.034357462
44	0x3ce56e35	0.028006652
45	0x3d03edd9	0.03220925
46	0x3d25cd09	0.04047874
47	0x3d1a70b0	0.037705123
48	0x3d0bde3e	0.034147494
49	0x3d01702f	0.031601127
50	0x3d13993f	0.03603482
51	0x3cd2e744	0.025745042
52	0x3cda504a	0.026649613
53	0x3cf4609d	0.029831225
54	0x3ce2c11d	0.027679974
55	0x3d05eb3c	0.03269504
56	0x3d49f8b1	0.049309436
57	0x3d16ca4d	0.036814023
58	0x3ce81c53	0.028333819
59	0x3d25eca9	0.0405089
60	0x3d0a8782	0.033820637
61	0x3cf5d8a6	0.030010533
62	0x3d39e97b	0.04538868
63	0x3cf3cdb3	0.029761171

layers.bn2.weight f4 [32]
0	0x3f7fce64	0.999243
1	0x3f805e6d	1.0028816
2	0x3f7fcf55	0.9992574
3	0x3f7fee00	0.99972534
4	0x3f800c01	1.0003663
5	0x3f8002f4	1.0000901
6	0x3f7f7692	0.997903
7	0x3f8005e4	1.0001798
8	0x3f7f59dd	0.99746495
9	0x3f7f4488	0.99713945
10	0x3f7f50f4	0.997329
11	0x3f7f6d3b	0.9977605
12	0x3f7f4639	0.99716526
13	0x3f7f600b	0.99755925
14	0x3f7feb1c	0.99968123
15	0x3f7f48fe	0.9972075
16	0x3f7f6483	0.99762744
17	0x3f7f46d9	0.9971748
18	0x3f7f62e7	0.9976029
19	0x3f7fbeee	0.9990071
20	0x3f80054a	1.0001614
21	0x3f7f5138	0.99733305
22	0x3f7ff3f4	0.9998162
23	0x3f7f589e	0.99744594
24	0x3f7f431c	0.99711776
25	0x3f7f9bf6	0.9984735
26	0x3f7fa2f0	0.99858
27	0x3f7f4c41	0.9972573
28	0x3f7f4ca3	0.99726313
29	0x3f7f3728	0.99693537
30	0x3f800429	1.000127
31	0x3f7f631f	0.9976062

layers.bn2.bias f4 [32]
0	0xba389d3c	-0.0007042473
1	0x3b3d13fc	0.0028851023
2	0x3b224c91	0.0024764875
3	0x3b263596	0.002536153
4	0x3b1784a8	0.002311984
5	0x3b1c2f1f	0.0023831797
6	0x3ad42762	0.0016186053
7	0x3b34250d	0.0027487904
8	0xbacc896a	-0.0015604917
9	0xbb4460e7	-0.0029964985
10	0x3a2bc207	0.00065520447
11	0xba8e0c0d	-0.0010837332
12	0xbb4b1624	-0.0030988539
13	0x39ed36d5	0.00045245016
14	0x3b23c930	0.0024991743
15	0xbb0d094b	-0.0021520432
16	0xba2fba51	-0.00067034835
17	0xbb4f8748	-0.0031666327
18	0xbae56131	-0.0017500279
19	0x3b1b68d0	0.0023713596
20	0x3b36e36c	0.002790655
21	0xbaa2a891	-0.0012409856
22	0x3b24116e	0.0025034803
23	0x3aec5d89	0.0018033247
24	0xb97a7e17	-0.0002388883
25	0x3b1cfd4a	0.0023954683
26	0x3b0ba7e7	0.0021309794
27	0xbb4a2d96	-0.0030849925
28	0xbb49bc5f	-0.0030782444
29	0xba4f62f7	-0.000791117
30	0x3b1ae85e	0.0023637037
31	0xbb10ff92	-0.0022124988

layers.bn2.running_mean f4 [32]
0	0x3da23c81	0.079216965
1	0xbe345513	-0.17610578
2	0xbe66a8e0	-0.22525358
3	0xbe7bbf3d	-0.2458467
4	0xbe7be632	-0.24599531
5	0xbe33997d	-0.1753902
6	0xbe1288f3	-0.14310054
7	0xbe26ac9b	-0.16276781
8	0x3d541203	0.05177499
9	0x3da83b94	0.082144886
10	0xbd02b665	-0.031912226
11	0x3c0eeb5d	0.008723107
12	0x3e1b4169	0.1516167
13	0x3db79f70	0.08965957
14	0xbe5f75a4	-0.2182222
15	0x3e33f46b	0.17573707
16	0x3cf3b723	0.029750412
17	0x3e4fa473	0.20277576
18	0x3c7070f5	0.014675369
19	0xbe47fff7	-0.19531237
20	0xbe3eecc4	-0.18645006
21	0xbd57d148	-0.05268982
22	0xbe131dac	-0.14366788
23	0xbd24bace	-0.040217213
24	0xbd65b8c9	-0.056084428
25	0xbe369505	-0.17830284
26	0xbe0ed9e1	-0.13950302
27	0x3e15b005	0.14617927
28	0x3e39bb48	0.18137848
29	0xbe344673	-0.17604999
30	0xbe3b7ff7	-0.18310533
31	0xbd052cf1	-0.032513563

layers.bn2.running_var f4 [32]
0	0x3edb2a13	0.42805538
1	0x3e92d311	0.28676656
2	0x3e9d0003	0.3066407
3	0x3e8a734c	0.2704109
4	0x3e9f5ed7	0.31127045
5	0x3e937d9b	0.28806767
6	0x3e842692	0.25810677
7	0x3e9f491a	0.3111046
8	0x3e92a751	0.28643277
9	0x3ed2194d	0.41034928
10	0x3f076621	0.5289021
11	0x3ed9d04d	0.42541733
12	0x3efb63fe	0.49099725
13	0x3ec41cd0	0.38303232
14	0x3e9779ef	0.29585215
15	0x3f231462	0.63702977
16	0x3f07d2c9	0.5305601
17	0x3f11cb8d	0.5695122
18	0x3ec04166	0.37549895
19	0x3eab880d	0.33502236
20	0x3e8dab22	0.27669626
21	0x3eeb8261	0.4599791
22	0x3e9cdeef	0.30638835
23	0x3ef10528	0.47074246
24	0x3ea2378b	0.31683
25	0x3e8b6ae9	0.27230003
26	0x3e7970c7	0.24359427
27	0x3f194305	0.5986789
28	0x3efd40ab	0.494634
29	0x3ec89b13	0.39180812
30	0x3e8d7896	0.27631062
31	0x3ebf90c1	0.37415126

layers.conv1_1.weight f4 [64, 4, 9]
0	0xbdb55104	-0.08853343
1	0xbd62b24b	-0.055345815
2	0x3e11b06c	0.14227456
3	0xbd151e8a	-0.036406077
4	0x3e12f95a	0.14352933
5	0x3dc774c3	0.097390674
6	0x3dac3cad	0.084100105
7	0xbd5dd035	-0.05415364
8	0xbe0f4400	-0.13990784
9	0x3cdc67eb	0.02690502
10	0xbde8d526	-0.1136878
11	0xbd39c7b4	-0.045356467
12	0xbd1bcb47	-0.038035657
13	0xbb8523d1	-0.0040631075
14	0x3df9e5d7	0.122020416
15	0x3d36fc35	0.044674117
16	0x3cc77512	0.024347816
17	0x3dd42e44	0.10360387
18	0x3e23df90	0.16003251
19	0x3d2ea7a0	0.04264033
20	0x3da6f85a	0.08152838
21	0xbe0442a4	-0.12916046
22	0xbc71ad09	-0.014750727
23	0xbe13cb43	-0.14433007
24	0xbcbc7e1c	-0.023009352
25	0xbd1d6841	-0.038429502
26	0x3df91dbf	0.12163877
27	0x3e19afd4	0.1500848
28	0x3e2951a6	0.16535053
29	0x3de6bb1c	0.11266157
30	0xbdcca288	-0.09991938
31	0xbe0e1ccf	-0.13878177
32	0x3dc02307	0.09381681
33	0x3d862610	0.065502286
34	0xbc9e5d1a	-0.019331504
35	0x3e125c03	0.14292912
36	0x3e198598	0.14992368
37	0xbe02c7b4	-0.12771493
38	0x3e0ad6f2	0.13558558
39	0x3dbfb39f	0.09360432
40	0x3d3b611f	0.04574692
41	0x3e1b5225	0.15168054
42	0xbe0b9d05	-0.13634117
43	0x3e15cd33	0.14629059
44	0xbe046bc9	-0.12931742
45	0x3e15b789	0.14620794
46	0x3d16adee	0.036786966
47	0x3d90ecb0	0.070763946
48	0xbd29cce8	-0.04145518
49	0x3e221362	0.15827706
50	0xbb6b628c	-0.0035916893
51	0x3ae93327	0.0017791734
52	0xbda38b00	-0.079854965
53	0x3d1c5a13	0.03817184
54	0x3e247756	0.16061148
55	0x3d957e17	0.0729944
56	0xbce1f210	-0.027581245
57	0xbe1162dd	-0.1419787
58	0x3d84db67	0.0648716
59	0x3c3a317f	0.01136434
60	0x3dbee3a0	0.0932076
61	0x3dca54ef	0.09879481
62	0x3e099c85	0.13438614
63	0x3a9bf6b0	0.001189908
64	0xbded24ab	-0.115792595
65	0xbd6dde95	-0.0580736
66	0x3d3706c3	0.044684183
67	0x3c20ba0a	0.00980998
68	0xbc13adc2	-0.009013595
69	0xbde02178	-0.10943884
70	0xbdc34558	-0.09534711
71	0xbe07cdd1	-0.13262106
72	0x3cf7ada6	0.03023417
73	0x3d9c73b1	0.07639254
74	0xbdbdbddd	-0.09264729
75	0x3dddd4e0	0.10831618
76	0xbe13fa5e	-0.14450976
77	0x3dbb0d6b	0.09133419
78	0x3df7f0f4	0.12106505
79	0x3e1bcad9	0.15214099
80	0x3dc3b82b	0.095566116
81	0x3db987d1	0.09059108
82	0x3e28c821	0.16482593
83	0xbd5611e8	-0.05226317
84	0x3d49d0ac	0.04927127
85	0xbcd82eb1	-0.026389452
86	0x3db22f27	0.087004
87	0xbe29dce1	-0.16588165
88	0xbced1742	-0.028941754
89	0xbdf54d74	-0.11977664
90	0xbd79be64	-0.060972586
91	0x3dba19ac	0.09086928
92	0x3de6d304	0.11270717
93	0x3d9729e1	0.07381035
94	0x3ca9891b	0.02069526
95	0x3d2bd506	0.0419512
96	0xbcf8bb52	-0.030362759
97	0x3de0be6f	0.10973822
98	0xbce76c3f	-0.028249858
99	0xbc7b05c7	-0.015321202
100	0xbdaff9a9	-0.08592541
101	0x3cf84293	0.030305183
102	0x3e083a1b	0.13303415
103	0xbe259eba	-0.1617383
104	0x3e15d727	0.14632855
105	0x3df05918	0.11735743
106	0xbdc1b1ec	-0.09457764
107	0xbdff7221	-0.1247294
108	0xbe0487c1	-0.12942411
109	0x3dfe3252	0.124119416
110	0xbddc9b3d	-0.10771797
111	0x3d691876	0.056908093
112	0x3d11e7c0	0.035621405
113	0x3cb595a1	0.022166075
114	0xbe031ed4	-0.12804729
115	0xbd4e0ecd	-0.050307084
116	0xbd33b0ca	-0.04386977
117	0xbe0a5138	-0.13507545
118	0xbd8afccc	-0.067864984
119	0xbe02804d	-0.12744255
120	0x3e0b6fa4	0.13616806
121	0xbdb75da4	-0.089534074
122	0x3c14f79b	0.009092237
123	0xbd826285	-0.06366447
124	0xbe00a896	-0.1256431
125	0xbcdb0375	-0.026735047
126	0xbe0a3a42	-0.13498786
127	0xbddc51c5	-0.10757784
128	0xbdb78343	-0.08960583
129	0x3d8be2ae	0.06830345
130	0x3e068c5f	0.13139485
131	0x3d20a44f	0.039219197
132	0xbe1d8274	-0.15381795
133	0x3d1ca9de	0.038247935
134	0x3b5f48f1	0.0034070576
135	0x3dd0f8f3	0.10203733
136	0xbdae5e47	-0.08514076
137	0x3d79fd87	0.0610328
138	0xbd18d549	-0.03731278
139	0x3e0db1c6	0.13837346
140	0x3d94de0d	0.07268915
141	0xbdf7667c	-0.12080094
142	0xbdbcd810	-0.09220898
143	0xbd113a2c	-0.035455868
144	0xbdc6ea3f	-0.09712648
145	0xbe1b5124	-0.15167671
146	0x3d8baa5b	0.06819602
147	0x3e0fd1d0	0.14044881
148	0xbe1928eb	-0.14957015
149	0x3d70dcdb	0.058804374
150	0x3cb7be31	0.022429558
151	0x3d0bc8d7	0.034127083
152	0x3dcaa544	0.09894803
153	0x3defdce1	0.11712051
154	0xbc9c3977	-0.01907037
155	0x3df50731	0.11964262
156	0x3de0dcc9	0.109796114
157	0x3c504b68	0.012713291
158	0x3c878aa1	0.016545596
159	0x3e08ff30	0.13378596
160	0xbd5abfb1	-0.053405467
161	0x3dbca410	0.0921098
162	0xbce20a9a	-0.027592946
163	0xbc0247ba	-0.007951671
164	0x3dc8dbfe	0.09807585
165	0x3da3af5f	0.07992434
166	0x3d0c07a6	0.03418698
167	0xbdee1c70	-0.11626518
168	0xbdf5dac1	-0.120046146
169	0xbb70ff5c	-0.00367733
170	0x3d793efe	0.06085109
171	0x3e151d44	0.14561945
172	0x3deed0a8	0.11660892
173	0x3df3b389	0.11899478
174	0xbd03c767	-0.032172587
175	0x3def7c04	0.11693576
176	0xbda79a5f	-0.08183741
177	0x3dc8b8a6	0.09800844
178	0xbce35a81	-0.027753117
179	0x3d3bbdd5	0.045835335
180	0xbb809f2a	-0.003925224
181	0x3e0652f8	0.13117588
182	0x3dd3453f	0.10315942
183	0xbd6de849	-0.058082853
184	0xbd13e37b	-0.036105614
185	0xbe0ea7b7	-0.13931166
186	0x3cfd3b61	0.030912103
187	0x3d58ec3e	0.052959673
188	0x3dd254df	0.10270094
189	0xbd6272d9	-0.05528531
190	0x3db99cf1	0.09063137
191	0xbdb9b0dd	-0.09066937
192	0xbe08655f	-0.1331992
193	0xbdde4240	-0.1085248
194	0x3e28a654	0.16469699
195	0x3e1a44a2	0.15065244
196	0xbe02762c	-0.12740391
197	0xbdc1b54e	-0.09458409
198	0xbd13fa52	-0.036127396
199	0xbd8c16cc	-0.06840286
200	0xbce130ff	-0.027489183
201	0xbd7fec4e	-0.062481217
202	0x3d33b6e8	0.043875605
203	0x3a736d15	0.0009285969
204	0x3e26504a	0.16241565
205	0x3ddc7643	0.10764744
206	0x3b96a99e	0.0045978567
207	0xbe090276	-0.13379845
208	0x3e00e8e2	0.12588838
209	0x3da08c51	0.07839263
210	0x3e224850	0.15847898
211	0x3e0d55aa	0.1380221
212	0x3dac2383	0.08405211
213	0xbd4f6b3f	-0.050639387
214	0x3ba8fd45	0.005157145
215	0x3da19a1e	0.07890724
216	0x3e042c5f	0.12907551
217	0x3d9ac7de	0.07557653
218	0x3dd438d6	0.10362403
219	0x3e0d7ede	0.13817927
220	0xbdcc7098	-0.09982413
221	0xbd10b974	-0.035333112
222	0xbbfb1665	-0.0076625817
223	0xbdb9f707	-0.0908032
224	0xbe1fd669	-0.15609135
225	0xbd14712e	-0.03624075
226	0x3ca457d6	0.020061415
227	0xbc925e9a	-0.017867375
228	0xbddce82c	-0.10786471
229	0xbdbcd336	-0.09219973
230	0xbe099aa2	-0.13437894
231	0x3dc28509	0.09498031
232	0xbe1579fa	-0.14597312
233	0xbe07dd37	-0.1326798
234	0xbdf32a5f	-0.11873316
235	0x3e0d784c	0.13815421
236	0x3da17b71	0.07884873
237	0x398e6755	0.0002716134
238	0x3d8c10bc	0.06839129
239	0xbdd1700b	-0.102264486
240	0x3de68920	0.11256623
241	0xbd7bc534	-0.061467364
242	0xbdb49121	-0.08816744
243	0x3de1eb3d	0.11031196
244	0x3d5aa071	0.053375665
245	0xbd419e3a	-0.047270037
246	0xbda68770	-0.081313014
247	0xbe1e2127	-0.15442334
248	0xbdd9c7a7	-0.10633784
249	0xbe23f379	-0.16010846
250	0x3d3f1ede	0.046660297
251	0x3df78440	0.120857716
252	0xbe21d43b	-0.15803616
253	0xbe27c296	-0.16382822
254	0xbe1a1ec2	-0.15050796
255	0xbdf71e5f	-0.1206634

layers.conv1_1.bias f4 [64]
0	0xbe247b26	-0.16062602
1	0xbd32fc72	-0.04369778
2	0x3da4e68c	0.08051786
3	0x3de6b8d1	0.1126572
4	0x3e225553	0.15852861
5	0x3db525f9	0.08845133
6	0xbe0e3e16	-0.13890871
7	0x3d315178	0.043290585
8	0x3de99584	0.11405471
9	0x3c1f9f89	0.009742626
10	0x3db5ee8b	0.08883389
11	0xbb9e8440	-0.004837543
12	0x3d803c35	0.062614836
13	0x3d7705ce	0.06030827
14	0x3db3da3e	0.08781861
15	0x3df30163	0.11865499
16	0x3c18a2f8	0.0093161985
17	0xbd8475a4	-0.06467751
18	0xbe106f06	-0.14104852
19	0x3e0f8ff2	0.14019755
20	0x3b8a382a	0.004218121
21	0x3dfbb7ae	0.122908935
22	0xbdf6f6d5	-0.12058798
23	0xbdaa6269	-0.083195515
24	0xbe0dd2f9	-0.13850011
25	0x3e2a8afe	0.16654584
26	0x3dd6f73f	0.10496377
27	0x3dd79155	0.10525767
28	0x3d264a67	0.0405983
29	0x3e0fedd9	0.14055575
30	0xbd94ddeb	-0.0726889
31	0x3deaafd4	0.11459318
32	0xbd8bb807	-0.0682221
33	0xbd5e0e1e	-0.054212682
34	0x3da117b8	0.07865852
35	0x3e06c04a	0.1315929
36	0xbd884097	-0.066529445
37	0x3e285637	0.16439138
38	0x3db4c4fd	0.08826635
39	0xbe1a074d	-0.15041848
40	0x3e2815c5	0.16414554
41	0x3e0bc748	0.13650239
42	0xbde54389	-0.11194522
43	0x3d60c541	0.054875616
44	0x3d861e5f	0.065487616
45	0xbd9fea5d	-0.07808373
46	0x3e1124a9	0.14174141
47	0xbd6cd175	-0.05781694
48	0xbdf0f538	-0.11765522
49	0xbe2635f3	-0.16231517
50	0xbe198447	-0.14991866
51	0xbce71f23	-0.02821309
52	0x3e1b71b4	0.15180093
53	0x3e135f52	0.1439183
54	0xbcf7e53b	-0.030260673
55	0xbe1ab8ec	-0.15109605
56	0x3d40edee	0.047101907
57	0x3d3af55d	0.045644153
58	0x3dcc5f40	0.09979105
59	0x39f8c597	0.00047449462
60	0x3b9f374d	0.0048588873
61	0x3dfeedea	0.12447722
62	0x3e26da7c	0.16294283
63	0xbdfead2a	-0.12435372

layers.conv1_2.weight f4 [32, 64, 9]
0	0x3bff72f2	0.007795685
1	0x3c3b1143	0.01141769
2	0xbc24f9b8	-0.010069303
3	0x3c3fe0ad	0.011711282
4	0xbd21e974	-0.03952928
5	0x3c0ea025	0.008705174
6	0xba1a948d	-0.00058967696
7	0x3c2109f3	0.009829032
8	0x3ca80fbc	0.020515315
9	0x3cdbe534	0.026842691
10	0xbc505695	-0.012715955
11	0x3c08ed74	0.0083573945
12	0xbc1ca6ef	-0.009561284
13	0xbd18f65f	-0.037344333
14	0xbb8939d9	-0.004187804
15	0x3d0af16a	0.033921637
16	0x3d1d4b63	0.038401973
17	0xbcd9b914	-0.02657751
18	0x3c9096c7	0.017650021
19	0xbc8674fa	-0.0164132
20	0x3cdc70ac	0.026909195
21	0xbc64c1e0	-0.013962239
22	0x3b6e527b	0.003636508
23	0xbc9e722f	-0.019341556
24	0x3d0079d3	0.03136618
25	0x3d18f4f2	0.037342973
26	0x3c3a2a5b	0.011362637
27	0x3bd258f8	0.0064192973
28	0x3bfda5c2	0.007740707
29	0xbd206035	-0.03915425
30	0xbc8a8493	-0.01690892
31	0x3d0480c9	0.03234938
32	0xbc190f58	-0.009342037
33	0xbaf28400	-0.0018502474
34	0xbce6b856	-0.02816407
35	0xbc8ce151	-0.017197283
36	0x3b80ce77	0.0039308625
37	0x39c2df34	0.00037168863
38	0x3c872a72	0.016499732
39	0x3b87d5cd	0.00414536
40	0xbc09c8e9	-0.008409717
41	0x3d11e25d	0.035616267
42	0xbc623375	-0.013806214
43	0x3c9a5378	0.01883863
44	0xba474ff6	-0.00076031627
45	0x3cb26b46	0.021779668
46	0x3bc2f28e	0.005949325
47	0x3d0d76da	0.034537174
48	0x3d1eb06c	0.038742468
49	0xbc9656be	-0.018351909
50	0xbcee3359	-0.029077219
51	0xbd1b7159	-0.037949894
52	0x3cb81f05	0.022475729
53	0xbc7d9b41	-0.01547891
54	0xbb2f8339	-0.0026781096
55	0x3c69ecaa	0.0142776165
56	0x3c77c20c	0.015121948
57	0xbc61da7f	-0.013785004
58	0xbc78d29e	-0.015186934
59	0xbc66ad9f	-0.01407948
60	0xbd04f218	-0.03245744
61	0x3c1c5fde	0.009544341
62	0xbce019ff	-0.027356146
63	0xbc1aa638	-0.009439044
64	0xbce37844	-0.027767308
65	0xbcc5de60	-0.024153888
66	0x3d007758	0.031363815
67	0x3c2f8834	0.010713626
68	0x3c8c94de	0.01716083
69	0xbd0d94a8	-0.034565598
70	0x3d0940ce	0.03350907
71	0x3d205b41	0.039149527
72	0x3ca97b7d	0.020688767
73	0xbd04c789	-0.032416854
74	0xbd1a60ac	-0.03768985
75	0xbc60ea38	-0.013727717
76	0x3cd15d5f	0.025557218
77	0xbc67e44f	-0.014153554
78	0x3d14242f	0.03616732
79	0xbc14e511	-0.009087817
80	0x3d094f0b	0.033522647
81	0x3d2731a2	0.040818818
82	0x3aaf8c41	0.0013393239
83	0x3c3a5c65	0.011374568
84	0x3c3cd7eb	0.011526088
85	0x3ad4b62e	0.001622861
86	0x3c434f79	0.011920803
87	0x3d190c48	0.037365228
88	0x3d23887c	0.039925084
89	0xbd0092c4	-0.031389967
90	0x3a21388a	0.00061500876
91	0x3bf06aa3	0.007336931
92	0xbba83dde	-0.0051343283
93	0x3b18ebb2	0.0023333845
94	0x3d0420fb	0.032258015
95	0xbbb2e1f0	-0.0054590628
96	0xbcee09fc	-0.029057495
97	0xbbdd2cfc	-0.0067497473
98	0xbc77d8ed	-0.015127403
99	0x3a9f407c	0.0012149955
100	0xbb22c05c	-0.0024833893
101	0xbc9f2e28	-0.019431189
102	0x3d15d015	0.036575396
103	0x3cc9a603	0.024615293
104	0xbd202ed9	-0.039107177
105	0xb97abb9b	-0.00023911746
106	0x3d16cd1d	0.036816705
107	0x3cdffd2c	0.027342401
108	0xbc78afc3	-0.015178624
109	0x3ca04462	0.019563857
110	0x3b59af80	0.0033216178
111	0xbd1a5d47	-0.037686612
112	0x3d2369c2	0.03989578
113	0xbd01a3a7	-0.03165021
114	0x3d2611cb	0.040544312
115	0x3c51b623	0.012799772
116	0x3cadcc4a	0.021215577
117	0xbd2614ba	-0.04054711
118	0xbc693630	-0.014234111
119	0x3d06a104	0.0328684
120	0xbcca1941	-0.024670245
121	0xbd2a6d79	-0.041608308
122	0x3cc32e5d	0.023825819
123	0x3adb73cb	0.0016742883
124	0x3ce9fb55	0.028562227
125	0x3c92cade	0.017919
126	0x3d210cc4	0.039318815
127	0xbd08b75c	-0.03337799
128	0x3d047c75	0.032345254
129	0x3c6fb3d1	0.014630274
130	0xbc97990c	-0.018505596
131	0xbc8ebd14	-0.017424144
132	0xbd299897	-0.041405287
133	0x3bde4154	0.00678269
134	0x3bfdff50	0.007751383
135	0x3d270018	0.040771574
136	0x3c19a5b1	0.009377883
137	0x3cddd24e	0.02707782
138	0x3cd287ab	0.025699457
139	0xbbcc1d13	-0.006229052
140	0xbc907ceb	-0.01763769
141	0x3d028396	0.03186377
142	0x3c38c372	0.011277067
143	0x3b98099b	0.004639817
144	0x3cd9d1c5	0.026589284
145	0x3d276b4e	0.040873818
146	0xbb07d62e	-0.0020727026
147	0x3d2b68e4	0.04184808
148	0xbd1d6004	-0.038421646
149	0x3cbbf9fd	0.022946352
150	0xbd09fa5f	-0.033686038
151	0xbc8d87ed	-0.017276729
152	0xbd230a35	-0.039804656
153	0x3cb549a5	0.022129843
154	0x3d09825f	0.033571597
155	0xbd13a5cb	-0.036046784
156	0x3c6764c3	0.014123145
157	0x3c226220	0.00991109
158	0x3b83370b	0.0040043644
159	0xbcf218b3	-0.029552793
160	0x3d2b9695	0.041891653
161	0x3c8fea73	0.017567849
162	0xbc48d42f	-0.01225762
163	0xbbd82ef6	-0.006597395
164	0x3d203a72	0.039118238
165	0x3d07abb5	0.033122737
166	0x3c072bdb	0.008250202
167	0x3cabd7b4	0.020976879
168	0xbccab02d	-0.02474221
169	0x3d23f0cb	0.04002456
170	0x3c843b0f	0.016141443
171	0x3c862b55	0.016378084
172	0xbca48f32	-0.020087812
173	0x3c4d9bdf	0.01254937
174	0xbccf1069	-0.02527638
175	0x3d000ba6	0.03126111
176	0x3c086481	0.008324743
177	0xbbc9e66d	-0.006161502
178	0x3ca90d61	0.020636262
179	0xbc86a6ab	-0.016436895
180	0x3cd3aa3c	0.02583801
181	0xbceffcaf	-0.029295294
182	0x3ce71a30	0.02821073
183	0xbbf020a0	-0.007328108
184	0xbcba6087	-0.022751106
185	0x3c779790	0.015111819
186	0x3ce1f1d4	0.027581133
187	0xbc7a5840	-0.0152798295
188	0xbb9d3ca1	-0.0047984873
189	0x3c9f4bbb	0.01944529
190	0xbd26a5c9	-0.04068545
191	0x3c41943e	0.011815129
192	0x3ccf7d2d	0.025328243
193	0xbaec443b	-0.0018025705
194	0x3c8f1841	0.01746762
195	0x3cf770b6	0.030205112
196	0xbd19119e	-0.037370317
197	0x3c195705	0.009359126
198	0x39f3dad0	0.000465116
199	0x3d2959ef	0.041345533
200	0x3b9f3d7d	0.004859625
201	0xbcd8e51d	-0.026476437
202	0x3c22f8a3	0.009946975
203	0x3c450fcd	0.012027693
204	0x3ca0d47b	0.019632569
205	0x3c9e21ff	0.01930332
206	0xbc8480a1	-0.016174616
207	0xbcd12380	-0.025529623
208	0xbcfb0d4e	-0.030645993
209	0x3c27cafb	0.010241265
210	0xbc479c90	-0.0121833235
211	0x3d27eadd	0.040995467
212	0x3d17288f	0.036903914
213	0x3cab7634	0.020930387
214	0xbcfe2b5f	-0.03102654
215	0x3d0c0365	0.034182925
216	0xbaba1fe8	-0.0014200183
217	0xbd0e57bd	-0.034751642
218	0x3d199410	0.03749472
219	0xbbbe6bd4	-0.005811194
220	0x3d0d719d	0.03453218
221	0x3cf79c8b	0.030226013
222	0x3c900c71	0.017584058
223	0xbd0b2b3b	-0.033976775
224	0xbccde7fb	-0.025135031
225	0x3c1e10f3	0.009647596
226	0x3c271b65	0.010199402
227	0x3d0bea85	0.034159202
228	0xbcec3efa	-0.028838623
229	0xbca34df1	-0.019934626
230	0xbd18e07f	-0.03732347
231	0xbaafafa2	-0.0013403783
232	0xbc7e59d4	-0.015524346
233	0xba03c2cc	-0.00050262804
234	0x3cb46378	0.022020087
235	0xbcf0a488	-0.02937533
236	0xbd06a51a	-0.032872297
237	0xbd1d4870	-0.03839916
238	0xbd2704f4	-0.040776208
239	0xbc960e88	-0.018317476
240	0xbcedfb4c	-0.029050492
241	0xbba727a9	-0.0051011634
242	0xbc3fb49b	-0.011700775
243	0x3bff66f6	0.0077942563
244	0x3cd9084f	0.02649322
245	0x3ce9cb73	0.028539395
246	0x3c8b5218	0.017006919
247	0x3d049644	0.032369867
248	0xbd153ec5	-0.036436815
249	0x3baa9dfd	0.005206822
250	0xbd15eba9	-0.036601696
251	0x3cde5eb0	0.02714476
252	0xbc828b57	-0.015935583
253	0xbca27f13	-0.019835984
254	0x3bce0167	0.0062867883
255	0x3d27749f	0.040882703

layers.conv1_2.bias f4 [32]
0	0xbba8dccd	-0.0051532746
1	0x3d29606e	0.04135173
2	0x3c8ae0ba	0.016952861
3	0xbd0caa33	-0.034342002
4	0x3cfaca0c	0.030613922
5	0xbbd641ac	-0.0065385904
6	0xbc10e6fa	-0.008844132
7	0xbc8993dd	-0.01679414
8	0xbbd410c7	-0.0064717266
9	0x3d0ace9a	0.033888437
10	0xbc6f8108	-0.014618166
11	0xbcf3abfb	-0.029745093
12	0x3c546fac	0.012966078
13	0x3d1fa0aa	0.03897158
14	0xbca273dc	-0.019830637
15	0x3bd802c9	0.006592129
16	0xbc9201b2	-0.017823074
17	0xbd202f07	-0.03910735
18	0x3cc5f74f	0.024165777
19	0xbcc3bd82	-0.023894075
20	0xbd19ddbb	-0.037564974
21	0xbd02fc90	-0.031979144
22	0x3c96ff5b	0.01843231
23	0x3ba9ed91	0.005185791
24	0x3cd50fdc	0.026008539
25	0x3cd4549c	0.025919251
26	0x3b8baab1	0.0042622914
27	0xbc9d56b2	-0.019206379
28	0x3a3a54d4	0.0007107977
29	0x3d28d0c8	0.041214734
30	0xbcdac400	-0.026704788
31	0xbb3696c2	-0.0027860855

layers.conv2_1.weight f4 [64, 4, 20]
0	0x3c0120ca	0.007881353
1	0x3dcd0bee	0.10012041
2	0x3daeab8f	0.08528816
3	0x3d728975	0.05921312
4	0xbd9af4c0	-0.075662136
5	0xbd9532e7	-0.072850995
6	0xbc421656	-0.011846146
7	0x3d50b660	0.050955176
8	0x3b175f6a	0.0023097643
9	0xbd1bc400	-0.038028717
10	0xbd60e9ac	-0.054910347
11	0x3d379815	0.04482277
12	0x3ca722e0	0.020402372
13	0xbdb2298b	-0.0869933
14	0xbb0491bb	-0.0020228464
15	0xbda05005	-0.078277625
16	0x3d91cd5c	0.07119247
17	0xbcd8870b	-0.026431581
18	0x3b2321eb	0.0024892043
19	0xbd8acdf0	-0.06777561
20	0xbcea0551	-0.028566988
21	0xbdd23c9c	-0.102654666
22	0xbd921fb3	-0.071349524
23	0x3c65a8a6	0.01401726
24	0x3d9bab7d	0.07601068
25	0xbd66fa50	-0.05639106
26	0x3daaaf3b	0.08334204
27	0x3cf3f3f1	0.029779406
28	0xbce45e37	-0.027876956
29	0xbd90a05c	-0.07061836
30	0xbdba5635	-0.09098474
31	0xbcca69fc	-0.02470874
32	0xbd77b953	-0.060479473
33	0xbdbca003	-0.09210207
34	0x3d7e0883	0.062019836
35	0xbdbb4a21	-0.09144998
36	0xbd4382ab	-0.047732037
37	0x3dcc185a	0.09965582
38	0x3c816710	0.015796214
39	0xbddb37d2	-0.10704006
40	0x3d99a217	0.07501619
41	0xbdca886d	-0.098893024
42	0xbd0d2d5e	-0.034467094
43	0xbcba76d8	-0.022761747
44	0xbaa28ac1	-0.0012400971
45	0xbdc6d079	-0.09707732
46	0xbdd8ba12	-0.10582365
47	0x3dc5b608	0.0965386
48	0xbddb2f57	-0.10702389
49	0xbc22dccd	-0.009940338
50	0xbd84024f	-0.06445753
51	0x3c59d846	0.0132961925
52	0xbdd0c248	-0.10193306
53	0xbbbc1f71	-0.005741053
54	0x3db90fe9	0.09036238
55	0x3d88a826	0.06672697
56	0x3dbe6303	0.09296229
57	0x3c3ca58d	0.01151408
58	0xbd767035	-0.060165603
59	0xbda12911	-0.07869161
60	0x3dc3bbc2	0.09557296
61	0xbccfed43	-0.02538169
62	0x3d90ec87	0.07076364
63	0x3dace620	0.0844233
64	0x3d9e9e3d	0.07745025
65	0x3db70a94	0.089375645
66	0x3d6d1431	0.057880584
67	0xbd118bf4	-0.03553386
68	0xb6970760	-4.5010092e-06
69	0xbda69f6e	-0.081358775
70	0xbd59ea5f	-0.05320203
71	0x3de0a2b9	0.10968537
72	0x3da8f8f7	0.08250611
73	0x3dcef35c	0.10105011
74	0x3cbe93f2	0.023263905
75	0x3cb320da	0.02186625
76	0x3c2321e2	0.009956809
77	0xbdae4f15	-0.085111775
78	0x3b9e36af	0.004828296
79	0xbd17dc90	-0.03707558
80	0x3dcb6272	0.09930886
81	0x3db87cce	0.090081796
82	0xbcb4ea26	-0.022084307
83	0xbdbcff98	-0.09228438
84	0xbcec980e	-0.0288811
85	0xbd9e2465	-0.077217855
86	0x3c91aabf	0.017781613
87	0xbcc6fdca	-0.024290938
88	0x3ce99bdf	0.028516708
89	0x3dd72962	0.1050594
90	0x3d47442a	0.04864899
91	0xba9232fb	-0.0011154109
92	0xbc577ebb	-0.0131527735
93	0x3d0cfd4b	0.034421246
94	0xbd9e3f9b	-0.077269755
95	0x3da9f532	0.082987204
96	0x3b0f2755	0.0021843512
97	0xbd6385ff	-0.05554771
98	0xbd6be270	-0.057588995
99	0xbdc6f9ff	-0.09715652
100	0xbdb9c430	-0.09070623
101	0xbc071ca2	-0.008246573
102	0x3daebc31	0.085319884
103	0xbd682279	-0.0566735
104	0x3d395ac6	0.045252584
105	0x3dd02016	0.1016237
106	0xbde0daec	-0.10979256
107	0xbdd22ce2	-0.10262467
108	0x3d867c9e	0.065667376
109	0xbccba80a	-0.0248604
110	0xbdc31a98	-0.09526557
111	0x3bd59825	0.006518381
112	0x3da3c82c	0.07997164
113	0x3b553b0a	0.003253641
114	0x3d947af7	0.07250016
115	0x3de5f13e	0.11227654
116	0x3d9984d5	0.07496039
117	0xbd47d2ce	-0.048785023
118	0x3d0c8c19	0.034313295
119	0xbc23004a	-0.009948799
120	0xbdbe5a0a	-0.09294517
121	0x3dd0128b	0.10159787
122	0x3dd3aced	0.10335717
123	0x3db17db7	0.08666556
124	0x3db750a4	0.08950928
125	0x3da88080	0.082276344
126	0xbd963307	-0.073339514
127	0x3c9e4557	0.019320173
128	0xbb029bc6	-0.0019929274
129	0xbdd7bd7a	-0.10534187
130	0xbd45f2c3	-0.04832722
131	0x3d89536c	0.067053646
132	0xbc02d9d0	-0.007986501
133	0xbd9f08ed	-0.07765374
134	0xbb76999b	-0.0037628177
135	0xbbdb5fd2	-0.0066947723
136	0xbdca1dd9	-0.09868974
137	0xbcbce9d7	-0.023060722
138	0x3d9f747f	0.07785892
139	0xbdb60ec9	-0.08889539
140	0xbd0eefd2	-0.03489668
141	0xbc96905a	-0.018379379
142	0xbcaa68d9	-0.020801948
143	0x3d0708fb	0.03296755
144	0x3ccc0ae7	0.024907542
145	0x3d0ed766	0.03487339
146	0xbd34bcd2	-0.044125386
147	0x3dd5f176	0.10446446
148	0x3de1d52d	0.11026988
149	0xbd84f126	-0.06491308
150	0xbc69b483	-0.014264229
151	0xbc9c28ff	-0.019062517
152	0x39681cb9	0.00022135944
153	0xbdb33b0f	-0.08751499
154	0x3de612ae	0.112340316
155	0x3dc8e9c4	0.09810212
156	0xbd243c58	-0.04009661
157	0x3db4bef3	0.08825483
158	0x3d1ecb14	0.03876789
159	0x3c1c758c	0.00954951
160	0x3d8fb98c	0.07017812
161	0x3d426e47	0.04746845
162	0x3c0df1f2	0.008663641
163	0x3da20c05	0.07912449
164	0x3db4013c	0.08789298
165	0x3dc53319	0.09628887
166	0x3cc1b1b0	0.023644298
167	0xbd970849	-0.07374627
168	0xbc679b75	-0.014136185
169	0xbc64fe2f	-0.013976618
170	0xbdd660ce	-0.10467683
171	0xbda8199c	-0.082080096
172	0x3caf6a89	0.021413105
173	0xbd4673f1	-0.048450414
174	0xbd33e4b1	-0.04391927
175	0x3daf0160	0.08545184
176	0x3d5643bc	0.05231069
177	0x3a83f2fe	0.0010066924
178	0xbcedffd2	-0.029052649
179	0xbda57f6c	-0.080809444
180	0xbd3bc16b	-0.045838755
181	0xbd70e035	-0.05880757
182	0x3d68a996	0.056802355
183	0x3dc3b354	0.095556885
184	0x3c852130	0.016251177
185	0x3ced89b4	0.028996326
186	0x3c2bf859	0.010496222
187	0xbde0fa27	-0.10985213
188	0x3d8b397a	0.06798072
189	0x3d4ea59f	0.050450917
190	0x3c8e9ea3	0.017409628
191	0x3db30948	0.08742005
192	0x3dd3b662	0.10337521
193	0xbda7fd40	-0.082026005
194	0x3acb817a	0.0015526258
195	0x3d8bfb17	0.06835001
196	0x3d26c55d	0.040715564
197	0xbd1b5c32	-0.03792972
198	0x3c1286b4	0.008943249
199	0xbdd6576c	-0.10465893
200	0x3dd6c07e	0.10485934
201	0x3dc69cb4	0.096978575
202	0x3dd9857e	0.10621165
203	0x3d6fcfab	0.058547657
204	0x3d7fe5ba	0.062474944
205	0x3d316800	0.043312073
206	0xbdc1de86	-0.09466271
207	0xbdd3b64d	-0.103375055
208	0xbd4a2f58	-0.049361557
209	0xbc9289c5	-0.01788796
210	0xbd905477	-0.070473604
211	0x3db925ed	0.09040437
212	0xbd86b0a4	-0.0657666
213	0xbaff845f	-0.0019494406
214	0x3c836150	0.016037613
215	0x3d387be2	0.04504002
216	0x3d5ed436	0.0544016
217	0x3bc83984	0.006110372
218	0x3a907046	0.0011019788
219	0x3bdf88e9	0.006821741
220	0x3d81c42c	0.06336245
221	0xbc8280fd	-0.015930647
222	0x3dcac5e9	0.099010296
223	0x3d0a019f	0.033692952
224	0xbc431648	-0.011907168
225	0xbdb6a70c	-0.089185804
226	0x3da2b3de	0.07944463
227	0x3d95f16c	0.07321438
228	0x3dd7dcdc	0.105401725
229	0xbd8b3ff3	-0.06799307
230	0x3d5053eb	0.05086128
231	0x3ca32ef3	0.019919848
232	0x3c4a6005	0.012351994
233	0xbc8332a0	-0.01601535
234	0x3dd6e552	0.10492958
235	0xbc7bafcd	-0.015361738
236	0xba2870b4	-0.00064254855
237	0xbdac121b	-0.08401891
238	0x3dab01ef	0.08349978
239	0xbbc51f16	-0.0060156686
240	0xbdaf7856	-0.08567874
241	0x3c493f68	0.012283184
242	0x3cb0dc9e	0.021589573
243	0xbdb54339	-0.08850712
244	0x3d4862f5	0.048922498
245	0x3d0bd367	0.034137156
246	0xbcc84d2d	-0.024450863
247	0xbd72f549	-0.059315953
248	0x3d687ebb	0.056761485
249	0xbb356c0e	-0.0027682814
250	0xbd25bf96	-0.040465914
251	0x3d9a1867	0.07524186
252	0x3da3cf32	0.07998504
253	0xbd03a2f4	-0.032137826
254	0x3d4d8b78	0.050181836
255	0x3dc2d05c	0.09512398

layers.conv2_1.bias f4 [64]
0	0x3c429994	0.011877436
1	0x3db77035	0.08956949
2	0x3d5a6d25	0.053326745
3	0x3dbf4057	0.09338444
4	0xbd423c91	-0.047421042
5	0xbdd35bcb	-0.103202425
6	0x3d38b7a9	0.045097027
7	0xbddd727a	-0.1081285
8	0xbb951ac2	-0.004550309
9	0x3d409a93	0.047022413
10	0x3a2dc834	0.0006629259
11	0x3d43e808	0.047828704
12	0xbd2be79a	-0.04196892
13	0xbd10bfd1	-0.03533918
14	0xbd9a961a	-0.07548161
15	0xbd2abb57	-0.041682567
16	0x3dbb39da	0.09141894
17	0xbc834244	-0.016022809
18	0xbcd8af47	-0.026450766
19	0xbd94aa3c	-0.07259032
20	0xbd475eee	-0.048674516
21	0xbc915e1b	-0.017745068
22	0xbdab96b8	-0.08378357
23	0xbd683492	-0.05669076
24	0xbd0bda5c	-0.03414379
25	0x3d902fb4	0.07040349
26	0xbcc6fdc8	-0.024290934
27	0xbdb67aaa	-0.08910115
28	0xbce2552b	-0.027628502
29	0x3dcb95e3	0.09940698
30	0xbdda5d7a	-0.106623605
31	0x3da21967	0.07915001
32	0xbdd1d091	-0.10244859
33	0x3c6fc421	0.014634163
34	0x3dc4dce0	0.09612441
35	0x3d94d8ed	0.07267938
36	0x3c100341	0.008789838
37	0xbd9c48ad	-0.07631049
38	0xbd9c595a	-0.0763423
39	0x3d5a872c	0.053351566
40	0x3d87a94a	0.06624086
41	0x3ca99a0a	0.020703334
42	0xbd6e73bf	-0.058215853
43	0x3c59e574	0.013299335
44	0xbd1488f3	-0.036263417
45	0x3c6e072e	0.014528079
46	0x3d10ec44	0.03538157
47	0xbd6f7485	-0.05846073
48	0x3db26046	0.08709769
49	0x3d7e2f06	0.062056564
50	0x3de1c20b	0.11023339
51	0xbd9dc7fb	-0.07704159
52	0x3ceb992c	0.028759561
53	0xbd7aa4a9	-0.06119219
54	0xbbbf8e30	-0.0058458075
55	0xbb1042a9	-0.0022012389
56	0xbd92cf0b	-0.071683966
57	0x3c034eb8	0.0080143735
58	0xbbb856e3	-0.005625592
59	0x3de0468b	0.10950955
60	0xbde2e425	-0.11078671
61	0x3db6c44c	0.089241594
62	0xbdb121bd	-0.08649013
63	0xbdb7007d	-0.0893564

layers.conv2_2.weight f4 [32, 64, 20]
0	0x3cb1d905	0.021709928
1	0xbcd33444	-0.025781758
2	0xbc85e117	-0.016342683
3	0x3c8cb0da	0.017174173
4	0xbc1e00d6	-0.009643754
5	0xbca6781d	-0.020320946
6	0xbc8dbf39	-0.017303096
7	0xbca96700	-0.020678997
8	0x3c80d94c	0.015728615
9	0x3cc642e7	0.024201823
10	0x3cd495fd	0.025950426
11	0x3cca8948	0.024723664
12	0xbc1c4395	-0.009537597
13	0xbc6e5d07	-0.014548547
14	0xbb1d8ab9	-0.0024038984
15	0x3caf05f0	0.021365136
16	0x3cbfd0a0	0.02341491
17	0x3c9d2fa5	0.019187758
18	0xbcc3d996	-0.023907464
19	0xbcc3ede0	-0.023917139
20	0xbcb225e5	-0.021746585
21	0xbc4d4f22	-0.012531074
22	0xbb3fc435	-0.0029261236
23	0xbc0b0c6e	-0.00848685
24	0x3bef1c16	0.0072970493
25	0x3cc312c3	0.023812657
26	0xbb3dcc35	-0.0028960828
27	0x3cb4072c	0.021976076
28	0x3ca1d7cb	0.019756218
29	0xbb988bd2	-0.0046553398
30	0x3c245b98	0.010031603
31	0x3c67c3cf	0.0141458055
32	0xbc70528b	-0.014668117
33	0x3bb1e642	0.00542906
34	0xbbf313e1	-0.0074181412
35	0xbb81efb4	-0.0039653424
36	0x3c82deb2	0.01597533
37	0x3c871bee	0.01649281
38	0x3c865aec	0.016400777
39	0xbcd27e71	-0.025695058
40	0x3a079f1d	0.0005173551
41	0xbb082ed1	-0.0020779858
42	0x3caefaef	0.021359889
43	0x3ba1aa08	0.0049335994
44	0xbc5c7c2c	-0.013457339
45	0xbcb9725f	-0.022637544
46	0xbc0aa650	-0.008462504
47	0x3b53b91e	0.0032306383
48	0xbc0e75ec	-0.008695107
49	0x3cf7089e	0.030155476
50	0xbcb44d2f	-0.02200946
51	0x3cb2a5aa	0.02180751
52	0x3ccd6fd9	0.025077747
53	0xbc684d8a	-0.014178643
54	0x3c75cec0	0.015002906
55	0xbb40a3a2	-0.0029394408
56	0xbc861237	-0.016366107
57	0x3cbddf9d	0.023177916
58	0xbcc05df6	-0.023482304
59	0xbbdddd22	-0.006770746
60	0x3b810028	0.003936786
61	0xbc56608f	-0.013084545
62	0xbc8a45d8	-0.016879007
63	0x3c763d68	0.015029289
64	0x3b1813c5	0.0023205143
65	0xbb02b064	-0.0019941563
66	0x3ae7282f	0.0017635877
67	0xba8a7ef6	-0.0010566402
68	0x3aceaeec	0.0015768684
69	0x3c9e6351	0.019334467
70	0x3ba00ca7	0.004884321
71	0x3c76b6c8	0.015058227
72	0x3cd0c8da	0.025486398
73	0xbc5d8395	-0.013520141
74	0x3c7019fa	0.014654631
75	0xbc3ad537	-0.011403373
76	0xbaa5c9cc	-0.0012648641
77	0xbc876b66	-0.016530704
78	0x3c500693	0.01269688
79	0x3ca07c90	0.019590646
80	0x3c16ac48	0.0091963485
81	0x3ca3fc2d	0.020017708
82	0xbcd24527	-0.02566774
83	0xbcd63783	-0.026149517
84	0x3ce36386	0.027757417
85	0xbc002ffd	-0.007823941
86	0x3cc8af3a	0.024497617
87	0x3c7e2181	0.015510918
88	0x3cd3c28c	0.025849603
89	0x3cb326b2	0.021869037
90	0x3c09bd50	0.008406952
91	0x3cdfc123	0.027313774
92	0x3bbfebd1	0.005856969
93	0xbc9a9b75	-0.018872956
94	0x3cc81dc3	0.024428254
95	0xbb55fe91	-0.0032652954
96	0x3cbcfc3b	0.023069492
97	0x3c93d656	0.01804654
98	0xbc442795	-0.011972328
99	0xbc096756	-0.008386454
100	0x3cd7f19c	0.026360326
101	0x3ca408f9	0.02002381
102	0x3c94bb67	0.018155767
103	0x3bfa3877	0.0076361257
104	0xbcc2d6fb	-0.023784151
105	0x3cab19f2	0.020886395
106	0x3c1cfcf3	0.009581792
107	0x3c93d235	0.01804457
108	0xbc1f6bf3	-0.009730327
109	0x3c6c54bb	0.014424498
110	0x3ca79e62	0.020461265
111	0xbbaa4102	-0.005195738
112	0x3c708e49	0.014682361
113	0x3b919821	0.004443184
114	0x3ccc508c	0.024940751
115	0x3c06a083	0.00821698
116	0x3c5c9bb9	0.013464862
117	0xbc1c4631	-0.009538219
118	0x3cc04641	0.023471
119	0x3cb13804	0.021633156
120	0xbcd3f87d	-0.025875324
121	0x3c9fc930	0.019505113
122	0x3ca609a6	0.020268273
123	0xbbf17974	-0.0073692147
124	0x3caf3d93	0.021391666
125	0xbcadd039	-0.021217452
126	0xbb7b0ebc	-0.0038308343
127	0x3c48b6be	0.0122506
128	0xbba1512f	-0.004923008
129	0x3c0c9d6a	0.008582452
130	0xbc85cee9	-0.016334014
131	0x3bb67b90	0.005568929
132	0xbc506e78	-0.01272165
133	0xbbdd2126	-0.0067483364
134	0x3ccb0e5d	0.024787122
135	0xbc6bccb6	-0.014392069
136	0xbc9bf475	-0.019037465
137	0x3c93f918	0.018063113
138	0xbb22de52	-0.0024851752
139	0x3c2fe9da	0.010736907
140	0x3ccd39ba	0.02505194
141	0x3cc941e4	0.024567552
142	0x3cc844eb	0.024446925
143	0x3c344cb6	0.011004617
144	0x3c4fbb53	0.012678939
145	0xbc0343a4	-0.008011732
146	0xbbef1d2e	-0.0072971797
147	0x3c826cc9	0.015921013
148	0xbcc6b666	-0.024256896
149	0x3b57e533	0.003294301
150	0xbaee39e1	-0.0018175208
151	0xbc0527d3	-0.008127171
152	0xbcb4dfcb	-0.022079369
153	0x3c338915	0.010957976
154	0x3c2ee855	0.010675509
155	0x3cdbe65f	0.026843248
156	0xbcb2fce5	-0.021849105
157	0xbccf2efb	-0.025290957
158	0x3ce3e0de	0.027817186
159	0xbc4e0865	-0.012575244
160	0xbbadf141	-0.0053083007
161	0x3c81fbd3	0.01586715
162	0x3cb5022a	0.022095758
163	0x3ccc9901	0.024975302
164	0xbbc6299e	-0.0060474416
165	0xbbec9720	-0.007220164
166	0x3a113a4f	0.00055399997
167	0xbcc7f115	-0.024406949
168	0xbca33d85	-0.019926796
169	0xbc9dcc1f	-0.019262372
170	0xbbc357a9	-0.0059613776
171	0xbc59fea6	-0.013305342
172	0xbadbb86e	-0.0016763338
173	0xbc4e612d	-0.012596411
174	0x3cebec56	0.028799217
175	0x3cae70f3	0.021294093
176	0x3b39019f	0.0028229726
177	0xbc93f0b4	-0.018059112
178	0xbcbc665e	-0.022998031
179	0xbc16a478	-0.009194486
180	0x3b2756fc	0.0025534024
181	0x3c0110f3	0.007877576
182	0x3c2361b3	0.009972024
183	0xb9c4fdc5	-0.00037573106
184	0x3ca46fa1	0.02007276
185	0x3c4c19eb	0.012457351
186	0x3ceebcc5	0.029142747
187	0xbcac6a64	-0.021046825
188	0x3c48fe4a	0.0122676585
189	0x3c833206	0.016015064
190	0xbb8697fe	-0.0041074743
191	0x3c2bee26	0.010493791
192	0x3c855de4	0.016280122
193	0x3ce98a98	0.02850847
194	0x3cc4a5f4	0.024004914
195	0xbad4c038	-0.0016231602
196	0x3c76379e	0.015027909
197	0xbb306d5e	-0.0026920657
198	0x3ca556cc	0.02018299
199	0xbbfbc5a8	-0.0076834746
200	0x3c4c471a	0.012468124
201	0xbc3c4f53	-0.011493522
202	0xbc935032	-0.017982576
203	0x3cb921af	0.02259907
204	0x3c8407fd	0.01611709
205	0xbc92760b	-0.017878553
206	0xbcb394b6	-0.021921497
207	0xbb607379	-0.0034248515
208	0xbad00310	-0.0015870053
209	0xbbc134dd	-0.0058961944
210	0x3b0a584c	0.0021109758
211	0xbc72b84c	-0.014814448
212	0xbc738ed3	-0.014865595
213	0x3c6652e5	0.0140578495
214	0xbcafe21b	-0.02147012
215	0xbb84b880	-0.0040503144
216	0x3b50bad1	0.0031849633
217	0x3c1c5f6b	0.009544234
218	0x3cdafd73	0.026732182
219	0xbca2ef5d	-0.019889528
220	0xbcbd174d	-0.0230824
221	0xbccf73b9	-0.025323736
222	0xbc4629da	-0.012094939
223	0x3cc1d9e4	0.023663469
224	0xbaac6bf5	-0.0013154732
225	0x3b63053f	0.0034640578
226	0xbc4a39ef	-0.012342914
227	0x3ca8ed75	0.02062104
228	0xbca0ecf9	-0.019644247
229	0xbb97a166	-0.0046273945
230	0x3cb814f4	0.022470929
231	0x3988ba19	0.00026078595
232	0xb9298d06	-0.00016169631
233	0xbc71adf2	-0.014750944
234	0x3c548047	0.012970037
235	0xbb5c990e	-0.0033660564
236	0xbcb4cb36	-0.022069555
237	0x3c9fb322	0.019494597
238	0x3ce19f7c	0.027541868
239	0xbc301b0f	-0.010748639
240	0x3cd1d347	0.02561344
241	0xbcbf8eea	-0.023383576
242	0xbcd82767	-0.026385976
243	0x3c1a363d	0.0094123455
244	0x3ae4a805	0.0017445093
245	0x3bac2c95	0.005254338
246	0x3cd1b976	0.02560113
247	0xbb2eb403	-0.0026657588
248	0x3c724490	0.014786854
249	0x3b381bdd	0.002809278
250	0xbcd32eef	-0.025779216
251	0x3ca03bf3	0.019559836
252	0x3c9e904b	0.019355914
253	0x3c87027f	0.016480682
254	0xbad624f2	-0.0016337915
255	0xbca7fa65	-0.02050514

layers.conv2_2.bias f4 [32]
0	0xba8ad1f3	-0.0010591134
1	0x3cc7b2a2	0.024377171
2	0x3bd94938	0.006631043
3	0x3b35caa6	0.0027739196
4	0xbca9c458	-0.020723507
5	0x3ccab43b	0.024744144
6	0x3cb95ce9	0.02262731
7	0x3a8abf57	0.0010585588
8	0x3cb9bcc7	0.022673024
9	0x3c82400c	0.01589968
10	0x3cd7ad49	0.026327746
11	0xbc8306bf	-0.015994428
12	0x3bb2cc18	0.005456459
13	0xbc061665	-0.00818405
14	0x3b390e7e	0.0028237398
15	0x3b21f6a8	0.002471367
16	0xbc44e917	-0.012018464
17	0xbc58c26d	-0.0132299485
18	0x3cd87900	0.026424885
19	0xbcd4ba5f	-0.025967775
20	0xbc999a75	-0.018750409
21	0xbb66e28b	-0.0035230245
22	0xbcb18f31	-0.021674724
23	0xbc893ac9	-0.016751664
24	0xbb0870c3	-0.0020819164
25	0xbc70b662	-0.014691921
26	0x3c70ee5a	0.014705265
27	0xbca99829	-0.020702438
28	0xbc6fca9f	-0.014635711
29	0xbcd476d3	-0.025935566
30	0xbcb0618e	-0.021530893
31	0x3a772bab	0.0009428809

layers.conv3_1.weight f4 [32, 4, 49]
0	0x3d86f90b	0.0659047
1	0x3c284a40	0.010271609
2	0xbca347fb	-0.019931784
3	0xbc93c73e	-0.018039342
4	0xb9cf4155	-0.00039530793
5	0xbcd4e328	-0.025987223
6	0x3d47d888	0.048790485
7	0x3d85fd7d	0.0654249
8	0x3d5dd5eb	0.054159086
9	0x3c479480	0.012181401
10	0x3ca52b39	0.020162212
11	0xbd584074	-0.052795842
12	0x3c40a83f	0.011758863
13	0xbd815936	-0.06315844
14	0xbd682e84	-0.056684986
15	0x3cdf3167	0.027245237
16	0xbcf0e7a5	-0.029407332
17	0xbc2290e9	-0.009922245
18	0xbd0b1e8d	-0.033964682
19	0xbd80b68f	-0.0628482
20	0x3d0428d3	0.032265496
21	0xbc914cec	-0.017736875
22	0xbcac0f29	-0.021003323
23	0xbd6ccf00	-0.057814598
24	0x3d8cc8b9	0.06874222
25	0xbc7e98ac	-0.0155393295
26	0x3d8eb544	0.069681674
27	0x3c68a2b9	0.014198952
28	0xbcfa115e	-0.03052586
29	0x3d920b16	0.07131021
30	0xbccdab03	-0.025105959
31	0x3d248025	0.04016127
32	0x3d63c208	0.055604964
33	0x3cb2ff87	0.02185036
34	0x3d8a37ec	0.067489475
35	0x3cf8e1d7	0.030381126
36	0xbd2125ec	-0.039342806
37	0xbc6f536a	-0.01460729
38	0xbd2da9f4	-0.042398408
39	0xbd39c5b7	-0.04535457
40	0xbcb419e7	-0.021985007
41	0xbccaa4d9	-0.024736809
42	0xbd2a523d	-0.041582335
43	0xbc29e2a6	-0.010368979
44	0x3b8efcfc	0.004363654
45	0x3c99df1c	0.018783145
46	0xbcc2484d	-0.023716116
47	0xbd134721	-0.035956506
48	0x3cdcd8e9	0.0269589
49	0xbc90ed0a	-0.017691154
50	0x3d1ebba4	0.038753167
51	0x3d68b310	0.056811392
52	0x3a9816ce	0.0011603476
53	0xbd902e85	-0.07040123
54	0xbd25b45d	-0.04045521
55	0x3d5c715c	0.053819045
56	0x3c151491	0.009099142
57	0xbbaad30f	-0.0052131484
58	0xbb9ebaf0	-0.004844062
59	0x3d2ab7c9	0.041679177
60	0x3cc19c11	0.023633989
61	0xbd0b527b	-0.034014206
62	0xbd4679fa	-0.04845617
63	0x3ce67efe	0.028136726
64	0x3c5025a7	0.0127042895
65	0x3d09e07d	0.033661354
66	0xbc8ba5e0	-0.017046869
67	0x3ce2066e	0.027590957
68	0x3c9f5025	0.019447396
69	0xbd8c5ee9	-0.0685404
70	0x3ce38019	0.027771043
71	0x3d08c01d	0.03338634
72	0xbd89b892	-0.06724657
73	0xbcea6c47	-0.028616084
74	0x3d00772f	0.031363662
75	0xbd8107c6	-0.06300311
76	0xbc91d713	-0.01780275
77	0x3d3cf861	0.04613531
78	0x3d587660	0.052847266
79	0x3d151100	0.036393166
80	0xbc9242a7	-0.017854048
81	0x3d3b7514	0.04576595
82	0x3cd2afff	0.025718687
83	0xbd8c8d9e	-0.06862949
84	0xbd82c948	-0.063860476
85	0x3be61ecb	0.007022714
86	0x38873293	6.446722e-05
87	0x3abf88a7	0.0014612869
88	0xbd782d89	-0.0605903
89	0x3d841c8d	0.06450758
90	0x3d49208a	0.049103297
91	0x3d265dc7	0.040616777
92	0xbd8b38fd	-0.06797979
93	0x3ce36c90	0.027761728
94	0x3d69fc53	0.0571254
95	0xbc05138b	-0.008122335
96	0x3cb03fbb	0.021514764
97	0x3d8c9f4c	0.06866321
98	0x3cbb2550	0.02284494
99	0x3c1d9f48	0.009620495
100	0xbcd2c614	-0.025729217
101	0x3d078b19	0.03309164
102	0x3d1ca357	0.03824171
103	0xbaf886ae	-0.0018961036
104	0x3d642f13	0.055708956
105	0xbcd981f7	-0.02655123
106	0xbc0423b5	-0.008065154
107	0xbcf6918e	-0.030098703
108	0xbd8cfb2a	-0.06883843
109	0xbd67c5b3	-0.056585025
110	0x3d631887	0.055443313
111	0xbd8d8874	-0.06910792
112	0x3d8808fa	0.06642337
113	0x3d4a2e74	0.049360707
114	0xbca7d40f	-0.02048686
115	0x3cebe5e6	0.028796148
116	0x3c1a8bb3	0.009432721
117	0x3d17a5f9	0.03702352
118	0x3d78a421	0.0607034
119	0xbd5279bd	-0.05138563
120	0xbcc01cf0	-0.023451298
121	0xbb829927	-0.0039855423
122	0x3c8b303e	0.016990777
123	0xbc0616d5	-0.0081841545
124	0xbcdf176f	-0.027232854
125	0x3d298879	0.041389916
126	0x3cec6920	0.028858721
127	0xbd3f7bdf	-0.046748992
128	0xbc5d6e7e	-0.013515113
129	0xbd13637f	-0.03598356
130	0x3d1e695c	0.038674697
131	0x3d05e184	0.03268577
132	0x3d454dc3	0.048169862
133	0xbae5b605	-0.001752556
134	0xb9cff617	-0.00039665468
135	0xbcd3e544	-0.025866158
136	0xbcd7b324	-0.026330538
137	0xbd671a30	-0.05642146
138	0xbd0b5cdd	-0.03402411
139	0xbd66ea9c	-0.056376085
140	0xbc7985b1	-0.015229628
141	0xbc7182af	-0.01474063
142	0x3d008c50	0.031383812
143	0x3b89a1f6	0.0042002155
144	0xbcb176f4	-0.021663167
145	0xbcf12bc1	-0.029439809
146	0xbcf237fe	-0.029567715
147	0xbd46e813	-0.048561167
148	0xbcd09d1f	-0.025465546
149	0xbca82589	-0.02052571
150	0xbd1d47bf	-0.0383985
151	0xbcf837fe	-0.030300137
152	0x3d613b5a	0.054988243
153	0xbc30f81c	-0.010801341
154	0xbce2eee2	-0.027701799
155	0x3d145fd2	0.036224194
156	0xbcfdef53	-0.030997908
157	0x3c3057e1	0.010763139
158	0xbd3febd7	-0.046855774
159	0xbcd0a62e	-0.025469866
160	0xbcb6f2e9	-0.022332625
161	0x3d2d6a73	0.042337846
162	0x3b57d8b1	0.0032935555
163	0xbca43f76	-0.020049792
164	0x3cf71cd4	0.030165114
165	0xbd4c5542	-0.049885996
166	0xbcd00187	-0.025391353
167	0xbc823c11	-0.015897783
168	0x3d609855	0.054832775
169	0xbd0c6951	-0.034280125
170	0x3c16339e	0.00916758
171	0x3d0fd08e	0.035111003
172	0x3d8cbf19	0.068723865
173	0xbc3848b0	-0.011247799
174	0xbcd49059	-0.025947737
175	0x3cb7ff77	0.022460682
176	0x3c6588fc	0.01400971
177	0xbd44e6da	-0.04807172
178	0xbcf8a088	-0.030349985
179	0xbd721b63	-0.05910815
180	0xbcdf3928	-0.027248934
181	0xbd38f940	-0.04515958
182	0x3bf538eb	0.007483592
183	0xbd4bb253	-0.04973061
184	0xbd8106ea	-0.06300147
185	0x3b8bf906	0.0042716293
186	0x3b710be0	0.003678076
187	0xbcf6639b	-0.030076792
188	0xbd67f0c3	-0.056626093
189	0xbd28cd41	-0.04121137
190	0x3d8c18cd	0.06840668
191	0x3d060c2a	0.032726444
192	0x3d8b1c9e	0.06792568
193	0x3d0773e0	0.03306949
194	0xbaff4386	-0.001947508
195	0x3d45bd4b	0.048276227
196	0x3b7e59f6	0.0038810945
197	0x3d4e6985	0.0503936
198	0xbcce5c7e	-0.025190588
199	0x3d0106a1	0.031500462
200	0xbbdb241c	-0.006687654
201	0xbd57a603	-0.052648555
202	0x3c8eeebf	0.017447827
203	0xbc9234a8	-0.017847374
204	0xbcd4d3bb	-0.025979867
205	0xbd9165e6	-0.07099514
206	0x3cfd56cc	0.030925177
207	0xbd863270	-0.06552589
208	0xbd02f3a3	-0.03197063
209	0xbc0ef56c	-0.008725505
210	0x3b56c32c	0.003277014
211	0xbc875415	-0.016519586
212	0x3d0efbae	0.03490799
213	0x3d818fed	0.0632628
214	0x3d9119e0	0.070850134
215	0xbc89ed17	-0.016836686
216	0x3c9b8de3	0.018988555
217	0xbc64923a	-0.013950879
218	0xbd316b5e	-0.043315284
219	0xbd38f95c	-0.045159683
220	0x3bb59b3f	0.0055421884
221	0xbd129000	-0.03578186
222	0xbd2cc2a7	-0.042177822
223	0xbd8b340f	-0.06797039
224	0x3d4872fc	0.048937783
225	0xbd810fea	-0.063018635
226	0x3c94da8c	0.018170618
227	0x3c358195	0.011078258
228	0x3c852f8f	0.01625803
229	0xbcca633c	-0.024705522
230	0xbcf5ec8a	-0.030020017
231	0x3c241079	0.010013693
232	0x3d32c76b	0.04364721
233	0xbcf87556	-0.030329388
234	0x3d8d29cb	0.06892737
235	0xbbd7346e	-0.0065675294
236	0xbd64d25b	-0.055864673
237	0x3cc50d57	0.024054212
238	0xbafa474f	-0.0019094738
239	0xbb3f01c0	-0.002914533
240	0x3c109524	0.00882462
241	0x3d8e8bf0	0.06960285
242	0x3d8d4292	0.06897463
243	0x3d63fc7b	0.055660706
244	0x3c425656	0.011861404
245	0x3c8803a2	0.016603295
246	0x3c81bf77	0.015838368
247	0xbc9af6cd	-0.018916512
248	0x3ccaf77b	0.024776211
249	0x396862a4	0.0002216199
250	0x3d1d943d	0.03847145
251	0xbd65db50	-0.056117356
252	0xbc6f4cd6	-0.014605721
253	0x3cfa6ba7	0.03056891
254	0x3d53dbdc	0.051723346
255	0x3a69d39b	0.00089197763

layers.conv3_1.bias f4 [32]
0	0x3c239d78	0.009986274
1	0xbd60660b	-0.054784816
2	0xbafc7e36	-0.0019263688
3	0xbd90aa5b	-0.07063743
4	0xbd3d947d	-0.046284188
5	0x3cb897de	0.022533353
6	0x3d2a9fc0	0.041656256
7	0xbd6a3420	-0.057178617
8	0x3d6829cf	0.056680497
9	0x3d83a7f2	0.064285174
10	0xbd8cfd45	-0.06884245
11	0x3c83b64e	0.01607814
12	0xbc2c831c	-0.010529306
13	0x3d910fe1	0.07083107
14	0xbd845f7e	-0.06463526
15	0xbc44feec	-0.012023669
16	0xbd05664d	-0.032568265
17	0x3bf2b810	0.007407196
18	0xbd8fad82	-0.07015516
19	0x3d8af15d	0.06784318
20	0x3d3da759	0.046302173
21	0x3d789c45	0.060695905
22	0x3d8b5f6d	0.068053104
23	0xbc22da1e	-0.0099396985
24	0xbc3d141a	-0.011540437
25	0xbc9a4b38	-0.018834695
26	0xbc56f556	-0.013120016
27	0xbd029ba4	-0.03188671
28	0x3d2467f8	0.040138215
29	0xbd8eb788	-0.069685996
30	0x3d29eb04	0.041483894
31	0xbd6cfbd6	-0.057857357
