mRNAlocalization/cnn_models/CNN_model_fold6.pth (torch, 531886 bytes, 22 tensors)

layers.bn1.weight f4 [64]
0.9992139 0.99839497 1.0017923 0.9984878 1.0023658 1.0003464 1.0004036 1.0013323
0.9980355 0.99958235 1.0000461 1.0016842 1.0015152 1.0014625 0.9988553 1.0007645
1.0018607 1.0005132 0.9999869 0.9975494 0.99897915 0.9988299 1.0016129 0.9997143
1.0006036 0.9988318 1.0009372 1.0002939 1.000638 1.0005283 0.9993539 0.9994347
1.0001774 0.9981833 1.001774 0.99922246 1.0000532 0.99932337 1.001222 1.001788
0.9980903 0.9981341 0.99953073 0.99988663 1.0007659 1.0013617 1.0013351 0.99936765
1.0012352 1.0016044 1.0001037 0.9993743 0.9989398 1.0009567 0.9990837 1.0004973
1.0017871 1.0002768 0.9991754 1.001371 0.99975497 0.9983877 1.0000967 0.9991037
00000000: 7bcc 7f3f d096 7f3f bb3a 803f e59c 7f3f
00000010: 864d 803f 5a0b 803f 3a0d 803f a82b 803f
00000020: 417f 7f3f a1e4 7f3f 8301 803f 3037 803f
00000030: a631 803f ec2f 803f fbb4 7f3f 0d19 803f
00000040: f93c 803f d110 803f 24ff 7f3f 665f 7f3f
00000050: 19bd 7f3f 51b3 7f3f da34 803f 47ed 7f3f
00000060: c713 803f 71b3 7f3f b61e 803f a109 803f
00000070: e814 803f 5011 803f a8d5 7f3f f4da 7f3f
00000080: d005 803f f188 7f3f 213a 803f 0bcd 7f3f
00000090: be01 803f a8d3 7f3f 0b28 803f 973a 803f
000000a0: d982 7f3f b785 7f3f 3fe1 7f3f 92f8 7f3f
000000b0: 1919 803f 9f2c 803f c02b 803f 8fd6 7f3f
000000c0: 7a28 803f 9334 803f 6603 803f fed6 7f3f
000000d0: 85ba 7f3f 591f 803f f3c3 7f3f 4c10 803f
000000e0: 8f3a 803f 1209 803f f6c9 7f3f ed2c 803f
000000f0: f1ef 7f3f 5696 7f3f 2b03 803f 43c5 7f3f

layers.bn1.bias f4 [64]
-0.0014802213 -1.2053983e-05 0.0013936854 -0.0012742693 0.0013649383 3.900288e-06 -0.00032413163 0.0017216428
-0.002441658 0.00015106253 3.1456668e-06 0.0019758537 0.00093300565 0.0022651905 -0.00080697046 -0.00058348005
0.0010358162 0.00045846033 0.0013900263 -0.0015017304 -0.0017908422 -0.0005489165 0.0008144971 -0.0012893983
0.0015063987 -0.0008740065 0.0013170743 -0.00029579527 -0.0010172107 -0.0019918955 3.332371e-05 -0.0014453619
0.0006248299 -0.002083992 0.0007904138 0.00044842446 0.0014684376 0.0013950234 0.00078133564 0.0017342118
-0.0021043727 -0.0019882706 -0.0011667646 -2.0428113e-05 0.00025426966 -0.0016688032 0.0016225048 0.00094834494
0.0020169376 6.034831e-05 0.00017856006 -0.00047957402 -0.0017566056 0.00205905 -0.00072027405 0.000715611
0.0016487439 -0.00019111231 -0.0011592328 -0.0002535573 -0.0017761032 -0.0007340683 -0.0008315857 -0.0005714529
00000000: fc03 c2ba 763b 4ab7 52ac b63a 6205 a7ba
00000010: bbe7 b23a 38df 8236 36f0 a9b9 bfa8 e13a
00000020: 3904 20bb 8a66 1e39 251a 5336 537d 013b
00000030: f394 743a 9773 143b df8a 53ba aff4 18ba
00000040: 39c4 873a 815d f039 8b31 b63a b6d5 c4ba
00000050: b1ba eaba 2ae5 0fba fa83 553a 0701 a9ba
00000060: 5a72 c53a 951d 65ba aea1 ac3a f814 9bb9
00000070: ed53 85ba 768a 02bb 10c5 0b38 4c72 bdba
00000080: a0cb 233a 9593 08bb c633 4f3a 831a eb39
00000090: 9778 c03a 38d9 b63a 8cd2 4c3a 7e4e e33a
000000a0: 84e9 09bb a54d 02bb 20ee 98ba 0a5d abb7
000000b0: 7f4f 8539 bebb daba 3aaa d43a 5a9a 783a
000000c0: 992e 043b 811e 7d38 da3b 3b39 566f fbb9
000000d0: e73d e6ba 20f1 063b c6d0 3cba d797 3b3a
000000e0: aa1a d83a 5265 48b9 66f1 97ba e2ef 84b9
000000f0: 22cc e8ba 7d6e 40ba c6fe 59ba 8ecd 15ba

layers.bn1.running_mean f4 [64]
-0.021543216 -0.014656189 -0.0012703153 0.07357948 0.08647868 0.042448606 0.021838158 0.11892448
0.059875492 -0.07743673 -0.04762623 0.006480552 0.003210232 -0.014448082 0.016452115 -0.08811369
-0.06327485 0.034733515 0.04142415 -0.022003107 -0.04145751 0.087538704 0.0755242 0.087947965
0.08666182 0.012290943 -0.009586158 -0.0012890266 -0.042565867 -0.13794032 0.024408402 -0.019499313
0.013023419 -0.046681244 0.022080386 0.025617396 -0.10964678 0.016057542 -0.046125542 -0.04936577
-0.09387094 0.03530117 -0.03117324 0.029460046 0.12972273 0.060168456 -0.010234681 -0.06736063
0.08197122 0.026031539 0.11524693 -0.075109646 -0.081196904 -0.0153866485 -0.06454296 0.0066693206
0.084136836 0.052503224 -0.0611282 -0.012608312 0.0022218202 0.07681872 -0.017569976 0.03485839
00000000: 667b b0bc 8320 70bc b580 a6ba d7b0 963d
00000010: bc1b b13d 97de 2d3d f0e5 b23c ae8e f33d
00000020: 0140 753d 2697 9ebd b913 43bd cf5a d43b
00000030: c162 523b a6b7 6cbc 96c6 863c f374 b4bd
00000040: 3f96 81bd bb44 0e3d 5fac 293d dc3f b4bc
00000050: 5acf 29bd 7e47 b33d 6fac 9a3d 101e b43d
00000060: c17b b13d f45f 493c 430f 1dbc 8ef4 a8ba
00000070: 8c59 2ebd 3a40 0dbe 21f4 c73c 06bd 9fbc
00000080: 2e60 553c d534 3fbd ede1 b43c 93db d13c
00000090: 7e8e e0bd 1b8b 833c 23ee 3cbd c333 4abd
000000a0: 683f c0bd f697 103d 065f ffbc 3256 f13c
000000b0: 09d6 043e 3373 763d 5daf 27bc 5ff4 89bd
000000c0: 87e0 a73d 1840 d53c 9506 ec3d 16d3 99bd
000000d0: 904a a6bd 4818 7cbc 192f 84bd 518a da3b
000000e0: ef4f ac3d 9f0d 573d 9061 7abd 1893 4ebc
000000f0: f59b 113b 2253 9d3d e9ee 8fbc acc7 0e3d

layers.bn1.running_var f4 [64]
0.028571272 0.024725178 0.024986837 0.017284267 0.021799237 0.031491406 0.026148697 0.026281051
0.025441997 0.025803545 0.01683033 0.037097655 0.026991952 0.04237506 0.018968198 0.032024756
0.021704512 0.026037248 0.023540245 0.027377922 0.023806684 0.022967258 0.025637241 0.023456419
0.037800513 0.023100847 0.030166153 0.023502782 0.019999253 0.020653982 0.029521747 0.022326699
0.034332726 0.028477093 0.020405356 0.029647803 0.04887404 0.026538407 0.027391957 0.037970714
0.02348796 0.028355936 0.024583092 0.020878894 0.036932457 0.020760419 0.023969565 0.03925714
0.04001562 0.031137867 0.03446757 0.029862173 0.017046044 0.043879624 0.03396647 0.022137845
0.021582127 0.019162541 0.026742762 0.025152173 0.027627056 0.028130151 0.026354821 0.038405348
00000000: 4d0e ea3c 758c ca3c 32b1 cc3c bc97 8d3c
00000010: 5094 b23c 22fd 003d cb35 d63c 5c4b d73c
00000020: bc6b d03c f561 d33c c3df 893c b6f3 173d
00000030: 3a1e dd3c 7991 2d3d 3263 9b3c 642c 033d
00000040: a9cd b13c 114c d53c 79d7 c03c aa47 e03c
00000050: 3c06 c33c d525 bc3c 3105 d23c ad27 c03c
00000060: b6d4 1a3d fd3d bd3c 021f f73c e888 c03c
00000070: 79d5 a33c 8a32 a93c 97d7 f13c 7be6 b63c
00000080: 79a0 0c3d cb48 e93c 2229 a73c f3df f23c
00000090: 2530 483d 1367 d93c 1965 e03c 2e87 1b3d
000000a0: d369 c03c b54a e83c 7b62 c93c 370a ab3c
000000b0: 7d46 173d c111 aa3c d25b c43c 18cc 203d
000000c0: 6be7 233d d714 ff3c de2d 0d3d 84a1 f43c
000000d0: 25a4 8b3c 1fbb 333d 6d20 0b3d 6d5a b53c
000000e0: 00cd b03c c3fa 9c3c a313 db3c ee0b ce3c
000000f0: 2352 e23c 3471 e63c 11e6 d73c ed4e 1d3d

layers.bn2.weight f4 [32]
1.00301 1.0029514 0.99949163 0.99887294 0.99882895 0.9986804 0.9970662 0.9973462
0.99743 0.9973837 0.9987272 0.9974283 0.99957156 0.99896705 0.9987963 0.9970847
0.9983753 0.99739456 0.99711096 0.9984409 0.997491 0.9992146 0.9988999 0.99873126
0.9996016 0.99731565 0.99794275 0.9986567 0.99739534 0.9969774 0.9986569 0.99898404
00000000: a262 803f b660 803f afde 7f3f 23b6 7f3f
00000010: 41b3 7f3f 85a9 7f3f bb3f 7f3f 1552 7f3f
00000020: 9357 7f3f 8a54 7f3f 96ac 7f3f 7657 7f3f
00000030: ece3 7f3f 4ebc 7f3f 1db1 7f3f f140 7f3f
00000040: 8695 7f3f 4055 7f3f aa42 7f3f d399 7f3f
00000050: 925b 7f3f 87cc 7f3f e7b7 7f3f daac 7f3f
00000060: e4e5 7f3f 1450 7f3f 2d79 7f3f f7a7 7f3f
00000070: 4d55 7f3f e939 7f3f fba7 7f3f 6bbd 7f3f

layers.bn2.bias f4 [32]
0.0029297753 0.0029657655 -0.00031724435 -0.0002863506 -0.0014234763 -0.0011701349 -0.002843078 -0.0027575768
-0.002738008 -0.002722601 -0.001490551 -0.0027139948 -0.00077771634 -0.0011216028 -0.0014961273 -0.003036178
-0.0017430782 -0.002747503 -0.0030349602 -0.0007877135 -0.0026983512 -0.00054855057 -0.001117348 -0.0009043462
-0.00030330225 -0.0027825073 -0.0020851148 -0.001095278 -0.002758015 -0.0030819108 -0.001592004 -0.00086486863
00000000: 7901 403b 4a5d 423b d153 a6b9 5421 96b9
00000010: f093 baba 365f 99ba ef52 3abb 76b8 34bb
00000020: 2770 33bb aa6d 32bb 985e c3ba 47dd 31bb
00000030: a9df 4bba bf02 93ba b419 c4ba 9dfa 46bb
00000040: 0078 e4ba 740f 34bb 2fe6 46bb 8f7e 4eba
00000050: d2d6 30bb 9bcc 0fba fa73 92ba a511 6dba
00000060: 8a04 9fb9 ba5a 36bb 6ca6 08bb 6e8f 8fba
00000070: d0bf 34bb e2f9 49bb caaa d0ba 5ab8 62ba

layers.bn2.running_mean f4 [32]
-0.103718445 -0.19001698 -0.3079495 -0.33027008 -0.21137287 -0.26126504 -0.18449064 -0.016068801
-0.044865843 0.025718387 -0.22609416 -0.053835392 -0.23896934 -0.22099368 -0.17465355 0.20907126
-0.21781334 -0.017699732 0.30529833 -0.31011158 -0.0102175195 -0.25445354 -0.22847478 -0.27048495
-0.20890133 0.055308424 -0.17929967 -0.24986075 0.037204932 0.039132092 -0.18599866 -0.26985088
00000000: 566a d4bd d093 42be 8fab 9dbe 2919 a9be
00000010: 2172 58be 88c4 85be 1deb 3cbe b8a2 83bc
00000020: 3fc5 37bd 5eaf d23c 3a85 67be 8082 5cbd
00000030: 61b4 74be 2b4c 62be 61d8 32be c716 563e
00000040: 760a 5fbe 07ff 90bc 1050 9c3e f2c6 9ebe
00000050: 6267 27bc bc47 82be 4bf5 69be 017d 8abe
00000060: 3bea 55be 168b 623d 559a 37be 7fdb 7fbe
00000070: 3364 183d f948 203d 6f76 3ebe e529 8abe

layers.bn2.running_var f4 [32]
0.38427973 0.40443805 0.56777346 0.6040674 0.49903417 0.47891152 0.5415013 0.61908776
0.53349286 0.6242661 0.37609002 0.43805352 0.48725218 0.37034816 0.38974953 0.8187949
0.45254725 0.5972779 1.2299218 0.639294 0.5217178 0.61053425 0.39302576 0.53406584
0.41077211 0.38057563 0.40461335 0.49796987 0.82617676 0.673761 0.4151101 0.5492493
00000000: 50c0 c43e 8112 cf3e 9a59 113f 29a4 1a3f
00000010: 6881 ff3e e433 f53e d49f 0a3f 897c 1e3f
00000020: fd92 083f e7cf 1f3f df8e c03e 8d48 e03e
00000030: 1e79 f93e 469e bd3e 408d c73e 8b9c 513f
00000040: 46b4 e73e 34e7 183f 146e 9d3f c6a8 233f
00000050: 4c8f 053f f94b 1c3f ac3a c93e 8ab8 083f
00000060: b950 d23e cfda c23e 7b29 cf3e e8f5 fe3e
00000070: 5280 533f 9a7b 2c3f 5089 d43e 9a9b 0c3f

layers.conv1_1.weight f4 [64, 4, 9]
-0.1199158 0.117198996 0.021914817 -0.09394778 -0.13578296 -0.11702297 -0.05961679 0.023805434
-0.07513465 -0.122109875 -0.14146356 0.08017508 -0.09832674 -0.1636022 0.061295114 -0.14402111
0.031175274 -0.06450345 -0.06446891 -0.16217937 -0.12829183 0.10986749 0.084180035 0.15153308
-0.07881482 -0.08499599 0.10294232 0.136928 0.041012052 0.020801267 -0.15129744 -0.09061434
-0.09850588 -0.022089804 -0.00551306 0.13554804 -0.013168521 0.12101915 -0.065804005 -0.06540628
0.1411589 -0.03368003 -0.15170532 0.048030213 -0.061019637 0.05478268 0.071170695 -0.16704044
0.06793044 0.05590195 0.15467228 0.12589093 0.040820073 0.0681064 0.007365065 0.07359722
0.1405382 0.09813199 0.0586423 -0.14888883 -0.11291856 0.08470136 -0.009059845 -0.106143564
-0.13836901 -0.14199835 0.083737396 0.015843306 -0.06455743 0.041156277 0.065065205 -0.12696874
-0.015468292 0.10081558 0.03199135 -0.13882294 -0.042915594 0.08192019 0.13461396 -0.16576822
0.13542797 0.06447134 -0.11016022 0.011186006 -0.15861343 0.1294316 0.14469436 0.14093514
-0.14728275 0.06887757 0.096057706 0.087520964 0.10283392 0.0653594 0.116072975 -0.07898058
-0.10044001 -0.13710627 -0.024922654 -0.09979869 -0.109773286 0.16240555 -0.071038246 -0.08663457
-0.007734354 -0.027594762 0.07293831 0.10467959 0.019000731 -0.101828314 0.0058310567 -0.10418717
0.14288773 0.029975241 -0.007762895 -0.112189755 -0.08099176 0.1282437 -0.10592077 0.06674602
0.010487674 -0.00960416 0.033451423 0.06407157 -0.102882765 0.0189889 0.05817378 0.053565368
0.06204977 0.010304407 0.07223795 0.08347359 -0.031558864 -0.097392604 0.049786277 -0.16613623
0.06353624 -0.15705605 0.059730425 0.12508523 -0.03326769 0.06347491 0.0019373212 -0.14724882
0.059613064 0.050443538 0.10944468 0.027515788 -0.15799348 0.0940551 0.023042317 -0.14123529
0.1492294 -0.078055866 0.06473536 -0.065820724 -0.062245887 0.13966298 -0.06669492 -0.021943124
-0.05162532 -0.04881916 0.14785479 0.10132971 -0.1278349 0.03773654 0.03702397 -0.09842115
-0.010499416 -0.16456942 -0.0433919 -0.007928301 0.054620896 0.027462356 0.028371217 -0.09801663
0.095250286 -0.016240977 -0.008125286 0.05815337 -0.12888232 0.08849144 -0.10461369 0.11473839
-0.14753148 -0.1296622 -0.16048035 -0.12883508 -0.11793335 0.04358016 -0.12940848 0.05721015
0.1654674 -0.10462997 -0.1277881 -0.16519554 0.057722263 0.080850884 0.056553606 -0.1401349
0.12902376 0.0524317 -0.100611545 -0.04233567 0.059687763 -0.032707933 -0.05655511 0.15454993
0.070605196 0.14919078 -0.115993954 0.06703599 0.15704978 0.04913268 0.031608805 -0.047436394
0.14428289 0.02607018 -0.06238393 0.124393135 0.0866757 -0.02799866 -0.15514575 0.092336975
-0.15092754 0.024398118 -0.15835313 -0.1400467 0.024273565 0.00055471144 0.023148332 0.16500704
0.055303596 0.13575336 0.0064918245 -0.06754406 0.09555302 -0.016515777 -0.15514936 -0.023553338
-0.067860775 -0.047005944 0.095771834 -0.16159092 -0.106556356 0.054912206 -0.037393875 -0.032119267
0.07283009 0.096299574 0.076917306 0.089259714 0.08723952 0.11822866 -0.07124525 0.10349431
00000000: 6a96 f5bd 0706 f03d b486 b33c b267 c0bd
00000010: b00a 0bbe bda9 efbd bc30 74bd 9d03 c33c
00000020: 32e0 99bd be14 fabd d3db 10be d532 a43d
00000030: 885f c9bd 5687 27be 9610 7b3d 457a 13be
00000040: 4a63 ff3c 631a 84bd 4708 84bd 5912 26be
00000050: ef5e 03be 3502 e13d 9566 ac3d 7d2b 1b3e
00000060: aa69 a1bd 6112 aebd 6cd3 d23d db36 0c3e
00000070: 41fc 273d 6b67 aa3c b7ed 1abe 0394 b9bd
00000080: 73bd c9bd adf5 b4bc e6a6 b4bb 1bcd 0a3e
00000090: c8c0 57bc e3d8 f73d 40c4 86bd baf3 85bd
000000a0: f58b 103e 12f4 09bd a458 1bbe 54bb 443d
000000b0: baef 79bd ce63 603d f1c1 913d a60c 2bbe
000000c0: 1d1f 8b3d 71f9 643d 6962 1e3e 8de9 003e
000000d0: f332 273d 5e7b 8b3d a556 f13b 24ba 963d
000000e0: 3fe9 0f3e 6df9 c83d e932 703d 5076 18be
000000f0: d941 e7bd e877 ad3d be6f 14bc cc61 d9bd
00000100: 9bb0 0dbe 0468 11be 837e ab3d d2c9 813c
00000110: b036 84bd 7c93 283d e840 853d 1804 02be
00000120: b86e 7dbc 6678 ce3d 5d09 033d 9a27 0ebe
00000130: 43c8 2fbd c6c5 a73d 3ed8 093e 25bf 29be
00000140: a1ad 0a3e 8d09 843d ae9b e1bd 8245 373c
00000150: 8f6b 22be b889 043e c22a 143e 4d51 103e
00000160: 4ad1 16be af0f 8d3d e7b9 c43d 313e b33d
00000170: 979a d23d 26db 853d abb7 ed3d 92c0 a1bd
00000180: 7eb3 cdbd 9665 0cbe 982a ccbc 4163 ccbd
00000190: d1d0 e0bd a44d 263e 807c 91bd 776d b1bd
000001a0: 7770 fdbb 690e e2bc ae60 953d 4162 d63d
000001b0: 6ca7 9b3c 5d8b d0bd 7312 bf3b 1560 d5bd
000001c0: 2951 123e a38e f53c e25f febb bec3 e5bd
000001d0: 02df a5bd 5152 033e fdec d8bd 23b2 883d
000001e0: 7ed4 2b3c c45a 1dbc 5c04 093d f537 833d
000001f0: 33b4 d2bd 9c8e 9b3c a147 6e3d 5c67 5b3d
00000200: e627 7e3d d1d3 283c 7ef1 933d 34f4 aa3d
00000210: de43 01bd c675 c7bd b2ec 4b3d 9e1f 2abe
00000220: 4a1f 823d 4dd3 20be e4a7 743d 5816 003e
00000230: b443 08bd 22ff 813d b6ed fd3a 65c8 16be
00000240: d42c 743d e29d 4e3d 8824 e03d ca68 e13c
00000250: 0bc9 21be f69f c03d 3ec3 bc3c fc9f 10be
00000260: 98cf 183e c1db 9fbd f993 843d 04cd 86bd
00000270: 8bf5 7ebd d003 0f3e 5997 88bd 11c2 b3bc
00000280: 1275 53bd 99f6 47bd 3f67 173e f385 cf3d
00000290: 27e7 02be a191 1a3d 72a6 173d 0791 c9bd
000002a0: be05 2cbc e384 28be b4bb 31bd b4e5 01bc
000002b0: 29ba 5f3d bcf8 e03c c16a e83c f1bc c8bd
000002c0: 9512 c33d cc0b 85bc eb1f 05bc 3a32 6e3d
000002d0: baf9 03be 003b b53d b43f d6bd f6fb ea3d
000002e0: 7e12 17be 2bc6 04be f654 24be 58ed 03be
000002f0: 0a87 f1bd 1c81 323d a883 04be 3155 6a3d
00000300: 4970 293e 3d48 d6bd e2da 02be 0529 29be
00000310: 2e6e 6c3d 2695 a53d c1a4 673d 867f 0fbe
00000320: ce1e 043e 9fc2 563d 6d0d cebd 2b68 2dbd
00000330: 287b 743d c1f8 05bd 55a6 67bd 5642 1e3e
00000340: 7599 903d 78c5 183e 3d8e edbd 2a4a 893d
00000350: a8d1 203e 593f 493d 3c78 013d aa4c 42bd
00000360: e5be 133e 2191 d53c 4b86 7fbd d4c1 fe3d
00000370: 0883 b13d 725d e5bc 87de 1ebe 2b1b bd3d
00000380: c08c 1abe 90de c73c 5327 22be 6768 0fbe
00000390: 5bd9 c63c 0e6a 113a 92a1 bd3c 9bf7 283e
000003a0: 0686 623d ee02 0b3e 5fb9 d43b 8a54 8abd
000003b0: 4db1 c33d 184c 87bc 79df 1ebe eef2 c0bc
000003c0: 97fa 8abd 4e89 40bd 0624 c43d 1778 25be
000003d0: 383a dabd 9feb 603d 522a 19bd 7e8f 03bd
000003e0: f127 953d b638 c53d d286 9d3d cccd b63d
000003f0: a2aa b23d de21 f23d 08e9 91bd d3f4 d33d

layers.conv1_1.bias f4 [64]
0.036103573 -0.10119241 -0.056397293 0.16623498 0.087939195 -0.007024993 -0.053279605 0.051179964
0.14219798 -0.10878949 0.004085938 -0.13397951 0.01793064 0.0165065 -0.10151671 -0.13826942
-0.119131535 0.031893678 0.04017213 -0.092787415 -0.069837384 0.11204379 0.0059026214 0.14468321
0.11076543 0.028208368 -0.0133721875 -0.02927758 -0.02870943 -0.16609593 0.11928151 -0.12128328
-0.08863287 0.014715936 0.032526154 -0.08663329 -0.095899574 0.021523345 -0.043182656 -0.10821346
-0.13079445 0.07470827 -0.014316551 -0.02996449 0.16159703 0.019750763 -0.032126274 0.10595897
0.12210537 0.0047067655 0.15557815 -0.082074955 -0.113057286 0.15872478 -0.15966596 -0.09846141
0.07150432 0.09467399 -0.05318314 0.0722117 -0.00827536 -0.029881174 0.11637809 -0.050467514
00000000: 57e1 133d f73d cfbd d900 67bd 8139 2a3e
00000010: 7719 b43d ea31 e6bb b73b 5abd 15a2 513d
00000020: 599c 113e 06cd debd 55e3 853b ed31 09be
00000030: 47e3 923c a438 873c fee7 cfbd 8096 0dbe
00000040: 3cfb f3bd f2a2 023d 888b 243d 5407 bebd
00000050: e706 8fbd 3777 e53d c76a c13b d627 143e
00000060: fcd8 e23d 3c15 e73c 0517 5bbc 89d7 efbc
00000070: 0a30 ebbc 0d15 2abe dd49 f43d 5e63 f8bd
00000080: 2685 b5bd 1c1b 713c 253a 053d cb6c b1bd
00000090: ff66 c4bd ba51 b03c 4ce0 30bd 059f ddbd
000000a0: fbee 05be a600 993d f88f 6abc 1778 f5bc
000000b0: b179 253e 5acc a13c d796 03bd 0401 d93d
000000c0: 6112 fa3d 363b 9a3b e14f 1f3e ea16 a8bd
000000d0: 948a e7bd c088 223e 797f 23be 23a6 c9bd
000000e0: db70 923d 70e4 c13d 90d6 59bd bae3 933d
000000f0: 6095 07bc 5dc9 f4bc a357 ee3d 06b7 4ebd

layers.conv1_2.weight f4 [32, 64, 9]
-0.027229898 -0.014592131 -0.036446363 -0.009610962 0.018678077 0.0033905748 0.006804079 0.037384935
0.03834858 0.013640465 0.033848993 0.019484622 -0.0075173313 -0.026461734 0.039482486 0.019108776
0.029069923 0.027977712 -0.0371508 0.013517765 0.015138863 -0.03755685 -0.0006793481 0.027090829
0.032524332 -0.038218804 -0.03459097 -0.0376716 0.016125277 -0.010483879 -0.00033410822 0.014630929
-0.022474036 -0.021168163 -0.0023699778 0.036186114 -0.033124305 0.011386773 -0.0320315 -0.037096824
-0.015407838 -0.0009319433 0.021911606 0.037623633 0.008429875 -0.003567818 -0.005641463 0.033657964
0.02250772 -0.0024849516 -0.039669298 0.0071180314 -0.017358707 -0.039893404 -0.040338136 -0.027098777
-0.0067729047 -0.025821988 0.029018471 -0.027460624 0.027904788 0.015286957 0.031073244 0.039671224
0.028252048 -0.02405517 0.032857478 0.038445927 -0.0015393815 -0.01832039 0.031099178 0.0016501911
-0.01999651 0.008659599 0.03761633 -0.032598477 -0.009937375 -0.03250586 -0.03389138 -0.013067181
-0.01065572 0.03151411 0.008720584 -0.00936994 -0.030969303 -0.003687164 0.0064735305 0.009559996
0.020032106 -0.027492559 -0.027087834 0.03030061 0.015573238 -0.007630632 -0.015575098 0.02532518
0.03600184 -0.009516534 -0.042188797 0.016149603 -0.022874214 0.02327062 0.022947486 0.012186107
-0.036202587 -0.042259526 0.010468531 0.02932468 -0.03775026 0.023132788 -0.007288885 0.020282203
0.008475007 -0.0063669407 -0.035793774 0.0087658875 0.023729717 -0.03097403 -0.0029391719 0.039462417
0.020695563 -0.0112172365 0.014916438 -0.02498222 -0.010555789 0.020965323 0.022642046 0.018123144
-0.004805136 0.03269722 -0.022184344 -0.012215209 0.02642084 0.038750328 0.024370302 -0.0021265373
-0.036274385 0.010247104 0.024393504 -0.018872648 -0.037831247 -0.0055685206 -0.015033845 -0.014174696
-0.041363873 -0.041461434 0.008328873 -0.0010705448 -0.009120442 -0.01749226 -0.043039255 -0.034555353
-0.022924058 -0.029262034 0.0370387 0.022502972 -0.032936994 -0.009567873 0.009086989 0.042042
-0.013992361 0.017227493 0.0146924965 0.005650766 -0.0032129097 -0.035187583 -0.0013591253 -0.036628272
0.00907 -0.000898254 -0.020616041 0.03598375 -0.013304105 -0.011842471 0.033719636 -0.036437728
-0.010023939 -0.016566414 -0.03678205 -0.038874038 -0.00064898946 0.007762198 -0.00547528 0.018690698
-0.021827247 -0.022853028 0.02784327 -0.02547683 0.011512244 -0.009587146 0.025631793 -0.023275817
-0.016295535 0.033629324 -0.01949626 0.025667783 0.026934847 0.031605013 -0.033954125 0.016058179
0.026106793 0.013522299 -0.033070266 0.024787895 -0.042343732 0.026466293 -0.032020446 -0.03216707
0.013231691 0.041485276 0.01041882 -0.038757294 0.028625028 0.011105561 0.014251906 -0.012924833
0.013116935 -0.0029619243 -0.021814482 0.03793652 0.0153798815 -0.037822686 0.002612482 0.02426627
0.022519255 0.018649137 -0.017055215 -0.023301557 -0.004393795 -0.026262524 -0.009561614 0.034247845
-0.014739099 0.04097311 0.013811776 -0.018920086 0.021461496 -0.02844278 0.03858417 0.034508523
0.0016593437 -0.0004067433 -0.014562856 -0.025511555 0.0043968656 0.027932104 0.024779076 -0.037622873
-0.0044179633 -0.010861635 0.023035003 0.028731497 -0.037736014 -0.00861208 0.0051396806 0.0070282123
00000000: 3c11 dfbc d513 6fbc c848 15bd 4c77 1dbc
00000010: c402 993c 6834 5e3b c0f4 de3b f220 193d
00000020: 6713 1d3d 427c 5f3c 3ea5 0a3d 379e 9f3c
00000030: f253 f6bb 47c6 d8bc 63b8 213d 028a 9c3c
00000040: 0c24 ee3c 8431 e53c 702b 18bd 9e79 5d3c
00000050: fe08 783c 36d5 19bd 4716 32ba 96ed dd3c
00000060: 3c38 053d 528b 1cbd 43af 0dbd 894d 1abd
00000070: 2819 843c 93c4 2bbc 3f2b afb9 90b6 6f3c
00000080: 781b b8bc db68 adbc a151 1bbb e437 143d
00000090: 5aad 07bd 968f 3a3c 7633 03bd d7f2 17bd
000000a0: 2871 7cbc a84d 74ba f87f b33c 3d1b 1a3d
000000b0: 751d 0a3c 0ed2 69bb 06dc b8bb efdc 093d
000000c0: 1c62 b83c 92da 22bb 467c 22bd 603e e93b
000000d0: d933 8ebc 4467 23bd 9a39 25bd 41fe ddbc
000000e0: 3eef ddbb a288 d3bc 25b8 ed3c 1af5 e0bc
000000f0: 9598 e43c 2576 7a3c 518d fe3c 4b7e 223d
00000100: d770 e73c 590f c5bc 9095 063d 7a79 1d3d
00000110: 12c5 c9ba a414 96bc b4c3 fe3c 3a4b d83a
00000120: b9cf a3bc fee0 0d3c 9513 1a3d fb85 05bd
00000130: 5fd0 22bc dd24 05bd b0d1 0abd bb17 56bc
00000140: 5495 2ebc f014 013d c8e0 0e3c 6084 19bc
00000150: 56b3 fdbc 59a4 71bb e91f d43b 88a1 1c3c
00000160: 5f1a a43c 1338 e1bc 4ee7 ddbc fc38 f83c
00000170: e526 7f3c 610a fabb b22e 7fbc c076 cf3c
00000180: aa76 133d 3deb 1bbc 29ce 2cbd 2c4c 843c
00000190: b462 bbbc 07a2 be3c 5efc bb3c 3da8 473c
000001a0: 2a49 14bd 5318 2dbd 3484 2b3c 503a f03c
000001b0: 04a0 1abd f980 bd3c 99d7 eebb dd26 a63c
000001c0: c1da 0a3c c5a1 d0bb 7e9c 12bd cc9e 0f3c
000001d0: d364 c23c 40bd fdbc 1f9f 40bb 58a3 213d
000001e0: be89 a93c 80c8 37bc 1364 743c 83a7 ccbc
000001f0: 30f2 2cbc 78bf ab3c d07b b93c fd76 943c
00000200: 6774 9dbb 85ed 053d f1bb b5bc 4d22 48bc
00000210: 8470 d83c aab8 1e3d 3aa4 c73c 605d 0bbb
00000220: 7394 14bd 78e3 273c e3d4 c73c d09a 9abc
00000230: f0f4 1abd 2378 b6bb 8450 76bc fc3c 68bc
00000240: 2a6d 29bd 77d3 29bd d375 083c 8651 8cba
00000250: e86d 15bc ee4b 8fbc ee49 30bd ea89 0dbd
00000260: 3ccb bbbc efb6 efbc e4b5 173d 2758 b83c
00000270: f1e8 06bd 91c2 1cbc 98e1 143c 3b34 2c3d
00000280: 3740 65bc ac20 8d3c ccb8 703c 102a b93b
00000290: ae8f 52bb db20 10bd ad24 b2ba 8707 16bd
000002a0: 569a 143c ce78 6bba f9e2 a8bc b263 133d
000002b0: 76f9 59bc ec06 42bc 9a1d 0a3d ba3f 15bd
000002c0: 733b 24bc 4ab6 87bc c6a8 16bd 623a 1fbd
000002d0: f220 2aba 095a fe3b fa69 b3bb 3c1d 993c
000002e0: 0ecf b2bc 4636 bbbc 9217 e43c c9b4 d0bc
000002f0: da9d 3c3c 6813 1dbc c4f9 d13c edac bebc
00000300: 377e 85bc e7be 093d 9fb6 9fbc 3e45 d23c
00000310: 78a6 dc3c 4274 013d 7b13 0bbd 718c 833c
00000320: eadd d53c a28c 5d3c b074 07bd fc0f cb3c
00000330: 9f70 2dbd d7cf d83c df27 03bd 9ec1 03bd
00000340: bcc9 583c 77ec 293d b3b3 2a3c f8bf 1ebd
00000350: 097f ea3c 19f4 353c d480 693c aec2 53bc
00000360: 6ae8 563c d81c 42bb 49b4 b2bc 5363 1b3d
00000370: e6fb 7b3c f6eb 1abd 2d36 2b3b 0fca c63c
00000380: 4d7a b83c 13c6 983c 61b7 8bbc e8e2 bebc
00000390: d3f9 8fbb 8124 d7bc 51a8 1cbc 7847 0c3d
000003a0: 437c 71bc 6bd3 273d ca4a 623c 4cfe 9abc
000003b0: 05d0 af3c d500 e9bc 6f0a 1e3d cf58 0d3d
000003c0: 567e d93a 2940 d5b9 0c99 6ebc 9cfd d0bc
000003d0: 9513 903b ded1 e43c 7dfd ca3c 711a 1abd
000003e0: 90c4 90bb 00f5 31bc e7b3 bc3c 515e eb3c
000003f0: 1491 1abd ae19 0dbc c46a a83b eb4c e63b

layers.conv1_2.bias f4 [32]
-0.008308348 0.006508966 -0.041621707 -0.02555844 0.014761478 -0.013985488 0.033432495 0.0056724483
-0.03919515 0.026053885 0.035741955 0.015060632 -0.022704938 0.02746021 0.026105067 0.02780417
-0.021253321 -0.029230233 0.017457068 0.02520165 0.014517315 -0.0139446 0.036180317 0.028691659
-0.03176533 -0.008876188 0.002989404 0.01520652 -0.018184116 0.033852626 -0.009106646 0.014354691
00000000: bd1f 08bc 2a49 d53b 867b 2abd ef5f d1bc
00000010: 20da 713c 6323 65bc 83f0 083d f2df b93b
00000020: 188b 20bd f56e d53c 2866 123d dec0 763c
00000030: b5ff b9bc 3cf4 e03c 4bda d53c 92c5 e33c
00000040: 721b aebc 3e74 efbc 2002 8f3c b173 ce3c
00000050: 08da 6d3c e477 64bc d031 143d c50a eb3c
00000060: 5d1c 02bd 6e6d 11bc e0e9 433b c524 793c
00000070: dbf6 94bc 0da9 0a3d 0b34 15bc f02f 6b3c

layers.conv2_1.weight f4 [64, 4, 20]
-0.091098025 -0.050587296 0.0075854813 -0.007362008 0.0012089141 -0.10550378 -0.00017322786 0.06469535
0.033008408 0.08964781 -0.1063927 0.08941687 0.08911381 -0.058641706 0.05589316 -0.074957244
-0.039894022 0.06751766 -0.03238339 -0.07325182 -0.057314545 -0.09102701 -0.068444 0.0109662395
0.103023715 -0.07971753 0.016269034 0.11094696 0.061853077 -0.08255164 0.022531787 0.08226118
0.030796899 -0.053806618 0.07337969 0.0493902 -0.07791905 -0.07954972 0.08667725 0.11112348
0.024235703 -0.0857762 -0.032313317 -0.019032741 0.010827403 0.003979922 0.07144801 0.10497438
0.01511982 -0.023203097 -0.09197648 0.07534524 -0.100665264 -0.00091059913 -0.027424032 0.08843732
0.05346958 0.064284734 -0.012894612 -0.016726961 0.08108023 -0.007990884 0.044610545 -0.016057754
0.10632568 0.037887715 -0.06892415 -0.026996847 0.08480216 -0.060559925 -0.043471172 0.039944082
-0.04334627 -0.10405413 0.08397746 -0.044808242 -0.0572033 -0.09100062 -0.06944319 0.08526417
-0.068011574 -0.052116305 0.070138894 -0.103176475 -0.07469298 -0.10495569 0.008710112 0.08866644
-0.060371697 -0.08575237 0.082370736 0.10648014 0.009031748 0.016074238 -0.08979047 0.089835994
-0.020122841 -0.0012644506 -0.073934674 -0.027581602 -0.096016265 0.016988164 -0.112844855 0.063816845
-0.051321328 -0.10930146 0.04242915 0.067507744 -0.06581768 -0.10645747 -0.0409568 0.0878232
0.10743022 -0.10387296 -0.023265906 -0.092576735 0.04464634 0.07434207 0.02135609 0.0739099
0.0444835 0.10197592 0.05321155 0.030179342 -0.037386075 -0.08225906 -0.038831145 0.024759576
0.03809806 -0.06735816 0.10789226 0.09667042 0.072892986 -0.03235277 -0.034288045 -0.08494175
-0.021292029 -0.06850279 0.058559436 -0.04114888 -0.04514642 0.06260598 -0.11283059 -0.029550593
-0.035977665 -0.023189703 0.05121983 -0.043555222 0.078203954 -0.0275602 -0.01464553 0.037369534
-0.07569632 -0.05795332 -0.09285073 0.05742455 -0.02608736 -0.030246668 0.013821417 -0.047909763
0.08113177 -0.037264634 -0.045747172 -0.10463619 -0.05025592 0.10104247 -0.045162577 0.017011477
-0.09587593 -0.08375904 0.08087476 0.041574016 -0.099569425 0.038826272 0.07146989 -0.0071627474
-0.07345668 -0.024962705 -0.10335167 -0.0032320693 -0.047277477 -0.069852605 -0.011201524 -0.108772345
0.10868876 0.09167434 -0.0026039546 0.103669435 -0.11135248 -0.09270521 -0.020167306 0.09349357
0.00042529532 -0.08017267 0.0027774042 -0.07492327 -0.1066219 0.075261295 -0.059052646 0.012594977
-0.10033142 -0.032432634 -0.110863425 -0.031703852 -0.071728826 -0.0024594017 -0.04716129 0.031389643
-0.03408 -0.06486792 -0.035881814 0.047659703 0.09641393 0.05645379 0.045357943 -0.018772237
-0.053314388 -0.052037366 0.006751588 0.042962797 -0.042480066 0.109720185 -0.040413547 -0.0682163
0.09833939 -0.061144687 0.042176776 -0.01375644 -0.008608033 -0.093306005 0.0529627 0.0784347
-0.042933036 0.047597613 0.015474612 -0.05765683 0.045951255 0.07478151 -0.010485565 0.019888243
0.05268321 -0.011928171 -0.038401186 0.09410571 -0.017274402 0.084749706 -0.018756444 -0.09153959
0.031828493 0.074554004 0.09251911 0.0034914755 -0.109636515 0.08789789 -0.01402483 0.013432278
00000000: 9a91 babd a034 4fbd a18f f83b 003d f1bb
00000010: 6d74 9e3a 5e12 d8bd 80a4 35b9 ff7e 843d
00000020: d333 073d 4599 b73d 6ae4 d9bd 3120 b73d
00000030: 4d81 b63d 4932 70bd 3af0 643d 2f83 99bd
00000040: ea67 23bd b346 8a3d 72a4 04bd 0d05 96bd
00000050: a8c2 6abd 5e6c babd 5e2c 8cbd beab 333c
00000060: 19fe d23d f242 a3bd a346 853c 2938 e33d
00000070: a759 7d3d d610 a9bd 9594 b83c 8d78 a83d
00000080: c749 fc3c 5464 5cbd 1748 963d 614d 4a3d
00000090: 0694 9fbd f7ea a2bd d883 b13d b594 e33d
000000a0: f489 c63c 6fab afbd f85a 04bd 8dea 9bbc
000000b0: 6b65 313c 016a 823b 5653 923d cffc d63d
000000c0: 1fb9 773c 6c14 bebc 2a5e bcbd 9b4e 9a3d
000000d0: 9729 cebd 46b5 6eba 5da8 e0bc a01e b53d
000000e0: eb02 5b3d b7a7 833d ec43 53bc fb06 89bc
000000f0: 640d a63d 32ec 02bc 8cb9 363d 8d8b 83bc
00000100: 47c1 d93d 2630 1b3d 1b28 8dbd 7e28 ddbc
00000110: c1ac ad3d af0d 78bd d40e 32bd 689c 233d
00000120: dc8b 31bd 551a d5bd 60fc ab3d d988 37bd
00000130: 024e 6abd 885e babd 3b38 8ebd fb9e ae3d
00000140: a749 8bbd e877 55bd fba4 8f3d 304e d3bd
00000150: a2f8 98bd 02f3 d6bd dcb4 0e3c c096 b53d
00000160: 5048 77bd f09e afbd fdb1 a83d 4212 da3d
00000170: e6f9 133c 1fae 833c 11e4 b7bd effb b73d
00000180: a8d8 a4bc ecbb a5ba 106b 97bd d0f2 e1bc
00000190: 2da4 c4bd c32a 8b3c 341b e7bd 68b2 823d
000001a0: 5036 52bd 72d9 dfbd 30ca 2d3d 8041 8a3d
000001b0: 6bcb 86bd 6006 dabd 51c2 27bd a6dc b33d
000001c0: 6004 dc3d 59bb d4bd 2498 bebc df98 bdbd
000001d0: 15df 363d a840 983d f8f2 ae3c 135e 973d
000001e0: 5534 363d c0d8 d03d 5bf4 593d ab3a f73c
000001f0: 2422 19bd 7077 a8bd 680d 1fbd 98d4 ca3c
00000200: b60c 1c3d 13f3 89bd 9ef6 dc3d 24fb c53d
00000210: eb48 953d 5784 04bd 9f71 0cbd f1f5 adbd
00000220: 9f6c aebc 314b 8cbd 05dc 6f3d ba8b 28bd
00000230: 74eb 38bd 9037 803d b913 e7bd 1614 f2bc
00000240: 515d 13bd 55f8 bdbc e2cb 513d f666 32bd
00000250: 6529 a03d eec5 e1bc cef3 6fbc cc10 193d
00000260: ac06 9bbd 7660 6dbd 8628 bebd 0136 6b3d
00000270: 29b5 d5bc dcc7 f7bc 3973 623c 073d 44bd
00000280: 6a28 a63d cda2 18bd 6361 3bbd 804b d6bd
00000290: 27d9 4dbd 5bef ce3d 65fc 38bd a75b 8b3c
000002a0: 995a c4bd dc89 abbd aba1 a53d 8449 2a3d
000002b0: 0eeb cbbd 4c08 1f3d ce5e 923d 7bb5 eabb
000002c0: 7570 96bd 967e ccbc 0aaa d3bd 20d1 53bb
000002d0: 07a6 41bd e20e 8fbd 9986 37bc 09c4 debd
000002e0: 3698 de3d c2bf bb3d 1ca7 2abb a450 d43d
000002f0: c50c e4bd 3bdc bdbd e835 a5bc 8f79 bf3d
00000300: 2cfa de39 9231 a4bd 1c05 363b 5f71 99bd
00000310: 955c dabd 9822 9a3d 30e1 71bd 2a5b 4e3c
00000320: 8f7a cdbd 15d8 04bd 5d0c e3bd e6db 01bd
00000330: 90e6 92bd ea2d 21bb 322c 41bd 6d92 003d
00000340: 7897 0bbd 79d9 84bd cff8 12bd d236 433d
00000350: ab74 c53d 173c 673d 40c9 393d 3cc8 99bc
00000360: 3060 5abd 2225 55bd 6d3c dd3b c2f9 2f3d
00000370: 94ff 2dbd fab4 e03d ad88 25bd fdb4 8bbd
00000380: 2966 c93d da72 7abd 8ec1 2c3d b162 61bc
00000390: b508 0dbc 3817 bfbd 6bef 583d 5fa2 a03d
000003a0: 8dda 2fbd b7f5 423d 3a89 7d3c 9129 6cbd
000003b0: 6237 3c3d 0c27 993d a6cb 2bbc abec a23c
000003c0: 59ca 573d 606e 43bc 904a 1dbd 7fba c03d
000003d0: 0c83 8dbc 4191 ad3d 1da7 99bc 1c79 bbbd
000003e0: 985e 023d c5af 983d a97a bd3d 3dd1 643b
000003f0: 1c89 e0bd cf03 b43d 67c8 65bc 0f13 5c3c

layers.conv2_1.bias f4 [64]
0.007051591 0.111158594 0.09267007 -0.010120034 0.024881879 0.059350636 0.032650005 0.09106722
0.03024643 0.039590664 -0.06901876 -0.0215536 -0.05446073 -0.00083618873 0.096791945 -0.048628785
-0.0011237073 -0.017695365 -0.05748221 0.105870716 0.05183089 -0.016490499 0.07731133 0.00028942124
0.018716043 -0.03760564 -0.10042387 0.024615739 -0.0340686 -0.08297942 0.059985418 0.04478437
-0.0031346108 -0.019511947 -0.0015022026 -0.020987006 0.09541516 0.07640658 -0.017485429 0.06515085
-0.101144396 -0.03504614 -0.052495502 0.023619654 -0.0009238087 0.10803311 -0.010970541 -0.061448433
-0.0072998963 -0.024590204 -0.024603732 -0.024004057 -0.033384137 -0.06518874 0.10440793 0.04589224
0.050149154 -0.0131325675 -0.019731587 -0.0767626 0.102465115 0.09865212 -0.09727723 0.071571715
00000000: 0811 e73b 1ea7 e33d cec9 bd3d 80ce 25bc
00000010: 15d5 cb3c a719 733d 03bc 053d 7381 ba3d
00000020: 5cc7 f73c d229 223d b559 8dbd 2d91 b0bc
00000030: 3712 5fbd ad33 5bba db3a c63d fa2e 47bd
00000040: 5c49 93ba dff5 90bc 7772 6bbd bfd2 d83d
00000050: a14c 543d 1517 87bc 6755 9e3d 76bd 9739
00000060: 6352 993c 5f08 1abd 08ab cdbd f2a6 c93c
00000070: 848b 0bbd 1df1 a9bd 45b3 753d d16f 373d
00000080: 0b6e 4dbb 85d7 9fbc 8ee5 c4ba f1ec abbc
00000090: 0669 c33d 0e7b 9c3d 9a3d 8fbc cf6d 853d
000000a0: cb24 cfbd 8b8c 0fbd 8605 57bd 017e c13c
000000b0: c12b 72ba 7740 dd3d c9bd 33bc 5ab1 7bbd
000000c0: f833 efbb 6571 c9bc c48d c9bc 28a4 c4bc
000000d0: cebd 08bd ad81 85bd d3d3 d53d 80f9 3b3d
000000e0: 3369 4d3d fb29 57bc 23a4 a1bc b635 9dbd
000000f0: 3bd9 d13d 1f0a ca3d 4939 c7bd 3194 923d

layers.conv2_2.weight f4 [32, 64, 20]
-0.017825909 -0.012702637 0.009368455 -0.015340822 0.024541209 0.0047312286 -0.025704611 -0.01154862
-0.0014259137 0.00039935255 0.006809695 -0.0032135264 0.020833008 0.019522218 -0.021680199 0.025191994
-0.013171598 -0.015365871 -0.013183337 0.024161596 -0.017250853 0.016541796 -0.005980007 0.015809292
0.011297744 -0.011569591 -0.0030379961 0.019378997 0.005786323 -0.015759105 0.018917078 0.0042805644
0.02292111 -0.0023318594 0.020688951 0.01013197 0.018575732 0.023846207 0.021673154 -0.023268474
-0.0077655935 0.02086253 0.01076299 -0.0102724135 0.0071665393 0.009710952 -0.01761631 0.018939765
0.012446946 -0.020890476 0.028056618 -0.016084235 0.017791659 0.0030401903 -0.024771687 0.02471985
0.015279903 0.0046131616 -0.022351239 -0.0045455443 -0.01077979 0.0051019774 -0.003020168 0.010966776
0.014936566 0.001408896 -0.010212141 0.009498306 -0.0056497515 0.019115329 -0.018750977 0.007267024
0.01133135 -0.024405671 -0.028422568 0.023133427 -0.02782252 -0.020506816 0.013087792 -0.005973171
-0.0177967 -0.0062932083 0.0076392395 -0.020310085 -0.019106694 -0.0113383755 0.02206933 0.01945929
-0.022769334 0.01456688 -0.018872812 -0.013915888 -0.015565552 -0.021655412 -0.024952171 0.006464929
-0.019634735 0.01000398 -0.011167381 -0.014441885 -0.010172551 -0.006681343 0.013219055 0.016894346
0.02188502 -0.017681535 -0.00033666642 0.020920955 0.020541534 0.009203173 0.015853165 0.00033994552
0.010955798 -0.004980592 -0.017967232 0.014996433 -0.014675754 0.0056232065 -0.022051407 0.026003595
0.014650366 0.009372459 -0.0235422 0.0009352938 0.020105854 -0.01184684 -0.0007147725 -0.008259225
0.02249608 -0.0041443603 0.006332661 0.013589113 -0.010399198 0.024865702 0.012996192 0.006798104
0.01650794 0.016339432 -0.0035656763 0.008353632 0.025678068 0.0150542315 0.0002903506 0.01119627
-0.0038484742 0.00576498 0.017072866 -0.0044323895 0.017799104 -0.014760206 -0.01658509 -0.028598128
-0.008323525 0.013504956 -0.0111579755 -0.02119304 -0.023747398 0.0220881 0.024254039 -0.004492315
0.018435363 -0.0057996563 -0.012605077 -0.02453715 0.010011561 0.024053557 0.015658954 0.026222555
-0.011075726 -0.012592794 -0.0051828153 0.0042324783 0.00354357 0.01698067 0.015376483 -0.005433145
-0.00087743555 0.0040190695 -0.028699972 -0.00618284 0.011764657 0.0016114304 -0.019368615 -0.017778404
-0.023418004 0.026549762 0.023331162 0.0067482125 0.008491419 0.007822228 0.0051541594 0.016525669
0.014918662 -0.015132524 -0.014205637 0.00030080456 0.018171337 -0.017742522 0.006383004 0.007122351
0.0039933883 -0.01845645 0.012707312 0.018967291 -0.0045662634 -0.02540327 0.003309015 0.0010897933
0.0077147456 -0.018728238 0.007361878 -0.0047727264 0.0052532014 0.0070574754 -0.01638715 0.0060783783
-0.014118731 0.0072334553 -0.0035023764 0.002857911 -0.018343877 -0.027683513 0.0071622445 -0.00814186
-0.0064886594 0.014868477 -0.009286163 0.0027932576 0.0011155413 -0.017841356 0.018427392 -0.0021134445
0.023773583 -0.012831307 0.009353997 -0.0026062964 0.006381757 0.022928847 0.0067177597 0.0016622765
-0.015328694 -0.015306191 0.0022594335 0.022361204 0.004596286 0.0066924673 0.025892839 -0.017664956
0.013451293 -0.013544644 0.022752177 0.0004297832 0.0039227917 -0.007987366 -0.0024737814 -0.0014223926
00000000: a407 92bc b91e 50bc 267e 193c 1258 7bbc
00000010: a50a c93c 6c08 9b3b 7a92 d2bc 6c36 3dbc
00000020: b9e5 baba 3160 d139 dd23 df3b 079a 52bb
00000030: fca9 aa3c 0fed 9f3c ac9a b1bc 715f ce3c
00000040: b0cd 57bc 22c1 7bbc ecfe 57bc 8aee c53c
00000050: a951 8dbc a982 873c eff3 c3bb 7d82 813c
00000060: 2c1a 393c 628e 3dbc 1e19 47bb b4c0 9e3c
00000070: 329b bd3b 3d19 81bc fdf7 9a3c fa43 8c3b
00000080: 0dc5 bb3c 1cd2 18bb e07b a93c 9000 263c
00000090: 222c 983c 1f59 c33c e68b b13c 879d bebc
000000a0: 8576 febb e6e7 aa3c 4157 303c a04d 28bc
000000b0: 4ad5 ea3b af1a 1f3c 1450 90bc 9127 9b3c
000000c0: 47ee 4b3c 8122 abbc fed6 e53c 16c3 83bc
000000d0: d0bf 913c ee3d 473b feed cabc 4881 ca3c
000000e0: 8f58 7a3c 012a 973b f219 b7bc caf2 94bb
000000f0: b79d 30bc 7d2e a73b 03ee 45bb fead 333c
00000100: 80b8 743c b4aa b83a d350 27bc c89e 1b3c
00000110: 8d21 b9bb c097 9c3c a69b 99bc 3720 ee3b
00000120: 20a7 393c 67ee c7bc 72d6 e8bc 5082 bd3c
00000130: 0eec e3bc e9fd a7bc 2e6e 563c 97ba c3bb
00000140: 63ca 91bc 4237 cebb 9652 fa3b 5661 a6bc
00000150: a485 9cbc 98c4 39bc bdca b43c 1769 9f3c
00000160: c186 babc eca9 6e3c 289b 9abc 77ff 63bc
00000170: a806 7fbc b166 b1bc 7f68 ccbc c1d7 d33b
00000180: 06d9 a0bc bce7 233c 64f7 36bc a89d 6cbc
00000190: c5aa 26bc 2bef dabb bc94 583c 0366 8a3c
000001a0: 3748 b33c ded8 90bc 9a82 b0b9 6c62 ab3c
000001b0: b846 a83c e8c8 163c 7fde 813c b73a b239
000001c0: f37f 333c 3c34 a3bb 0430 93bc 99b3 753c
000001d0: 9372 70bc e042 b83b 27a5 b4bc 7e05 d53c
000001e0: 1708 703c f18e 193c 92db c0bc 812e 753a
000001f0: 08b5 a43c 4019 42bc 925f 3bba b351 07bc
00000200: b349 b83c 6acd 87bb 3682 cf3b dfa4 5e3c
00000210: 6661 2abc 28b3 cb3c fbed 543c a1c2 de3b
00000220: a93b 873c 46da 853c 1fae 69bb acdd 083c
00000230: d05a d23c 06a6 763c 333a 9839 8f70 373c
00000240: af36 7cbb 28e8 bc3b 65dc 8b3c 943d 91bb
00000250: 6dcf 913c cbd4 71bc 74dd 87bc 9f46 eabc
00000260: 655f 08bc e443 5d3c f1cf 36bc 079d adbc
00000270: e789 c2bc 1af2 b43c 68b0 c63c 4534 93bb
00000280: c205 973c 0b0b bebb 8685 4ebc 2202 c9bc
00000290: 8807 243c f70b c53c 3547 803c afd0 d63c
000002a0: f676 35bc 0252 4ebc 9bd4 a9bb 9ab0 8a3b
000002b0: 3d3b 683b 0c1b 8b3c a5ed 7b3c 8608 b2bb
000002c0: b403 66ba 66b2 833b 341c ebbc 6c99 cabb
000002d0: 8cc0 403c a236 d33a eeaa 9ebc 04a4 91bc
000002e0: 1dd7 bfbc e37e d93c fe20 bf3c 1c20 dd3b
000002f0: 981f 0b3c cd28 003c 39e4 a83b d760 873c
00000300: 676d 743c 68ee 77bc c3be 68bc 4eb5 9d39
00000310: 0edc 943c c458 91bc 8528 d13b 9c62 e93b
00000320: f8da 823b fb31 97bc 5432 503c 4b61 9b3c
00000330: 98a0 95bb 851a d0bc 0fdc 583b 65d7 8e3a
00000340: facb fc3b f66b 99bc e93b f13b 8864 9cbb
00000350: 0c23 ac3b 6542 e73b 583e 86bc 222d c73b
00000360: 4052 67bc 9f06 ed3b 2088 65bb ca4b 3b3b
00000370: e645 96bc 89c8 e2bc 43b1 ea3b 7065 05bc
00000380: d29e d4bb ea9a 733c fe24 18bc 160f 373b
00000390: 5b37 923a 0928 92bc 0bf5 963c b781 0abb
000003a0: d1c0 c23c 673a 52bc 8241 193c 66ce 2abb
000003b0: 0f1e d13b 47d5 bb3c a720 dc3b bee0 d93a
000003c0: 3425 7bbc d1c6 7abc 0113 143b d82e b73c
000003d0: 719c 963b 7c4c db3b 381d d43c 19b6 90bc
000003e0: d062 5c3c 5bea 5dbc c662 ba3c 8654 e139
000003f0: c38a 803b 71dd 02bc 2a1f 22bb 936f baba

layers.conv2_2.bias f4 [32]
-0.004584562 -0.0061668972 0.0213208 0.0057930537 0.007961329 -0.02024424 -0.011887774 -0.023786815
-0.011562173 -0.0036710508 0.02550726 -0.0065026255 0.020542847 0.027339611 0.020629503 -0.015570414
-0.02112303 -0.014703585 -0.005463727 0.010084777 -0.0016378603 -0.0055842246 0.015421416 -0.0105056325
-0.009536555 0.019753935 0.011985935 -0.0058422247 0.0051166206 -0.0019151146 -0.0146587845 -0.005852756
00000000: 183a 96bb af13 cabb f5a8 ae3c a8d3 bd3b
00000010: 3c70 023c 40d7 a5bc f0c4 42bc 91dc c2bc
00000020: 456f 3dbc 0396 70bb 9af4 d03c fa13 d5bb
00000030: 7949 a83c 52f7 df3c 34ff a83c 0d1b 7fbc
00000040: 340a adbc 4ee7 70bc 1009 b3bb 9f3a 253c
00000050: 79ad d6ba dffb b6bb 1baa 7c3c d11f 2cbc
00000060: 363f 1cbc 01d3 a13c a860 443c 2270 bfbb
00000070: 53a9 a73b 9504 fbba 662b 70bc 7ac8 bfbb

layers.conv3_1.weight f4 [32, 4, 49]
-0.032593098 -0.017063532 -0.037700363 0.058636438 0.007418048 -0.046603777 -0.040162228 -0.062966816
-0.015555033 -0.039551806 -0.035591215 0.068391785 0.001726284 -0.065475486 0.07154065 -0.0688429
-0.018926656 -0.039297298 -0.053644255 0.02113926 0.054149978 0.029017335 0.0730446 0.06715786
0.05100545 0.03255408 -0.015581223 -0.0022239727 0.030209122 -0.06531708 -0.05976095 -0.044421867
0.0634522 0.034284234 -0.00090565404 0.05340675 -0.061929323 0.053638633 -0.05334135 -0.03472409
-0.02445476 0.043793555 -0.008445963 0.061013777 0.0041470076 -0.040632907 -0.0094712535 -0.06453789
-0.04479491 -0.04073188 0.027721787 0.056669284 -0.023580467 0.025623577 -0.00016318371 -0.009912011
0.058844678 0.010485943 0.004630009 -0.027291544 0.03789446 0.07073224 -0.068408616 -0.0070623443
-0.05143813 0.035123914 -0.036312744 0.010325787 0.051842682 0.054928552 0.07276897 -0.037847146
0.0022382957 -0.0012521617 0.060414985 -0.065638766 0.021589454 -0.031909183 -0.046680063 -0.059688434
0.0014687845 0.049469642 -0.032316953 0.07174592 0.06858446 0.017066125 0.069828525 -0.059039317
-0.0046448726 -0.038461495 0.031644188 0.06291794 -0.0032213347 -0.005365112 0.03373252 0.043216556
-0.05145009 0.072814904 0.012385049 -0.020895978 0.068288974 0.030292092 -0.037119944 -0.036094673
0.055547133 0.020533333 -0.054996338 -0.051205628 0.031159895 -0.04256636 0.016136194 0.048886444
0.026182476 -0.01988543 0.03800697 -0.047342 -0.0056716125 0.0390809 -0.036232725 0.071614705
0.037792776 -0.05803038 0.028142536 0.055183444 0.003359578 0.049745914 -0.058533225 -0.039197303
-0.025800653 -0.007985923 0.021309685 0.038785882 0.030918287 0.06866412 0.029868674 -0.022360485
0.06815262 -0.05534523 -0.061650258 0.020783052 0.050008334 0.04237041 -0.06859662 -0.054222412
-0.06163382 -0.03475194 -0.019519193 0.02583177 -0.044946052 -0.02259759 0.027006442 0.035001315
0.06940322 -0.03455961 0.063820966 -0.06623785 0.06815552 -0.0061347648 -0.024750827 -0.0252183
-0.012846581 0.07002868 -0.027935667 0.06036883 -0.05742994 -0.030366767 0.011553651 -0.06541613
0.06695141 -0.06320391 -0.033435658 -0.025021702 -0.036842436 -0.01936591 0.052724488 0.022925505
0.029615654 -0.061930235 -0.020509217 0.014322617 -0.037953705 0.018516177 -0.009380773 -0.054563012
-0.061331913 0.007575004 0.044803698 0.036661606 -0.06253614 0.037754133 0.017223319 0.03865175
-0.007171776 -0.06818451 0.004410464 0.016121142 -0.061232615 0.04491158 0.013343846 0.01564584
-0.01655658 0.062221643 -0.04100721 -0.028686931 0.056249764 -0.060181398 0.011522879 -0.03758642
-0.033533398 -0.0149431825 0.047806293 -0.041996785 0.045474414 0.003742729 -0.03762202 -0.046316303
0.03385524 0.04136207 0.0341593 0.01332188 0.062003005 -0.035051733 0.0038848137 -0.044982623
0.034318674 0.040018052 -0.007846872 0.0025899282 -0.063779496 0.065185316 -0.038425446 0.028699799
-0.012375097 -0.010476841 0.043542545 -0.069905944 0.046810932 -0.02007995 -0.042105123 0.050074607
-0.06825077 -0.050968964 0.042524043 -0.020161724 -0.06466701 0.036039498 -0.0044520004 0.061035145
-0.02155497 0.03572374 0.05895087 0.0021163663 0.028308606 8.912328e-05 0.051264048 0.052979782
00000000: 5780 05bd d2c8 8bbc b26b 1abd c32c 703d
00000010: 1913 f33b 9ae3 3ebd 2681 24bd bff4 80bd
00000020: 8ada 7ebc 1301 22bd 18c8 11bd fe10 8c3d
00000030: 7b44 e23a 0318 86bd e883 923d 82fd 8cbd
00000040: 130c 9bbc 34f6 20bd 14ba 5bbd 3e2c ad3c
00000050: 5ecc 5d3d c3b5 ed3c 6898 953d 0f8a 893d
00000060: 17eb 503d 6d57 053d 6348 7fbc 12c0 11bb
00000070: 1f79 f73c f6c4 85bd e6c7 74bd b4f3 35bd
00000080: 3af3 813d a06d 0c3d 6a69 6dba 09c1 5a3d
00000090: 9aa9 7dbd 2fb4 5b3d 767c 5abd d93a 0ebd
000000a0: 5955 c8bc df60 333d f060 0abc 95e9 793d
000000b0: 9fe3 873b b16e 26bd 512d 1bbc 712c 84bd
000000c0: de7a 37bd 79d6 26bd cd18 e33c 0d1e 683d
000000d0: d32b c1bc 89e8 d13c 4b1c 2bb9 fd65 22bc
000000e0: 1e07 713d 3ccd 2b3c 55b7 973b 8492 dfbc
000000f0: 3937 1b3d 11dc 903d d119 8cbd 3d6b e7bb
00000100: cab0 52bd 18de 0f3d acbc 14bd 7d2d 293c
00000110: fe58 543d c3fc 603d e607 953d 9c05 1bbd
00000120: 5fb0 123b 931f a4ba b475 773d 9e6d 86bd
00000130: 5edc b03c 34b3 02bd 9833 3fbd dc7b 74bd
00000140: 3b84 c03a aea0 4a3d c85e 04bd 86ef 923d
00000150: 0276 8c3d 42ce 8b3c 4202 8f3d 36d3 71bd
00000160: 0434 98bb cd89 1dbd 569d 013d 1fdb 803d
00000170: 071d 53bb d2cd afbb 1c2b 0a3d d803 313d
00000180: 54bd 52bd fb1f 953d a9ea 4a3c 0b2e abbc
00000190: 17db 8b3d 1f27 f83c 150b 18bd 02d8 13bd
000001a0: 6485 633d 8535 a83c d743 61bd febc 51bd
000001b0: 0943 ff3c 105a 2ebd 0d30 843c 273d 483d
000001c0: a27c d63c c5e6 a2bc 32ad 1b3d afe9 41bd
000001d0: efd8 b9bb 4b13 203d c468 14bd bbaa 923d
000001e0: 99cc 1a3d 44b1 6dbd 2d8b e63c 0908 623d
000001f0: 5e2c 5c3b 5fc2 4b3d 89c0 6fbd 5a8d 20bd
00000200: e45b d3bc 64d7 02bc a691 ae3c f2dd 1e3d
00000210: 5948 fd3c c69f 8c3d 26af f43c 562d b7bc
00000220: 9a93 8b3d aeb1 62bd fb84 7cbd 3841 aa3c
00000230: 8ad5 4c3d 988c 2d3d 627c 8cbd 5218 5ebd
00000240: bf73 7cbd 0d58 0ebd b7e6 9fbc 269d d33c
00000250: 5a19 38bd 951e b9bc 9d3c dd3c 8a5d 0f3d
00000260: 4723 8e3d 618e 0dbd 91b4 823d b6a7 87bd
00000270: 1f95 8b3d 2306 c9bb 3fc2 cabc 9c96 cebc
00000280: 777a 52bc 326b 8f3d 57d9 e4bc 4e45 773d
00000290: a83b 6bbd bac3 f8bc 864b 3d3c e4f8 85bd
000002a0: d21d 893d 0d71 81bd d4f3 08bd 50fa ccbc
000002b0: 18e8 16bd 42a5 9ebc a2f5 573d 45ce bb3c
000002c0: 879c f23c 8faa 7dbd f202 a8bc 69a9 6a3c
000002d0: 5875 1bbd 3daf 973c d0b1 19bc 777d 5fbd
000002e0: 2c37 7bbd bd37 f83b 1584 373d 7b2a 163d
000002f0: f312 80bd 14a4 1a3d eb17 8d3c 4c51 1e3d
00000300: 3801 ebbb 52a4 8bbd a785 903b 7c10 843c
00000310: 0dcf 7abd 34f5 373d 26a0 5a3c b42b 803c
00000320: aaa1 87bc 1fdc 7e3d 2df7 27bd db00 ebbc
00000330: 2766 663d c580 76bd 75ca 3c3c 38f4 19bd
00000340: 515a 09bd 40d4 74bc 88d0 433d d204 2cbd
00000350: 6143 3a3d 9348 753b 8c19 1abd 2ab6 3dbd
00000360: cbab 0a3d 466b 293d 9fea 0b3d 0444 5a3c
00000370: ddf6 7d3d 6892 0fbd 5c98 7e3b b33f 38bd
00000380: bd91 0c3d f8e9 233d 2b90 00bc c9bb 293b
00000390: d39e 82bd e17f 853d 0064 1dbd d71b eb3c
000003a0: ebc0 4abc 0ea7 2bbc ab59 323d d92a 8fbd
000003b0: d2bc 3f3d b57e a4bc 6c76 2cbd 081b 4d3d
000003c0: 0fc7 8bbd d5c4 50bd b12d 2e3d 332a a5bc
000003d0: 2370 84bd 279e 133d 16e2 91bb fdff 793d
000003e0: 0c94 b0bc 0e53 123d 7876 713d bcb2 0a3b
000003f0: 73e7 e73c b2e7 ba38 40fa 513d 5401 593d

layers.conv3_1.bias f4 [32]
-0.02272475 -0.01831677 0.023265455 -0.030693442 -0.009347185 0.0335707 -0.040152706 0.063366614
-0.002087146 0.030187247 -0.04565247 0.006832017 -0.006227483 -0.02368914 -0.022804037 0.045099307
-0.038503606 0.054863285 0.029878948 -0.048567217 -0.031253662 -0.04709451 0.016774708 -0.042283185
0.048005167 -0.049164537 -0.03287102 0.039659027 -0.025183352 0.026730359 -0.037908345 -0.039510787
00000000: 4129 babc 0d0d 96bc 3297 be3c d070 fbbc
00000010: ef24 19bc 6e81 093d 2a77 24bd 5bc6 813d
00000020: 80c8 08bb 3f4b f73c 16fe 3abd 1ddf df3b
00000030: ea0f ccbb ba0f c2bc 88cf babc 0dba 383d
00000040: f5b5 1dbd 53b8 603d b2c4 f43c 6bee 46bd
00000050: d703 00bd 2ce6 40bd 1d6b 893c 2231 2dbd
00000060: 11a1 443d c160 49bd c3a3 06bd 8171 223d
00000070: 514d cebc a0f9 da3c c845 1bbd 10d6 21bd
