mRNAlocalization/cnn_models/CNN_model_fold4.pth (torch, 531886 bytes, 22 tensors)

layers.bn1.weight f4 [64]
0	0x3f7fd7bb	0.99938554
1	0x3f7fa0a3	0.9985449
2	0x3f803491	1.0016042
3	0x3f7fa7fc	0.998657
4	0x3f804659	1.0021468
5	0x3f800d9b	1.0004152
6	0x3f8007b7	1.0002354
7	0x3f80241f	1.0011023
8	0x3f7f903a	0.9982945
9	0x3f7fec55	0.9996999
10	0x3f800136	1.000037
11	0x3f80308f	1.0014819
12	0x3f8029b3	1.0012726
13	0x3f802a35	1.001288
14	0x3f7fb483	0.99884814
15	0x3f8017ff	1.0007323
16	0x3f8036e6	1.0016754
17	0x3f80102c	1.0004935
18	0x3f7ffe62	0.9999753
19	0x3f7f6ede	0.99778545
20	0x3f7fc776	0.9991373
21	0x3f7fb1db	0.9988076
22	0x3f802e57	1.0014142
23	0x3f7ff1af	0.99978155
24	0x3f8013e4	1.000607
25	0x3f7fbeeb	0.9990069
26	0x3f80190b	1.0007643
27	0x3f80046f	1.0001353
28	0x3f8019a7	1.0007828
29	0x3f800d8e	1.0004137
30	0x3f7fdfe6	0.99951017
31	0x3f7fd78c	0.99938273
32	0x3f8003d2	1.0001166
33	0x3f7f97d0	0.9984102
34	0x3f803240	1.0015335
35	0x3f7fd29c	0.9993074
36	0x3f7fffd2	0.99999726
37	0x3f7fdc9d	0.99946004
38	0x3f802074	1.0009904
39	0x3f8032ec	1.001554
40	0x3f7f9278	0.9983287
41	0x3f7f9557	0.9983725
42	0x3f7fe7d6	0.9996313
43	0x3f7fee7b	0.9997327
44	0x3f801276	1.0005634
45	0x3f8029fc	1.0012813
46	0x3f8027fe	1.0012205
47	0x3f7fd28f	0.9993066
48	0x3f80256b	1.0011419
49	0x3f802b43	1.0013202
50	0x3f8002f4	1.0000901
51	0x3f7fe543	0.999592
52	0x3f7fbee5	0.99900657
53	0x3f801efe	1.0009458
54	0x3f7fbfe6	0.9990219
55	0x3f801300	1.0005798
56	0x3f803638	1.0016546
57	0x3f80080c	1.0002456
58	0x3f7fcc15	0.9992078
59	0x3f80293e	1.0012586
60	0x3f7ff489	0.99982506
61	0x3f7f9ebc	0.99851584
62	0x3f800294	1.0000787
63	0x3f7fcd3f	0.99922556

layers.bn1.bias f4 [64]
0	0xbabc82c7	-0.0014382236
1	0x389d1ad1	7.491338e-05
2	0x3aa2102a	0.0012364436
3	0xba9006b5	-0.0010988327
4	0x3a9c0bf8	0.0011905422
5	0xb8d5b555	-0.00010190407
6	0xb9df170b	-0.00042551043
7	0x3abfa71f	0.001462195
8	0xbb0fb74c	-0.0021929322
9	0x3951e7a8	0.00020018092
10	0x3904b569	0.00012656082
11	0x3ae41e21	0.0017403999
12	0x3a415900	0.0007375628
13	0x3b050df9	0.0020302518
14	0xba515033	-0.0007984668
15	0xb9fe474b	-0.00048499773
16	0x3a63e344	0.0008693228
17	0x3a03c24a	0.0005026205
18	0x3a9918a6	0.001168032
19	0xbab27ddd	-0.0013617832
20	0xbad3d49d	-0.0016161386
21	0xba0981e3	-0.000524549
22	0x3a2d278d	0.000660532
23	0xba9fab81	-0.001218185
24	0x3ac5b3ca	0.0015083489
25	0xba4decc2	-0.0007855409
26	0x3a92647b	0.0011168862
27	0xb9d62d46	-0.00040850992
28	0xba6578d6	-0.00087536627
29	0xbae80697	-0.0017702159
30	0x38bfe108	9.149505e-05
31	0xbab2a0a7	-0.00136282
32	0x3a06169f	0.0005115065
33	0xbaf60e1a	-0.0018772513
34	0x3a19957d	0.00058587623
35	0x39762106	0.0002347269
36	0x3aa51ea8	0.0012597637
37	0x3aa8cf87	0.0012879231
38	0x3a0abc99	0.00052923855
39	0x3ac2cfa9	0.0014862913
40	0xbaf492af	-0.0018659438
41	0xbae3d195	-0.0017381186
42	0xba8b4638	-0.0010625785
43	0xb90d037b	-0.00013448104
44	0x383764b6	4.3724394e-05
45	0xbac224b4	-0.0014811964
46	0x3ab4671a	0.0013763637
47	0x3a6d73e3	0.0009058101
48	0x3af131b5	0.0018401655
49	0xb9511533	-0.0001993969
50	0x3908ae08	0.00013034802
51	0xb99e8ee7	-0.0003024258
52	0xbaccda69	-0.0015629056
53	0x3af4f668	0.0018689157
54	0xba59cead	-0.000830869
55	0x3a32d41e	0.0006821769
56	0x3ac40140	0.0014953986
57	0xb955f77e	-0.00020405461
58	0xba92b099	-0.0011191546
59	0xb9c59e92	-0.00037692912
60	0xbad2c564	-0.0016080556
61	0xba18a584	-0.00058230036
62	0xba6ae47a	-0.0008960437
63	0xba36b771	-0.0006970084

layers.bn1.running_mean f4 [64]
0	0xbccbeab5	-0.02489219
1	0xbc8d4939	-0.01724683
2	0xbafe65f5	-0.0019409048
3	0x3d943354	0.072363526
4	0x3db4c119	0.08825893
5	0x3d315822	0.04329694
6	0x3cc024f1	0.023455115
7	0x3df99922	0.12187411
8	0x3d712189	0.058869872
9	0xbda537ff	-0.08067321
10	0xbd4d4d35	-0.05012246
11	0x3c43103b	0.011905725
12	0x3b88f06a	0.00417905
13	0xbc7d5092	-0.015461104
14	0x3c8ab72b	0.016933044
15	0xbdb39f02	-0.08770563
16	0xbd82ff7a	-0.063963845
17	0x3d15c2fa	0.036562897
18	0x3d3731fa	0.044725396
19	0xbcc23476	-0.023706656
20	0xbd37b463	-0.044849765
21	0x3db7aaaf	0.08968102
22	0x3d9dc20d	0.07703028
23	0x3db4e469	0.08832628
24	0x3db41254	0.08792558
25	0x3c5ac76e	0.013353212
26	0xbbcd5e6d	-0.00626736
27	0xbb254018	-0.0025215205
28	0xbd366330	-0.044528186
29	0xbe0edac9	-0.13950647
30	0x3ca97407	0.020685209
31	0xbc9cda1e	-0.019146975
32	0x3c840832	0.01611719
33	0xbd4a8422	-0.049442418
34	0x3cad21ce	0.021134283
35	0x3cf8e580	0.030382872
36	0xbdee1199	-0.1162445
37	0x3c520c92	0.01282038
38	0xbd42a2f1	-0.047518674
39	0xbd4b522a	-0.049638905
40	0xbdc07190	-0.0939666
41	0x3d15e698	0.036596864
42	0xbd02f9ee	-0.031976633
43	0x3d000fe1	0.031265143
44	0x3e084e53	0.13311128
45	0x3d73ba92	0.0595041
46	0xbc17fe38	-0.009276919
47	0xbd953a5f	-0.07286524
48	0x3dad26e9	0.08454687
49	0x3ce59fe8	0.02803035
50	0x3df05aa5	0.11736039
51	0xbd9cdfbd	-0.07659862
52	0xbda7edec	-0.08199677
53	0xbc9c8ca8	-0.019110039
54	0xbd8923c4	-0.06696275
55	0x3c085872	0.008321868
56	0x3daef8c4	0.08543542
57	0x3d5a574c	0.05330591
58	0xbd81c163	-0.06335714
59	0xbc7309e7	-0.014833904
60	0xb99522dd	-0.0002844547
61	0x3da0393c	0.078234166
62	0xbc9eeb0b	-0.019399187
63	0x3d12a0a1	0.03579772

layers.bn1.running_var f4 [64]
0	0x3cf74dfb	0.030188551
1	0x3cd7dac5	0.026349435
2	0x3cd66855	0.026172796
3	0x3c982bdf	0.018575607
4	0x3cbcda9a	0.023053456
5	0x3d08e982	0.033425815
6	0x3ce378d2	0.027767573
7	0x3ce46140	0.027878404
8	0x3cde73a0	0.027154744
9	0x3cdebcfe	0.027189728
10	0x3c93d06f	0.018043725
11	0x3d207b7b	0.03918026
12	0x3cecacc7	0.02889098
13	0x3d3478a4	0.044060364
14	0x3ca64502	0.020296577
15	0x3d0b45fd	0.034002293
16	0x3cbe6e31	0.023245903
17	0x3ce2d213	0.027688062
18	0x3ccbce1b	0.024878552
19	0x3ced0c63	0.02893657
20	0x3cd11bba	0.025525916
21	0x3cc66e24	0.024222441
22	0x3cdf80aa	0.027283031
23	0x3ccc34a0	0.024927437
24	0x3d22f0f3	0.03978057
25	0x3cc985b9	0.024599897
26	0x3d033558	0.032033294
27	0x3ccf38f7	0.025295718
28	0x3cb06d52	0.021536503
29	0x3cb549c9	0.02212991
30	0x3cfe3d1c	0.031034999
31	0x3cc38e10	0.023871452
32	0x3d139655	0.03603204
33	0x3cf95e26	0.030440401
34	0x3cb32d04	0.021872051
35	0x3cfec9b4	0.031102039
36	0x3d4fc33f	0.05072331
37	0x3ce79820	0.028270781
38	0x3ceb77cc	0.028743647
39	0x3d21d858	0.039512962
40	0x3cccb2d9	0.024987625
41	0x3cf6a7a3	0.030109232
42	0x3cd7ff6c	0.026366912
43	0x3cb6a5b6	0.022295814
44	0x3d205ced	0.03915112
45	0x3cb5e6f0	0.022204846
46	0x3cd21d43	0.025648719
47	0x3d2766d1	0.040869538
48	0x3d2d9a9d	0.04238378
49	0x3d07b373	0.03313012
50	0x3d13bef2	0.03607077
51	0x3d023555	0.031789143
52	0x3c95165b	0.018199136
53	0x3d3aca1b	0.0456029
54	0x3d10a84a	0.035316743
55	0x3cc0abef	0.023519484
56	0x3cbc0226	0.022950243
57	0x3ca766f3	0.020434832
58	0x3ce84903	0.028355127
59	0x3cdd5d95	0.027022162
60	0x3cef5e92	0.0292199
61	0x3cf334b3	0.029688215
62	0x3ce4b983	0.02792049
63	0x3d24dbc7	0.04024866

layers.bn2.weight f4 [32]
0	0x3f8058fd	1.0027157
1	0x3f80573c	1.0026622
2	0x3f7fd9da	0.9994179
3	0x3f7fb479	0.99884754
4	0x3f7fb37a	0.99883235
5	0x3f7facd7	0.9987311
6	0x3f7f5363	0.99736613
7	0x3f7f653e	0.9976386
8	0x3f7f6af3	0.99772567
9	0x3f7f6723	0.9976675
10	0x3f7fb02b	0.99878186
11	0x3f7f6b83	0.99773425
12	0x3f7fdd2d	0.9994686
13	0x3f7fbd37	0.99898094
14	0x3f7fb22a	0.9988123
15	0x3f7f547c	0.9973829
16	0x3f7f9bfa	0.99847376
17	0x3f7f68c9	0.99769264
18	0x3f7f5603	0.9974062
19	0x3f7f9f37	0.9985232
20	0x3f7f6d3a	0.9977604
21	0x3f7fc83e	0.9991492
22	0x3f7fb9c5	0.99892837
23	0x3f7faf9a	0.9987732
24	0x3f7fe043	0.9995157
25	0x3f7f62f3	0.9976036
26	0x3f7f80fd	0.99806195
27	0x3f7faa91	0.9986964
28	0x3f7f67a0	0.99767494
29	0x3f7f4d71	0.9972754
30	0x3f7fabc8	0.9987149
31	0x3f7fbd0a	0.99897826

layers.bn2.bias f4 [32]
0	0x3b2cd93b	0.0026374597
1	0x3b2f7cf0	0.002677735
2	0xba0cbeb7	-0.0005368995
3	0xba0213f9	-0.00049620826
4	0xbabb3a48	-0.0014284337
5	0xbaa0706b	-0.0012240534
6	0xbb26252b	-0.0025351744
7	0xbb213c60	-0.0024602637
8	0xbb1f90a2	-0.0024347682
9	0xbb1f5365	-0.0024311182
10	0xbabb756c	-0.0014301962
11	0xbb1da189	-0.0024052581
12	0xba74abd8	-0.0009333468
13	0xba9500e5	-0.0011368064
14	0xbabf286b	-0.0014584189
15	0xbb330c3e	-0.002732053
16	0xbad4b778	-0.0016228994
17	0xbb201e2c	-0.0024432046
18	0xbb332a6a	-0.0027338513
19	0xba70f186	-0.0009191263
20	0xbb1e30ea	-0.0024138042
21	0xba44ad5e	-0.00075026404
22	0xba995680	-0.0011698753
23	0xba88acdc	-0.0010427493
24	0xb9ff2f00	-0.00048672408
25	0xbb22e4da	-0.0024855644
26	0xbafdaf3b	-0.0019354591
27	0xba932d43	-0.0011228699
28	0xbb21a6f7	-0.002466617
29	0xbb360bb6	-0.0027777976
30	0xbac92866	-0.0015347123
31	0xba811fa9	-0.0009851354

layers.bn2.running_mean f4 [32]
0	0xbdccca26	-0.09999494
1	0xbe433292	-0.1906226
2	0xbe9e0b88	-0.30868173
3	0xbeaa0ce9	-0.33212975
4	0xbe5664cf	-0.20936893
5	0xbe863ec8	-0.26219773
6	0xbe4180c9	-0.18896784
7	0xbc903809	-0.017604845
8	0xbd3aafc9	-0.045577798
9	0x3cdbb6bd	0.026820535
10	0xbe64f040	-0.22357273
11	0xbd570fa9	-0.05250517
12	0xbe726f09	-0.23675169
13	0xbe5f8182	-0.21826747
14	0xbe2f46c0	-0.17116833
15	0x3e4e7c8a	0.20164695
16	0xbe5d99b3	-0.21640663
17	0xbc96c95c	-0.018406563
18	0x3e9a90bb	0.30188546
19	0xbe9f5dbe	-0.31126207
20	0xbc231c93	-0.009955543
21	0xbe814cb2	-0.25253826
22	0xbe6813eb	-0.22663848
23	0xbe8a5f4e	-0.27025837
24	0xbe53ab9f	-0.20670937
25	0x3d7c8bef	0.06165689
26	0xbe330832	-0.17483595
27	0xbe802100	-0.25025177
28	0x3d0b95b5	0.03407832
29	0x3d08a18f	0.0333572
30	0xbe3c5ff1	-0.18395974
31	0xbe89f608	-0.2694552

layers.bn2.running_var f4 [32]
0	0x3ea95dfb	0.33079514
1	0x3eaca25e	0.33717626
2	0x3ef568e5	0.4793159
3	0x3f031085	0.5119708
4	0x3ed85f3a	0.42260152
5	0x3ece353b	0.40274987
6	0x3ee61b77	0.4494283
7	0x3f010a28	0.5040612
8	0x3ede4614	0.4341284
9	0x3f02cb15	0.5109113
10	0x3ea06cc7	0.3133299
11	0x3ebbaf01	0.36656955
12	0x3ed1bb18	0.40963054
13	0x3e9f6167	0.31129
14	0x3ea9fb2e	0.33199447
15	0x3f25be8c	0.64743876
16	0x3ec876a7	0.39153025
17	0x3ef85551	0.4850259
18	0x3f79c027	0.97558826
19	0x3f0a81ec	0.54104495
20	0x3ed86f2c	0.42272317
21	0x3f05b9e5	0.5223678
22	0x3eaa05b1	0.33207467
23	0x3ee9689e	0.4558763
24	0x3eb028c5	0.34406105
25	0x3ea77af7	0.32711002
26	0x3eb15382	0.34634024
27	0x3ed82d96	0.4222228
28	0x3f28adbe	0.6589011
29	0x3f0fa6e5	0.56114036
30	0x3eb6e53c	0.35721767
31	0x3eecd886	0.46258944

layers.conv1_1.weight f4 [64, 4, 9]
0	0xbdf58616	-0.119884655
1	0x3df000d3	0.11718907
2	0x3cb4d763	0.02207536
3	0xbdc02d5c	-0.093836516
4	0xbe0ad353	-0.13557176
5	0xbdefb333	-0.117041014
6	0xbd735498	-0.059406847
7	0x3cc48216	0.023987811
8	0xbd99ee72	-0.07516183
9	0xbdf9d2b3	-0.12198391
10	0xbe10b38b	-0.1413099
11	0x3da4923c	0.080357045
12	0xbdc92617	-0.09821718
13	0xbe274e1f	-0.16338395
14	0x3d7bea53	0.061502766
15	0xbe13838d	-0.14405651
16	0x3cfffad0	0.031247526
17	0xbd83ed6c	-0.06441769
18	0xbd83fad6	-0.064443275
19	0xbe25dee0	-0.16198301
20	0xbe0347be	-0.12820336
21	0x3de16466	0.110054776
22	0x3dac52dc	0.08414242
23	0x3e1b5172	0.15167788
24	0xbda15d3f	-0.078791134
25	0xbdae0894	-0.0849773
26	0x3dd32e6c	0.10311589
27	0x3e0c644b	0.13710134
28	0x3d2867b7	0.041114535
29	0x3ca998c1	0.020702722
30	0xbe1ae6cc	-0.15127105
31	0xbdb94636	-0.09046595
32	0xbdc99967	-0.09843712
33	0xbcb3a8d3	-0.021931088
34	0xbbafda46	-0.0053665964
35	0x3e0afa8b	0.13572137
36	0xbc5743a8	-0.013138689
37	0x3df7920f	0.12088405
38	0xbd87418f	-0.06604301
39	0xbd861cb7	-0.06548446
40	0x3e105652	0.14095429
41	0xbd0ae7e4	-0.033912554
42	0xbe1b7ebe	-0.15185067
43	0x3d43ea18	0.04783067
44	0xbd7ad778	-0.061240643
45	0x3d60c64a	0.054876603
46	0x3d921ea1	0.07134748
47	0xbe2ad3dc	-0.1668238
48	0x3d8b254a	0.06794222
49	0x3d650ee2	0.055922396
50	0x3e1e8ebc	0.15484136
51	0x3e0121f7	0.12610613
52	0x3d27a949	0.040932927
53	0x3d8be9c3	0.06831696
54	0x3beb42db	0.0071796007
55	0x3d9660c9	0.07342679
56	0x3e0fc4ff	0.14039992
57	0x3dc8e5da	0.09809466
58	0x3d70954a	0.058736123
59	0xbe185e41	-0.14879705
60	0xbde79b05	-0.113088645
61	0x3dad3fe9	0.084594555
62	0xbc13d545	-0.009023015
63	0xbdd92390	-0.10602486
64	0xbe0d866a	-0.13820806
65	0xbe1138d5	-0.14181836
66	0x3daba373	0.08380785
67	0x3c831957	0.016003294
68	0xbd841bb3	-0.06450596
69	0x3d28a248	0.04117039
70	0x3d859816	0.06523149
71	0xbe020cb9	-0.12700166
72	0xbc7cb2ed	-0.015423519
73	0x3dce051e	0.1005957
74	0x3d01fa50	0.031732857
75	0xbe0e3acf	-0.13889621
76	0xbd301c64	-0.042995825
77	0x3da82a0a	0.08211143
78	0x3e09f37c	0.13471788
79	0xbe2991c6	-0.16559514
80	0x3e0aa09a	0.13537827
81	0x3d838145	0.064211406
82	0xbde1e342	-0.11029674
83	0x3c376808	0.011194237
84	0xbe229364	-0.15876538
85	0x3e044fa0	0.12921
86	0x3e14020e	0.14453909
87	0x3e103b2c	0.14085072
88	0xbe170642	-0.14748481
89	0x3d8c9e3c	0.06866118
90	0x3dc51017	0.096222095
91	0x3db38a35	0.08766595
92	0x3dd25873	0.102707766
93	0x3d857070	0.065155864
94	0x3dedefa7	0.11617976
95	0xbda22b79	-0.07918448
96	0xbdce2782	-0.10066129
97	0xbe0c7ad7	-0.13718735
98	0xbccb5856	-0.024822395
99	0xbdccd44d	-0.10001431
100	0xbde140c5	-0.10998682
101	0x3e265698	0.1624397
102	0xbd918e27	-0.071071915
103	0xbdb1ceee	-0.08682047
104	0xbc02ef15	-0.007991572
105	0xbce3bdfb	-0.02780055
106	0x3d94e871	0.07270897
107	0x3dd5ff97	0.104491405
108	0x3c9bf2a8	0.019036606
109	0xbdd017da	-0.10160799
110	0x3bc57f6b	0.0060271523
111	0xbdd569f8	-0.104206026
112	0x3e128711	0.14309336
113	0x3cf64237	0.03006087
114	0xbc01d236	-0.007923653
115	0xbde539ba	-0.11192651
116	0xbda5ba8b	-0.08092221
117	0x3e038b32	0.12846068
118	0xbdd8fc62	-0.10595013
119	0x3d88673c	0.066603154
120	0x3c2cd6e9	0.010549285
121	0xbc1c4e7a	-0.009540195
122	0x3d08fbbc	0.033443198
123	0x3d835e01	0.06414414
124	0xbdd2b4e4	-0.102884084
125	0x3c9ca20e	0.019120242
126	0x3d6d94d9	0.05800328
127	0x3d5aeb4f	0.053447064
128	0x3d7eba28	0.06218925
129	0x3c2bf978	0.01049649
130	0x3d941857	0.07231205
131	0x3dab406a	0.083618954
132	0xbd00e78b	-0.031470817
133	0xbdc7e9dd	-0.09761403
134	0x3d4b7947	0.049676206
135	0xbe2a1673	-0.16610126
136	0x3d8234f5	0.06357757
137	0xbe20ea36	-0.15714344
138	0x3d742aa8	0.059610993
139	0x3dffc986	0.124896094
140	0xbd089724	-0.033347264
141	0x3d824f93	0.06362834
142	0x3af8809b	0.0018959226
143	0xbe16aef3	-0.14715175
144	0x3d737984	0.05944206
145	0x3d4df03d	0.050277937
146	0x3de018c0	0.10942221
147	0x3ce0761a	0.027400065
148	0xbe21fcc9	-0.15819086
149	0x3dc08cae	0.094018325
150	0x3cbb2058	0.022842571
151	0xbe10c1e7	-0.14136468
152	0x3e188c46	0.1489726
153	0xbda038c9	-0.07823331
154	0x3d847249	0.06467111
155	0xbd86b62b	-0.065777145
156	0xbd7f8d6c	-0.06239073
157	0x3e0edbe6	0.13951072
158	0xbd8907e7	-0.066909604
159	0xbcb55055	-0.022133032
160	0xbd5471b0	-0.051866233
161	0xbd48a4de	-0.048985355
162	0x3e175123	0.14777045
163	0x3dcf2c19	0.10115833
164	0xbe031e63	-0.1280456
165	0x3d19a064	0.037506476
166	0x3d174ca2	0.036938317
167	0xbdca0276	-0.09863751
168	0xbc2d53fd	-0.010579106
169	0xbe289ebd	-0.16466804
170	0xbd31ed68	-0.0434393
171	0xbc04c74f	-0.0081041595
172	0x3d5f0c2e	0.054454975
173	0x3cdf0b07	0.027226938
174	0x3ce7d4e5	0.028299758
175	0xbdc90ded	-0.09817109
176	0x3dc2e49d	0.09516261
177	0xbc8587e4	-0.01630015
178	0xbc03da3d	-0.0080476375
179	0x3d6e24b9	0.05814049
180	0xbe03b81f	-0.12863205
181	0x3db512c6	0.088414714
182	0xbdd628ce	-0.104570016
183	0x3deb6b2b	0.1149505
184	0xbe172180	-0.14758873
185	0xbe04f40b	-0.1298372
186	0xbe243002	-0.16033939
187	0xbe03b9aa	-0.12863794
188	0xbdf14949	-0.11781556
189	0x3d318712	0.043341704
190	0xbe049c6f	-0.129503
191	0x3d69edc1	0.057111505
192	0x3e293f7a	0.1652812
193	0xbdd698b8	-0.104783475
194	0xbe0306d0	-0.12795568
195	0xbe294285	-0.16529281
196	0x3d6bc8b8	0.057564467
197	0x3da53a59	0.080677696
198	0x3d677b77	0.05651423
199	0xbe0f9d09	-0.14024748
200	0x3e0400fb	0.12890999
201	0x3d55ef97	0.052230444
202	0xbdce54b4	-0.100747496
203	0xbd2df66a	-0.042471327
204	0x3d746748	0.05966881
205	0xbd065841	-0.03279901
206	0xbd67df98	-0.05660972
207	0x3e1e4897	0.15457378
208	0x3d90d560	0.07071948
209	0x3e18d6d7	0.14925705
210	0xbded37b4	-0.1158289
211	0x3d89ac0d	0.06722269
212	0x3e210b6d	0.15727015
213	0x3d48c580	0.049016476
214	0x3d017575	0.031606156
215	0xbd41f04a	-0.047348298
216	0x3e139230	0.14411235
217	0x3cd39beb	0.025831183
218	0xbd7fd0bd	-0.062454928
219	0x3dfeae36	0.12435572
220	0x3db1c995	0.08681027
221	0xbce70dcc	-0.028204821
222	0xbe1ee8c6	-0.15518484
223	0x3dbd00d5	0.09228674
224	0xbe1ace88	-0.15117848
225	0x3cc6b32b	0.024255356
226	0xbe220190	-0.15820909
227	0xbe0f63fe	-0.14002988
228	0x3cc6edcd	0.024283314
229	0x39c9e4f8	0.00038508303
230	0x3cbc8860	0.023014247
231	0x3e28d8e4	0.16488987
232	0x3d621379	0.05519435
233	0x3e0aeae0	0.1356616
234	0x3bd1e9d8	0.00640605
235	0xbd8a9027	-0.06765776
236	0x3dc387f4	0.095474154
237	0xbc889dea	-0.016676862
238	0xbe1f0c0c	-0.1553194
239	0xbcc02bfc	-0.023458473
240	0xbd8b7e02	-0.068111435
241	0xbd40e65c	-0.047094688
242	0x3dc3db6b	0.09563335
243	0xbe2597f6	-0.1617125
244	0xbdda4225	-0.10657147
245	0x3d5fef95	0.054671843
246	0xbd19f916	-0.037591062
247	0xbd043e8d	-0.032286216
248	0x3d950203	0.07275774
249	0x3dc53401	0.096290596
250	0x3d9d34bf	0.07676076
251	0x3db72b5a	0.089438155
252	0x3db22671	0.08698738
253	0x3df1b950	0.11802924
254	0xbd924f1b	-0.071439944
255	0x3dd378ac	0.10325751

layers.conv1_1.bias f4 [64]
0	0x3d13ecc5	0.036114473
1	0xbdcf2610	-0.10114682
2	0xbd672af8	-0.056437463
3	0x3e2a2df6	0.16619095
4	0x3db4208d	0.08795271
5	0xbbe5e9aa	-0.0070163803
6	0xbd5a23cb	-0.05325679
7	0x3d519eda	0.051176883
8	0x3e11af85	0.14227112
9	0xbddeb7c8	-0.10874897
10	0x3b8627cd	0.0040941
11	0xbe09347f	-0.13398932
12	0x3c92ada9	0.017905073
13	0x3c8718ba	0.016491283
14	0xbdcfe34e	-0.10150777
15	0xbe0d9631	-0.13826825
16	0xbdf3dcb2	-0.11907329
17	0x3d02bd7e	0.031918995
18	0x3d24ac49	0.040203366
19	0xbdbdefed	-0.09274278
20	0xbd8f1087	-0.06985574
21	0x3de57ec3	0.112058185
22	0x3bc1b00b	0.0059108785
23	0x3e142b3a	0.14469615
24	0x3de2d7cf	0.110763185
25	0x3ce6f384	0.02819229
26	0xbc5ac067	-0.013351536
27	0xbcefc89b	-0.02927046
28	0xbceb4875	-0.028721074
29	0xbe2a24e8	-0.16615641
30	0x3df45c11	0.11931623
31	0xbdf86f2e	-0.12130581
32	0xbdb56b4e	-0.08858357
33	0x3c710564	0.014710758
34	0x3d05490c	0.032540366
35	0xbdb16e27	-0.08663588
36	0xbdc45eb7	-0.09588378
37	0x3cb03337	0.021508796
38	0xbd30c1d2	-0.04315359
39	0xbddd937b	-0.10819145
40	0xbe05ec17	-0.13078342
41	0x3d9915c3	0.07474854
42	0xbc6ab1af	-0.01432459
43	0xbcf574a5	-0.029962847
44	0x3e257794	0.16158897
45	0x3ca19ff2	0.019729588
46	0xbd038209	-0.032106433
47	0x3dd8fc9f	0.10595059
48	0x3dfa1416	0.12210862
49	0x3b99b924	0.00469126
50	0x3e1f5c60	0.15562582
51	0xbda810e8	-0.082063496
52	0xbde7a67f	-0.113110535
53	0x3e228d61	0.15874244
54	0xbe237fcd	-0.15966721
55	0xbdc9aef5	-0.098478235
56	0x3d927049	0.07150323
57	0x3dc1d5e9	0.09464628
58	0xbd59e66e	-0.05319827
59	0x3d93daa4	0.07219437
60	0xbc080af8	-0.008303396
61	0xbcf4c4fa	-0.029879082
62	0x3dee5dd8	0.11638993
63	0xbd4e86e4	-0.05042161

layers.conv1_2.weight f4 [32, 64, 9]
0	0xbcdeef8f	-0.02721384
1	0xbc6c87e3	-0.014436695
2	0xbd14c181	-0.036317352
3	0xbc1c2bd3	-0.009531933
4	0x3c986d98	0.018606946
5	0x3b5e6943	0.0033937253
6	0x3be2bef4	0.006919736
7	0x3d19993f	0.037499662
8	0x3d1d9ce3	0.038479697
9	0x3c5df446	0.013547009
10	0x3d0b8926	0.03406634
11	0x3ca19f98	0.01972942
12	0xbbf2c58c	-0.0074088033
13	0xbcd6c7a4	-0.026218243
14	0x3d21f22c	0.039537594
15	0x3c9abc63	0.018888658
16	0x3cefcd05	0.029272566
17	0x3ce6d14a	0.028175969
18	0xbd17eb52	-0.037089653
19	0x3c5d31fd	0.013500688
20	0x3c7bb51b	0.015363003
21	0xbd19fbd5	-0.03759368
22	0xba0f1b53	-0.0005459089
23	0x3cde5aff	0.027143
24	0x3d044d76	0.032300435
25	0xbd1c672b	-0.038184326
26	0xbd0da6ad	-0.034582783
27	0xbd1aa00a	-0.03775028
28	0x3c84ab31	0.016194912
29	0xbc2b6bec	-0.010462742
30	0xb9b132ae	-0.0003379783
31	0x3c7242de	0.01478645
32	0xbcb7d427	-0.02244003
33	0xbcac2fe9	-0.02101894
34	0xbb14bf17	-0.0022696906
35	0x3d141897	0.036156263
36	0xbd0738a5	-0.033013005
37	0x3c39e7b2	0.011346744
38	0xbd03e33a	-0.032199122
39	0xbd17f7ac	-0.037101433
40	0xbc7d4aa7	-0.015459693
41	0xba9985ec	-0.0011712885
42	0x3cb38da6	0.02191813
43	0x3d198e74	0.03748937
44	0x3c07896e	0.008272512
45	0xbb598fc5	-0.0033197266
46	0xbbb305d7	-0.0054633426
47	0x3d0ace84	0.033888355
48	0x3cb92fc9	0.022605794
49	0xbb1bd5a8	-0.0023778472
50	0xbd229040	-0.03968835
51	0x3be4b7e5	0.0069799297
52	0xbc8c6843	-0.01713956
53	0xbd228b07	-0.039683368
54	0xbd2600e0	-0.04052818
55	0xbcdc4166	-0.026886653
56	0xbbd7944e	-0.0065789586
57	0xbcd4a3fb	-0.025957098
58	0x3cede4f6	0.029039841
59	0xbce0516f	-0.02738258
60	0x3ce2eec7	0.027701749
61	0x3c785f31	0.015159414
62	0x3cff830e	0.031190421
63	0x3d234653	0.03986199
64	0x3ce57274	0.028008677
65	0xbcc58c22	-0.024114672
66	0x3d0697a0	0.032859445
67	0x3d1d9a0b	0.038476985
68	0xbaad9e3d	-0.0013246011
69	0xbc970918	-0.018436953
70	0x3cfe25ca	0.031023879
71	0x3ae6f7d0	0.0017621461
72	0xbca4b356	-0.020105045
73	0x3c0a1cf3	0.008429754
74	0x3d1998a3	0.03749908
75	0xbd05d78a	-0.032676257
76	0xbc273b64	-0.010207031
77	0xbd061e3f	-0.03274369
78	0xbd0bad34	-0.034100726
79	0xbc597ac0	-0.013273895
80	0xbc3292c1	-0.010899247
81	0x3d0194fb	0.03163622
82	0x3c0b208e	0.008491648
83	0xbc162307	-0.009163625
84	0xbcfcea33	-0.030873394
85	0xbb772cfb	-0.003771602
86	0x3bda9606	0.006670716
87	0x3c207546	0.009793585
88	0x3ca53f76	0.020171862
89	0xbcdfd824	-0.027324744
90	0xbcdfae85	-0.027304897
91	0x3cf9b99e	0.030484017
92	0x3c80a62a	0.015704233
93	0xbc00f745	-0.007871454
94	0xbc7fbd75	-0.015609135
95	0x3cd03980	0.025418043
96	0x3d12e04d	0.03585844
97	0xbc1d14f4	-0.009587515
98	0xbd2c9ecc	-0.042143628
99	0x3c84d52a	0.016214926
100	0xbcbbe4f1	-0.022936316
101	0x3cc034c4	0.02346266
102	0x3cbce566	0.023058604
103	0x3c47d66b	0.012197117
104	0xbd13753e	-0.036000483
105	0xbd2ca104	-0.042145744
106	0x3c291045	0.01031882
107	0x3cf0dcab	0.029402098
108	0xbd1b5bdc	-0.0379294
109	0x3cbd4454	0.02310387
110	0xbbf58dcc	-0.00749371
111	0x3ca486f9	0.020083891
112	0x3c0ea903	0.008707288
113	0xbbd34465	-0.0064473622
114	0xbd1262cc	-0.03573875
115	0x3c10ca18	0.008837245
116	0x3cc10d1f	0.023565827
117	0xbcfe171a	-0.031016875
118	0xbb3a34b4	-0.0028412761
119	0x3d21185f	0.039329883
120	0x3ca7aa22	0.020466868
121	0xbc3ae584	-0.01140726
122	0x3c70c109	0.014694461
123	0xbcce1729	-0.025157528
124	0xbc2f0752	-0.010682898
125	0x3caa67e6	0.020801496
126	0x3cbb684b	0.02287688
127	0x3c95da18	0.018292472
128	0xbb97f987	-0.0046379003
129	0x3d052911	0.032509867
130	0xbcb3c7c4	-0.021945842
131	0xbc476379	-0.012169712
132	0x3cd96867	0.02653904
133	0x3d1f5096	0.038895212
134	0x3cc66dc3	0.02422226
135	0xbaf1a3ad	-0.001843562
136	0xbd14cf00	-0.036330223
137	0x3c2888fe	0.010286568
138	0x3cc96a3e	0.024586793
139	0xbc995e54	-0.018721737
140	0xbd1a7695	-0.037710745
141	0xbbb34739	-0.005471137
142	0xbc74daec	-0.014944773
143	0xbc6921dd	-0.014229265
144	0xbd2a20b8	-0.04153511
145	0xbd29ff10	-0.041503012
146	0x3c06878f	0.008211031
147	0xbaabcba9	-0.001310696
148	0xbc16bc5a	-0.00920018
149	0xbc8fb67f	-0.017543076
150	0xbd2f438b	-0.042789023
151	0xbd0c850b	-0.034306567
152	0xbcbad4ce	-0.022806551
153	0xbcf01a18	-0.029309317
154	0x3d1897e6	0.037254237
155	0x3cb9b475	0.022669056
156	0xbd06ed8a	-0.03294138
157	0xbc1ad5c8	-0.0094503835
158	0x3c15076b	0.009096007
159	0x3d2b18a8	0.04177156
160	0xbc620cad	-0.013796967
161	0x3c8e5de3	0.017378753
162	0x3c6fdaec	0.014639597
163	0x3bbf0c85	0.00583035
164	0xbb49e7d9	-0.0030808358
165	0xbd106f27	-0.035262253
166	0xba9f5fa7	-0.0012159244
167	0xbd162427	-0.03665557
168	0x3c155db5	0.00911658
169	0xba6c4029	-0.0009012246
170	0xbcaa0850	-0.020755917
171	0x3d12e68f	0.03586441
172	0xbc5bc43f	-0.013413488
173	0xbc45b34c	-0.0120666735
174	0x3d097f5f	0.033568736
175	0xbd15df14	-0.036589697
176	0xbc275023	-0.010211977
177	0xbc89357f	-0.016749142
178	0xbd178b66	-0.036998175
179	0xbd1fe479	-0.039036248
180	0xba15be87	-0.000571229
181	0x3bf9fa03	0.0076286807
182	0xbbabd4cd	-0.0052438737
183	0x3c98abcf	0.018636612
184	0xbcb3cbee	-0.021947827
185	0xbcb9af86	-0.022666704
186	0x3ce55323	0.027993744
187	0xbcd04f40	-0.025428414
188	0x3c3ee7c4	0.011651937
189	0xbc19a096	-0.009376666
190	0x3ccfc9c7	0.02536477
191	0xbcbcc44e	-0.023042824
192	0xbc86a189	-0.016434448
193	0x3d0ac76d	0.033881593
194	0xbc9dc86a	-0.019260604
195	0x3cd428fc	0.02589845
196	0x3cdd73ad	0.027032698
197	0x3d01c509	0.031682048
198	0xbd0a4b5a	-0.033763267
199	0x3c82f981	0.015988113
200	0x3cd7c6f7	0.026339991
201	0x3c61421e	0.013748674
202	0xbd06deb7	-0.03292724
203	0x3ccb97be	0.02485263
204	0xbd2c95de	-0.042135112
205	0x3cd99c99	0.02656393
206	0xbd025442	-0.031818636
207	0xbd03752d	-0.03209417
208	0x3c58c519	0.0132305855
209	0x3d29da76	0.041468106
210	0x3c2ab6d5	0.010419567
211	0xbd1de2e0	-0.038546443
212	0x3cec956b	0.028879842
213	0x3c33374c	0.010938477
214	0x3c672f03	0.01411033
215	0xbc5554b1	-0.01302068
216	0x3c56c083	0.013107422
217	0xbb4038b1	-0.0029330666
218	0xbcb3d25e	-0.021950897
219	0x3d1aa55e	0.037755363
220	0x3c7d9cf9	0.01547932
221	0xbd1b459d	-0.037908185
222	0x3b1dc793	0.0024075254
223	0x3cc73a51	0.0243198
224	0x3cb84971	0.022495957
225	0x3c985a89	0.018597858
226	0xbc8b313a	-0.016991246
227	0xbcc0d4f4	-0.023539044
228	0xbb95e782	-0.004574717
229	0xbcd8b474	-0.026453234
230	0xbc20c2b4	-0.009812046
231	0x3d0b99bb	0.034082156
232	0xbc745048	-0.014911719
233	0x3d277014	0.04087837
234	0x3c5ef576	0.013608327
235	0xbc9c96ee	-0.019114938
236	0x3caebe9b	0.021331122
237	0xbcea1d6c	-0.028578483
238	0x3d1d5c35	0.038418014
239	0x3d0caed9	0.034346435
240	0x3ada8c0b	0.0016673816
241	0xba1e8188	-0.00060465233
242	0xbc7164ee	-0.014733536
243	0xbcd0cb4d	-0.025487566
244	0x3b8aac00	0.00423193
245	0x3ce51c83	0.027967697
246	0x3cc95259	0.0245754
247	0xbd19fdff	-0.037595745
248	0xbb958772	-0.0045632655
249	0xbc2f03a5	-0.010682021
250	0x3cbce2b7	0.023057325
251	0x3ceb69e9	0.028737025
252	0xbd1a6cdd	-0.037701476
253	0xbc0ca02e	-0.008583112
254	0x3bade630	0.0053069815
255	0x3be14886	0.0068751005

layers.conv1_2.bias f4 [32]
0	0xbc083835	-0.008314182
1	0x3bd4f6eb	0.0064991615
2	0xbd2a7a4d	-0.04162054
3	0xbcd16579	-0.025561081
4	0x3c71d91a	0.014761234
5	0xbc651811	-0.013982789
6	0x3d08edba	0.03342984
7	0x3bb9bbbc	0.0056681316
8	0xbd208c41	-0.039196257
9	0x3cd5554d	0.026041651
10	0x3d12636d	0.03573935
11	0x3c769936	0.015051177
12	0xbcb9fe45	-0.022704253
13	0x3ce0ea2a	0.027455408
14	0x3cd5d414	0.026102103
15	0x3ce3e060	0.027816951
16	0xbcae3155	-0.021263758
17	0xbcef6ff4	-0.029228188
18	0x3c8efe3a	0.017455209
19	0x3cce71e3	0.02520079
20	0x3c6dc6d9	0.014512741
21	0xbc646cc5	-0.013941948
22	0x3d142d69	0.03617612
23	0x3ceb186e	0.028698172
24	0xbd021e7c	-0.031767353
25	0xbc114ae5	-0.008867954
26	0x3b4357ae	0.00298069
27	0x3c793bd0	0.015212014
28	0xbc94f77a	-0.018184412
29	0x3d0a96be	0.033835165
30	0xbc154671	-0.009111033
31	0x3c6b2e44	0.014354292

layers.conv2_1.weight f4 [64, 4, 20]
0	0xbdbaee0b	-0.09127434
1	0xbd4fdebe	-0.050749533
2	0x3bf1e366	0.0073818443
3	0xbbeee307	-0.0072902474
4	0x3a87e57e	0.0010368077
5	0xbdd865dd	-0.10566304
6	0xb955eb99	-0.0002040103
7	0x3d8421a9	0.06451733
8	0x3d0698c8	0.032860547
9	0x3db73ea0	0.08947492
10	0xbdda317d	-0.106539704
11	0x3db6cd1d	0.08925841
12	0x3db63b2b	0.08898004
13	0xbd70aa14	-0.05875595
14	0x3d64321c	0.05571185
15	0xbd99da22	-0.07512309
16	0xbd240313	-0.040041994
17	0x3d8a1e03	0.067440055
18	0xbd050d4a	-0.032483377
19	0xbd96595d	-0.073412634
20	0xbd6b5aa3	-0.057459485
21	0xbdba8a5b	-0.091084205
22	0xbd8c43b8	-0.06848854
23	0x3c317851	0.010831908
24	0x3dd29af7	0.102834634
25	0xbda35b20	-0.07976365
26	0x3c83d480	0.016092539
27	0x3de2db6d	0.110770084
28	0x3d7d1dce	0.061796002
29	0xbda8b0fd	-0.08236883
30	0x3cb7a3fa	0.022417057
31	0x3da81c5b	0.082085334
32	0x3cfadadc	0.030621938
33	0xbd5ce124	-0.05392565
34	0x3d95e097	0.07318228
35	0x3d499f19	0.049223993
36	0xbd9fe2b0	-0.07806909
37	0xbda30f5b	-0.07961913
38	0x3db17f4e	0.086668596
39	0x3de33429	0.11093933
40	0x3cc54c3e	0.024084207
41	0xbdb00422	-0.08594538
42	0xbd051076	-0.0324864
43	0xbc9d39f2	-0.01919267
44	0x3c316362	0.010826917
45	0x3b7c7f70	0.0038528107
46	0x3d920f8f	0.07131874
47	0x3dd70ee5	0.10500888
48	0x3c751573	0.014958727
49	0xbcbfc52d	-0.02340945
50	0xbdbcbdfb	-0.092159234
51	0x3d9a349f	0.07529568
52	0xbdce7812	-0.10081495
53	0xba7e99f3	-0.0009712271
54	0xbce12bec	-0.027486764
55	0x3db4ff69	0.08837778
56	0x3d5a828d	0.05334716
57	0x3d83404c	0.06408748
58	0xbc56addb	-0.013102974
59	0xbc8a6ac1	-0.016896607
60	0x3da5e132	0.08099593
61	0xbc0538d3	-0.008131224
62	0x3d368494	0.04456003
63	0xbc8546c9	-0.016269105
64	0x3dd98dc9	0.106227465
65	0x3d1a70f9	0.037705395
66	0xbd8d7b27	-0.06908255
67	0xbcde648c	-0.027147554
68	0x3dad5a6d	0.08464513
69	0xbd78b972	-0.06072373
70	0xbd3242a5	-0.04352059
71	0x3d23117f	0.039811607
72	0xbd31d953	-0.043420147
73	0xbdd5850d	-0.10425768
74	0x3dabf800	0.083969116
75	0xbd381b1a	-0.04494772
76	0xbd6ad3e6	-0.05733099
77	0xbdbaaa31	-0.09114493
78	0xbd8e89c8	-0.069598734
79	0x3daead82	0.08529188
80	0xbd8b4b59	-0.06801481
81	0xbd5520c2	-0.052033193
82	0x3d8fd187	0.07022386
83	0xbdd32899	-0.10310478
84	0xbd98c3dc	-0.07459232
85	0xbdd6ce9c	-0.10488626
86	0x3c0e8256	0.008698067
87	0x3db5ca91	0.08876527
88	0xbd774bde	-0.060375087
89	0xbdaf7169	-0.08566553
90	0x3da8d50c	0.082437605
91	0x3dda36cb	0.10654982
92	0x3c144d39	0.009051614
93	0x3c83bde0	0.01608175
94	0xbdb79f50	-0.08965933
95	0x3db7d277	0.0897569
96	0xbca453d5	-0.020059505
97	0xba9c5b36	-0.0011929038
98	0xbd973d83	-0.07384779
99	0xbce17b5b	-0.02752464
100	0xbdc4714f	-0.095919244
101	0x3c8bf991	0.017086776
102	0xbde6faf2	-0.11278333
103	0x3d82e063	0.063904546
104	0xbd522fde	-0.05131518
105	0xbddfdd0f	-0.109308355
106	0x3d2e3ebb	0.042540293
107	0x3d8a6c09	0.06758887
108	0xbd86b061	-0.0657661
109	0xbdd9c34f	-0.10632955
110	0xbd27d384	-0.0409732
111	0x3db3fbbe	0.087882504
112	0x3ddc1814	0.1074678
113	0xbdd4883d	-0.10377548
114	0xbcbee803	-0.023303991
115	0xbdbd609d	-0.09246943
116	0x3d37153a	0.044697978
117	0x3d988837	0.07447856
118	0x3cb040c0	0.02151525
119	0x3d9797ff	0.07402038
120	0x3d36ac81	0.044598106
121	0x3dd0fd40	0.102045536
122	0x3d5a4b61	0.053294543
123	0x3cf78ebb	0.030219426
124	0xbd18d6e1	-0.0373143
125	0xbda83719	-0.08213634
126	0xbd1ea259	-0.038729046
127	0x3ccac5d6	0.024752539
128	0x3d1c7ac6	0.038203023
129	0xbd89f203	-0.06735613
130	0x3ddd2ed4	0.107999474
131	0x3dc62c24	0.09676388
132	0x3d957bae	0.07298981
133	0xbd03ffde	-0.032226436
134	0xbd0c4ae7	-0.03425112
135	0xbdada9c1	-0.084796436
136	0xbcad9ed2	-0.021193895
137	0xbd8c410c	-0.06848344
138	0x3d700698	0.05860004
139	0xbd288dc2	-0.041150816
140	0xbd38df82	-0.04513503
141	0x3d803a41	0.06261111
142	0xbde71c5f	-0.11284708
143	0xbcf19bf6	-0.029493313
144	0xbd13091c	-0.03589736
145	0xbcbd8c06	-0.023138057
146	0x3d51e93c	0.05124782
147	0xbd3229a9	-0.04349676
148	0x3da05313	0.07828345
149	0xbce156fa	-0.027507294
150	0xbc6ec811	-0.014574067
151	0x3d193351	0.037402455
152	0xbd9ac845	-0.0755773
153	0xbd6d4ab9	-0.05793259
154	0xbdbde74d	-0.09272633
155	0x3d6b919a	0.057511903
156	0xbcd54b10	-0.02603677
157	0xbcf7f98c	-0.03027036
158	0x3c6127f1	0.013742433
159	0xbd43ece4	-0.04783334
160	0x3da6acc6	0.08138423
161	0xbd17ce4c	-0.037061974
162	0xbd3a6148	-0.04550293
163	0xbdd5ce08	-0.10439688
164	0xbd4d2207	-0.05008128
165	0x3dcf7409	0.10129554
166	0xbd37f866	-0.044914626
167	0x3c8d68a4	0.01726181
168	0xbdc3f1a2	-0.09567572
169	0xbdab275b	-0.08357116
170	0x3da61215	0.081089176
171	0x3d2b3312	0.04179675
172	0xbdcb682f	-0.09931981
173	0x3d2015f0	0.03908342
174	0x3d92e053	0.07171693
175	0xbbe40ebf	-0.0069597657
176	0xbd95f6b1	-0.07322443
177	0xbccaa226	-0.024735522
178	0xbdd32f38	-0.10311741
179	0xbb45571f	-0.0030111743
180	0xbd40c65b	-0.047064167
181	0xbd8e9f14	-0.069639355
182	0xbc33b157	-0.010967574
183	0xbdde4005	-0.108520545
184	0x3ddf0d30	0.10891187
185	0x3dbc3d82	0.09191419
186	0xbb1a8c01	-0.0023581984
187	0x3dd4c2e9	0.10388739
188	0xbde39870	-0.111130595
189	0xbdbd5d44	-0.09246305
190	0xbca395c4	-0.019968875
191	0x3dbff887	0.09373575
192	0x3a301fa9	0.0006718585
193	0xbda3c0e6	-0.07995777
194	0x3b42a572	0.0029700664
195	0xbd98e9cf	-0.074664705
196	0xbdda16e9	-0.10648901
197	0x3d9a9f07	0.07549863
198	0xbd70dccf	-0.05880433
199	0x3c51f7ee	0.012815459
200	0xbdcd0cec	-0.1001223
201	0xbd03d5d5	-0.032186348
202	0xbde29352	-0.11063255
203	0xbd010abd	-0.03150438
204	0xbd9279e2	-0.071521536
205	0xbb13148f	-0.0022442674
206	0xbd406863	-0.04697455
207	0x3d016ca6	0.031597756
208	0xbd0a94e4	-0.0338334
209	0xbd8470c0	-0.06466818
210	0xbd12145b	-0.035663944
211	0x3d4440d4	0.047913387
212	0x3dc5db7d	0.09661005
213	0x3d6820af	0.056671795
214	0x3d3ab3f5	0.045581777
215	0xbc97f13c	-0.018547647
216	0xbd59756f	-0.05309051
217	0xbd541f43	-0.051787626
218	0x3be4d6ba	0.006983605
219	0x3d30f3c8	0.043201238
220	0xbd2d39c3	-0.042291414
221	0x3de139b4	0.10997334
222	0xbd24953d	-0.040181387
223	0xbd8b3a5c	-0.067982405
224	0x3dc9f16e	0.09860502
225	0xbd799610	-0.060934126
226	0x3d2dbaf3	0.042414617
227	0xbc5d946a	-0.013524154
228	0xbc092c48	-0.008372374
229	0xbdbe90bc	-0.0930495
230	0x3d5a046d	0.053226877
231	0x3da10a98	0.07863349
232	0xbd2edbfa	-0.042690255
233	0x3d43e520	0.047825933
234	0x3c80d10e	0.015724685
235	0xbd6b343f	-0.057422873
236	0x3d3d40c1	0.046204332
237	0x3d9998ac	0.07499823
238	0xbc2846cf	-0.010270788
239	0x3ca507e3	0.020145362
240	0x3d56b3c5	0.052417535
241	0xbc46da39	-0.012136989
242	0xbd1e51b6	-0.038652144
243	0x3dc02cc9	0.09383542
244	0xbc8f8e45	-0.017523894
245	0x3dad1aea	0.08452399
246	0xbc9b7150	-0.01897493
247	0xbdbc0946	-0.09181456
248	0x3d016d06	0.031598113
249	0x3d982e6f	0.074307315
250	0x3dbcf963	0.09227254
251	0x3b58713d	0.003302648
252	0xbde0e73d	-0.10981605
253	0x3db38486	0.08765511
254	0xbc6a1ad6	-0.014288625
255	0x3c57c163	0.013168666

layers.conv2_1.bias f4 [64]
0	0x3be6942c	0.0070367064
1	0x3de3ac4a	0.11116846
2	0x3dbdc920	0.09266877
3	0xbc25f76e	-0.010129793
4	0x3ccbd38d	0.024881149
5	0x3d7314ff	0.059346195
6	0x3d05bb95	0.032649595
7	0x3dba83cb	0.09107169
8	0x3cf7bd4c	0.030241631
9	0x3d222cc2	0.039593466
10	0xbd8d5ba1	-0.069022425
11	0xbcb09483	-0.02155519
12	0xbd5f16c9	-0.05446509
13	0xba567218	-0.00081804534
14	0x3dc6381c	0.09678671
15	0xbd472f86	-0.048629306
16	0xba94f483	-0.0011364374
17	0xbc90f255	-0.017693678
18	0xbd6b6bf0	-0.057475984
19	0x3dd8d323	0.10587146
20	0x3d544dec	0.051832125
21	0xbc871fd4	-0.016494669
22	0x3d9e509a	0.07730217
23	0x3994edcb	0.0002840593
24	0x3c9972a2	0.018731419
25	0xbd1a04d8	-0.037602276
26	0xbdcdaa39	-0.10042233
27	0x3cc99806	0.024608623
28	0xbd0b9798	-0.034080118
29	0xbda9f64f	-0.08298933
30	0x3d75ba48	0.059992105
31	0x3d376b45	0.044780035
32	0xbb4d75c7	-0.0031350718
33	0xbc9fdb1f	-0.019513665
34	0xbac59a56	-0.0015075903
35	0xbcabf27e	-0.020989653
36	0x3dc37074	0.09542933
37	0x3d9c8091	0.076417096
38	0xbc8f3909	-0.017483251
39	0x3d856e0d	0.06515131
40	0xbdcf24df	-0.101144545
41	0xbd0f8d84	-0.03504707
42	0xbd57073a	-0.052497126
43	0x3cc18364	0.023622222
44	0xba71a11b	-0.0009217427
45	0x3ddd3e3e	0.108028874
46	0xbc33a993	-0.010965723
47	0xbd7ba7dc	-0.06143938
48	0xbbef4daa	-0.0073029594
49	0xbcc9739d	-0.024591262
50	0xbcc97fe2	-0.024597112
51	0xbcc4b69f	-0.024012862
52	0xbd08c0cb	-0.033386987
53	0xbd857c76	-0.0651788
54	0x3dd5d9c3	0.104419254
55	0x3d3bf7d7	0.045890655
56	0x3d4d6b7d	0.050151337
57	0xbc5734d3	-0.013135153
58	0xbca1a59a	-0.019732285
59	0xbd9d35b0	-0.07676256
60	0x3dd1db28	0.10246879
61	0x3dca090c	0.09865007
62	0xbdc734c4	-0.09726861
63	0x3d9298a8	0.07158023

layers.conv2_2.weight f4 [32, 64, 20]
0	0xbc914386	-0.017732393
1	0xbc4e64a9	-0.012597241
2	0x3c1b203c	0.0094681345
3	0xbc7a666c	-0.015283208
4	0x3cc9d5bc	0.02463805
5	0x3b9dc4a5	0.0048147016
6	0xbcd1e6e0	-0.025622785
7	0xbc3baad5	-0.011454304
8	0xbab0e3e6	-0.0013495653
9	0x39feaf0d	0.00048577078
10	0x3be1d665	0.006892013
11	0xbb4da50e	-0.0031378898
12	0x3cab888d	0.020939136
13	0x3ca09889	0.019603984
14	0xbcb130d8	-0.021629736
15	0x3ccf395f	0.025295911
16	0xbc572479	-0.013131254
17	0xbc7a1e86	-0.015266066
18	0xbc567d8b	-0.013091455
19	0x3cc6b5c3	0.024256593
20	0xbc8dd8e3	-0.017315334
21	0x3c867908	0.016415134
22	0xbbc7d4c1	-0.0060983603
23	0x3c815aa9	0.0157903
24	0x3c37522b	0.011189024
25	0xbc3c9b1d	-0.011511591
26	0xbb497377	-0.0030738988
27	0x3c9ed20c	0.019387268
28	0x3bb8bd47	0.005637798
29	0xbc818bf0	-0.015813798
30	0x3c99df5d	0.018783266
31	0x3b89619c	0.004192544
32	0x3cbb353b	0.02285253
33	0xbb1fc2b6	-0.0024377531
34	0x3ca96485	0.020677814
35	0x3c251b96	0.010077378
36	0x3c988394	0.018617429
37	0x3cc3918e	0.023873117
38	0x3cb1a52e	0.02168521
39	0xbcbf46d1	-0.023349198
40	0xbc014802	-0.007890703
41	0x3ca9dfca	0.020736594
42	0x3c2ef7a8	0.010679163
43	0xbc28c603	-0.010301116
44	0x3be81f35	0.0070837983
45	0x3c1fc230	0.009750888
46	0xbc9135f8	-0.01772593
47	0x3c9a8acc	0.018865012
48	0x3c4a1329	0.01233367
49	0xbcabd60a	-0.020976085
50	0x3ce541cb	0.027985474
51	0xbc849977	-0.016186459
52	0x3c90b2a0	0.0176633
53	0x3b3f8b99	0.0029227494
54	0xbccbf5c8	-0.024897471
55	0x3cc975c2	0.024592284
56	0x3c78a098	0.015175007
57	0x3b9412be	0.004518836
58	0xbcb8357e	-0.022486445
59	0xbb96cf90	-0.00460238
60	0xbc2f5af5	-0.010702838
61	0x3ba91200	0.0051596165
62	0xbb40552c	-0.0029347641
63	0x3c351d26	0.011054313
64	0x3c75afc3	0.014995518
65	0x3ac6383d	0.0015122961
66	0xbc266a8b	-0.010157238
67	0x3c1d54e2	0.009602757
68	0xbbb62088	-0.0055580772
69	0x3c9d4de6	0.019202184
70	0xbc99399a	-0.018704224
71	0x3bf0e20e	0.0073511666
72	0x3c3b4975	0.011431088
73	0xbcc75f82	-0.024337534
74	0xbce85162	-0.028359119
75	0x3cbe43e3	0.02322573
76	0xbce32e15	-0.027731935
77	0xbca73bc0	-0.020414233
78	0x3c57c493	0.013169426
79	0xbbc02ace	-0.0058644777
80	0xbc9129c4	-0.01772011
81	0xbbcb08b4	-0.006196106
82	0x3bfdb59d	0.0077425973
83	0xbca594fe	-0.020212647
84	0xbc9bd5fb	-0.019022932
85	0xbc38270f	-0.011239781
86	0x3cb5a798	0.022174641
87	0x3ca0483a	0.01956569
88	0xbcb9cbf9	-0.02268027
89	0x3c707b8a	0.0146778915
90	0xbc99c9e1	-0.018773021
91	0xbc62c3ed	-0.013840658
92	0xbc7da30d	-0.015480769
93	0xbcb0b1ab	-0.021569094
94	0xbccbc7bc	-0.024875514
95	0x3bd700b7	0.0065613645
96	0xbca069a8	-0.01958163
97	0x3c2576f0	0.010099158
98	0xbc359318	-0.011082433
99	0xbc6b56ed	-0.014363986
100	0xbc25d2fa	-0.0101211015
101	0xbbd8c065	-0.006614732
102	0x3c59dd14	0.013297338
103	0x3c8b2cd0	0.016989142
104	0x3cb406fa	0.021975983
105	0xbc9054a9	-0.017618494
106	0xb98e6001	-0.0002715588
107	0x3cabfaa2	0.020993534
108	0x3ca90bc7	0.020635499
109	0x3c182de9	0.00928829
110	0x3c8292da	0.015939165
111	0x39df8e5f	0.0004263995
112	0x3c34fc8a	0.011046538
113	0xbba1a879	-0.0049334136
114	0xbc9253e7	-0.017862273
115	0x3c7724b6	0.015084436
116	0xbc6f35f1	-0.014600263
117	0x3bbb3694	0.0057132933
118	0xbcb3ea90	-0.021962434
119	0x3cd59173	0.026070332
120	0x3c718d45	0.014743154
121	0x3c1b2aeb	0.009470682
122	0xbcc01c1f	-0.02345091
123	0x3a89941b	0.0010496409
124	0x3ca58457	0.020204706
125	0xbc40537a	-0.011738652
126	0xba267078	-0.00063491566
127	0xbc06d5bd	-0.00822967
128	0x3cb8faae	0.02258047
129	0xbb85264f	-0.0040634046
130	0x3bd187b5	0.0063943514
131	0x3c5fc51f	0.013657837
132	0xbc295c9e	-0.010337023
133	0x3ccc7688	0.024958864
134	0x3c5628a5	0.013071214
135	0x3be16eb1	0.0068796505
136	0x3c87f556	0.016596477
137	0x3c86a01f	0.016433774
138	0xbb635e11	-0.003469352
139	0x3c0a37fb	0.008436198
140	0x3cd35232	0.02579603
141	0x3c788540	0.015168488
142	0x39b4fd24	0.0003452088
143	0x3c391887	0.011297352
144	0xbb76404e	-0.003757495
145	0x3bc0cdca	0.005883907
146	0x3c8cf43b	0.017206302
147	0xbb8e5fa8	-0.004344899
148	0x3c92e9a1	0.017933669
149	0xbc70a075	-0.014686693
150	0xbc86e937	-0.016468627
151	0xbce960ab	-0.028488478
152	0xbc06f18c	-0.0082363
153	0x3c5f4169	0.013626435
154	0xbc3529f2	-0.011057364
155	0xbcad1162	-0.021126453
156	0xbcc1b4c1	-0.02364576
157	0x3cb5df49	0.022201197
158	0x3cc796fa	0.024363983
159	0xbb8fd915	-0.004389892
160	0x3c9747e1	0.018466892
161	0xbbbd10e7	-0.005769837
162	0xbc4d5770	-0.012533054
163	0xbcc8e836	-0.02452479
164	0x3c256d75	0.010096897
165	0x3cc58924	0.024113245
166	0x3c80f576	0.015742045
167	0x3cd78426	0.02630813
168	0xbc3458ae	-0.011007471
169	0xbc4cb00e	-0.012493147
170	0xbba8614c	-0.005138552
171	0x3b8cd86e	0.0042982614
172	0x3b6a320f	0.0035735404
173	0x3c8b603c	0.017013662
174	0x3c7c676b	0.015405516
175	0xbbb1f0aa	-0.0054303007
176	0xba5e1f2d	-0.00084732735
177	0x3b8683a4	0.0041050483
178	0xbceab800	-0.028652191
179	0xbbc907a4	-0.006134944
180	0x3c3fa62e	0.011697335
181	0x3adcb3e6	0.0016838282
182	0xbc9f771d	-0.019465977
183	0xbc921136	-0.017830472
184	0xbcc05c82	-0.023481611
185	0x3cd87bb7	0.02642618
186	0x3cbed0c2	0.023292903
187	0x3bd966d0	0.0066345707
188	0x3c091269	0.008366206
189	0x3bfdad53	0.007741609
190	0x3ba775fe	0.0051105013
191	0x3c865245	0.016396651
192	0x3c73fa7f	0.014891266
193	0xbc773ec9	-0.015090653
194	0xbc6b09cc	-0.0143455975
195	0x398b6a4c	0.00026591343
196	0x3c94bd86	0.018156778
197	0xbc923a9b	-0.01785021
198	0x3bcd854c	0.0062719937
199	0x3be56ae1	0.0070012663
200	0x3b85f450	0.004087962
201	0xbc9696d7	-0.018382473
202	0x3c51cafd	0.012804744
203	0x3c9c435f	0.019075094
204	0xbb938d41	-0.0045029228
205	0xbccff2a0	-0.025384247
206	0x3b5f4cd9	0.0034072904
207	0x3a94b790	0.001134621
208	0x3bff91d0	0.0077993646
209	0xbc98ff79	-0.018676506
210	0x3bf3b6a1	0.0074375425
211	0xbb9940bd	-0.004676907
212	0x3baf385c	0.0053472947
213	0x3be94735	0.0071190842
214	0xbc856091	-0.016281398
215	0x3bca1352	0.006166854
216	0xbc6622d8	-0.014046393
217	0x3bf043be	0.0073322942
218	0xbb608b7d	-0.003426283
219	0x3b416b9a	0.0029513598
220	0xbc959c71	-0.018263074
221	0xbce272dd	-0.027642662
222	0x3bee0566	0.007263827
223	0xbc03fdae	-0.008056087
224	0xbbd20e73	-0.006410414
225	0x3c75654b	0.014977763
226	0xbc16fd1b	-0.0092156185
227	0x3b3d421d	0.0028878518
228	0x3a9f59ef	0.001215754
229	0xbc919b49	-0.017774241
230	0x3c97c4de	0.01852649
231	0xbb060141	-0.0020447525
232	0x3cc35347	0.02384342
233	0xbc508f99	-0.012729549
234	0x3c1a8dee	0.009433253
235	0xbb25deec	-0.0025309874
236	0x3bd49044	0.0064869244
237	0x3cbc9834	0.023021795
238	0x3bdf84f5	0.0068212696
239	0x3ae5145e	0.0017477383
240	0xbc79d53b	-0.015248592
241	0xbc796c00	-0.015223503
242	0x3b1b9ee8	0.0023745839
243	0x3cb817eb	0.022472342
244	0x3b9a407c	0.004707394
245	0x3bde5ca2	0.006785945
246	0x3cd50f9e	0.026008423
247	0xbc8ff630	-0.017573446
248	0x3c5e4ec0	0.01356858
249	0xbc5c1549	-0.013432809
250	0x3cbb257f	0.022845028
251	0x3a0a75c3	0.000528183
252	0x3b845b58	0.0040392093
253	0xbc011c88	-0.007880338
254	0xbb1b9932	-0.0023742435
255	0xbaa98794	-0.0012934082

layers.conv2_2.bias f4 [32]
0	0xbb962d25	-0.0045830184
1	0xbbca1abd	-0.006167738
2	0x3caea6a1	0.02131969
3	0x3bbdce89	0.005792443
4	0x3c026def	0.0079607805
5	0xbca5d7bd	-0.020244474
6	0xbc42c295	-0.011887212
7	0xbcc2d521	-0.023783268
8	0xbc3d84e9	-0.011567333
9	0xbb7107c8	-0.003677832
10	0x3cd0f272	0.025506232
11	0xbbd50571	-0.006500893
12	0x3ca84e5c	0.020545177
13	0x3cdffade	0.027341302
14	0x3ca8ff6f	0.020629613
15	0xbc7f1cc8	-0.015570827
16	0xbcad0927	-0.021122528
17	0xbc70fc4f	-0.014708593
18	0xbbb38f49	-0.0054797274
19	0x3c254318	0.010086797
20	0xbad63d89	-0.0016345243
21	0xbbb6fbf5	-0.005584235
22	0x3c7ca2ad	0.015419644
23	0xbc2c1871	-0.010503874
24	0xbc1c3896	-0.0095349755
25	0x3ca1d1a8	0.019753292
26	0x3c446888	0.011987813
27	0xbbbf60cc	-0.0058403965
28	0x3ba7af71	0.00511735
29	0xbafc1c6f	-0.0019234548
30	0xbc702d13	-0.014659184
31	0xbbbfbaa3	-0.0058511063

layers.conv3_1.weight f4 [32, 4, 49]
0	0xbd0607ca	-0.032722272
1	0xbc8c970c	-0.017161869
2	0xbd1add5a	-0.037808754
3	0x3d6fa4fc	0.05850695
4	0x3bee74e6	0.007277119
5	0xbd3f7a60	-0.046747565
6	0xbd24f8ce	-0.04027634
7	0xbd812140	-0.0630517
8	0xbc805fa3	-0.015670603
9	0xbd22857d	-0.039678086
10	0xbd125a82	-0.035730846
11	0x3d8bcf59	0.06826658
12	0x3acc39e6	0.001558122
13	0xbd863d80	-0.06554699
14	0x3d924638	0.071422994
15	0xbd8d35b3	-0.06895008
16	0xbc9c1097	-0.01905088
17	0xbd214d43	-0.039380323
18	0xbd5c04e0	-0.053715587
19	0x3cac1af5	0.021008948
20	0x3d5d5eda	0.054045536
21	0x3ced03b2	0.028932426
22	0x3d9557ba	0.07292123
23	0x3d894de4	0.067043096
24	0x3d507ea0	0.05090201
25	0x3d04de11	0.03243834
26	0xbc80abfc	-0.015707009
27	0xbb18b605	-0.0023301851
28	0x3cf697b0	0.030101627
29	0xbd860dfc	-0.06545636
30	0xbd75270c	-0.05985169
31	0xbd3687de	-0.044563167
32	0x3d81adcd	0.06331978
33	0x3d0bf351	0.03416759
34	0xba87ab15	-0.0010350669
35	0x3d5a4706	0.05329039
36	0xbd7e33e8	-0.06206122
37	0x3d5b2b3f	0.05350804
38	0xbd5b014a	-0.053468026
39	0xbd0e9a53	-0.034815144
40	0xbcc951a2	-0.024575058
41	0x3d32d9f2	0.04366488
42	0xbc0c8c8e	-0.008578433
43	0x3d7947bc	0.060859427
44	0x3b83a847	0.004017863
45	0xbd270581	-0.040776733
46	0xbc1da772	-0.009622442
47	0xbd846027	-0.06463652
48	0xbd381b99	-0.044948194
49	0xbd2755d7	-0.040853348
50	0x3ce23148	0.02761139
51	0x3d67ab8a	0.056560077
52	0xbcc21d34	-0.023695566
53	0x3cd0c621	0.0254851
54	0xb97bbd9a	-0.00024007857
55	0xbc243ef5	-0.010024776
56	0x3d707a30	0.058710277
57	0x3c2a00e5	0.01037619
58	0x3b93b818	0.0045080297
59	0xbce0c6bb	-0.027438512
60	0x3d1ad513	0.03780086
61	0x3d90e318	0.07074565
62	0xbd8c5b09	-0.06853301
63	0xbbec210b	-0.0072060875
64	0xbd53125b	-0.051531177
65	0x3d0f6d94	0.03501661
66	0xbd154b3c	-0.036448702
67	0x3c269df4	0.010169495
68	0x3d53d524	0.05171694
69	0x3d607b43	0.05480505
70	0x3d94c1b8	0.072635114
71	0xbd1b72d5	-0.03795131
72	0x3b0b9526	0.0021298616
73	0xbab7d602	-0.0014025571
74	0x3d770399	0.060306165
75	0xbd86a2b8	-0.06574005
76	0x3cafaf99	0.021446036
77	0xbd0333f4	-0.03203197
78	0xbd3fa675	-0.046789605
79	0xbd74efa6	-0.05979886
80	0x3aaf0a7d	0.0013354566
81	0x3d4a8bb2	0.04944963
82	0xbd04f385	-0.0324588
83	0x3d92b625	0.071636476
84	0x3d8c353b	0.068460904
85	0x3c8b1378	0.016977057
86	0x3d8eda5a	0.06975241
87	0xbd7276e6	-0.05919542
88	0xbb9b38b7	-0.0047369855
89	0xbd1e28e6	-0.038613223
90	0x3d012168	0.031526
91	0x3d808997	0.06276243
92	0xbb598526	-0.0033190935
93	0xbbb27d91	-0.0054470976
94	0x3d09a411	0.03360373
95	0x3d30cd49	0.043164525
96	0xbd536d2b	-0.051617783
97	0x3d94f8e7	0.07274037
98	0x3c494b16	0.012285968
99	0xbcabd44c	-0.020975254
100	0x3d8b97f9	0.06816096
101	0x3cf729a6	0.030171227
102	0xbd187b45	-0.037226934
103	0xbd145dc4	-0.036222234
104	0x3d62fc88	0.055416614
105	0x3ca75f66	0.020431232
106	0xbd61aafd	-0.055094708
107	0xbd5216d6	-0.05129131
108	0x3cfe6e67	0.031058503
109	0xbd2edef3	-0.04269309
110	0x3c831b62	0.016004268
111	0x3d477fa4	0.048705712
112	0x3cd5dbe0	0.026105821
113	0xbca3e6b3	-0.020007467
114	0x3d1b30ea	0.037888445
115	0xbd424c1b	-0.04743586
116	0xbbbdba54	-0.0057900343
117	0x3d1fcc0c	0.039012954
118	0xbd14c3a1	-0.03631938
119	0x3d925e50	0.07146895
120	0x3d1a5716	0.037680708
121	0xbd6e3247	-0.058153417
122	0x3ce59a03	0.02802754
123	0x3d619465	0.05507316
124	0x3b553c97	0.0032537335
125	0x3d4b3b03	0.049616825
126	0xbd7035cf	-0.058645066
127	0xbd210644	-0.039312616
128	0xbcd4a3f6	-0.025957089
129	0xbc045dcd	-0.0080790045
130	0x3cad6b07	0.021169199
131	0x3d1e614d	0.038667012
132	0x3cfcd424	0.030862875
133	0x3d8c5f44	0.06854108
134	0x3cf3befa	0.02975415
135	0xbcb86fbd	-0.022514218
136	0x3d8b8063	0.06811597
137	0xbd632dbb	-0.055463534
138	0xbd7d00a7	-0.0617682
139	0x3ca99019	0.020698594
140	0x3d4c5c5d	0.049892772
141	0x3d2d2248	0.04226902
142	0xbd8cc5af	-0.06873643
143	0xbd5e6eaa	-0.054304756
144	0xbd7cf48d	-0.06175666
145	0xbd0edbef	-0.034877714
146	0xbca0cca8	-0.019628838
147	0x3cd2ad3c	0.02571737
148	0xbd38c1fe	-0.04510688
149	0xbcba164d	-0.022715712
150	0x3cdc6e88	0.026908174
151	0x3d0f206d	0.034943033
152	0x3d8de937	0.06929248
153	0xbd0dfd84	-0.0346656
154	0x3d827027	0.063690476
155	0xbd87f094	-0.066376835
156	0x3d8b52a9	0.068028755
157	0xbbcb1c51	-0.006198444
158	0xbccbbbd5	-0.024869839
159	0xbccf91e3	-0.025338119
160	0xbc53553b	-0.0128987385
161	0x3d8f2ae8	0.069906056
162	0xbce5fd56	-0.028074902
163	0x3d76ceb7	0.060255732
164	0xbd6bd5aa	-0.057576813
165	0xbcf9a43f	-0.030473826
166	0x3c3b458a	0.011430154
167	0xbd86447a	-0.065560296
168	0x3d88ef68	0.06686288
169	0xbd81affc	-0.063323945
170	0xbd096bdb	-0.033550125
171	0xbccdb6b9	-0.025111543
172	0xbd176d7a	-0.03696964
173	0xbc9fb0fd	-0.019493574
174	0x3d57a30e	0.052645735
175	0x3cbac620	0.022799551
176	0x3cf1d4e1	0.029520454
177	0xbd7e192b	-0.06203572
178	0xbca8d290	-0.020608217
179	0x3c683d22	0.014174731
180	0xbd1bd348	-0.03804329
181	0x3c9656f8	0.018352017
182	0xbc1ba678	-0.009500138
183	0xbd6015ff	-0.054708477
184	0xbd7bad31	-0.061444465
185	0x3bf3923b	0.0074332035
186	0x3d36d1be	0.04463362
187	0x3d15d908	0.03658393
188	0xbd80628e	-0.06268798
189	0x3d1a5a00	0.037683487
190	0x3c8c0600	0.017092705
191	0x3d1dc20a	0.03851513
192	0xbbef5bf5	-0.0073046633
193	0xbd8bf138	-0.06833118
194	0x3b8e2008	0.0043373145
195	0x3c82d5b2	0.015971038
196	0xbd7b4d02	-0.061352737
197	0x3d377554	0.044789627
198	0x3c58b569	0.013226845
199	0x3c7d8394	0.015473265
200	0xbc887c0f	-0.016660718
201	0x3d7eabde	0.062175624
202	0xbd287e75	-0.041136224
203	0xbcebeeb2	-0.028800342
204	0x3d65f404	0.056140915
205	0xbd7714eb	-0.060322683
206	0x3c3a1be6	0.011359191
207	0xbd1abed2	-0.037779637
208	0xbd098e23	-0.033582818
209	0xbc76c510	-0.015061632
210	0x3d433dbf	0.047666308
211	0xbd2ccd89	-0.0421882
212	0x3d39bf52	0.045348473
213	0x3b730078	0.0037079137
214	0xbd1a4b41	-0.037669424
215	0xbd3e504d	-0.0464633
216	0x3d0a4ec3	0.03376652
217	0x3d291d7d	0.041287888
218	0x3d0b5a98	0.034021944
219	0x3c5770d2	0.013149457
220	0x3d7dc265	0.061952967
221	0xbd10134f	-0.035174664
222	0x3b745d67	0.0037287117
223	0xbd388f75	-0.045058686
224	0x3d0be14b	0.034150403
225	0x3d2341a7	0.039857533
226	0xbc01eccc	-0.007929992
227	0x3b214cbd	0.002461239
228	0xbd82dcfe	-0.06389807
229	0x3d853001	0.06503297
230	0xbd1dbd3e	-0.038510554
231	0x3cea2ec1	0.028586747
232	0xbc4a88de	-0.012361733
233	0xbc2c6c1a	-0.01052382
234	0x3d322ce5	0.043499846
235	0xbd8f4a51	-0.069965966
236	0x3d3f21ac	0.04666297
237	0xbca5a421	-0.020219864
238	0xbd2cafa7	-0.042159703
239	0x3d4c7ed0	0.049925625
240	0xbd8c0827	-0.068374924
241	0xbd517b40	-0.05114293
242	0x3d2e0cd0	0.042492688
243	0xbca61b6e	-0.020276751
244	0xbd848f71	-0.06472672
245	0x3d133f49	0.035949025
246	0xbb93ae1e	-0.0045068404
247	0x3d798210	0.060915053
248	0xbcb19613	-0.021678006
249	0x3d11b8cb	0.035576623
250	0x3d70cb41	0.058787588
251	0x3b08c3ee	0.0020868736
252	0x3ce68d14	0.028143443
253	0xb88aba1b	-6.6150176e-05
254	0x3d51a3c0	0.051181555
255	0x3d58b5f2	0.05290789

layers.conv3_1.bias f4 [32]
0	0xbcba24ee	-0.022722688
1	0xbc961bb6	-0.01832376
2	0x3cbe9689	0.02326514
3	0xbcfb5c45	-0.030683646
4	0xbc193ad9	-0.009352409
5	0x3d0983ee	0.033573084
6	0xbd2474e9	-0.040150557
7	0x3d81c867	0.06337052
8	0xbb088a8a	-0.002083453
9	0x3cf73daf	0.03018078
10	0xbd3afb67	-0.045649912
11	0x3be00e24	0.006837623
12	0xbbcbfb17	-0.0062250006
13	0xbcc20487	-0.0236838
14	0xbcbaf73d	-0.02282297
15	0x3d38b6e9	0.04509631
16	0xbd1dae30	-0.038496196
17	0x3d60b783	0.05486251
18	0x3cf4c0d1	0.029877098
19	0xbd46f3b2	-0.04857225
20	0xbd00048d	-0.03125434
21	0xbd40e455	-0.047092754
22	0x3c896a20	0.016774237
23	0xbd2d2ed5	-0.04228099
24	0x3d449d48	0.048001558
25	0xbd49687f	-0.04917192
26	0xbd069e0b	-0.032865565
27	0x3d2278e3	0.039666068
28	0xbcce4469	-0.025179105
29	0x3cdafbf3	0.026731467
30	0xbd1b4b9f	-0.037913915
31	0xbd21dc90	-0.039516985
