mRNAlocalization/cnn_models/CNN_model_fold6.pth (torch, 531886 bytes, 22 tensors)

layers.bn1.weight f4 [64]
00000000: 11cf 803f 9a94 7d3f 2b8a 803f 5be4 7d3f
00000010: dfcc 803f cb7e 7f3f 33e5 803f 6678 7d3f
00000020: 34e2 7e3f 8274 7e3f de10 803f 5f2d 7f3f
00000030: 61d6 803f 7e46 7a3f 88a7 7d3f cd9f 7f3f
00000040: 5f02 7e3f 4b67 813f ae64 813f 9002 7f3f
00000050: d3ea 7f3f 333b 803f 48a4 7d3f 38e8 7e3f
00000060: ae1c 803f fa15 7e3f 474a 7e3f a90c 813f
00000070: 5722 803f f1a5 7c3f 9f1e 7f3f 8889 813f
00000080: 9086 7f3f e17d 813f 800e 803f 8a38 813f
00000090: 3853 803f a33f 7e3f 63b5 803f 41f3 7d3f
000000a0: 9fcc 813f 9cdd 803f 0fe0 813f 2de0 7d3f
000000b0: ae2a 803f 1422 803f 3ba1 813f 7a6d 7f3f
000000c0: 0e67 7f3f a982 7f3f b10d 813f 7237 803f
000000d0: 4649 803f b2f8 7e3f d316 813f 7195 803f
000000e0: 4c37 7e3f 2e73 7c3f 8ca7 7f3f 5e1e 803f
000000f0: 1f1e 7f3f f65a 7c3f ff36 813f a3a3 803f
1.0063192 0.99054873 1.0042166 0.9917657 1.0062522 0.99802846 1.0069946 0.9901184
0.9956391 0.99396527 1.0005147 0.99678606 1.0065423 0.9776381 0.9908376 0.9985321
0.9922237 1.0109648 1.010885 0.99613285 0.9996769 1.0018066 0.990788 0.9957309
1.0008752 0.99252284 0.9933209 1.0081989 1.001048 0.98690706 0.996561 1.0120096
0.998147 1.011654 1.0004425 1.0095379 1.0025396 0.9931585 1.0055355 0.991993
1.014057 1.006763 1.0146502 0.9917019 1.0013025 1.00104 1.0127329 0.9977642
0.99766624 0.99808747 1.0082303 1.001692 1.0022361 0.9959823 1.008509 1.0045606
0.99303126 0.9861325 0.9986503 1.0009267 0.99655336 0.98576295 1.0094908 1.0049938

layers.bn1.bias f4 [64]
00000000: 5cb4 963c 3559 8c3c 7def c83b 7417 03bc
00000010: 535e 953c 52ba 5eba a7d3 b73c 8b30 eb3b
00000020: 370e 8c3b a57a 2c3a 384d b13b cd99 6c3b
00000030: 2160 223c 8b66 46bc 2740 cfbb 1c10 313c
00000040: 035d 82bb 9d6a fdba eebb 0fbc aa7c d53b
00000050: 443e 243c 9acb 203c 3517 4339 fa6a c43b
00000060: 5b40 92bb 4d19 e13b 25c8 15bb bd51 f93b
00000070: be3b 0c3b 31f6 e5bb b562 a93b 3d66 eabb
00000080: 4dc8 1dbc c8bb 003c be2c a23b bbbc 043c
00000090: 33df 993c cc84 ba3b bf74 c5bb f54e aa3b
000000a0: ac83 e43c 2523 8f3c b585 cb3b 7c2d 9abc
000000b0: 0cc1 a53b a437 453c f740 54bb 777e 583c
000000c0: ed08 d73a 87d9 0fbc 990a b23c 52a2 be3b
000000d0: 5857 683b a85b 51bb ae3b 483c 607f b23c
000000e0: a83b 56bb 20b7 1c3c c1c2 de3a 2a7c 353b
000000f0: c2ce 7fba 93da bcba 4ecf 993c 57d1 2c3c
0.018396549 0.017132381 0.006132065 -0.008001197 0.018233454 -0.0008496392 0.02243979 0.0071774176
0.0042741555 0.0006579555 0.0054108165 0.0036102415 0.009910614 -0.012109409 -0.006324786 0.010807063
-0.003978373 -0.0019334141 -0.008772833 0.0065151053 0.010024611 0.009814167 0.00018605294 0.005994198
-0.004463238 0.006869471 -0.002285489 0.007608621 0.0021397914 -0.0070178737 0.0051692375 -0.007153301
-0.009630275 0.007857271 0.0049491813 0.0081016375 0.018783187 0.0056921 -0.00602588 0.0051974007
0.027894817 0.017472813 0.0062110075 -0.018820517 0.0050584134 0.012037192 -0.0032387355 0.013213745
0.0016405858 -0.00877989 0.021733569 0.00581769 0.0035452452 -0.00319455 0.01222126 0.021789253
-0.0032689366 0.009565145 0.0016995297 0.0027692416 -0.00097582873 -0.0014408402 0.018775608 0.010547957

layers.bn1.running_mean f4 [64]
00000000: 0d5d f63b 1d88 44bc ca53 1fbe 4be1 523e
00000010: 4406 873e a31c ec3c b545 4c3d c367 c73d
00000020: 7149 3b3e d988 6a3d c7e6 403d ffe2 533d
00000030: f424 83bd 7f5b 233e 98c3 2f3e 528a 053d
00000040: 360f a2be dd5c 48be f5fe 383d efe3 723d
00000050: f3d2 4d3c 907a 293e a182 3cbb d7be 8e3d
00000060: 78b7 123c 657b 103d a5bf 203d a829 cd3d
00000070: 3eae 8b3d 4598 353e 48ef 0b3d 28df bd3d
00000080: ff5c d23d b2cc 193e 14ae e83b 3a2c 95bc
00000090: 40df a73d b1f6 c6ba 68e1 7aba 0754 983d
000000a0: 19d9 923d 0397 613e 6661 9e3d 2971 8ebc
000000b0: f338 e2bd b0e6 973c 4686 b5bc b2ae 0e3e
000000c0: 252e 563e 7a47 1fbd 270b f43d 910a b93d
000000d0: 6c81 42be b859 b5be e504 61bd 66ff fb3d
000000e0: 9e18 1a3e bcac ddbc a07d 883c a48b 12be
000000f0: 37ca 113e 3e3a 923b 4862 b2be d797 373d
0.0075184167 -0.011995343 -0.15559307 0.20593755 0.26371968 0.028822249 0.049871165 0.09736588
0.18289734 0.057259414 0.047095086 0.051730152 -0.064035326 0.15952872 0.17164457 0.032602616
-0.3165223 -0.19566675 0.04516502 0.059299406 0.012562501 0.1655066 -0.0028764384 0.069699936
0.008954875 0.03527393 0.039245266 0.10017711 0.068203434 0.17733867 0.034163743 0.09271079
0.10271644 0.15019491 0.00710083 -0.018209565 0.081968784 -0.0015179721 -0.00095703313 0.07437902
0.07170314 0.22030263 0.07733421 -0.017387943 -0.110460185 0.018542618 -0.022158753 0.13933828
0.2091604 -0.038886525 0.1191619 0.090352185 -0.18994683 -0.35420012 -0.05493631 0.12304573
0.15048453 -0.027059905 0.016661465 -0.14311081 0.14237295 0.0044625094 -0.34840608 0.04482254

layers.bn1.running_var f4 [64]
00000000: b18d fa3c fb77 403d 5d1b d93d 5d45 863d
00000010: 188b 763d 16aa e23c 0033 253d 63aa 2b3d
00000020: 09ab 6b3d 218a 483d 0724 283d 0e04 6a3d
00000030: 8c3e 063d c2b2 873d 0040 203d e24d 1a3d
00000040: 5776 163e cb9c f83d 8274 663d 1bf8 433d
00000050: 6f72 083d 228b 203d f53d fb3c 3b69 733d
00000060: de7c 543d d408 353d 4f70 433d b4f5 483d
00000070: ec25 193d 4322 323d d45d 193d 29cb 4c3d
00000080: 63cb 0d3d 18fc 2d3d 37f3 4c3d a132 203d
00000090: f186 363d eba1 653d 5915 3a3d bcf3 2c3d
000000a0: e823 7b3d 2089 603d db77 443d 01c7 1f3d
000000b0: 90c5 453d 6acf 093d a851 173d fa3f 6d3d
000000c0: dba7 523d e5da f43c 6423 353d 831c 443d
000000d0: d87e 883d 0229 e93d c46f 1b3d e1ca 143d
000000e0: 2fd5 373d a579 373d f912 1f3d bf88 4c3d
000000f0: e9ab 9e3d ae58 073d 733e 0d3e 89ee 203d
0.030585142 0.046989422 0.10600922 0.06556199 0.060191244 0.027668994 0.04033184 0.04191054
0.05753616 0.048959855 0.041049983 0.057132773 0.032774493 0.06625892 0.039123535 0.03767193
0.1469358 0.12139281 0.056263454 0.047844034 0.033312257 0.039195187 0.030669192 0.059426527
0.051876895 0.044197872 0.047714528 0.049062446 0.03738968 0.043489706 0.037442997 0.049998436
0.034617793 0.042476743 0.050036635 0.039110783 0.044562284 0.05606262 0.045430515 0.04222463
0.06131354 0.054818273 0.047965866 0.039008144 0.048284113 0.03364507 0.036943108 0.05792234
0.05142961 0.029889533 0.044223204 0.047878753 0.066648185 0.11384775 0.037948385 0.036326293
0.044881042 0.044793744 0.038836453 0.0499351 0.07747633 0.033043556 0.13793354 0.039289985

layers.bn2.weight f4 [32]
00000000: fc0a 833f 90c9 863f 6221 633f 0267 643f
00000010: efe9 7d3f 4c93 633f 57fe 7d3f 160a 633f
00000020: 2ed3 7d3f 8191 7e3f d4a2 803f deea 7e3f
00000030: 5519 653f 96a1 7d3f fe2b 633f 45ba 7d3f
00000040: dac2 7d3f 046e 7e3f bdb0 7f3f c7ff 623f
00000050: ae3c 803f 16ac 633f e033 633f 2826 633f
00000060: 556e 7e3f a293 7d3f 2c42 6e3f 80ad 7d3f
00000070: 4cc8 7d3f cd21 6e3f 4914 7e3f 9515 7e3f
1.0237727 1.0530262 0.88722813 0.8921968 0.9918508 0.8889663 0.99216217 0.88687265
0.9915036 0.9944077 1.0049691 0.9957713 0.8949178 0.99074686 0.88739 0.9911235
0.99125445 0.9938662 0.99879056 0.88671535 1.0018518 0.8893446 0.8875103 0.88730097
0.99387103 0.99053395 0.9306972 0.99092865 0.99133754 0.93020326 0.992497 0.9925168

layers.bn2.bias f4 [32]
00000000: ccb5 903c e3c7 653d 5d7a e8bd 9d67 ddbd
00000010: f3b7 c73d f367 e3bd a78a be3d 0807 e9bd
00000020: 7d9c c33d b1dd b93d b919 ce3d 7c6b be3d
00000030: 8d2a d6bd d945 be3d 9e8f e7bd 850c c83d
00000040: 5095 c33d 9546 c23d 451f bf3d 6f41 e9bd
00000050: 89d2 ca3d 2812 e3bd f9ca e7bd ca36 e8bd
00000060: 386e c03d 10de ba3d f519 5abd a67f c33d
00000070: 5445 c03d d7ae 5ebd 8170 c13d e5b9 ba3d
0.017664813 0.05609883 -0.11351464 -0.10810778 0.097518824 -0.11103811 0.093037896 -0.11378294
0.09551332 0.090754874 0.100635 0.09297845 -0.10457335 0.09290666 -0.1130669 0.09768013
0.095499635 0.09486119 0.09332136 -0.113894336 0.09903438 -0.110874474 -0.11318011 -0.11338575
0.093960226 0.09124386 -0.05324741 0.095458314 0.09388223 -0.05436596 0.094452865 0.09117488

layers.bn2.running_mean f4 [32]
00000000: 2a0e 853f aed4 8a3f 6731 813f 2cfc 363f
00000010: 1c91 6f3f ceb8 683f 163d 893f 5eaf 8c3f
00000020: 5d41 813f 5d04 8d3f 39b1 623f 7478 7b3f
00000030: e788 263f 0023 823f 2ef7 a43f 5901 833f
00000040: 6738 893f 0aab 743f 1c58 893f 1e2d 963f
00000050: 4e11 5d3f da4f 803f 86fc 9b3f e451 9b3f
00000060: 7db9 663f 72f8 813f 4e19 9b3e 55b0 843f
00000070: 6462 7e3f 3569 7b3e e0a3 833f 50b4 883f
1.0394948 1.0846155 1.0093201 0.71478534 0.93580794 0.9090699 1.0721767 1.0991018
1.0098072 1.1016957 0.8855167 0.9823067 0.65052646 1.0166931 1.2887933 1.0234786
1.0720338 0.95573485 1.0730014 1.1732519 0.8635453 1.0024369 1.2186439 1.2134366
0.9012678 1.0153944 0.30292743 1.0366312 0.9936888 0.24551852 1.0284386 1.0680027

layers.bn2.running_var f4 [32]
00000000: ff71 fb40 d068 0841 0758 2c41 9f4b 5041
00000010: ec45 1141 ae25 2d41 42d8 1a41 0ac4 2a41
00000020: b8d5 1741 d2fa 2041 297b 1a41 2092 1341
00000030: 59f9 4541 dde7 1d41 436e 1e41 62af 1741
00000040: fceb 1941 459e 1441 35dd 1b41 d126 2a41
00000050: 5e30 1741 4296 2641 b173 2a41 5a73 2541
00000060: 5180 1241 9ff5 1a41 7489 5541 e0d3 1b41
00000070: 25f9 1641 c4f4 5041 99a4 1341 c6a2 1b41
7.8576655 8.525589 10.771491 13.018462 9.079571 10.821699 9.677797 10.672861
9.489677 10.061235 9.655068 9.223175 12.373376 9.869107 9.901919 9.480318
9.620113 9.28864 9.741506 10.634477 9.449308 10.411684 10.653245 10.340662
9.156327 9.684966 13.346058 9.739227 9.435826 13.059757 9.227685 9.72724

layers.conv1_1.weight f4 [64, 4, 9]
00000000: 290d ad3c acea 7e3d 026f 063d ba5c c63d
00000010: e68c 083e e051 bcbd 9178 6a3d d6d4 1b3c
00000020: f570 2d3e 6dc1 64bd 68f2 96bd d4b5 f0bc
00000030: 96aa 483c bf29 86bd 456f 063e beed 55bd
00000040: 2faf 193e 337f 25bb 437b 55bd b26a 193e
00000050: bdc4 12be 545d 42bd 9c81 c5bd d09e 043e
00000060: 81ac 1fbd 2c57 cc3d 4df7 8c3d 5479 06be
00000070: 4a38 abbc 37b6 34bc 14d3 113e 370d 213e
00000080: 51a8 24be 0e2a 293d af72 ecbd ba51 cebd
00000090: 0285 ac3d f732 833d 1443 c03d a498 c0bd
000000a0: a04b 9bbd ed06 60bc fb6d 753d 489c 18be
000000b0: 13e8 893d b634 9bbd a053 41bd 56d0 45bd
000000c0: 94d9 f13d 0ba1 323d ea05 17be c16d c83d
000000d0: d52a 30be 8dd7 213d db21 60bc d70b 1dbb
000000e0: d22e 2e3c ac34 c4bd 57d8 89bc 1016 0dbd
000000f0: 6363 643d 13c1 d83d 7a72 d8bd 33dd f3bd
00000100: cd08 18be 41da 23be db6a 67bd 91e5 af3b
00000110: 2b4b f0bd 833b eabd 0336 29be c961 20be
00000120: aaa7 413d 7945 a4bd d0dd 223e f01f 1d3d
00000130: 8d19 83bc fc10 f9bc 3910 3abd 7c59 103e
00000140: 219b 2a3e e724 9ebd c034 c9bd d1ae ba3c
00000150: d6fa 5f3d 927a 373e 8c54 e2bd 1460 bb3d
00000160: 7b3c ae3d 366e 11be 3096 f23c 3702 46bd
00000170: 0f25 3b3d 4b8e 48bd 7808 5b3d bd02 dcbd
00000180: d60e 32bd ea75 edbd b178 b63a 9e9f 133e
00000190: e05e 483d dee4 f53c dd8c 4c3d 1fcc c13d
000001a0: 56a4 04be 301d 03bd 4c29 c8bc 41e2 0cbe
000001b0: 4edb 15be 5ddb c6bd 52f5 a33d 6dc1 033e
000001c0: db9c 13be 8698 843c 9a4d 97bd cf96 ff3d
000001d0: c8bc cbbd 876b 89bd e295 b8bb cfe3 cbbd
000001e0: 85db e1bb 0ca3 aebd c09f d33c f0f8 723b
000001f0: 63d4 b83d 8ba3 833d 1534 fb3d 594d 15be
00000200: 2aa2 96bd b3e5 92bd 1a08 a8bd 54ec 5d3d
00000210: 712c 853d 01f6 e7bd 5366 03be 8f05 303e
00000220: ba68 083e 6f36 213d 13ab b4bd ac4b f83d
00000230: f004 19bd 58a6 083e db11 f23c decc 113d
00000240: 296d 54bc c1bc 9abd 1ab7 bd3d d8e6 993d
00000250: a136 233d feb9 c73d b662 f7bd 3152 92bc
00000260: 5af1 07be 9266 263d c09a c93d 491e 1f3e
00000270: 4a3b 13be a032 ee3d 3c1a 303c 2566 313d
00000280: e0d4 fcbd 29b9 b03c 236f c63d ef25 0f3e
00000290: f73b 083e d985 863d 5446 333d 09ea 01be
000002a0: f74e f63a 2dbf ea3d 0fc4 da3c be4f 49bd
000002b0: f6a6 83bd f98e da3d 870c dc3d 0ca4 f83d
000002c0: 5a1a bf3c 6bd3 60bd 7ab3 81bd a9a7 db3d
000002d0: 6eed 2fbd c630 e53d b9eb 5d3d f70c 033d
000002e0: 9da9 863d f361 0ebe 87b9 d23d a6eb d9bd
000002f0: c62b d2bd 551f d63d 2f7b 723c 90f2 1dbe
00000300: edb6 2f3d 548f 073e 3ab4 633d a922 e2bd
00000310: 5849 c7bd d566 0bbd 21f2 d1bd 52ff fe3c
00000320: 1456 823d c339 0d3e a4f2 c83c c876 283e
00000330: 78a0 25bd 2fbb 04be 1164 19be 9f1a 1a3e
00000340: 485c a1bd 6142 18be 6e74 203d 4645 163c
00000350: 3d2b b13d b753 1fbe 9c51 823d a1bd 96bd
00000360: e803 fa3b d0b9 973d fab9 cd3d 0fa4 c3bd
00000370: f976 cabd 14f7 033d 71d7 ad3d acc8 803c
00000380: 4b4f 4d3d c9a2 82bd 454e 633c 3b86 d53d
00000390: 5d87 debd fd81 1abe 356f 233e b8ea 943d
000003a0: 5133 0ebc e7cf 033e 2e63 703b 468a 203b
000003b0: 71c2 e13d 1ad6 ca3d ba1f 2f3e 5371 943d
000003c0: 2927 de3c f772 06be cef3 d6bb 9d11 dd3d
000003d0: 58dd 1a3d 88b2 083e c02f 73bd 5907 2bbe
000003e0: 180a ff3d 2cf0 d6ba 9c3b c13d ed1e d8bc
000003f0: ed5d 10bd e5c9 e83d 156c a7bb b83a 10be
0.02112444 0.06223552 0.03282071 0.09685655 0.13334998 -0.09195304 0.057243887 0.009511193
0.16937621 -0.055848528 -0.07370454 -0.029383577 0.012247702 -0.06550931 0.13128383 -0.05222868
0.15008233 -0.0025252819 -0.052119505 0.14982107 -0.14332862 -0.047452286 -0.09643862 0.12951207
-0.038982872 0.09977564 0.068831064 -0.1313222 -0.020900864 -0.0110297715 0.14240676 0.15727697
-0.16079833 0.041299872 -0.11545312 -0.10074182 0.08423807 0.06406205 0.09387794 -0.09404114
-0.07582784 -0.013673526 0.05991934 -0.14903367 0.06733718 -0.07578413 -0.04719889 -0.048294388
0.11809078 0.043610614 -0.1474835 0.09786559 -0.17203839 0.039512206 -0.013679947 -0.0023963356
0.01063128 -0.09580359 -0.016826792 -0.03444487 0.055758845 0.10583701 -0.1056871 -0.11907425
-0.14847107 -0.16001226 -0.05649839 0.0053679426 -0.11733087 -0.11437132 -0.1652451 -0.15662302
0.047279038 -0.08021063 0.15904927 0.038360536 -0.016003394 -0.030403607 -0.045425627 0.14096636
0.1666074 -0.07721882 -0.098245144 0.022788437 0.054682575 0.1791785 -0.11051282 0.09149185
0.085076295 -0.14202198 0.02961263 -0.048341956 0.04568964 -0.048963826 0.053474873 -0.1074271
-0.04347118 -0.11594756 0.0013921467 0.14416358 0.048918605 0.030016359 0.049939025 0.09462761
-0.12953314 -0.032010257 -0.024433754 -0.13758184 -0.1463444 -0.09709809 0.080057755 0.12866755
-0.14415304 0.01618601 -0.07387848 0.12479936 -0.099481165 -0.06709962 -0.005633102 -0.099555604
-0.006892624 -0.085271925 0.02583301 0.0037074648 0.090248846 0.06427678 0.12265793 -0.14580287
-0.07355149 -0.07172718 -0.0820467 0.05418046 0.06502617 -0.113262184 -0.12832002 0.1718962
0.133212 0.039358553 -0.08821692 0.12123808 -0.037358224 0.13344705 0.02954953 0.035595767
-0.012965479 -0.07555533 0.092634395 0.07514733 0.03984702 0.09752272 -0.120793745 -0.017861458
-0.13275662 0.040625162 0.09843969 0.15538897 -0.14378086 0.1163075 0.010748442 0.043310303
-0.1234529 0.021572666 0.096891664 0.13979314 0.13304125 0.06568498 0.043768242 -0.12686934
0.0018791844 0.11462245 0.026704816 -0.049148314 -0.0642833 0.10671801 0.10744577 0.121406645
0.023327995 -0.054889124 -0.063330606 0.10725338 -0.04295104 0.111909434 0.05417988 0.031994786
0.0657532 -0.13904552 0.10289293 -0.106406495 -0.10262255 0.10455195 0.014799877 -0.15424562
0.04289906 0.13238269 0.0555918 -0.11041767 -0.09730786 -0.034033615 -0.102512605 0.031127606
0.06364074 0.13791566 0.024529763 0.16451561 -0.040436238 -0.1296203 -0.14979579 0.15049218
-0.078789294 -0.14869072 0.039173536 0.0091717895 0.08650825 -0.15559278 0.06363222 -0.073603876
0.00762986 0.07408488 0.10045238 -0.09552776 -0.098859735 0.032218054 0.08488358 0.015720688
0.050124448 -0.06378705 0.013873641 0.10425993 -0.10865662 -0.15088649 0.15960391 0.072713315
-0.008679227 0.12872277 0.003668021 0.002449648 0.11023415 0.09904118 0.17101946 0.072481774
0.027118282 -0.13129793 -0.0065598255 0.10794375 0.037808746 0.13349354 -0.05937171 -0.16702022
0.12453097 -0.0016398481 0.09435198 -0.026381934 -0.035245825 0.11366633 -0.00510932 -0.140849

layers.conv1_1.bias f4 [64]
00000000: b77a efbd a7ce 3dbd 8850 b43d 1128 273e
00000010: c230 283e ab14 183e 934d 05be 2c70 233e
00000020: 5f70 223e 52ec d2bd 6807 39bd 5019 c1bd
00000030: 2f6e 88bd 6174 ac3d 6201 563d b02d 8f3d
00000040: 3deb cebd 59b7 c7bd 68ff ebbd f927 18be
00000050: fa6d 34bd 1fc1 053e 5669 c0bc 0c48 76bd
00000060: 954e cebd 7a68 90bd 377d 24be 0f61 d03d
00000070: 6dc6 e33d f415 1a3e 6c7a 973d d537 9abd
00000080: 6758 72bc 117d 093e 7657 ffbd 9141 29bd
00000090: 7aa5 e7bc 57c3 3ebd ba32 fdbd d7e4 c03d
000000a0: 216d a23d d060 f93d b60b 9b3d dbf6 0cbe
000000b0: 0939 0abe 0a15 393d 3ec5 f93c 5ad1 163e
000000c0: b826 fa3d a109 f5bd 1914 a6bd 23b5 0e3e
000000d0: 1693 81bd 9cc5 1abe 4b26 55bd dc1d 253e
000000e0: deec a23d cda2 d6bd 7e01 32bc 5ecb fcbd
000000f0: e535 053e 33a9 0b3e 8978 0abe d013 e2bd
-0.11693328 -0.046339657 0.088044226 0.16323878 0.1642485 0.14851634 -0.13017873 0.15960759
0.15863179 -0.10298981 -0.04517308 -0.09428656 -0.06661641 0.08420635 0.052247413 0.06991136
-0.10103462 -0.09751768 -0.11523324 -0.14858998 -0.044050194 0.13061951 -0.023487728 -0.060127303
-0.10073582 -0.07051177 -0.1606339 0.101747625 0.11121831 0.15047437 0.07396397 -0.0753018
-0.014791585 0.13426615 -0.12467854 -0.041322295 -0.028277148 -0.04657301 -0.12363191 0.09418648
0.07930971 0.12176669 0.07570593 -0.13766043 -0.1349832 0.04518608 0.03048956 0.14728299
0.12214416 -0.11964727 -0.08109302 0.13936286 -0.063268825 -0.15114444 -0.052038472 0.16124672
0.07955335 -0.104802705 -0.010864614 -0.12343477 0.1300884 0.13638763 -0.13522543 -0.11038935

layers.conv1_2.weight f4 [32, 64, 9]
00000000: 45aa 3bbc 69cc cd3c 49f2 933c 30ac 283d
00000010: c841 1ebd 173b b73c 981f 0cbd 9120 283d
00000020: d372 06bd a880 17bd 5680 0e3d 540d 923b
00000030: 66b9 a53c 622d 49bc c177 e73c d6b3 983b
00000040: 03dc 35bc dd26 85ba 1bad f9b8 a9bd 123b
00000050: 9446 423c d06a 7ebc eea0 183d 120e 9dbc
00000060: f032 ebbc 802e dc3c 470f 80bc 96e3 af3c
00000070: f457 e13c 1c79 ff3a 3c8b 943c 4aa6 a9bc
00000080: 113b a53c 7d86 863b b7b4 febc b2c7 873c
00000090: dca4 84bc 4b35 993c aedf 28bc d444 403c
000000a0: 29ad 22bd ad40 113d f5e2 aabc 2ebe f03c
000000b0: 5584 ae3c 66fd dbbc ab87 99bc 14b6 09bd
000000c0: 2e56 e83c 4889 b73c c7ef d53c 7c08 b13b
000000d0: eb94 bdbc a163 8abc 6e1d 38bb d3e9 22bd
000000e0: 1743 8a3c c91c efbc e0ab da3c 40f6 2b3d
000000f0: 79bf 5dbc b2cd 2a3c a187 24bd 5b33 df3c
00000100: 7840 4bbc ca5a f13b e9be 0abd f24b 8e3c
00000110: da59 05bc f82e f9bc 5a21 123c f1b5 c83c
00000120: 12ab 95bc 8294 083d 217c 413c 671c c3bc
00000130: a702 0abd aa70 f33c 94ff e73c 7b07 0cbd
00000140: bcb5 edbc 47c1 353d 2529 89bc 1290 9e3c
00000150: ed69 6ebc 74d6 cfbc 18d2 2c3d 7be0 df3b
00000160: 6f0f a0bc 55cb c33c 4bad ea3c 5f2e cebb
00000170: 22d1 43bd ce2f 7e3c 5785 02bd 3a62 cb3c
00000180: 8db9 0a3d c610 7cbb fca3 c03c 4403 47bc
00000190: f005 24bd 29c7 b0bc c2b8 ccbc aaf2 b7bc
000001a0: 5011 a93c d9b8 113c b326 9f3a 4e8b 843b
000001b0: 3239 913c b900 4cbd 0158 e93c 5ef7 fe3b
000001c0: 591e 3ebc 9cd7 b93c c93b 4b3d 048e c13c
000001d0: 2930 173c 7546 9bbc bdc3 d0bc 2c68 c93b
000001e0: 8746 a43c 2fde 4fbc 5e2e 79bc 5686 24bd
000001f0: adc4 703c 1005 163c e6cc 0b3c ba8d 963b
00000200: 778c f13c 4fe0 28bc deba fbba 7bac 33bb
00000210: 0f74 a7bb 35b4 883b 2c21 bd3b 4baa 65bc
00000220: 42d4 0abd 55ad 98bc ecf0 043d 73b4 c53c
00000230: 1328 0abd 89c3 4c3d 3fa4 283d c1f9 fbbc
00000240: 7e1e 9ebc af9e fd3c e309 5abc e66d a13c
00000250: f9e5 bf3c d810 b83c 76bd 6d3c 2084 b4bc
00000260: 52ca 6bbc b5e4 3fbd 3eaa f2bb 0a14 783c
00000270: 605b 45bd ba66 94b8 4dfc 60bb bc6a 6abc
00000280: 0f77 efbc 39e3 ac3b 7d64 0dbd ce1f 893c
00000290: df85 2c3d 0e29 a43c a259 bebc 677c 4f3b
000002a0: 12fd 80bc f8cf aabb 7987 b0bb 9f8b df3c
000002b0: c23d 833c bb05 c2bc 35f0 563c 9606 5f3c
000002c0: a653 ee3c d6f7 bcbc d082 5cbc c984 21bd
000002d0: 53b1 7f3b 2027 a83b 197e 8d3c c72a 913b
000002e0: a121 b43c aa9d 373c 48c8 823c 1b8a 313d
000002f0: 2ade 24bc 7252 8dbc 408b c73c a7a3 ce3a
00000300: e92a b7bc 59e9 823c 7dc0 c8ba 7884 0d3d
00000310: 374e 2abc 586a 58bd 5fe9 483d bad6 513c
00000320: b8a3 bbbc a8be 893c 6deb 8ebc ee04 d0bc
00000330: c1b4 523d 82ab 8abc 87ed 633c 9829 1a3c
00000340: d102 e3bc 4fcb 343d e856 bcbc b313 e43b
00000350: d5e3 8d3c 04ca 58bc 27ee e8bb fa05 93bb
00000360: 8d28 afbc d9a9 363c 75c9 b23c 24ae 08bc
00000370: 26b4 4d3b 2236 e2bc f13e 1a3d 5ea6 543b
00000380: 4c60 b03c 7720 13bc 36ea 9c3b 91a4 c63c
00000390: 4efa 7f3c a305 033d 7391 bb3b c56b 87bc
000003a0: 138a 5dbc 7faa 07bd bd8b 4dbc 616a 463d
000003b0: 4008 03bd 6ddc 91bc d34e d93c 4a1e 51ba
000003c0: c527 dfbc 27e2 d63c cd99 05bb 628a 5c3b
000003d0: 1324 343c 4968 333d 05bf 3c3d cbbf 54bc
000003e0: 1793 8dbc c23b b03c e6a8 1e3d 150e de3c
000003f0: 848a 7fbc 5b02 dc3c 7c3b d93c 888d 88bc
-0.01145417 0.025121884 0.018059867 0.041179836 -0.038636953 0.022367043 -0.034209818 0.041046683
-0.03282435 -0.03698793 0.03479036 0.0044571552 0.020230006 -0.0122788865 0.028255345 0.00466011
-0.011099818 -0.0010158677 -0.00011905489 0.0022390878 0.011857647 -0.015528396 0.03726285 -0.019171748
-0.028710812 0.026877642 -0.015632285 0.021470826 0.02750776 0.001949105 0.018132798 -0.020709176
0.020169767 0.0041053877 -0.03109203 0.016574714 -0.016191892 0.01870217 -0.010307236 0.01173516
-0.03971592 0.03546207 -0.020860175 0.02938756 0.021303335 -0.026854228 -0.01874145 -0.03362091
0.028361406 0.022404328 0.026115311 0.0054026227 -0.023142299 -0.01689321 -0.0028093713 -0.039773773
0.016877694 -0.02918853 0.026693285 0.04198289 -0.01353442 0.010425018 -0.04016841 0.027246168
-0.012405507 0.007365559 -0.033873472 0.017370198 -0.008139098 -0.030417904 0.008919084 0.024500819
-0.01827005 0.033344753 0.01180938 -0.023817254 -0.033693936 0.029716808 0.028320111 -0.03418682
-0.029017322 0.044373777 -0.016743252 0.019355807 -0.014551622 -0.025370814 0.04219255 0.00683218
-0.01953861 0.023900667 0.028647086 -0.006292149 -0.047806866 0.015514327 -0.031865444 0.024827112
0.03386836 -0.0038462146 0.023515694 -0.012146775 -0.040044725 -0.021579342 -0.024990443 -0.022454578
0.020638138 0.008894169 0.001214227 0.0040449267 0.017727468 -0.049805377 0.028484346 0.0077809533
-0.011603915 0.022685818 0.049617562 0.023627289 0.009227791 -0.018954495 -0.02548396 0.0061464515
0.020053161 -0.01268725 -0.015208809 -0.040167175 0.014695329 0.00915648 0.008532738 0.004594532
0.029485924 -0.010307386 -0.0019205471 -0.0027416039 -0.005110271 0.004171873 0.0057717767 -0.014017652
-0.03389383 -0.018637339 0.032456324 0.024133896 -0.033729624 0.049991164 0.041172262 -0.03075874
-0.01930165 0.030959455 -0.013308021 0.019705724 0.02342509 0.02246897 0.014510503 -0.022035658
-0.014391499 -0.04684897 -0.0074055484 0.015141496 -0.048182845 -7.076324e-05 -0.003433007 -0.014307674
-0.029231576 0.0052761105 -0.03451966 0.016738798 0.042119857 0.020039108 -0.0232361 0.0031659843
-0.015745673 -0.00521278 -0.0053872433 0.027288256 0.01602066 -0.023684373 0.013118793 0.01361241
0.029092621 -0.023067396 -0.0134589225 -0.039433274 0.0039015606 0.005131617 0.017272042 0.0044301483
0.021988692 0.011207024 0.015964642 0.0433446 -0.010062734 -0.017251227 0.024358392 0.0015765325
-0.022359328 0.01598041 -0.0015316155 0.03455016 -0.010394624 -0.052835792 0.049050685 0.012807542
-0.022905216 0.016814545 -0.017446244 -0.025392976 0.05144191 -0.016927484 0.013911611 0.009409331
-0.027711304 0.044139203 -0.022990659 0.006960356 0.017320553 -0.013231758 -0.007108468 -0.0044867964
-0.02138164 0.011148893 0.021824578 -0.0083423 0.0031387894 -0.027613703 0.03765768 0.0032447795
0.021530293 -0.008979908 0.0047886623 0.024248393 0.015623642 0.031987797 0.005724126 -0.01653088
-0.013521689 -0.033121582 -0.012545523 0.048441295 -0.03199029 -0.017805303 0.026526844 -0.00079772307
-0.027240643 0.026230885 -0.0020385862 0.0033651819 0.010994929 0.043800626 0.046080608 -0.01298518
-0.017282052 0.02151287 0.038735293 0.027106324 -0.01559699 0.026856592 0.026517622 -0.01666905

layers.conv1_2.bias f4 [32]
00000000: 92ee 0abd 11a1 f33b 0676 c5bc cea4 d6bc
00000010: efc5 36bc 58a1 83bc bb40 14bd b3b5 dbbc
00000020: a043 39bc 34bb e83c b994 8b3c b664 233d
00000030: 38f7 a63c ae43 adbc fd88 d93b f035 27bd
00000040: 5a79 04bc c67f 0f3d 16ec 893b c273 35bc
00000050: d549 273d 1dcb 0abd 3f43 1a3d 97ad 9e3b
00000060: de01 13bd 61c8 72b9 90a0 213d 7a4c 05bd
00000070: 43f7 463c b313 15bd 7b89 8bbb 4362 e83c
-0.033918925 0.007434972 -0.02410413 -0.026201632 -0.0111555895 -0.016068146 -0.036194544 -0.02682004
-0.011307627 0.028409578 0.01703869 0.039890967 0.020381555 -0.021150436 0.0066386447 -0.040822923
-0.008085573 0.035033964 0.004209052 -0.011074962 0.040841896 -0.03388511 0.037661787 0.004842471
-0.035890453 -0.00023153565 0.039459765 -0.032543637 0.012143913 -0.03639574 -0.0042583323 0.028367167

layers.conv2_1.weight f4 [64, 4, 20]
00000000: 71b1 6cbd b6e1 05bd 5c36 eebc bbf6 a43c
00000010: 46bb 753c 2e33 9cbb d435 ad3d 6979 f6bc
00000020: b7a0 6cbd 13ee c2bd ccec d43d 3161 ecbb
00000030: af85 2cbd aab4 013d f9d0 4f3d 372e f7bb
00000040: 86cb 323c fbe5 913c dd71 08be 4a38 063e
00000050: cdd0 9e3c 2f41 93bd 0c46 97bd 126b 3c3d
00000060: 0027 7cbd 4de5 0c3d 6160 a7bc 013d 9dbd
00000070: f54c b5bd aa01 da3d 84d2 d93c 60d5 98bd
00000080: 2a6b cc3d dac3 973d 8d2a acbd 7a24 663c
00000090: ddb8 b23d 45d1 62bd b5e2 90bd 3fe6 73bd
000000a0: dcb2 82bd 6f15 b7bc ea05 743d 71ba ad3d
000000b0: 8f36 6a3d 21e0 03bd 3007 81bc 3c03 c63c
000000c0: 28db 87bd f574 10bd 8e5b f4bc 8482 803b
000000d0: fd1d 693d eca6 eebc f674 dcbd 80a1 8c3d
000000e0: 2cd0 a93d b57a 88bc 9975 34bd 8911 85bd
000000f0: 740d 80bd 4aac 3abd 4b9c a33d 0ca0 0f3d
00000100: f7b5 89bc 41c5 9fbc e9d8 20bd 427a 063d
00000110: 74ef 55bc 3591 58bc a84f 783d 4bc0 b23d
00000120: 5691 b0bd 161b 09bd 1508 febb 825e 8a3d
00000130: 208d 3c3d 366b 8a3d a09e 603d 81be cf3d
00000140: 1d56 1dbd 15f3 0a3e 6036 9cbc a93a b43d
00000150: 5cd2 b63b d505 463d 7b23 cbbc 6451 61bd
00000160: 5d49 96bd 7cb2 b13d f47a b8bc 7405 b63d
00000170: d2b3 3b3c c227 67bd 6b80 683d 153e 5fbd
00000180: b822 b0bc b40d cbbc e006 373c bc11 96bc
00000190: 1157 983d b00a e03d eb25 813d a8c0 483c
000001a0: 78cf e53d 01b0 b53d 73de c6bd 54fd e53c
000001b0: fcaf 65bb 6b02 2f3d 8cd8 ca3d 9c92 2e3d
000001c0: 0d52 ccbd 3abe 213d fb49 b53d 9139 8dbd
000001d0: c253 9f3d 0125 ae3d 4cb4 95bd f0b8 afbd
000001e0: 23d0 8c3d e905 9dbc ed4d d2bd 644d debd
000001f0: 1f0b 8b3d 4a13 bdb8 e66d 53bd f1d3 443c
00000200: 31ff 9cbd 2013 363d a8c3 5f3d d666 b4bd
00000210: cf05 44bd 765b 853c 7e35 22bb a9d6 4ebd
00000220: df56 183c 2c27 a03c af0a b6bc cf30 84bd
00000230: 0881 e03d 6b52 ccba 6b05 8dbd b5fd f73d
00000240: 4f47 72bd ffde eb3d ec0d d8bb 1a53 7a3d
00000250: fe88 a4bd b102 043e 8ff9 51bd 64f9 dfba
00000260: 43d8 57bd 8c7d dd3d d6f9 60bd ea1e eb3d
00000270: 21d5 b23c 66b8 9dbd 57d1 573d 2ba4 c53c
00000280: e340 263c ff9a eebd 8f56 1f3c 8e3c d3bd
00000290: 7a27 143d c272 aebd 26d6 87bd f19a 68bd
000002a0: 8352 843c aab2 cdbd 2b83 08bd 2cf1 8a3b
000002b0: a44a c4bc 6ce4 51bd 6219 d1ba 6c10 67bd
000002c0: c02a 81bd 9a07 c13b a029 bebb e9f5 ebbc
000002d0: 2ff2 00be bd9d a4bd 7af2 823c 8671 eb3c
000002e0: 0477 d8bd d9a2 1e3c b8c4 d2bd b9be b5bd
000002f0: 6f47 683d c859 bcbd e694 96bc e8a1 54bd
00000300: ee55 c2bd 6db5 89bd f6bf df3b 272d bdbd
00000310: bc7d 45bd 3174 d93c 473e ebbd 162c 97bd
00000320: 1171 aeba 08e3 1abe 70e8 2dbd 6ffe d9bd
00000330: 7f49 683d 1da4 f1bd a638 d1bd 458b d0bd
00000340: 852d a2bb a50d 0d3d 2990 43bd 3e8b d53c
00000350: d378 96bd 0ab9 dfbd 7831 81bd 7ba3 a7bd
00000360: 47bb 5abc 8b30 40bd 30ce 7dbd 0d07 f2bc
00000370: c1af 013c a01e 3dbd 350a 863c 8293 c7bd
00000380: 4473 8f3a a55c 34bd 7cf5 a2bd acd9 07bd
00000390: c667 7a3c b249 603d 2ce8 5fbd e82c f23b
000003a0: 0d12 b1bd 48c1 a537 c95f 8bbd a0b4 5cbd
000003b0: b947 1ebd c1ad b1bc 0d33 8a3c 0c82 71bd
000003c0: c39e 16bd 4fd7 fabc bac4 37bd 9780 5fbd
000003d0: db32 963d 1bcd d13d f335 b73d 8c08 e13d
000003e0: 65c4 8bbc d764 d33c 54cc c23d c6dc d93c
000003f0: 830d 3ebc 056e bcbc 55a9 e73d adb4 273d
-0.05778641 -0.032685958 -0.029078655 0.020137182 0.014998263 -0.0047668433 0.084575325 -0.03008719
-0.057770457 -0.09518065 0.10396728 -0.0072137346 -0.042119678 0.031666435 0.0507364 -0.007543351
0.010912782 0.017809859 -0.13324685 0.1310741 0.019386673 -0.07190167 -0.07386407 0.046000548
-0.06156063 0.034398366 -0.0204317 -0.07677651 -0.08852569 0.10644849 0.02658964 -0.07462573
0.099813774 0.074104026 -0.084065534 0.014046783 0.08726666 -0.055375356 -0.07074491 -0.05954575
-0.06381771 -0.022349088 0.059575953 0.084828265 0.057180937 -0.032196168 -0.015750498 0.024171464
-0.066335976 -0.03526779 -0.029828813 0.0039218087 0.056913365 -0.029132329 -0.10764496 0.06866741
0.08291659 -0.016660074 -0.044057462 -0.06497485 -0.06252566 -0.045574464 0.07988795 0.035064742
-0.0168104 -0.019503238 -0.03926936 0.032831438 -0.013057578 -0.013218214 0.06062284 0.08728083
-0.08621471 -0.033473097 -0.0077524283 0.06756307 0.046033025 0.0675873 0.054838777 0.101437576
-0.038412202 0.13569291 -0.019068897 0.08800251 0.005579276 0.048345406 -0.024797192 -0.05500926
-0.07338212 0.08676621 -0.022519566 0.08887759 0.011456447 -0.0564344 0.056763094 -0.054502565
-0.02150093 -0.024786808 0.011171073 -0.018319003 0.074384816 0.109395385 0.063060604 0.012252964
0.11221212 0.08871461 -0.097103976 0.028074898 -0.0035047522 0.042726915 0.09904584 0.042620286
-0.099765874 0.039488055 0.08852001 -0.068957455 0.077796474 0.08503152 -0.073097795 -0.08580196
0.068756364 -0.019167857 -0.102687694 -0.10854605 0.067892306 -9.015815e-05 -0.05161848 0.012013421
-0.076658614 0.044451833 0.05462995 -0.08808677 -0.047857102 0.016278964 -0.0024751122 -0.050497685
0.009298055 0.019549929 -0.022221891 -0.06454622 0.10962111 -0.0015588527 -0.06885799 0.12108938
-0.059150036 0.115171425 -0.0065934565 0.061114408 -0.08033942 0.12891652 -0.05126339 -0.0017087874
-0.052696478 0.10814962 -0.054925762 0.11480506 0.021830143 -0.07701187 0.052689876 0.024126133
0.010147306 -0.11650657 0.009725227 -0.10314284 0.03617046 -0.08517982 -0.066326424 -0.05678839
0.016152626 -0.10043843 -0.033328217 0.0042401757 -0.023961373 -0.05124323 -0.0015952999 -0.056412145
-0.06306982 0.0058907988 -0.005803302 -0.028803783 -0.12592386 -0.08037899 0.015984762 0.028740656
-0.105695754 0.009682381 -0.102914274 -0.08874268 0.05670875 -0.09196812 -0.018381547 -0.05191222
-0.09489046 -0.06724057 0.0068283034 -0.09237128 -0.048215613 0.026544662 -0.11486488 -0.073814556
-0.0013308843 -0.15125668 -0.042457998 -0.106442325 0.056710716 -0.1179888 -0.10215883 -0.101828136
-0.004949274 0.03443684 -0.047744904 0.026067372 -0.07347264 -0.10923965 -0.063082635 -0.08185478
-0.013350314 -0.046921294 -0.061964214 -0.029544378 0.007915438 -0.046171784 0.016362289 -0.09744932
0.0010944386 -0.044033665 -0.07956979 -0.033166572 0.015283531 0.05475778 -0.054664776 0.007390607
-0.08646021 1.9759536e-05 -0.06805379 -0.053883195 -0.03864262 -0.021689298 0.016870046 -0.058961913
-0.0367725 -0.030620245 -0.044865347 -0.054565992 0.07333919 0.10244199 0.08945837 0.10987958
-0.017061422 0.02580492 0.09511629 0.02659453 -0.011599901 -0.02300168 0.113115944 0.04094379

layers.conv2_1.bias f4 [64]
00000000: 0756 aa3d 6f0f 8e3d 827f babc 6742 7c3c
00000010: deaf 603d 3c5e c3bd dce1 593b f3eb 603d
00000020: 7d3d 86bd 407b 0bbd fe56 73bd 6edb 40bd
00000030: b3c3 d6bd 3881 14bb 31d1 a73d 6822 b33b
00000040: 5823 90bc 2770 d03d 8a09 d43c 7319 ad3d
00000050: 9cff 5d3d 9307 413d 162e e3bc ad55 97bd
00000060: b570 7cbd 9185 42bd af08 083d ad95 bebd
00000070: 9a52 c7bd a60f 533d 3347 d9bd c64c 623d
00000080: cad2 d43d 983f 493c 7fe8 863d 8abf 8bbd
00000090: a1fb 56bd 2ee1 9dbd 790b fbbc fa4d 653b
000000a0: fb93 80bd 3786 0abc dcc9 c0bd 2301 cf39
000000b0: a6b8 583d 1974 20bd 0fcb a4bd bd3f c53d
000000c0: b9fb 6f3d 99b4 f4bc 9d44 363d 6fa3 c9bd
000000d0: b314 95bd 3175 e3bd 5a0c e3bd 2de2 a5bd
000000e0: aed2 7a3c 8a89 423d 81b5 dbb8 58d6 ee3c
000000f0: b882 e1bd 88a9 cb3c 0b08 1939 36bd 5b3c
0.0831719 0.069365375 -0.022765879 0.015396691 0.05485522 -0.09539458 0.0033246195 0.05491252
-0.06554697 -0.034053087 -0.059409134 -0.047084264 -0.104865454 -0.0022660028 0.08194197 0.005466748
-0.017594978 0.10177641 0.025883455 0.0845212 0.054198846 0.047126364 -0.027731936 -0.07389388
-0.061630923 -0.04749066 0.033211406 -0.09305892 -0.09732552 0.051528595 -0.10609283 0.055248998
0.10391767 0.012283228 0.06587314 -0.068236426 -0.052486066 -0.07708965 -0.030645119 0.0034989105
-0.06278225 -0.008454851 -0.094135016 0.00039482964 0.05291047 -0.03917322 -0.08046543 0.09631298
0.05858967 -0.029871272 0.04449903 -0.098456256 -0.07279339 -0.11106337 -0.1108634 -0.0809978
0.015309019 0.04749445 -0.000104765415 0.029154941 -0.11011261 0.024861112 0.00014594213 0.013411811

layers.conv2_2.weight f4 [32, 64, 20]
00000000: a626 4b3c 079f 693c fff2 053c f11e 503c
00000010: 4145 563c 7fe5 373c b131 543c eac4 973c
00000020: ce24 b73c 8e35 b13c 9e2e ca3c 4bba aa3c
00000030: 8d2e a53c 3d9c a53c 9c8b 8e3c e93c 873c
00000040: f395 5f3c 6567 5d3c 8dc1 6a3c 4b65 2f3c
00000050: 25e4 8d3c 3f22 a23c 0f58 893c a8c0 c03c
00000060: 3801 d73c d0b4 d03c f75d d23c 7aa7 7e3c
00000070: d412 b03c 5c2e 943c 85a9 5c3c 04d0 c93b
00000080: 8cc8 b83b 3497 503c 68a1 193c 9a4b 4f3c
00000090: fd18 153c 3675 183c ad3c 213c 1419 5b3c
000000a0: d877 6abc 0ae6 5ebc 84f0 f33b 8794 633c
000000b0: a5a7 3dbc 94a7 d43c 361d 8b3c c5a2 c43b
000000c0: 7c69 603c 0316 5abb feb9 94b8 7a97 03bc
000000d0: c6c9 063a 950c 12bc f6e1 e6ba 5fb2 9e3b
000000e0: ee7d 8abc 3f70 bbbb 7010 ca3b cfae cbbb
000000f0: a2a1 9fbb b6ad cfbb ddb2 09bc c4af 7bbb
00000100: 8e5a d7bb 9883 54bc 0114 3c3c e2c1 593b
00000110: 45d5 1e3b 7d4f 3a3c 6e6b b93b df7a a8bb
00000120: 231e 6abc ad4c 58bb 1355 f638 6359 d7bb
00000130: 5c9c 683c 7de5 34bc bc6b a43c a324 a93b
00000140: 3dc4 a83c d609 143d d6db 8d3c c6de a93c
00000150: c69b a43c 84c8 313c fdce 603c e96d ba3b
00000160: f1fb c33c 8b62 553c b6ba ce3c 0834 843c
00000170: 2cde 573c eb6c 743b 6eaf 823b ebaa a53c
00000180: 24d9 8c3c 20f4 c33c 7ccf dd3c d996 b63c
00000190: 6f5e 3e3c d502 673c 1afa 703c d837 5a3c
000001a0: 79c8 803c e270 9b3c 02a4 5c3c 9f1c 473c
000001b0: 0387 393c 361c 5e3c fab6 403c 40f4 e23b
000001c0: cb36 113c e067 833b f70d 833b 69eb 623b
000001d0: 5aea 443b 9557 97ba 01de 70ba eaef febb
000001e0: 0570 ab3c 2c7e 893c a238 743c a4fe c03c
000001f0: 9bd3 4d3c 4bbd a83c 5d21 aa3c 6b14 093d
00000200: ae42 d63c 79b8 f63c f86d d43c 901e d53c
00000210: acde b93c 432e 333c b205 493b 0a4d e23b
00000220: d47c 153c a433 0dba 9b93 ea3b 8763 503b
00000230: e705 9a3c 50b1 163c 4ba2 9b3c b762 833c
00000240: f3fa 0c3c 939a 393c 7d2a d13a b4a5 883b
00000250: 4ed7 e43b dc63 913b db14 a23b 5bb4 123c
00000260: c083 bc3b 3c85 263c 8b3b 3c3c 05a1 0e3c
00000270: e085 523b 9fff 9c3b 5b60 7e3b ac5f de3b
00000280: c543 cc3c 4714 fe3c 58b6 4e3c 9992 d13b
00000290: 0ee0 d73b d490 903c f59c 873c 163d 893c
000002a0: 9579 713b 83dd 8bbb d858 113b e3b9 5abb
000002b0: 9e5f 883c 47be 653c 67d6 a8b8 a2a0 c53c
000002c0: 1dbb d63b 55e5 c83c 03e0 633c 3663 be3c
000002d0: fcee b83c 78e1 033d 1c03 5a3c 8586 dc3b
000002e0: 3f7f f23b 8dbe 343c bc19 453b e575 afba
000002f0: 0223 c8bb 9644 b5bb 22fa 123b e355 39bc
00000300: fb2f 0dbc b8a4 d93a 9398 2c3b fd97 4d3c
00000310: 4315 1c3c 0aca 013c 8e83 ad3b ad7d 473c
00000320: 80ad be3c 4654 d73c b859 923c f2e2 fc3c
00000330: 1202 9c3c 323a 613c c7c8 f53b 0c0e 8b3c
00000340: d23c b03b 9087 5e3c 31d2 033c 66b4 0d3c
00000350: eb3f 963c d6df 753c a518 b63b 6539 a03b
00000360: 67fb 4a3c c580 553c 292c a53c 13d0 773c
00000370: 9bfb 7e3c 0d69 9e3c 9e3d 3b3c cc15 933b
00000380: 0b85 8d3c 1b7f 41bc ec8b 9abb 4f02 b3bb
00000390: f8bb 2dbc f1d1 85bc 3a57 54bb 8e03 1e3c
000003a0: 8ca6 103c 6753 063c fa6c 523b 96c1 8c3a
000003b0: 72a4 16bb 372b 083c 573c 833c e5e2 363c
000003c0: 5c71 cebc 8c12 eebc d74d 32bd 3bc8 27bd
000003d0: b3a7 4cbd 4e11 37bd dc2a 48bd cc26 51bd
000003e0: b923 56bd 89b4 44bd 1557 5bbd c3b6 4abd
000003f0: e75c 2fbd 7481 3bbd f28e 31bd 8dde 40bd
0.012399351 0.0142591065 0.008175611 0.0127026895 0.013078035 0.01122415 0.0129513005 0.018526513
0.022356417 0.021631982 0.024680432 0.020840785 0.020163799 0.020216102 0.017400555 0.016508536
0.0136465905 0.013513421 0.014328373 0.0107053025 0.017320702 0.01979172 0.016765622 0.023529366
0.026245698 0.025476843 0.025679572 0.015542859 0.021493353 0.018088512 0.013468151 0.0061588306
0.0056391414 0.012731362 0.009376861 0.012652302 0.009100196 0.009305289 0.009841126 0.013372678
-0.0143108 -0.01360465 0.007444443 0.013890392 -0.011575614 0.025958814 0.016981702 0.006000849
0.013697024 -0.003327728 -7.091834e-05 -0.00803172 0.0005141761 -0.008914133 -0.0017614949 0.004843041
-0.016905751 -0.005720168 0.0061665103 -0.006215907 -0.004871563 -0.0063378466 -0.008404461 -0.0038404325
-0.0065720743 -0.0129708275 0.011479379 0.0033227135 0.0024236005 0.011371491 0.0056585586 -0.0051416005
-0.014289412 -0.0033004687 0.000117460404 -0.006571935 0.014197435 -0.011041042 0.020070903 0.005161838
0.020601386 0.036142193 0.01731674 0.02073611 0.02009381 0.010851029 0.013721225 0.005689372
0.023923846 0.013023983 0.025235515 0.016138092 0.0131755285 0.0037296365 0.003988198 0.020223102
0.017193384 0.023920119 0.027076475 0.022288727 0.011619194 0.014099796 0.014708066 0.013318978
0.015720593 0.018974725 0.013466837 0.01215282 0.011323693 0.013556531 0.011762375 0.0069260895
0.008863161 0.0040101856 0.0039994675 0.0034625179 0.003004691 -0.0011546487 -0.00091883546 -0.007780065
0.020927439 0.016783796 0.01490608 0.023558922 0.012562658 0.020598074 0.020767862 0.033466738
0.026154842 0.03011726 0.025931343 0.02601555 0.022689186 0.010936323 0.003067356 0.0069061564
0.009124 -0.0005386418 0.007158709 0.0031797604 0.018801643 0.009197548 0.018998286 0.016038282
0.008604753 0.011328357 0.0015958097 0.004170144 0.006983674 0.004436953 0.004946334 0.008954133
0.0057530105 0.0101636015 0.0114888055 0.008705382 0.0032123253 0.0047912146 0.0038814757 0.0067863073
0.024934659 0.031015528 0.012616716 0.0063956496 0.0065879887 0.017647184 0.016554335 0.01675276
0.003684615 -0.0042683496 0.00221782 -0.0033374957 0.016647156 0.014022416 -8.0508e-05 0.024124447
0.0065530674 0.024523417 0.013908389 0.023240667 0.022574894 0.032197446 0.013306405 0.006729903
0.007400423 0.011031759 0.0030075153 -0.0013386576 -0.006107689 -0.0055318577 0.0022426923 -0.011311981
-0.0086173965 0.0016604876 0.0026336059 0.012548444 0.009526554 0.007921705 0.0052952236 0.01217596
0.02327609 0.026285302 0.017865047 0.030869935 0.019043956 0.013746785 0.007500741 0.016974472
0.005378344 0.013582125 0.008045719 0.008648967 0.018341025 0.01500698 0.005557137 0.0048896545
0.012389041 0.013031189 0.020162659 0.015125292 0.015562917 0.019337201 0.011428265 0.0044886824
0.017275354 -0.011810089 -0.004716387 -0.0054629217 -0.010603897 -0.01633546 -0.0032400624 0.009644402
0.00882877 0.008198596 0.0032108412 0.0010738845 -0.00229862 0.0083110845 0.016019983 0.011162494
-0.025200538 -0.029061578 -0.043531265 -0.04096244 -0.049964618 -0.044694237 -0.048869 -0.05106239
-0.05228016 -0.048023734 -0.053549845 -0.0494907 -0.042813208 -0.045777753 -0.043349214 -0.04708724

layers.conv2_2.bias f4 [32]
00000000: 6a8e 1cbc 2600 813a 65f4 073c 9585 db3c
00000010: 7433 12bc a430 6c3b c8cb d63c ccdf fe3b
00000020: df72 69bc f3e0 3ebc baf0 e03c f290 95bc
00000030: 0bec 583c f966 27bc f0f2 7dbc 6510 74bc
00000040: 524a aa3c dbc7 cd3c 4656 acbc 0dd0 783c
00000050: 3634 6fbc 6ace 22bb 812c 403c 2144 2cbc
00000060: 878e a3bb d5d8 723c fdb8 4a39 3d08 3f3c
00000070: d53c 853c 2bec b03c 4784 02ba 84a6 58bb
-0.0095554385 0.0009841963 0.008298014 0.026797095 -0.0089234 0.0036039734 0.026220217 0.0077781435
-0.014248579 -0.011650312 0.027458537 -0.018257592 0.013239871 -0.010217422 -0.015499815 -0.014896487
0.020787392 0.025119713 -0.021037232 0.015186322 -0.01459985 -0.002484227 0.011729361 -0.01051429
-0.004991356 0.014822205 0.00019333135 0.011659679 0.016264359 0.021596989 -0.00049788173 -0.0033058235

layers.conv3_1.weight f4 [32, 4, 49]
00000000: 5770 e6bd 2cbf d1bd 6f67 acbd 3157 b8bd
00000010: f0c0 6fbd b81c 7ab9 5a17 1ebd 1d5a 60bd
00000020: e208 4cbd 4d43 123c 8de8 143b 8032 39bc
00000030: 6fe5 42bb 667b 97bc 9f95 cdbc 260d 333d
00000040: 00d1 8d3c c042 d43c 1d36 7839 4e28 953c
00000050: 714b f0bc bd1a c3bc c4c8 bf3c 06fb 8fbc
00000060: c9cf e9bc 5c55 9a3c 8e91 c23c facc c53c
00000070: 6f76 9fbb 50ca 11bc 6d92 ed3c ca0c b1bb
00000080: 1261 d53c ccf7 febc 614c 8f3c f3ab 843a
00000090: 6cb6 ea3c e654 283c dc76 4a3c d0c1 29bd
000000a0: e659 ee3b 437d f53a d55c bebc 3903 b1bc
000000b0: 2637 2bbd 948b 87bd 842c 4ebd 5fa6 45bc
000000c0: ade1 12bd df09 f3bd b6c1 46bd 9cbc a7bd
000000d0: 5361 b0bd 3ddb d3bd c698 9cbd e971 f6bc
000000e0: bef4 0abd 78ac b23b e957 fcbc 5f9f 603c
000000f0: c446 a0bb 55a8 8fbc 46d8 1bbd fabb d33c
00000100: b61e 0bbd 7496 153d 7e83 f1bc 4b39 353d
00000110: 1e81 e43c 7548 2a3d b1e9 adbc 5fe9 93bc
00000120: 5882 41bd a60c 30bd 8629 073d be2d d33c
00000130: c18b 4cbc 212c cc3c 9264 743c a344 0fbc
00000140: 9ba3 a2bc 7347 3ebd 1c30 10bd 5fd0 bbbc
00000150: 8cff 633b e31c 1dbd d9b7 39bc fa17 bc3c
00000160: 6624 6abd 9a9f 72bc 0ffc cfbc 7a9a 7bbd
00000170: b72a cfbc 6a58 d2bd 97ec 5abd 55ce 5ebd
00000180: 5d89 213b c056 d6bd b983 4dbd c1ae 3ebd
00000190: b326 a2bc 49c5 f3bd d215 3dbd e120 fabb
000001a0: 0e20 eb3b a7a7 5abd 14d0 1fbd daf8 24bc
000001b0: cf54 39bd 0151 243d ff96 06bd 3197 bebc
000001c0: 68f7 0dbd c04e c2bc f1f8 babc 1fde c5bb
000001d0: 3e89 9bbc a411 033d 25d5 d0bb 2109 533b
000001e0: 97ba 313c 05a5 c2bc 5b0e 4abd 29e9 eabb
000001f0: ba2d 533d cf24 debc f259 87ba 6c2b babc
00000200: e001 403d e634 b6bc dc55 81bc 42d4 5bbc
00000210: ec9f 1cbc efe6 68bd 3d5f 81bb c898 8dbd
00000220: 68b2 e7bc b48f 82bb 1ebb 5abd a1ce 9fbd
00000230: 32f6 37bc d973 21bd 61e5 ccbd 209c 84bd
00000240: 0d50 47bd a9ab d3bd e9e1 3ebd 393c 56bd
00000250: c831 16bd 8f4c a4bd 030d b7bd e5fd 95bd
00000260: 6a36 5fbd fb99 a53b 75d5 d4bc 54f1 02bd
00000270: 0aa0 c43c 85a5 2d3b bad6 453c 082c 94bc
00000280: 702d b13c 78da 0bbc 3414 cf3b 9bba 8d3c
00000290: adfc ccbc 19d7 96bc 93ad 84bc b001 95bc
000002a0: 5418 97bb c644 afb8 050c 14bb e21e 9d3c
000002b0: ea01 033d 4ff2 8e3b 5b5c 333c a637 e63c
000002c0: 4661 06bd 4c30 183d f701 b03c 1ab5 debc
000002d0: 19cb 0d3d e322 a53c d339 433c cca6 47bc
000002e0: 8880 a03b 8046 b8bc 1429 0cbc 984f 64bc
000002f0: d860 fcbc f7e3 17bd d51e 33bd 9b0b e6bc
00000300: 49a0 0ebd efb9 f2bc 049c d7bc c7c4 9738
00000310: affa 543c 6658 c7b9 c3ce 803d 1455 883d
00000320: 344b 6d3d bd1b 953d 77d9 853d 5120 a53c
00000330: e02c 993d e704 433d 89c2 513d 9c92 91bc
00000340: 0ae0 123d 4c6d bb3d 43d4 dbbc 55d6 9e3d
00000350: 8229 713b 2d13 9a3d b057 92bc 3348 573d
00000360: 08f3 32bc 6d83 a83d 8102 6fbc 9319 343d
00000370: c98a 883d ba06 263b ba99 6cbc 3427 b73d
00000380: 09dc 1c3c fd89 f83c 8b56 253b 282e bdbc
00000390: 1955 9b3d e782 93bc 0639 023d d647 103d
000003a0: 198a 313c c9dc 553d bd36 55bb b643 c5bc
000003b0: fc8c 433d 9bdc d33b 45b4 7a3c 4d8f 463d
000003c0: e700 653d f0fd 573d dd57 c6bc 13b9 8dbc
000003d0: 4409 8b3d 80e4 12bd 144f c9bc 4041 993c
000003e0: d9f9 cf3c cf37 583c 57fa 9b3d b557 273d
000003f0: 80ca 003d cf07 863d df10 0ebc d6a1 14bd
-0.11251896 -0.10241541 -0.08418166 -0.090010054 -0.05853361 -0.00023852556 -0.03859649 -0.05477344
-0.04981316 0.008927179 0.002272162 -0.011303544 -0.0029738804 -0.018491458 -0.025095759 0.04371371
0.017311573 0.025910735 0.00023671282 0.018207695 -0.029332848 -0.02381646 0.023411162 -0.017575752
-0.028541462 0.01883953 0.023751047 0.024145592 -0.0048664133 -0.008898333 0.029000485 -0.005403136
0.026047263 -0.031124018 0.017492475 0.0010122046 0.028651439 0.010274148 0.01235744 -0.0414446
0.0072739003 0.0018729348 -0.023237625 -0.021607982 -0.04180064 -0.06618419 -0.050335422 -0.012063592
-0.035859752 -0.11867117 -0.04852458 -0.08190271 -0.08612313 -0.10344551 -0.07646327 -0.030083613
-0.03392481 0.005452689 -0.030803638 0.013709872 -0.0048912484 -0.017536322 -0.03804805 0.02584647
-0.033964835 0.036520436 -0.029481646 0.044244092 0.0278936 0.041573007 -0.021229597 -0.018055616
-0.047243446 -0.042980812 0.032998584 0.025778648 -0.012484492 0.024923386 0.014916556 -0.008744392
-0.019853404 -0.046454858 -0.03520213 -0.022926508 0.003478977 -0.038357627 -0.011335337 0.022960652
-0.05716362 -0.01480856 -0.025388746 -0.061426617 -0.025288923 -0.1027077 -0.053448286 -0.054395992
0.0024648525 -0.10465765 -0.05017445 -0.046553377 -0.019793844 -0.119028635 -0.046163388 -0.007633314
0.007175452 -0.053382542 -0.0390168 -0.010069096 -0.045246895 0.040116314 -0.032858845 -0.023265453
-0.034659773 -0.023719192 -0.022823783 -0.006038442 -0.01898634 0.031999245 -0.006373065 0.0032201486
0.010847709 -0.023760328 -0.049330097 -0.007168908 0.05155728 -0.027117161 -0.0010326488 -0.022725783
0.04687679 -0.02224202 -0.015788011 -0.013417305 -0.009559613 -0.05686086 -0.003948121 -0.06913906
-0.028283313 -0.003984416 -0.053401105 -0.07803083 -0.011228131 -0.03941712 -0.10004688 -0.06475091
-0.048660327 -0.10335476 -0.046602163 -0.052303527 -0.03666857 -0.08022415 -0.08938029 -0.07323817
-0.054495253 0.0050537563 -0.02598069 -0.03196843 0.024002094 0.0026496362 0.012075121 -0.018087402
0.021628112 -0.008535974 0.006319547 0.017300894 -0.025022829 -0.018413113 -0.016196048 -0.018189281
-0.0046110544 -8.35746e-05 -0.0022590172 0.019179765 0.031984247 0.0043623815 0.010947312 0.028102707
-0.03280761 0.037155434 0.021485312 -0.027185965 0.034617517 0.020158237 0.011915642 -0.012185764
0.0048981346 -0.022494555 -0.008554716 -0.013934992 -0.030807897 -0.03708264 -0.043730576 -0.028081706
-0.03482083 -0.029629676 -0.026319511 7.236894e-05 0.012999221 -0.000380221 0.06289437 0.06656852
0.057933047 0.07280681 0.06535619 0.020157011 0.07479262 0.047612097 0.051210914 -0.017770104
0.03585819 0.09151706 -0.026834613 0.07755724 0.0036798422 0.07523189 -0.017864078 0.05255909
-0.010922201 0.082281925 -0.014587999 0.043969702 0.06667096 0.00253336 -0.014440948 0.08943024
0.009573945 0.030339235 0.0025228586 -0.023093298 0.075845905 -0.018006755 0.031792663 0.035224758
0.010836148 0.05221251 -0.0032533847 -0.024080139 0.047741875 0.006465507 0.015301769 0.048476506
0.055909064 0.052732408 -0.024211818 -0.017300164 0.06788877 -0.035862446 -0.02457384 0.018707871
0.025387691 0.0131969 0.07616108 0.04085513 0.03144312 0.06544458 -0.008671015 -0.03628715

layers.conv3_1.bias f4 [32]
00000000: a1df 3cbd 44ec 593d 5e4e 20bd 8cbc 4abd
00000010: f615 8fbd 62eb c9bb 1da2 c63c 4f5d a63c
00000020: 8742 773d 423f 4a3d 446d f93c 241a b0bc
00000030: 20d5 8f3c c54e c0bc 3f6e 453d d782 e63c
00000040: c857 f13c b6b9 8abd 8a37 4b3d b019 80bd
00000050: 3a03 1bbd 6707 0e3d 6a45 e63c ec08 603d
00000060: 5be4 1cbd 6ae0 393d b2e4 793d 33cd e6bc
00000070: 699a c43c c501 5abd 1044 7fbd dd1d 793d
-0.046111707 0.053203836 -0.039137237 -0.04949622 -0.069866106 -0.006162093 0.024247224 0.020308165
0.06036618 0.049376734 0.03044761 -0.02149684 0.01755768 -0.02347506 0.048200842 0.028138561
0.029460803 -0.06773703 0.049613513 -0.062548995 -0.037844874 0.03467503 0.028109271 0.05469601
-0.038303714 0.045380034 0.061009116 -0.028174018 0.02399941 -0.053224344 -0.06232077 0.060819495
