mRNAlocalization/cnn_models/CNN_model_fold2.pth (torch, 531886 bytes, 22 tensors)

layers.bn1.weight f4 [64]
0	0x3f80640f	1.0030535
1	0x3f806a26	1.0032394
2	0x3f7ffc4b	0.99994344
3	0x3f802f0f	1.0014361
4	0x3f7f2e1b	0.99679726
5	0x3f802fc2	1.0014575
6	0x3f804232	1.0020201
7	0x3f7fd213	0.9992992
8	0x3f8001d2	1.0000556
9	0x3f7ffcb2	0.9999496
10	0x3f80112d	1.0005242
11	0x3f7fffe2	0.9999982
12	0x3f7fa8b2	0.99866784
13	0x3f7fd144	0.9992869
14	0x3f8028ae	1.0012414
15	0x3f8021f6	1.0010364
16	0x3f7fcc4b	0.999211
17	0x3f7f625e	0.9975947
18	0x3f7f7efc	0.9980314
19	0x3f801102	1.000519
20	0x3f804959	1.0022384
21	0x3f8043f3	1.0020736
22	0x3f7fb9e6	0.99893034
23	0x3f7fd451	0.99933344
24	0x3f808042	1.0039141
25	0x3f802e8b	1.0014204
26	0x3f805552	1.0026038
27	0x3f7f2ba6	0.9967598
28	0x3f7f7878	0.99793196
29	0x3f802c50	1.0013523
30	0x3f7fe17a	0.99953425
31	0x3f8038ee	1.0017374
32	0x3f8040d7	1.0019788
33	0x3f80804f	1.0039157
34	0x3f8052df	1.002529
35	0x3f7fd8bb	0.9994008
36	0x3f806f14	1.0033898
37	0x3f7f5cce	0.99750984
38	0x3f801831	1.0007383
39	0x3f7f788a	0.99793303
40	0x3f801ae4	1.0008206
41	0x3f7f72a9	0.9978433
42	0x3f802922	1.0012553
43	0x3f7f9364	0.99834275
44	0x3f804f00	1.0024109
45	0x3f8069bf	1.0032271
46	0x3f7ee7cf	0.9957246
47	0x3f7fcb8b	0.99919957
48	0x3f7edbeb	0.9955432
49	0x3f802b3a	1.0013192
50	0x3f803dc1	1.0018846
51	0x3f7fb9c6	0.9989284
52	0x3f800512	1.0001547
53	0x3f8065da	1.0031083
54	0x3f7f2e08	0.99679613
55	0x3f7f1f2f	0.9965696
56	0x3f8022d8	1.0010633
57	0x3f804c56	1.0023296
58	0x3f8006a4	1.0002027
59	0x3f801914	1.0007653
60	0x3f802c2d	1.0013481
61	0x3f80616a	1.0029728
62	0x3f7f7b80	0.9979782
63	0x3f803050	1.0014744

layers.bn1.bias f4 [64]
0	0x3b436608	0.0029815454
1	0x3b133b26	0.0022465675
2	0x3b15935b	0.0022823426
3	0xba032ed4	-0.00050042314
4	0xbb6b4eed	-0.0035905198
5	0x3aa2e512	0.0012427887
6	0x3ab94384	0.0014134501
7	0xb98089d3	-0.0002451675
8	0x39afd579	0.0003353765
9	0x3af11e1c	0.0018395814
10	0xbb11f6b7	-0.0022272298
11	0x3a777c7e	0.0009440853
12	0xba78a246	-0.000948463
13	0xb9e99907	-0.00044555237
14	0x3ac5701f	0.0015063322
15	0x3b4af256	0.0030967197
16	0xbb460568	-0.0030215625
17	0xbb003456	-0.0019562445
18	0xbb365fdf	-0.002782814
19	0x3b02d80e	0.0019965204
20	0x3b4614de	0.003022484
21	0x3ac18e9e	0.0014767235
22	0xba3462cb	-0.00068811764
23	0x3a964d4a	0.0011467126
24	0x3b85cbaf	0.004083119
25	0xbb0d8759	-0.0021595566
26	0x3b4cd96d	0.0031257526
27	0xbaf4f513	-0.001868876
28	0xbb2418dd	-0.0025039234
29	0x3b4d550b	0.0031331207
30	0xbb2b2fa5	-0.0026120928
31	0xba368d60	-0.00069638155
32	0x3a65fd18	0.00087733706
33	0x3b827ec9	0.003982399
34	0x3b10dcbc	0.0022104224
35	0x3b0183e8	0.001976246
36	0x3b084321	0.0020791965
37	0xbb7af976	-0.0038295663
38	0x3b6fdd8e	0.0036600563
39	0xbb0807cb	-0.0020756598
40	0xbb819d60	-0.003955528
41	0xba990227	-0.0011673615
42	0xbb18ece1	-0.002333455
43	0xbb53ac04	-0.0032298574
44	0x3a6de6d5	0.0009075229
45	0x3b4a77b9	0.0030894114
46	0xbb80b7b1	-0.0039281477
47	0x38a7c6ba	8.000196e-05
48	0xbb787a8e	-0.0037914845
49	0xbaa6c10d	-0.0012722329
50	0x3ad9d9f3	0.001662074
51	0xba426126	-0.0007414989
52	0x39a3b891	0.00031227295
53	0x3b14fb9f	0.0022732986
54	0xbb55c8a4	-0.0032620812
55	0xbb229c51	-0.002481241
56	0xba7b4463	-0.00095850806
57	0x3b2311f0	0.0024882518
58	0xb9a9128a	-0.00032248005
59	0xbaab73fc	-0.0013080831
60	0xbaa6153d	-0.0012671124
61	0x3b3fc262	0.0029260148
62	0xba2427f4	-0.0006262057
63	0x3b1fd7fc	0.0024390211

layers.bn1.running_mean f4 [64]
0	0xbd21ef80	-0.039535046
1	0x3db734bd	0.08945606
2	0x3e23dcb3	0.16002159
3	0x3da94bcf	0.082664125
4	0x3dbf0d03	0.09328654
5	0x3d58df0e	0.052947097
6	0xbdd62b53	-0.10457482
7	0xbb85fa58	-0.004088681
8	0xbceb91f1	-0.028756114
9	0x3d8673b2	0.06565036
10	0x3d2a0b70	0.041514814
11	0x3dc364c4	0.09540704
12	0x3cba3f89	0.022735374
13	0xbd325323	-0.043536317
14	0xbd5a3c10	-0.053279936
15	0xbd8bb8c1	-0.068223484
16	0x3dae483c	0.08509871
17	0x3d24ad0e	0.0402041
18	0xbdd1a599	-0.10236663
19	0xbb875971	-0.0041305353
20	0xbcb22ff0	-0.021751374
21	0x3da592c2	0.080846325
22	0xbe1e8dc5	-0.15483768
23	0xbda4714f	-0.080294244
24	0xbe4b4879	-0.19851865
25	0x3dd762ec	0.10516915
26	0x3dc9a6db	0.09846278
27	0xb95405ba	-0.00020220029
28	0xbd83733d	-0.06418464
29	0x3de3f254	0.11130205
30	0xbe0075a4	-0.12544876
31	0x3dd4aa87	0.10384088
32	0xbd5eae29	-0.05436531
33	0x3dc49cde	0.096002325
34	0x3e14c0c6	0.14526662
35	0x3e12119f	0.14264534
36	0xbcca54b9	-0.024698602
37	0xbd826e51	-0.063686974
38	0xbb714ca0	-0.0036819354
39	0xbd9f8aa1	-0.07790113
40	0x3e0795b0	0.13240695
41	0x3d9d866f	0.07691657
42	0xbdfb5852	-0.12272705
43	0xbd0af91c	-0.033928975
44	0x3d314ea6	0.043287896
45	0x3cbbefe4	0.022941537
46	0x3d4a3c4a	0.049373902
47	0x3cc6dc11	0.024274858
48	0xbd6f49f3	-0.058420133
49	0xbd972311	-0.07379735
50	0xbd9a5780	-0.075362206
51	0xbc8d8230	-0.017273992
52	0x3d5fe0e9	0.05465785
53	0x3ce84baf	0.028356401
54	0xbcf9eb4a	-0.030507702
55	0xbdc58330	-0.09644163
56	0x3dd64037	0.10461467
57	0xbd293574	-0.041310742
58	0x3d658efe	0.05604457
59	0x3de23010	0.110443234
60	0xbd7e1b1c	-0.062037572
61	0x3e03e586	0.12880525
62	0xbbabd577	-0.005243953
63	0xbd88099a	-0.06642456

layers.bn1.running_var f4 [64]
0	0x3cf824d9	0.030291008
1	0x3d094350	0.03351146
2	0x3d11d856	0.035606705
3	0x3ce52e7d	0.027976269
4	0x3cfb7667	0.030696107
5	0x3d021ae1	0.031763915
6	0x3d0e7962	0.03478373
7	0x3d32a1bb	0.04361127
8	0x3d1a4fbc	0.037673697
9	0x3ced1f72	0.028945658
10	0x3cf8a469	0.030351834
11	0x3cfc725a	0.030816246
12	0x3cde9454	0.027170338
13	0x3ce90a07	0.028447164
14	0x3ce72f27	0.028220726
15	0x3d216c5d	0.039409984
16	0x3ce5aff3	0.028038
17	0x3d000aa0	0.031260133
18	0x3cfafd29	0.030638294
19	0x3d1c488e	0.03815513
20	0x3cf83dc3	0.030302888
21	0x3cd76eb0	0.026297897
22	0x3d055058	0.032547325
23	0x3ce9d7c8	0.028545275
24	0x3d31ab1d	0.043376077
25	0x3cab022e	0.020875063
26	0x3ceb53e7	0.028726531
27	0x3cfddbc3	0.03098858
28	0x3d270be4	0.040782824
29	0x3ce0c7de	0.027439054
30	0x3cec8feb	0.02887722
31	0x3cd8dd77	0.02647279
32	0x3ce2451c	0.027620845
33	0x3d319807	0.043357875
34	0x3d06f21c	0.032945737
35	0x3cf785b0	0.030215114
36	0x3cbcb7d8	0.023036882
37	0x3d22327c	0.039598927
38	0x3cd334fc	0.0257821
39	0x3d0c19a1	0.03420413
40	0x3d0a4f39	0.03376696
41	0x3cd11234	0.025521375
42	0x3d171ec2	0.036894567
43	0x3d08b511	0.033375803
44	0x3cd44699	0.02591257
45	0x3cf9675b	0.030444792
46	0x3d29e82e	0.04148119
47	0x3d1316da	0.035910465
48	0x3d054106	0.032532714
49	0x3cdb7b35	0.026792148
50	0x3d130feb	0.035903852
51	0x3cc43393	0.023950374
52	0x3cbb1967	0.022839261
53	0x3cd9dec6	0.026595484
54	0x3ccc1c84	0.024915941
55	0x3cf8419d	0.030304724
56	0x3d3ddd5d	0.046353687
57	0x3d177d6e	0.036984853
58	0x3ccb5b09	0.024823682
59	0x3d1c46e3	0.03815354
60	0x3cf81208	0.030282035
61	0x3cdbf1ab	0.026848635
62	0x3d385a2f	0.04500788
63	0x3ce92efd	0.028464789

layers.bn2.weight f4 [32]
0	0x3f803c03	1.0018314
1	0x3f80dfc3	1.0068287
2	0x3f7fc5b6	0.9991106
3	0x3f8063a7	1.0030411
4	0x3f800c1f	1.0003699
5	0x3f7ffe1c	0.99997115
6	0x3f7f7ca6	0.99799573
7	0x3f806fb5	1.003409
8	0x3f7eb9c0	0.9950218
9	0x3f7e8429	0.9942041
10	0x3f7ebad3	0.9950382
11	0x3f7ed1d3	0.99538916
12	0x3f7e9fef	0.9946279
13	0x3f7ec194	0.99514127
14	0x3f801827	1.0007371
15	0x3f7ea99a	0.9947754
16	0x3f7eca3b	0.9952733
17	0x3f7e9faa	0.9946238
18	0x3f7ec1a8	0.99514246
19	0x3f7fb94b	0.9989211
20	0x3f8071e2	1.0034754
21	0x3f7eb0c5	0.9948848
22	0x3f80222e	1.0010431
23	0x3f7ec420	0.99518013
24	0x3f7e7780	0.9940109
25	0x3f7fe855	0.99963886
26	0x3f8009e3	1.0003017
27	0x3f7ea846	0.99475515
28	0x3f7e9b41	0.9945565
29	0x3f7e794d	0.9940384
30	0x3f8042bf	1.0020369
31	0x3f7ebf5b	0.99510735

layers.bn2.bias f4 [32]
0	0x3b0e8137	0.0021744499
1	0x3bdef82d	0.006804487
2	0x3ba022f1	0.004886978
3	0x3bd49eee	0.0064886725
4	0x3b90b122	0.004415647
5	0x3b9e59ae	0.004832468
6	0x3b8e5eaf	0.0043447833
7	0x3bdb6539	0.0066954163
8	0xbb6f2521	-0.0036490636
9	0xbbb33ea7	-0.005470115
10	0xbaaea50b	-0.0013324333
11	0xbb4dd54b	-0.003140765
12	0xbbb021e2	-0.005375133
13	0xbad1a84c	-0.0015995591
14	0x3bbf78fb	0.0058432794
15	0xbb8da97c	-0.0043231826
16	0xbb336e95	-0.0027379144
17	0xbbb3597d	-0.0054733143
18	0xbb82e351	-0.0039943834
19	0x3b92fcf7	0.004485722
20	0x3be11feb	0.00687026
21	0xbb6327de	-0.0034661214
22	0x3bb73640	0.005591184
23	0xb85ae7b8	-5.2191055e-05
24	0xbb322886	-0.0027184798
25	0x3bbea1fd	0.0058176504
26	0x3bbb5184	0.0057165045
27	0xbbae8c09	-0.005326752
28	0xbbb0a388	-0.005390588
29	0xbb5114f5	-0.003190336
30	0x3bbcde1e	0.005763783
31	0xbb90405d	-0.004402204

layers.bn2.running_mean f4 [32]
0	0x3d79b6e1	0.060965423
1	0xbe889570	-0.26676512
2	0xbeb383e6	-0.35061568
3	0xbec050ab	-0.37561545
4	0xbebdf0a3	-0.37097654
5	0xbe989dba	-0.29807836
6	0xbe8c2ce9	-0.27378014
7	0xbe956f5c	-0.29186523
8	0x3dd95a09	0.10612876
9	0x3e35d18f	0.17755722
10	0xbc38b076	-0.01127254
11	0x3d353a69	0.044245157
12	0x3eaf4a85	0.3423654
13	0x3db8aa10	0.09016812
14	0xbeaec055	-0.34131113
15	0x3eb7d8b7	0.35907528
16	0x3dacc988	0.084368765
17	0x3eca7047	0.39538786
18	0x3d8f04e9	0.069833584
19	0xbeb2779c	-0.3485688
20	0xbea18abd	-0.3155116
21	0x3b337883	0.0027385063
22	0xbe891d40	-0.26780128
23	0x3bf3e51d	0.007443084
24	0xbdc8c9e2	-0.09804131
25	0xbea4472b	-0.32085547
26	0xbe8413fb	-0.25796494
27	0x3e9e7d2c	0.30954874
28	0x3ea39799	0.31951597
29	0xbe601937	-0.21884619
30	0xbe999f57	-0.3000438
31	0xbca36391	-0.019944938

layers.bn2.running_var f4 [32]
0	0x40004b75	2.0046055
1	0x3f9b3538	1.2125616
2	0x3fad3b20	1.3533669
3	0x3f9081f2	1.1289656
4	0x3faf0a52	1.3675025
5	0x3f9a49ba	1.205375
6	0x3f8fd772	1.1237624
7	0x3fa303d2	1.2735541
8	0x402817ab	2.6264446
9	0x400c0792	2.187962
10	0x4061475b	3.5199802
11	0x404ea534	3.2288332
12	0x4074104f	3.8134954
13	0x3ffbbedf	1.9667624
14	0x3fa14d7c	1.2601771
15	0x408b7f87	4.3593173
16	0x406a04ef	3.6565511
17	0x4085d97a	4.1827974
18	0x403d4e68	2.9579105
19	0x3fb688d2	1.4260504
20	0x3f944d3a	1.1586068
21	0x404dccb5	3.2156193
22	0x3faa3eb3	1.3300384
23	0x405d62df	3.4591596
24	0x3fbfba27	1.4978684
25	0x3f8cb74b	1.0993437
26	0x3f862858	1.0481062
27	0x4080773e	4.014556
28	0x40595802	3.3959966
29	0x3fe3b3b2	1.7789214
30	0x3f9a147d	1.2037503
31	0x3fff72e1	1.9956933

layers.conv1_1.weight f4 [64, 4, 9]
0	0xbdb4d190	-0.088290334
1	0xbd5da115	-0.054108698
2	0x3e12c609	0.14333357
3	0xbd19f8e8	-0.03759089
4	0x3e136d92	0.14397267
5	0x3dc698b9	0.09697098
6	0x3dafdc33	0.085869215
7	0xbd591fab	-0.053008717
8	0xbe0e593b	-0.13901226
9	0x3ce3eee5	0.027823875
10	0xbdee6117	-0.11639612
11	0xbd3091ac	-0.043107674
12	0xbd24e92e	-0.04026144
13	0xbba37b3d	-0.0049890564
14	0x3dfb3e3b	0.12267729
15	0x3d34daa4	0.044153824
16	0x3cc60b1a	0.024175216
17	0x3dd1ac83	0.10237982
18	0x3e226407	0.1585847
19	0x3d378520	0.044804692
20	0x3da8ce2f	0.082424514
21	0xbe0167fd	-0.12637325
22	0xbc522b7f	-0.012827753
23	0xbe1330dd	-0.14374109
24	0xbcb5dd40	-0.022200227
25	0xbd1e004e	-0.03857451
26	0x3dfbb593	0.12290492
27	0x3e1bc641	0.15212347
28	0x3e2a080e	0.16604635
29	0x3de1c553	0.11023965
30	0xbdc77a21	-0.09740091
31	0xbe0e0435	-0.13868792
32	0x3dc208be	0.09474324
33	0x3d846747	0.06465011
34	0xbc98cee2	-0.018653337
35	0x3e13265c	0.14370102
36	0x3e1cbea8	0.15307105
37	0xbe012b03	-0.12614064
38	0x3e0d6cd5	0.13811047
39	0x3dc1b2c6	0.094579265
40	0x3d39c4b5	0.04535361
41	0x3e1cb9fa	0.1530532
42	0xbe0bacc7	-0.13640128
43	0x3e193989	0.14963354
44	0xbe02649d	-0.12733693
45	0x3e17f94b	0.14841191
46	0x3d1036de	0.035208575
47	0x3d9064fc	0.07050511
48	0xbd23ed2a	-0.0400211
49	0x3e21f874	0.15817434
50	0xba74914e	-0.00093295134
51	0x3b8b56e5	0.004252302
52	0xbd9f94b5	-0.077920355
53	0x3d1fb2b8	0.0389888
54	0x3e20c5bd	0.15700431
55	0x3d93b7df	0.07212805
56	0xbce6c73d	-0.028171176
57	0xbe129e50	-0.14318204
58	0x3d8489f2	0.064716235
59	0x3c1591e2	0.009129019
60	0x3dbacee1	0.0912149
61	0x3dc3b76e	0.09556471
62	0x3e07e95f	0.13272618
63	0x3a28c2c4	0.0006437714
64	0xbde8c93e	-0.11366509
65	0xbd729d44	-0.05923201
66	0x3d37e6ef	0.04489797
67	0x3c42873b	0.011873062
68	0xbc1a5710	-0.009420171
69	0xbdded646	-0.10880713
70	0xbdc63449	-0.09677941
71	0xbe070cce	-0.13188478
72	0x3cf99457	0.030466242
73	0x3d99426b	0.07483371
74	0xbdc3a56f	-0.09553038
75	0x3dd906c2	0.10596992
76	0xbe163850	-0.14669919
77	0x3db74c82	0.089501396
78	0x3df14358	0.11780423
79	0x3e1af7ec	0.15133637
80	0x3dc3239b	0.095282756
81	0x3dba76b9	0.09104676
82	0x3e2a0969	0.16605152
83	0xbd5a3263	-0.05327071
84	0x3d5240cc	0.051331326
85	0xbce61f6e	-0.028091159
86	0x3db69c8d	0.089165784
87	0xbe26ed0c	-0.16301364
88	0xbcd6ae05	-0.026206026
89	0xbdf48d89	-0.11941058
90	0xbd81b084	-0.06332496
91	0x3dbc3974	0.09190646
92	0x3dec7229	0.11545212
93	0x3d989fb7	0.07452338
94	0x3cbcc65a	0.0230438
95	0x3d2cb320	0.042163014
96	0xbcf381e6	-0.029725026
97	0x3ddd8a6b	0.10817417
98	0xbce52d24	-0.027975626
99	0xbc5a6c44	-0.013331477
100	0xbdb0642b	-0.086128555
101	0x3d015566	0.031575583
102	0x3e086cb4	0.13322717
103	0xbe23e807	-0.1600648
104	0x3e15972f	0.14608453
105	0x3df32337	0.11871951
106	0xbdc118e4	-0.09428576
107	0xbdff1c80	-0.12456608
108	0xbe04f70c	-0.12984866
109	0x3dff6168	0.12469751
110	0xbdd94c38	-0.10610241
111	0x3d6c76b5	0.057730395
112	0x3d104330	0.035220325
113	0x3cb73b48	0.022367135
114	0xbe016ab6	-0.12638363
115	0xbd4f0097	-0.050537672
116	0xbd327701	-0.043570522
117	0xbe0be324	-0.13660866
118	0xbd8a6ac5	-0.06758646
119	0xbe02f40c	-0.12788409
120	0x3e0b616e	0.13611385
121	0xbdb808d0	-0.08986056
122	0x3c0b72c2	0.008511247
123	0xbd8248dc	-0.06361553
124	0xbdfcae20	-0.12337899
125	0xbcd9e927	-0.026600434
126	0xbe081571	-0.13289429
127	0xbddbc692	-0.10731234
128	0xbdb85384	-0.09000304
129	0x3d8bef80	0.068327904
130	0x3e089bf5	0.13340743
131	0x3d26f175	0.040757615
132	0xbe1d3383	-0.15351681
133	0x3d1bcffd	0.03804015
134	0x3b7eecc9	0.003889846
135	0x3dd370dc	0.103242606
136	0xbdac5911	-0.084154256
137	0x3d7db314	0.06193836
138	0xbd1302e6	-0.035891436
139	0x3e0e0a59	0.13871135
140	0x3d960e72	0.07326974
141	0xbdf76906	-0.120805785
142	0xbdba4078	-0.09094328
143	0xbd0c5c28	-0.034267575
144	0xbdc6a93e	-0.09700249
145	0xbe1ee1b0	-0.1551578
146	0x3d8a1df1	0.06743992
147	0x3e0d7c7d	0.1381702
148	0xbe1ac933	-0.15115814
149	0x3d66dfc5	0.056365747
150	0x3ca56c9a	0.020193387
151	0x3d07981d	0.03310405
152	0x3dc45bab	0.09587797
153	0x3df3ffd6	0.11914031
154	0xbcad9700	-0.021190166
155	0x3df7f697	0.1210758
156	0x3ddc5531	0.107584365
157	0x3c5a1749	0.013311216
158	0x3c876967	0.016529752
159	0x3e067bab	0.13133113
160	0xbd5cba4b	-0.0538886
161	0x3dc0b509	0.0940953
162	0xbcefe7f5	-0.02928541
163	0xbbc6e288	-0.006069485
164	0x3dc903cb	0.098151766
165	0x3da6eaf8	0.081502855
166	0x3d17ad76	0.03703066
167	0xbdef57e6	-0.11686687
168	0xbdf1669a	-0.11787148
169	0xba4dc3e1	-0.00078493176
170	0x3d7ba6b2	0.06143827
171	0x3e1434aa	0.14473215
172	0x3df519d9	0.11967821
173	0x3df1c34b	0.11804827
174	0xbcf2445a	-0.029573608
175	0x3dea1684	0.11430076
176	0xbda1d5dc	-0.079021186
177	0x3dcef6ab	0.10105642
178	0xbcf1ef06	-0.02953292
179	0x3d3f0f8b	0.046645682
180	0xbb0e6244	-0.0021726051
181	0x3e05c4c8	0.13063347
182	0x3dcf90e4	0.101350576
183	0xbd6d2884	-0.057899967
184	0xbd0f7ed5	-0.035033066
185	0xbe0dd4c9	-0.13850702
186	0x3cf3d5fe	0.029765125
187	0x3d61fa53	0.05517037
188	0x3dd14429	0.10218079
189	0xbd62e96e	-0.055398397
190	0x3db61bf4	0.088920504
191	0xbdb668e0	-0.08906722
192	0xbe09c127	-0.13452588
193	0xbddc384a	-0.10752924
194	0x3e29400b	0.16528337
195	0x3e1bd291	0.15217043
196	0xbe039a4c	-0.12851828
197	0xbdc4bb92	-0.09606089
198	0xbd1536f0	-0.036429346
199	0xbd8560bf	-0.065125935
200	0xbcd01775	-0.02540181
201	0xbd81d369	-0.063391514
202	0x3d34150f	0.043965396
203	0xb9ca93e8	-0.0003863864
204	0x3e263af8	0.16233432
205	0x3ddb3dbd	0.10705135
206	0x3bda311f	0.0066586877
207	0xbe09b916	-0.13449511
208	0x3e012734	0.12612611
209	0x3d9eeadb	0.07759639
210	0x3e24a405	0.16078193
211	0x3e0bf09d	0.13666005
212	0x3dadc3cb	0.0848461
213	0xbd4d45b0	-0.050115287
214	0x3b9c79f7	0.0047752815
215	0x3da2497f	0.079241745
216	0x3e081003	0.13287358
217	0x3da219aa	0.07915051
218	0x3dd8e5af	0.10590684
219	0x3e119a11	0.14218928
220	0xbdc643a2	-0.09680869
221	0xbd0109fe	-0.03150367
222	0xbba76355	-0.005108277
223	0xbdb245dd	-0.087047316
224	0xbe1c0536	-0.15236363
225	0xbd0d50ee	-0.03450101
226	0x3cb40239	0.021973716
227	0xbc7fcfee	-0.015613539
228	0xbdda3108	-0.10653883
229	0xbdb67c7c	-0.08910462
230	0xbe085309	-0.13312925
231	0x3dc9726c	0.09836277
232	0xbe15ad81	-0.14616968
233	0xbe0499c0	-0.12949276
234	0xbdeebd3b	-0.116571866
235	0x3e1008b1	0.14065816
236	0x3da9101b	0.08255025
237	0x3adb20e6	0.0016718179
238	0x3d916e36	0.07101099
239	0xbdcd60f2	-0.100282565
240	0x3de9bacc	0.11412582
241	0xbd704f67	-0.058669474
242	0xbdad36d3	-0.084577225
243	0x3de6675e	0.112501845
244	0x3d61f1e4	0.055162326
245	0xbd3b53b9	-0.04573414
246	0xbda16910	-0.07881367
247	0xbe1c2897	-0.15249859
248	0xbdd59b39	-0.10429997
249	0xbe215b28	-0.1575743
250	0x3d4a78aa	0.04943148
251	0x3df5c2f9	0.12000079
252	0xbe217f4c	-0.15771216
253	0xbe2a0942	-0.16605094
254	0xbe19dfaf	-0.15026735
255	0xbdf9715c	-0.12179825

layers.conv1_1.bias f4 [64]
0	0xbe248ed4	-0.1607011
1	0xbd32b319	-0.043627832
2	0x3da4e6af	0.08051812
3	0x3de68ac2	0.11256935
4	0x3e222367	0.15833817
5	0x3db51fd8	0.08843964
6	0xbe0e79fb	-0.1391372
7	0x3d312dc5	0.04325654
8	0x3de9384c	0.11387691
9	0x3c1fbd38	0.009749703
10	0x3db60c45	0.08889059
11	0xbb9aace6	-0.004720318
12	0x3d802b5d	0.06258271
13	0x3d7671a7	0.06016698
14	0x3db405c4	0.08790162
15	0x3df29ed0	0.11846697
16	0x3c18f260	0.00933513
17	0xbd840d2a	-0.06447823
18	0xbe10c467	-0.14137422
19	0x3e0f682f	0.14004587
20	0x3b867c36	0.0041041626
21	0x3dfb98c6	0.122849986
22	0xbdf6e831	-0.12056006
23	0xbdaa63cb	-0.08319815
24	0xbe0df619	-0.1386341
25	0x3e2ab116	0.16669115
26	0x3dd76131	0.10516585
27	0x3dd7a090	0.10528672
28	0x3d2536a2	0.040335305
29	0x3e10055a	0.14064541
30	0xbd947273	-0.07248392
31	0x3deb3a41	0.114857204
32	0xbd8b7832	-0.06810035
33	0xbd5df07a	-0.054184414
34	0x3da0c71c	0.07850477
35	0x3e068fe6	0.1314083
36	0xbd887db2	-0.066645995
37	0x3e2880e0	0.16455412
38	0x3db4009e	0.0878918
39	0xbe19fb96	-0.15037379
40	0x3e283fc5	0.16430576
41	0x3e0bd891	0.13656832
42	0xbde54afa	-0.11195941
43	0x3d61294c	0.054971024
44	0x3d864526	0.06556158
45	0xbda03f96	-0.07824628
46	0x3e10da93	0.1414588
47	0xbd6cfb76	-0.057857
48	0xbdf0b389	-0.117529936
49	0xbe26365c	-0.16231674
50	0xbe1979df	-0.14987896
51	0xbce4d601	-0.027934076
52	0x3e1b7e90	0.15184999
53	0x3e137fa3	0.14404158
54	0xbcf8fde5	-0.030394504
55	0xbe1a9e1f	-0.15099381
56	0x3d408c72	0.04700894
57	0x3d3b8d8c	0.045789286
58	0x3dcc2ecb	0.099698626
59	0x39cc271f	0.0003893906
60	0x3b9fcced	0.004876724
61	0x3dff7bab	0.1247476
62	0x3e26d708	0.16292965
63	0xbdff0c6f	-0.124535434

layers.conv1_2.weight f4 [32, 64, 9]
0	0x3bd01b43	0.006350906
1	0x3c11155a	0.008855188
2	0xbc5b5087	-0.013385898
3	0x3c13fd98	0.009032629
4	0xbd309f80	-0.04312086
5	0x3bc2055e	0.00592105
6	0xbb8fa25a	-0.0043833675
7	0x3bcb97a7	0.0062131467
8	0x3c9354ff	0.017984865
9	0x3cc51bdb	0.024061134
10	0xbc88c8df	-0.016697345
11	0x3bbceb4a	0.0057653533
12	0xbc3044ce	-0.010758592
13	0xbd23b0de	-0.039963596
14	0xbbcd03dc	-0.0062565636
15	0x3cf1159b	0.029429248
16	0x3d13313b	0.03593562
17	0xbcfa92e4	-0.030587621
18	0x3c61cd0f	0.0137818
19	0xbca851da	-0.020546842
20	0x3cc9efb3	0.02465043
21	0xbc94dffd	-0.018173212
22	0xba2c5cd2	-0.00065751106
23	0xbcc1311d	-0.02358299
24	0x3ce86719	0.028369473
25	0x3d09ec92	0.033672877
26	0x3c01238c	0.00788201
27	0x3c04f147	0.008114166
28	0x3c27b01d	0.01023486
29	0xbd16f580	-0.03685522
30	0xbc7f1819	-0.01556971
31	0x3d0e37d7	0.03472122
32	0xbbefb024	-0.007314699
33	0x3a8ce9b0	0.0010750797
34	0xbcd284ff	-0.025698183
35	0xbc70e8c9	-0.014703938
36	0x3b786196	0.0037899963
37	0xbadb9649	-0.0016753162
38	0x3c7fea11	0.015619771
39	0x39e724de	0.00044087222
40	0xbc2a26a1	-0.010385186
41	0x3d0959f9	0.03353307
42	0xbc8ad899	-0.016948985
43	0x3ca00905	0.01953555
44	0xbb3c66c2	-0.0028747772
45	0x3c9687a4	0.018375225
46	0x3b2eab1e	0.0026652287
47	0x3cfdcf3a	0.030982602
48	0x3d10c517	0.03534421
49	0xbcb08fef	-0.021553008
50	0xbd03e00f	-0.0321961
51	0xbd2b08cc	-0.041756436
52	0x3ca8c77b	0.020602932
53	0xbc8b3f1c	-0.016997866
54	0xbb2deefa	-0.0026540146
55	0x3c37f957	0.011228881
56	0x3c4cdebf	0.012504279
57	0xbc837aed	-0.016049827
58	0xbc8729bf	-0.016499398
59	0xbc8223fb	-0.015886297
60	0xbd128e6c	-0.035780355
61	0x3c231e3d	0.00995594
62	0xbcf0f56c	-0.029413901
63	0xbbdd0f61	-0.006746218
64	0xbce1f05f	-0.027580438
65	0xbcb7448e	-0.022371557
66	0x3d0c50ef	0.03425687
67	0x3c415300	0.011799574
68	0x3ca0c8e0	0.019627035
69	0xbd052f6e	-0.032515936
70	0x3d091648	0.033468515
71	0x3d2af03e	0.04173302
72	0x3cc73d3e	0.024321195
73	0xbce9bd86	-0.028532755
74	0xbd0a2d25	-0.03373446
75	0xbc2433b8	-0.010022096
76	0x3cefddbc	0.029280536
77	0xbc2be48f	-0.010491504
78	0x3d231ca9	0.039822254
79	0xbbbf8555	-0.005844752
80	0x3d18098a	0.037118472
81	0x3d2372e3	0.039904486
82	0xbb25cc42	-0.002529875
83	0x3c1dfa5b	0.009642209
84	0x3c33f58a	0.010983834
85	0x3b5db3ba	0.003382905
86	0x3c24ff27	0.010070599
87	0x3d15f8bc	0.036614165
88	0x3d1f36a2	0.03887046
89	0xbd08dd26	-0.03341403
90	0xbae58227	-0.0017510102
91	0x3baddf1f	0.005306139
92	0xbbce2409	-0.006290917
93	0xba0db448	-0.0005405587
94	0x3cf14e56	0.029456299
95	0xbba86c82	-0.0051398883
96	0xbceb3ee9	-0.028716521
97	0xbc1eb8ad	-0.009687585
98	0xbc81cde7	-0.015845252
99	0xbac2d422	-0.0014864246
100	0xba0f80d3	-0.00054742134
101	0xbcbed8c6	-0.023296725
102	0x3d058f6f	0.032607492
103	0x3cbdb4ca	0.023157496
104	0xbd2d3db1	-0.04229516
105	0xbb56b216	-0.0032759956
106	0x3d0e0bcf	0.03467923
107	0x3cd169e4	0.025563188
108	0xbc75d88d	-0.015005243
109	0x3c96d11f	0.018410264
110	0xb76c709d	-1.4092916e-05
111	0xbd29e837	-0.041481223
112	0x3d1c67b8	0.03818485
113	0xbd0aef42	-0.03391958
114	0x3d18a1fd	0.03726386
115	0x3c67795d	0.014128056
116	0x3c99c99f	0.018772898
117	0xbd240094	-0.040039614
118	0xbc4dfc77	-0.012572399
119	0x3d01e354	0.031710938
120	0xbcd610f6	-0.026131134
121	0xbd30016f	-0.042970117
122	0x3cc6a7df	0.024249969
123	0xba794e8d	-0.0009510301
124	0x3cf6d807	0.030132307
125	0x3c9a6d5b	0.018850973
126	0x3d11bfa6	0.03558316
127	0xbd13826f	-0.036013063
128	0x3d029202	0.031877525
129	0x3c6d0df3	0.014468658
130	0xbca7782c	-0.020443045
131	0xbc950333	-0.018190002
132	0xbd314048	-0.043274194
133	0x3bbe4e3f	0.0058076675
134	0x3c0820c4	0.008308593
135	0x3d2678c7	0.040642526
136	0x3c287df6	0.010283938
137	0x3cd92eb4	0.026511528
138	0x3cca28ec	0.024677716
139	0xbbe512cc	-0.006990766
140	0xbc9f3bbf	-0.019437669
141	0x3d07a168	0.033112913
142	0x3c4cafa8	0.012493052
143	0x3b36eb4a	0.002791124
144	0x3cbb5945	0.022869715
145	0x3d1e2852	0.03861267
146	0xbba59307	-0.0050529274
147	0x3d1ee08d	0.038788367
148	0xbd236094	-0.039887026
149	0x3ca1fe1f	0.019774495
150	0xbd0d00ad	-0.034424473
151	0xbca6a923	-0.020344323
152	0xbd2c89ae	-0.04212349
153	0x3c9855d3	0.018595612
154	0x3cf8a612	0.030352626
155	0xbd2102f5	-0.03930946
156	0x3c25e448	0.010125227
157	0x3bb32a01	0.0054676537
158	0xb9a975cc	-0.00032321957
159	0xbd0aa891	-0.033852164
160	0x3d1c4637	0.0381529
161	0x3c5f37a8	0.013624109
162	0xbc864ff5	-0.016395548
163	0xbc1092a0	-0.008824021
164	0x3d1960c3	0.037445795
165	0x3cf7cfde	0.030250486
166	0x3bcad1a2	0.006189541
167	0x3c8f551a	0.017496634
168	0xbce981fb	-0.028504362
169	0x3d1dcf88	0.038527995
170	0x3c4c7f35	0.0124815
171	0x3ca32b0a	0.019917984
172	0xbc907f72	-0.017638896
173	0x3c81f1e9	0.015862422
174	0xbcb2fd7e	-0.02184939
175	0x3d0c4378	0.03424403
176	0x3c32773a	0.010892684
177	0xbb58cdb2	-0.0033081588
178	0x3cc4abb2	0.024007652
179	0xbc57adfd	-0.013164041
180	0x3cccb573	0.024988865
181	0xbcffdbc1	-0.031232717
182	0x3cf4d054	0.029884495
183	0xbc0a265f	-0.008432
184	0xbcba7928	-0.02276285
185	0x3c5f7a01	0.013639928
186	0x3cd84af9	0.026402937
187	0xbc7aa9aa	-0.01529924
188	0xbba47154	-0.0050183926
189	0x3c846816	0.016162913
190	0xbd2e7750	-0.042594254
191	0x3c42878b	0.011873136
192	0x3cbb3f16	0.02285723
193	0xbbaed2d9	-0.0053351936
194	0x3c73f468	0.014889814
195	0x3cf8caab	0.030370077
196	0xbd282875	-0.041054208
197	0x3bc89406	0.0061211614
198	0xba912934	-0.0011074902
199	0x3d1da52b	0.038487595
200	0x3b9c2d7b	0.004766164
201	0xbcdce9a3	-0.026966875
202	0x3c3df1f2	0.011593329
203	0x3c558347	0.013031787
204	0x3cb13fea	0.021636922
205	0x3c92404a	0.017852921
206	0xbc8d29f3	-0.017231917
207	0xbce93d5a	-0.028471638
208	0xbd009487	-0.031391647
209	0x3bedc293	0.007255861
210	0xbc7695d6	-0.015050372
211	0x3d1a402a	0.037658848
212	0x3d0e8834	0.034797862
213	0x3cb3feaa	0.02197202
214	0xbd0932da	-0.03349576
215	0x3d0a6bce	0.033794217
216	0x3b484429	0.0030558205
217	0xbcf77c96	-0.030210774
218	0x3d2c184c	0.04201536
219	0xbaa69fc1	-0.0012712405
220	0x3d1ff333	0.039050292
221	0x3d0e3196	0.034715258
222	0x3cb5252a	0.022112448
223	0xbcf12cc5	-0.029440293
224	0xbca8bc2e	-0.020597544
225	0x3c3b1dbe	0.011420665
226	0x3c2b7b66	0.010466432
227	0x3d07c4dc	0.033146724
228	0xbd01580a	-0.0315781
229	0xbcc35147	-0.023842467
230	0xbd1eb5d5	-0.038747627
231	0xbadf0dbd	-0.0017017644
232	0xbc647bc7	-0.013945526
233	0xba847c59	-0.0010107859
234	0x3cb80299	0.022462176
235	0xbcfc0389	-0.030763404
236	0xbd14567c	-0.03621529
237	0xbd2162f7	-0.03940102
238	0xbd2ea4e4	-0.04263772
239	0xbc9ee65e	-0.019396957
240	0xbcfaa23c	-0.030594938
241	0xbb5a651a	-0.0033324421
242	0xbc6af603	-0.01434088
243	0x3b90b3da	0.004415971
244	0x3cc0542e	0.02347764
245	0x3cccc8ff	0.024998186
246	0x3c7398f5	0.014868011
247	0x3cebc7a2	0.028781716
248	0xbd2154f6	-0.039387666
249	0x39f6b902	0.00047058618
250	0xbd285077	-0.041092362
251	0x3ccd45b2	0.025057647
252	0xbc9ddd80	-0.019270658
253	0xbcaaa3af	-0.020830004
254	0x3b89cfe5	0.004205691
255	0x3d1adee8	0.037810236

layers.conv1_2.bias f4 [32]
0	0xbbad0fd4	-0.005281428
1	0x3d26da53	0.040735554
2	0x3c8af026	0.016960215
3	0xbd0cb889	-0.034355674
4	0x3cfabb1f	0.030606804
5	0xbbd6a4c9	-0.0065504056
6	0xbc105c0d	-0.008811009
7	0xbc89a59c	-0.016802602
8	0xbbd3c61c	-0.0064628255
9	0x3d0b0f3f	0.033950087
10	0xbc6fabbd	-0.014628348
11	0xbcf3b01c	-0.029747061
12	0x3c544acc	0.012957286
13	0x3d1f96f1	0.03896231
14	0xbca286c4	-0.019839652
15	0x3bd7d70d	0.0065869153
16	0xbc91e1e9	-0.017807918
17	0xbd203b72	-0.03911919
18	0x3cc60278	0.024171099
19	0xbcc3be5f	-0.023894487
20	0xbd19f039	-0.03758261
21	0xbd02fcb7	-0.03197929
22	0x3c96e84a	0.018421311
23	0x3ba9c621	0.0051810895
24	0x3cd2e6ca	0.025744814
25	0x3cd461a3	0.025925463
26	0x3b8b1222	0.004244105
27	0xbc9d3e2b	-0.019194683
28	0x3a21fb1e	0.0006179082
29	0x3d297896	0.041374765
30	0xbcdae348	-0.026719704
31	0xbb359469	-0.0027706868

layers.conv2_1.weight f4 [64, 4, 20]
0	0x3c3eda95	0.011648794
1	0x3dd4164a	0.10355814
2	0x3db5c1e5	0.08874873
3	0x3d80e5f2	0.062938586
4	0xbd94021a	-0.07226963
5	0xbd8e8fe3	-0.06961038
6	0xbc0614c6	-0.008183664
7	0x3d5de07f	0.054169174
8	0x3bc52554	0.0060164127
9	0xbd0bea1c	-0.03415881
10	0xbd54c894	-0.0519491
11	0x3d4789e7	0.0487155
12	0x3cc7c8d4	0.024387754
13	0xbdaab186	-0.08334641
14	0x3ad4ac31	0.0016225633
15	0xbd98ada2	-0.07454993
16	0x3d994090	0.074830174
17	0xbcb9393b	-0.022610297
18	0x3bcc9065	0.006242799
19	0xbd82e97c	-0.0639219
20	0xbccdcd8e	-0.02512243
21	0xbdca7b6b	-0.09886821
22	0xbd8b2db5	-0.06795827
23	0x3c8c4273	0.01712153
24	0x3da2adf4	0.07943335
25	0xbd58e9b1	-0.05295724
26	0x3db0ea96	0.08638494
27	0x3d078f03	0.03309537
28	0xbccb890f	-0.024845628
29	0xbd892c82	-0.06697942
30	0xbdb3056b	-0.08741268
31	0xbcaf8af2	-0.021428559
32	0xbd6ad140	-0.057328463
33	0xbdb50a76	-0.08839886
34	0x3d8647b2	0.065566435
35	0xbdb42017	-0.08795183
36	0xbd362a8c	-0.04447417
37	0x3dcfd839	0.10148663
38	0x3c9f72cc	0.01946392
39	0xbdd400c9	-0.10351712
40	0x3da01860	0.07817149
41	0xbdc2df3e	-0.09515236
42	0xbcfcd587	-0.030863537
43	0xbca08460	-0.019594371
44	0x3b1418df	0.0022597832
45	0xbdbfd598	-0.09366912
46	0xbdd33ae7	-0.10313969
47	0x3dcd0ab7	0.10011809
48	0xbdd3e4ac	-0.1034635
49	0xbbe0a3a6	-0.006855446
50	0xbd78279a	-0.060584642
51	0x3c709199	0.014683151
52	0xbdca0ed6	-0.09866111
53	0xbb11c743	-0.0022244013
54	0x3dbff663	0.093731664
55	0x3d8e2868	0.06941301
56	0x3dc5a1b2	0.096499816
57	0x3c76fcb3	0.015074897
58	0xbd67be2b	-0.056577843
59	0xbd9a9ccd	-0.075494386
60	0x3dcb18ba	0.099168256
61	0xbcb257e5	-0.021770427
62	0x3d99212d	0.07477031
63	0x3db52438	0.08844799
64	0x3da68150	0.08130133
65	0x3dbf758b	0.093485914
66	0x3d7dae87	0.06193402
67	0xbd01e3a9	-0.031711254
68	0x3b797954	0.0038066702
69	0xbd9f484b	-0.07777461
70	0xbd4a751a	-0.049428083
71	0x3de8f245	0.11374334
72	0x3db0cd7c	0.08632943
73	0x3dd5dfb6	0.1044306
74	0x3cdca371	0.026933404
75	0x3cd352a6	0.025796246
76	0x3c6071b8	0.013698988
77	0xbda729a1	-0.08162237
78	0x3c0981db	0.008392776
79	0xbd08ee8e	-0.03343063
80	0x3dd31889	0.10307414
81	0x3dbffbd3	0.093742035
82	0xbc974acf	-0.018468289
83	0xbdb49d78	-0.08819097
84	0xbccbeb9b	-0.024892619
85	0xbd962768	-0.07331735
86	0x3cac0121	0.020996632
87	0xbcaa2337	-0.020768745
88	0x3d042758	0.032264084
89	0x3ddf8406	0.10913853
90	0x3d48ede5	0.049055
91	0x3b44654b	0.0029967602
92	0xbc162a33	-0.0091653345
93	0x3d1e11ed	0.038591314
94	0xbd95f930	-0.07322919
95	0x3db1265b	0.08649894
96	0x3bb59c7c	0.005542336
97	0xbd53c51f	-0.05170166
98	0xbd5c360e	-0.053762488
99	0xbdbec6fd	-0.09315298
100	0xbdb639d2	-0.08897747
101	0xbbc8525c	-0.0061133336
102	0x3db08e18	0.08620852
103	0xbd5a97de	-0.053367488
104	0x3d330b2f	0.043711837
105	0x3dd19cbd	0.102349736
106	0xbdda412e	-0.10656963
107	0xbdcd5f54	-0.10027948
108	0x3d86e6ad	0.06586967
109	0xbcc021f5	-0.023453692
110	0xbdc0fa93	-0.09422793
111	0x3bda1ca8	0.006656248
112	0x3da17add	0.078847624
113	0x3bac1f44	0.0052527506
114	0x3d98e186	0.0746489
115	0x3deb3da7	0.114863686
116	0x3d9e1820	0.07719445
117	0xbd43ecaa	-0.047833122
118	0x3d138a36	0.03602048
119	0xbc465f38	-0.012107663
120	0xbdb9575a	-0.09049864
121	0x3dd4be80	0.103878975
122	0x3dd7dd60	0.10540271
123	0x3daa7454	0.08322969
124	0x3dbab396	0.091162845
125	0x3da25946	0.07927184
126	0xbd9361e1	-0.07196403
127	0x3ca0fa95	0.019650737
128	0x3aa8d25f	0.0012880078
129	0xbdd2dd1f	-0.10296082
130	0xbd363015	-0.04447945
131	0x3d8aae49	0.067715235
132	0xbbb0ff47	-0.005401525
133	0xbd98a9a3	-0.07454231
134	0xbb309a46	-0.0026947423
135	0xbbacfca9	-0.005279143
136	0xbdc51414	-0.0962297
137	0xbc9f9c85	-0.019483814
138	0x3d9c194b	0.07622012
139	0xbdaf1cc9	-0.08550412
140	0xbcffb70d	-0.031215215
141	0xbc6f80a0	-0.014618069
142	0xbc89ee26	-0.01683719
143	0x3d16df21	0.036833886
144	0x3cebd4c1	0.028787972
145	0x3d1fe8a5	0.039040226
146	0xbd2449ad	-0.040109325
147	0x3dde9aea	0.10869391
148	0x3de9cd55	0.11416117
149	0xbd7acb82	-0.061229236
150	0xbc25397b	-0.010084505
151	0xbc789964	-0.01517329
152	0x3b8b566a	0.0042522447
153	0xbdaea57f	-0.085276596
154	0x3dedea5d	0.11616967
155	0x3dd13785	0.10215668
156	0xbd13bb86	-0.03606751
157	0x3dbb761a	0.091533855
158	0x3d2f12be	0.042742483
159	0x3c5b29a8	0.013376631
160	0x3d981510	0.07425892
161	0x3d519a3d	0.051172484
162	0x3c4e299f	0.012583165
163	0x3da9c518	0.08289546
164	0x3dbc45a3	0.0919297
165	0x3dcb3eb6	0.099240705
166	0x3ccf930b	0.02533867
167	0xbd8eed76	-0.06978886
168	0xbc2c3df0	-0.010512814
169	0xbc2346cf	-0.009965613
170	0xbdcde546	-0.10053496
171	0xbda03e8e	-0.07824431
172	0x3ccf17f1	0.02527997
173	0xbd36f591	-0.044667784
174	0xbd267e54	-0.04064782
175	0x3db72b5f	0.08943819
176	0x3d64e8e3	0.05588616
177	0x3b9b1996	0.0047332747
178	0xbccb9720	-0.024852335
179	0xbd9d4d47	-0.07680755
180	0xbd2fb9f7	-0.04290196
181	0xbd6e4104	-0.058167472
182	0x3d5c9c58	0.05386004
183	0x3dc98ac1	0.09840918
184	0x3c7c5d51	0.015403108
185	0x3cedc30a	0.029023666
186	0x3c112339	0.008858495
187	0xbde3d575	-0.11124698
188	0x3d905745	0.07047895
189	0x3d42fe27	0.04760566
190	0x3c662872	0.014047729
191	0x3db3dd59	0.08782453
192	0x3dce089e	0.10060237
193	0xbda6fab5	-0.08153287
194	0x3b9cd779	0.0047864285
195	0x3d86afbc	0.065764874
196	0x3d2de8a6	0.0424582
197	0xbd2096f3	-0.039206456
198	0x3c35bbed	0.011092168
199	0xbdd11f88	-0.10211092
200	0x3dcf6d47	0.10128265
201	0x3dc4eeb1	0.09615839
202	0x3dd5118f	0.1040374
203	0x3d63d482	0.055622585
204	0x3d7c671b	0.061621767
205	0x3d32a992	0.043618746
206	0xbdbafdcd	-0.0913044
207	0xbdcee679	-0.10102553
208	0xbd475376	-0.04866358
209	0xbca55941	-0.020184161
210	0xbd8ba59e	-0.06818698
211	0x3db609c7	0.08888584
212	0xbd8265ac	-0.063670486
213	0xb9df63a9	-0.00042608127
214	0x3c6aa468	0.014321424
215	0x3d3bd411	0.04585654
216	0x3d5e1d1c	0.05422698
217	0x3b93c683	0.0045097484
218	0xbb15bec0	-0.0022849292
219	0x3b707432	0.0036690352
220	0x3d88ef8e	0.066863164
221	0xbc46886d	-0.012117487
222	0x3dd34770	0.1031636
223	0x3d18da1c	0.03731738
224	0xbc065e54	-0.0082012005
225	0xbdae5ec0	-0.08514166
226	0x3dab5e5b	0.08367606
227	0x3d9d2b8d	0.07674322
228	0x3ddeb45f	0.10874247
229	0xbd82d20a	-0.06387718
230	0x3d60dd6e	0.05489867
231	0x3cc33438	0.02382861
232	0x3c86555a	0.01639812
233	0xbc4a8a8a	-0.012362132
234	0x3ddeaba0	0.108725786
235	0xbc3ca1bd	-0.011513171
236	0x3b504fa1	0.0031785744
237	0xbda3de8f	-0.08001434
238	0x3db22ce0	0.086999655
239	0xbb17a4e2	-0.002313905
240	0xbda73bc0	-0.08165693
241	0x3c82c872	0.01596472
242	0x3cd1b764	0.025600143
243	0xbdad36f7	-0.08457749
244	0x3d57834f	0.05261546
245	0x3d1a46c3	0.03766514
246	0xbcaa64f7	-0.020800097
247	0xbd631af8	-0.05544564
248	0x3d781862	0.06057013
249	0x3aae5257	0.0013299686
250	0xbd17825c	-0.036989555
251	0x3da25dac	0.07928023
252	0x3dac2a3f	0.08406495
253	0xbce68d5c	-0.028143577
254	0x3d5b0d4e	0.053479485
255	0x3dcab4ac	0.09897742

layers.conv2_1.bias f4 [64]
0	0x3c42ad50	0.011882141
1	0x3db77d2b	0.08959421
2	0x3d5a5f99	0.053313825
3	0x3dbf495b	0.09340163
4	0xbd421b1a	-0.047389127
5	0xbdd36996	-0.10322873
6	0x3d38c288	0.045107394
7	0xbddd879c	-0.10816881
8	0xbb93b048	-0.0045070983
9	0x3d40abc9	0.047038827
10	0x3a35b810	0.00069320295
11	0x3d43ebc4	0.047832265
12	0xbd2bea13	-0.041971277
13	0xbd109a6b	-0.035303514
14	0xbd9a82b6	-0.075444624
15	0xbd2af776	-0.041739903
16	0x3dbb4cb9	0.09145493
17	0xbc83d508	-0.016092792
18	0xbcd88005	-0.026428232
19	0xbd94a5f7	-0.07258218
20	0xbd478a1d	-0.0487157
21	0xbc916448	-0.017748013
22	0xbdab9ac1	-0.08379126
23	0xbd68332d	-0.05668943
24	0xbd0b986f	-0.03408092
25	0x3d904693	0.07044711
26	0xbcc73ab1	-0.024319978
27	0xbdb66eab	-0.08907827
28	0xbce27378	-0.02764295
29	0x3dcb993c	0.099413365
30	0xbdda3d01	-0.10656167
31	0x3da23181	0.07919598
32	0xbdd1e365	-0.1024845
33	0x3c6ffb28	0.014647283
34	0x3dc4e18f	0.096133344
35	0x3d94cc17	0.072654895
36	0x3c111552	0.008855181
37	0xbd9c615a	-0.07635756
38	0xbd9c53c0	-0.076331615
39	0x3d5a8165	0.053346056
40	0x3d87a18b	0.06622609
41	0x3ca9a13c	0.020706765
42	0xbd6e456d	-0.05817168
43	0x3c5a1fe5	0.013313268
44	0xbd149f0f	-0.036284503
45	0x3c6dc057	0.014511189
46	0x3d10cc69	0.03535119
47	0xbd6f6305	-0.05844404
48	0x3db260d4	0.08709875
49	0x3d7e4076	0.062073193
50	0x3de1ac10	0.110191464
51	0xbd9de3d7	-0.077094726
52	0x3ceb8be2	0.028753225
53	0xbd7a976d	-0.061179567
54	0xbbbf0211	-0.0058291038
55	0xbb100a48	-0.0021978784
56	0xbd92d7b6	-0.0717005
57	0x3c01c0f9	0.007919543
58	0xbbb647c7	-0.0055627557
59	0x3de0553e	0.10953759
60	0xbde2dc22	-0.11077143
61	0x3db6c507	0.08924299
62	0xbdb12f9c	-0.08651659
63	0xbdb7193c	-0.0894036

layers.conv2_2.weight f4 [32, 64, 20]
0	0x3ccfa2a0	0.0253461
1	0xbcb767cf	-0.022388367
2	0xbc53b762	-0.01292214
3	0x3cabcfb7	0.02097307
4	0xbbda575a	-0.006663245
5	0xbc8dd649	-0.017314093
6	0xbc752c49	-0.014964172
7	0xbc9739c5	-0.018460164
8	0x3c9e563b	0.019328227
9	0x3ce75ad6	0.028241556
10	0x3cefe60f	0.029284505
11	0x3ce9a5bd	0.028521413
12	0xbbbb9ee2	-0.0057257274
13	0xbc324a59	-0.010881984
14	0x3920bcc8	0.00015329116
15	0x3cb2f8e1	0.02184719
16	0x3cbfaf5d	0.02339905
17	0x3cae45e3	0.021273559
18	0xbcc03c1e	-0.023466166
19	0xbca502f0	-0.020143002
20	0xbc913922	-0.017727438
21	0xbc0aa0d2	-0.008461194
22	0x3a8c727f	0.0010715275
23	0xbb9ae2d1	-0.0047267457
24	0x3c336124	0.010948453
25	0x3cdc446a	0.026888091
26	0x3a2fe5ff	0.00067099923
27	0x3ccde982	0.02513576
28	0x3cbaeb5f	0.022817312
29	0xbb248f7a	-0.0025109933
30	0x3c00dd6f	0.007865294
31	0x3c92ced0	0.017920882
32	0xbc2dbf8d	-0.010604751
33	0x3c1cda21	0.00957349
34	0xbb5eeefb	-0.0034016955
35	0x39458342	0.00018836281
36	0x3c8078a3	0.015682524
37	0x3ca69718	0.020335719
38	0x3ca7222b	0.020402035
39	0xbcbb3bbc	-0.022855632
40	0x3b8e23dd	0.0043377713
41	0x3aeb2e06	0.0017942793
42	0x3cbe057c	0.023195975
43	0x3c0c7b49	0.008574315
44	0xbc19044d	-0.009339404
45	0xbc985662	-0.018595878
46	0xbb904a54	-0.004403392
47	0x3bf44d5e	0.007455512
48	0xbb9586dc	-0.0045631956
49	0x3d0aacbb	0.033856135
50	0xbcca2c50	-0.024679333
51	0x3cbad0bc	0.02280461
52	0x3cec4d21	0.028845372
53	0xbc2a69b6	-0.01040118
54	0x3c9ae7de	0.018909391
55	0x3a62cf48	0.0008652103
56	0xbc5c80ce	-0.013458444
57	0x3cdd65bc	0.02702605
58	0xbc9ed3a7	-0.019388033
59	0xbb5416b2	-0.003236216
60	0x3bd0bfc8	0.0063705184
61	0xbc1bfdc8	-0.009520955
62	0xbc52f2d0	-0.012875274
63	0x3c8e6ac7	0.0173849
64	0x3ba6c853	0.0050897985
65	0x3b034de1	0.0020035433
66	0x3ba501bb	0.0050356067
67	0x3b466cd8	0.0030277278
68	0x3bc1c3fb	0.0059132553
69	0x3cc133f2	0.02358434
70	0x3c0cb170	0.008587226
71	0x3c9ce70f	0.019153146
72	0x3cf2733e	0.029595967
73	0xbc1ddbfc	-0.009634968
74	0x3c862704	0.016376026
75	0xbbfd2a70	-0.007726006
76	0x3b34eef4	0.0027608247
77	0xbc4c7340	-0.01247865
78	0x3c84b985	0.016201744
79	0x3cc2c51e	0.023775633
80	0x3c27227c	0.010201093
81	0x3ca68b75	0.02033017
82	0xbcb45c2b	-0.022016605
83	0xbcb83ad7	-0.022488995
84	0x3d01507a	0.03157089
85	0xbbce46db	-0.0062950677
86	0x3cdd6a17	0.027028127
87	0x3c422bbb	0.0118512465
88	0x3cf4720a	0.029839534
89	0x3cd12e89	0.025534885
90	0x3c44eb05	0.012018924
91	0x3cf5c62a	0.030001719
92	0x3bcdd779	0.00628179
93	0xbc79ea79	-0.015253657
94	0x3ce90996	0.028446954
95	0xbabc4eb9	-0.0014366723
96	0x3caf4846	0.021396767
97	0x3ca75c7b	0.02042984
98	0xbc342ab1	-0.010996507
99	0xbba41c1d	-0.005008234
100	0x3cf044fc	0.02932977
101	0x3cc3d2f9	0.02390431
102	0x3ca30e82	0.019904379
103	0x3c3e93f1	0.011631952
104	0xbca1d4ea	-0.019754846
105	0x3cc30963	0.023808187
106	0x3bf6c324	0.007530587
107	0x3c64cd53	0.013964969
108	0xbbb96193	-0.0056573837
109	0x3c921dae	0.017836418
110	0x3cb8e476	0.022569876
111	0xbae3ff32	-0.001739478
112	0x3c9a3329	0.018823223
113	0x3b87c80a	0.0041437196
114	0x3ce93774	0.028468825
115	0x3c3058e8	0.010763384
116	0x3c85fe19	0.016356515
117	0xbbb41c3d	-0.0054965303
118	0x3cd4fe68	0.026000217
119	0x3c993c3e	0.018705484
120	0xbcbe6ad0	-0.023244292
121	0x3cb7008c	0.022339128
122	0x3c8fe787	0.017566456
123	0xbc362b0f	-0.011118664
124	0x3c953641	0.018214347
125	0xbc90108e	-0.017586019
126	0xb99bbc4f	-0.00029704205
127	0x3c84ce26	0.01621158
128	0xba8fa3a4	-0.0010958803
129	0x3bf0be16	0.0073468788
130	0xbc52e4cc	-0.012871932
131	0x3b0090d9	0.0019617586
132	0xbc47c1b7	-0.012192181
133	0xbb69d4f7	-0.0035679915
134	0x3cb760dd	0.022385055
135	0xbc2bf388	-0.010495074
136	0xbc7afaa0	-0.015318543
137	0x3c70d646	0.014699524
138	0xbab32b38	-0.0013669496
139	0x3c67828d	0.014130247
140	0x3ce9017c	0.02844309
141	0x3ce08041	0.027404906
142	0x3ce8ccaa	0.028417904
143	0x3c478822	0.012178453
144	0x3c80062a	0.01562794
145	0xbb887d98	-0.0041653626
146	0xbbbf2e7d	-0.0058343993
147	0x3ca4853c	0.020083062
148	0xbca51f03	-0.02015639
149	0x3bf17529	0.007368703
150	0x3b1cbd31	0.0023916478
151	0xbb8f6700	-0.004376292
152	0xbca817ee	-0.020519223
153	0x3c6e6a6a	0.014551738
154	0x3c6e4216	0.014542123
155	0x3cfb1e70	0.030654162
156	0xbc93c44c	-0.018037938
157	0xbcae5190	-0.021279126
158	0x3d02f19c	0.031968698
159	0xbc0a389a	-0.008436346
160	0xbac05d81	-0.0014676304
161	0x3c8e0f9f	0.017341433
162	0x3cd0fb8d	0.025510574
163	0x3cb073f0	0.021539658
164	0xbb2ca44c	-0.0026343046
165	0xbb6e5be8	-0.0036370698
166	0x3b91436e	0.004433087
167	0xbcb72a21	-0.022358956
168	0xbc827247	-0.015923632
169	0xbcb0c7d8	-0.021579668
170	0xbba90318	-0.0051578395
171	0xbc2d6784	-0.010583762
172	0x3a0abd80	0.000529252
173	0xbc13a35a	-0.009011114
174	0x3d0141d0	0.031556904
175	0x3cc59db4	0.02412305
176	0x3bd77693	0.0065754144
177	0xbc6c9367	-0.01443944
178	0xbcd13e81	-0.0255425
179	0xbbafa4c9	-0.00536022
180	0x3bd9e2b6	0.0066493405
181	0x3c178f01	0.009250403
182	0x3c22a573	0.0099271415
183	0x3b77b5d0	0.0037797578
184	0x3cc6a1ce	0.024247076
185	0x3c84420d	0.016144777
186	0x3d07b59b	0.033132177
187	0xbc8ae1a2	-0.016953293
188	0x3c848915	0.016178647
189	0x3c937dc6	0.01800431
190	0xb98ec84f	-0.00027233592
191	0x3c6a0545	0.014283483
192	0x3c9ef51d	0.019403988
193	0x3d01c58f	0.031682547
194	0x3ce4f418	0.027948424
195	0x3b0bfd15	0.0021360565
196	0x3c9b17e4	0.01893229
197	0x3aaefb2c	0.0013350002
198	0x3cc800f9	0.024414526
199	0xbb76f846	-0.0037684604
200	0x3c82926f	0.015938966
201	0xbc03d834	-0.008047152
202	0xbc6d1a01	-0.014471532
203	0x3cc04234	0.023469068
204	0x3c5603ff	0.013062476
205	0xbc699d92	-0.014258759
206	0xbc9e3432	-0.019311998
207	0xbb300411	-0.0026857893
208	0x3ae90b6d	0.0017779894
209	0xbbbad356	-0.0057014627
210	0x3ba305df	0.004975065
211	0xbc31062d	-0.010804695
212	0xbc314a07	-0.010820872
213	0x3c836c7b	0.016042938
214	0xbc915d06	-0.017744552
215	0xbbba376e	-0.0056828773
216	0x3bdeeeae	0.006803355
217	0x3c4ab9fd	0.012373445
218	0x3cbdfe9e	0.0231927
219	0xbc942811	-0.018085511
220	0xbca0581a	-0.01957326
221	0xbcad4fa5	-0.021156142
222	0xbc02aa7e	-0.007975219
223	0x3ce2a558	0.027666733
224	0x3b3fbaf2	0.0029255715
225	0x3bf16059	0.007366222
226	0xbc07733b	-0.008267219
227	0x3cb6cef6	0.022315484
228	0xbc822797	-0.015888019
229	0xba6f1f7f	-0.000912182
230	0x3ca9a324	0.020707674
231	0x3acbfd7c	0.0015563215
232	0x3b5a63ab	0.0033323567
233	0xbc30f191	-0.010799781
234	0x3c8a44e9	0.016878562
235	0x3a54fb8a	0.00081246404
236	0xbc9673b6	-0.018365722
237	0x3cc03109	0.023460882
238	0x3d0120fa	0.03152559
239	0xbbdc9994	-0.006732175
240	0x3cf1d127	0.029518677
241	0xbc9ef604	-0.019404419
242	0xbcd0acea	-0.025473077
243	0x3c5caa24	0.013468299
244	0x3b8ba4c2	0.004261584
245	0x3c195a7f	0.009359955
246	0x3cec599c	0.028851323
247	0x3ac1b500	0.0014778674
248	0x3c3baa7d	0.011454222
249	0x3bd6460a	0.006539111
250	0xbcb55239	-0.022133933
251	0x3cc131ff	0.02358341
252	0x3cae0803	0.021244055
253	0x3ca24b48	0.019811288
254	0x3b0d98f6	0.0021606064
255	0xbc873998	-0.016506955

layers.conv2_2.bias f4 [32]
0	0xba8967c5	-0.0010483196
1	0x3cc790e6	0.024361085
2	0x3bd910c7	0.0066243145
3	0x3b353432	0.002764952
4	0xbca9f81f	-0.020748196
5	0x3ccab738	0.024745569
6	0x3cb9488f	0.022617606
7	0x3a893502	0.0010468068
8	0x3cb981ff	0.022644995
9	0x3c826f76	0.01592229
10	0x3cd7861f	0.026309071
11	0xbc831174	-0.015999533
12	0x3bb4f030	0.0055217966
13	0xbc054f5e	-0.008136598
14	0x3b38630b	0.0028135206
15	0x3b2404fa	0.002502738
16	0xbc452dfc	-0.012034889
17	0xbc5809f5	-0.013185968
18	0x3cd86fcb	0.026420495
19	0xbcd4e120	-0.025986254
20	0xbc99bc47	-0.018766535
21	0xbb6809bd	-0.0035406195
22	0xbcb1a34a	-0.021684308
23	0xbc894388	-0.016755834
24	0xbb093bfc	-0.0020940294
25	0xbc70b749	-0.014692136
26	0x3c70e8dd	0.014703956
27	0xbca9ae43	-0.020712977
28	0xbc6ff2e1	-0.014645309
29	0xbcd486b1	-0.025943132
30	0xbcb08991	-0.021549972
31	0x3a83197b	0.0010002101

layers.conv3_1.weight f4 [32, 4, 49]
0	0x3d898c41	0.067162044
1	0x3c27c43e	0.010239659
2	0xbcb38fb0	-0.021919101
3	0xbc98f389	-0.018670814
4	0xba27e39e	-0.0006404462
5	0xbcc7ba01	-0.024380686
6	0x3d4e7804	0.050407425
7	0x3d84b529	0.06479866
8	0x3d5d89f4	0.05408664
9	0x3c64c268	0.013962366
10	0x3c8efe0d	0.017455125
11	0xbd551bf9	-0.05202863
12	0x3c3e14fe	0.011601685
13	0xbd8552c1	-0.06509925
14	0xbd67416a	-0.056458868
15	0x3cd177eb	0.025569877
16	0xbce725b7	-0.028216226
17	0xbc20535d	-0.0097855
18	0xbd184728	-0.037177235
19	0xbd829621	-0.06376291
20	0x3d0b9dea	0.034086145
21	0xbc89805a	-0.016784836
22	0xbcadcbda	-0.021215368
23	0xbd7b4ac5	-0.061350603
24	0x3d8ed5a2	0.06974341
25	0xbc7410a8	-0.014896549
26	0x3d91f3a5	0.0712655
27	0x3c6d5541	0.014485658
28	0xbcfac810	-0.030612975
29	0x3d91769a	0.071026996
30	0xbcc352fc	-0.023843281
31	0x3d20f94b	0.039300244
32	0x3d665acf	0.056238946
33	0x3cc1c700	0.02365446
34	0x3d8422fa	0.06451984
35	0x3d003de6	0.03130903
36	0xbd1b598e	-0.037927203
37	0xbc5e5626	-0.013570344
38	0xbd35eeda	-0.04441724
39	0xbd381ed9	-0.044951294
40	0xbcba01f1	-0.022706004
41	0xbcc7d5fc	-0.024394028
42	0xbd2e6acc	-0.04258232
43	0xbc1df3ea	-0.009640673
44	0x3b9ad2b8	0.0047248267
45	0x3c8e942d	0.01740464
46	0xbcc6b1ca	-0.024254698
47	0xbd192427	-0.037387993
48	0x3ce4469b	0.027865699
49	0xbc931f29	-0.017959194
50	0x3d15e6c9	0.036597047
51	0x3d674664	0.056463614
52	0xb9aaaf9c	-0.00032555766
53	0xbd8ff883	-0.07029822
54	0xbd2fbd43	-0.042905103
55	0x3d539326	0.051654004
56	0x3c14659f	0.0090574315
57	0xbbbf733f	-0.005842596
58	0xbbb2e1e8	-0.005459059
59	0x3d31d28e	0.04341369
60	0x3cc7276f	0.024310796
61	0xbd113fe8	-0.035461336
62	0xbd4431d6	-0.04789909
63	0x3cd5780d	0.026058221
64	0x3c20b82b	0.009809534
65	0x3cf59b20	0.029981196
66	0xbc951f96	-0.018203538
67	0x3cf4e67f	0.029895065
68	0x3ca42e09	0.020041483
69	0xbd913692	-0.070904866
70	0x3ce2e718	0.027698085
71	0x3cfeeb76	0.031118136
72	0xbd872da3	-0.066005014
73	0xbcf5cabd	-0.0300039
74	0x3cfd2938	0.030903444
75	0xbd81c6c9	-0.063367434
76	0xbc94e868	-0.018177226
77	0x3d379f58	0.044829696
78	0x3d5fd5d2	0.054647274
79	0x3d0be3cb	0.034152787
80	0xbcad5748	-0.021159783
81	0x3d2fe3ff	0.042942043
82	0x3cb94fe3	0.0226211
83	0xbd8acff5	-0.06777946
84	0xbd833c94	-0.06408039
85	0x3bf41f3a	0.0074500116
86	0x3a32fa21	0.0006827433
87	0x3b57db20	0.0032937005
88	0xbd6ebe24	-0.0582868
89	0x3d80e3ba	0.062934354
90	0x3d3bbe96	0.045836054
91	0x3d250d3d	0.040295828
92	0xbd8da3e3	-0.069160245
93	0x3ccf51a4	0.025307484
94	0x3d6ff100	0.058579445
95	0xbc1c953a	-0.009557063
96	0x3cad69cb	0.02116861
97	0x3d8b524f	0.068028085
98	0x3ca6d405	0.02036477
99	0x3c1ced86	0.009578114
100	0xbcd66b9d	-0.02617436
101	0x3d090b5b	0.033458095
102	0x3d2090c7	0.03920057
103	0xba0608db	-0.0005113014
104	0x3d5ec81c	0.054390058
105	0xbcec7b74	-0.02886746
106	0xbc0914be	-0.008366762
107	0xbd014fd1	-0.03157026
108	0xbd8e57c7	-0.06950336
109	0xbd741b6d	-0.059596468
110	0x3d55e994	0.05222471
111	0xbd8a134c	-0.06741962
112	0x3d8368d8	0.06416482
113	0x3d4f51f1	0.050615255
114	0xbc9bc45e	-0.019014534
115	0x3cf2b41d	0.0296269
116	0x3bf2fd3d	0.0074154423
117	0x3d111dd0	0.035428822
118	0x3d6e301f	0.05815136
119	0xbd597cfb	-0.053097706
120	0xbcc03611	-0.02346328
121	0xbb990856	-0.004670183
122	0x3c8e5556	0.017374676
123	0xbc04ab71	-0.008097515
124	0xbcf37657	-0.029719515
125	0x3d1b7e5c	0.037962303
126	0x3ce0b5f9	0.027430521
127	0xbd4cabd6	-0.049968563
128	0xbc7639fb	-0.015028472
129	0xbd0a7edf	-0.0338124
130	0x3d25839d	0.04040872
131	0x3d05fe06	0.03271296
132	0x3d43cf47	0.047805097
133	0xbb145567	-0.0022633912
134	0xbb38f97a	-0.0028224871
135	0xbceaddde	-0.028670248
136	0xbce9d989	-0.028546112
137	0xbd755b41	-0.05990148
138	0xbd0c1b5c	-0.03420578
139	0xbd624366	-0.055240057
140	0xbc879a32	-0.016553018
141	0xbc8e763e	-0.017390367
142	0x3d07afec	0.033126757
143	0x3b3b242a	0.002855549
144	0xbcaf371f	-0.021388588
145	0xbcf047a4	-0.029331036
146	0xbd033c05	-0.03203966
147	0xbd49b7f9	-0.049247716
148	0xbccceed3	-0.025016224
149	0xbca16dff	-0.01970577
150	0xbd1ce48e	-0.038303904
151	0xbd05fe5c	-0.03271328
152	0x3d57073d	0.052497137
153	0xbc3e8945	-0.011629407
154	0xbcdc3628	-0.026881292
155	0x3d1147cf	0.035468873
156	0xbd095606	-0.033529304
157	0x3c2ea326	0.010659015
158	0xbd42bcd2	-0.047543354
159	0xbcc276f9	-0.023738371
160	0xbcc55a7a	-0.024090994
161	0x3d31fd33	0.04345436
162	0x3b974838	0.0046167634
163	0xbca081ad	-0.019593084
164	0x3ce99a23	0.02851588
165	0xbd4b6a7a	-0.04966209
166	0xbcd30531	-0.025759311
167	0xbc832cea	-0.016012628
168	0x3d5b009b	0.053467374
169	0xbd0a1893	-0.033714842
170	0x3c25e0bc	0.010124382
171	0x3d0780d0	0.03308183
172	0x3d888275	0.06665508
173	0xbc4e53d9	-0.012593233
174	0xbcc8c2fa	-0.024507035
175	0x3cbc9dd8	0.023024485
176	0x3c5a3544	0.013318364
177	0xbd4474dd	-0.047963012
178	0xbcf64e77	-0.030066712
179	0xbd76ac6d	-0.06022303
180	0xbce6f51d	-0.028193051
181	0xbd36cd16	-0.04462918
182	0x3bad5a3b	0.0052902973
183	0xbd53d7c1	-0.05171943
184	0xbd8287ac	-0.063735336
185	0x3b67e24b	0.0035382684
186	0x3ad7cd55	0.0016464392
187	0xbcef4168	-0.029205993
188	0xbd63ff3c	-0.055663332
189	0xbd25930e	-0.040423445
190	0x3d8e8d60	0.06960559
191	0x3cff8f85	0.031196365
192	0x3d89f157	0.06735485
193	0x3d0821f5	0.03323551
194	0xbacd0fab	-0.0015644928
195	0x3d472068	0.04861489
196	0x3be63e92	0.007026502
197	0x3d5cf5e9	0.053945456
198	0xbcb2659a	-0.021776963
199	0x3d0d8970	0.0345549
200	0xbb3f88ee	-0.0029225904
201	0xbd4948e8	-0.049141794
202	0x3ca78a8b	0.020451805
203	0xbc6d4fe1	-0.014484377
204	0xbcb63d7c	-0.022246115
205	0xbd8b0a71	-0.06789101
206	0x3d0c1f37	0.034209456
207	0xbd7db48e	-0.06193977
208	0xbce9df03	-0.028548723
209	0xbbaa34c1	-0.005194277
210	0x3be0a602	0.006855727
211	0xbc53a106	-0.012916809
212	0x3d19fb4e	0.03759318
213	0x3d899017	0.06716936
214	0x3d960f13	0.07327094
215	0xbc5fdb3b	-0.013663108
216	0x3cb905af	0.022585718
217	0xbc2ba04b	-0.010475229
218	0xbd221150	-0.03956729
219	0xbd29c2df	-0.04144561
220	0x3c0ed58c	0.008717906
221	0xbd079398	-0.03309974
222	0xbd1dff56	-0.038573585
223	0xbd84144a	-0.06449182
224	0x3d544fa9	0.051833782
225	0xbd74d6ad	-0.059775043
226	0x3cb42797	0.021991534
227	0x3c6c65f5	0.014428605
228	0x3ca148fd	0.019688124
229	0xbcab9fd9	-0.020950245
230	0xbcd9f14b	-0.026604315
231	0x3c620eb5	0.013797452
232	0x3d414eb1	0.047194187
233	0xbcdadb0e	-0.026715782
234	0x3d94f2d8	0.07272881
235	0xbb454353	-0.0030099943
236	0xbd56abbd	-0.052409876
237	0x3ce59f04	0.028029926
238	0x3aeaf363	0.0017925318
239	0x3988ad16	0.000260689
240	0x3c49b464	0.012311075
241	0x3d9505e5	0.07276515
242	0x3d941b00	0.07231712
243	0x3d6f3803	0.058403026
244	0x3c80cf9b	0.015723994
245	0x3c987b69	0.018613534
246	0x3c83d464	0.016092487
247	0xbc91ac87	-0.017782463
248	0x3ce3610a	0.027756233
249	0x3b1b5ff3	0.0023708313
250	0x3d1a8adc	0.037730083
251	0xbd5cf0ba	-0.053940512
252	0xbc42fcbd	-0.011901078
253	0x3d0413ba	0.032245375
254	0x3d4db706	0.050223373
255	0x3b70abac	0.0036723418

layers.conv3_1.bias f4 [32]
0	0x3c24aad5	0.010050495
1	0xbd606ed2	-0.054793186
2	0xbaffb302	-0.0019508305
3	0xbd910002	-0.070800796
4	0xbd3d56a0	-0.04622519
5	0x3cb84c4b	0.022497317
6	0x3d2a6bf0	0.041606843
7	0xbd6a7bc8	-0.057246953
8	0x3d6806b1	0.056647006
9	0x3d83b9ea	0.06431945
10	0xbd8d20fe	-0.068910584
11	0x3c834d0e	0.016027953
12	0xbc2beec2	-0.010493936
13	0x3d9100eb	0.07080253
14	0xbd846ee4	-0.06466463
15	0xbc45ae81	-0.012065531
16	0xbd059f85	-0.032622833
17	0x3bf2d61d	0.007410778
18	0xbd8f81ca	-0.07007177
19	0x3d8b056e	0.06788145
20	0x3d3d9b90	0.046290934
21	0x3d78aa78	0.060709447
22	0x3d8b4fb2	0.0680231
23	0xbc251d5a	-0.010077799
24	0xbc3e395c	-0.011610355
25	0xbc9a6038	-0.018844709
26	0xbc56592d	-0.013082785
27	0xbd02ccc2	-0.031933554
28	0x3d246144	0.040131822
29	0xbd8e7f39	-0.069578595
30	0x3d29cc97	0.041454878
31	0xbd6d15df	-0.057882186
