mRNAlocalization/cnn_models/cnn_model_fold1.pth (torch, 531886 bytes, 22 tensors)

layers.bn1.weight f4 [64]
000000 9d 15 80 3f 3a 29 80 3f 05 ae 7f 3f 63 a9 7f 3f
       1.0006596 1.0012581 0.9987491 0.9986784
000010 ea 1f 80 3f 79 21 80 3f f4 1d 80 3f 4f 16 80 3f
       1.0009739 1.0010215 1.0009141 1.0006808
000020 a3 cd 7f 3f 9d 3a 80 3f ed 23 80 3f d9 33 80 3f
       0.9992315 1.0017887 1.0010964 1.0015823
000030 25 33 80 3f e5 ff 7f 3f 4f 33 80 3f 9a 2d 80 3f
       1.0015608 0.9999984 1.0015658 1.0013916
000040 5a 9c 7f 3f b9 ea 7f 3f 2b 3e 80 3f 2a 05 80 3f
       0.9984795 0.99967533 1.0018972 1.0001576
000050 04 ae 7f 3f 14 1b 80 3f b2 a1 7f 3f 58 31 80 3f
       0.998749 1.0008264 0.998561 1.0015059
000060 dd bf 7f 3f dd 0f 80 3f 90 09 80 3f 56 19 80 3f
       0.99902135 1.0004841 1.0002918 1.0007732
000070 7d e7 7f 3f dc a9 7f 3f b4 19 80 3f 6b c6 7f 3f
       0.999626 0.9986856 1.0007844 0.99912137
000080 a3 c9 7f 3f ae b2 7f 3f 9b cf 7f 3f 1a 0e 80 3f
       0.9991705 0.9988202 0.99926156 1.0004303
000090 57 04 80 3f 97 23 80 3f 9a 04 80 3f 6e cd 7f 3f
       1.0001324 1.0010861 1.0001404 0.99922836
0000a0 6c 08 80 3f 33 e7 7f 3f 74 1c 80 3f a3 ba 7f 3f
       1.000257 0.99962157 1.0008683 0.9989416
0000b0 fd 18 80 3f 1e a7 7f 3f 9a 2c 80 3f 8f f1 7f 3f
       1.0007626 0.99864376 1.0013611 0.99977964
0000c0 cb 3c 80 3f 96 a8 7f 3f 37 03 80 3f 41 f0 7f 3f
       1.0018553 0.99866617 1.0000981 0.99975973
0000d0 43 15 80 3f c5 f7 7f 3f 28 20 80 3f 71 a5 7f 3f
       1.0006489 0.9998744 1.0009813 0.9986182
0000e0 57 f8 7f 3f ae 97 7f 3f 9b e0 7f 3f 52 2a 80 3f
       0.9998831 0.9984082 0.99952096 1.0012915
0000f0 81 2c 80 3f 8b 8e 7f 3f d7 1f 80 3f d3 c3 7f 3f
       1.0013582 0.9982688 1.0009717 0.9990818

layers.bn1.bias f4 [64]
000000 e5 78 78 ba 4c 17 44 ba 3a 1f a5 ba e0 0e c4 3a
       -0.0009478464 -0.0007480278 -0.0012597807 0.0014958046
000010 1f 9e ba 3a 5c b8 9c ba ee 90 0d 3a 94 8e 84 ba
       0.0014237798 -0.0011956799 0.00054003194 -0.0010113292
000020 f1 0d ef b9 b0 f3 da 3a 72 44 af 3a c2 b9 9f 3a
       -0.0004559602 0.0016704705 0.0013371839 0.0012186097
000030 97 6b bb 3a 66 c4 7b ba 1b a6 69 3a 03 45 bd 3a
       0.0014299032 -0.0009604156 0.0008912996 0.0014440123
000040 93 97 b7 ba 74 07 b2 39 b7 6c 06 3b 2a 81 25 ba
       -0.0014006965 0.0003395636 0.0020511576 -0.00063134974
000050 05 34 3b 3a 5b 1d bb ba 85 15 6b ba c4 c1 a5 3a
       0.00071412354 -0.0014275716 -0.0008967745 0.0012646248
000060 7b 45 af ba 17 8d f8 b9 56 ee 48 b9 7f 8a c4 ba
       -0.0013372147 -0.00047407366 -0.00019162273 -0.0014994888
000070 e3 cd a0 ba de b5 a0 ba 08 34 3f 39 c0 51 b5 b9
       -0.001226839 -0.0012261232 0.00018234563 -0.0003458392
000080 b5 74 6e ba d7 84 74 ba 01 0e c6 3a 2a 4f 61 ba
       -0.000909637 -0.0009327656 0.0015110375 -0.0008594865
000090 b3 95 e4 ba 38 ad 50 b9 cc c8 c6 3a 52 d9 5d ba
       -0.0017439633 -0.00019900955 0.0015166043 -0.0008462864
0000a0 99 00 a5 b7 d1 9e 54 3a 02 b9 67 3a ae b2 91 ba
       -1.9669811e-05 0.00081108237 0.0008839519 -0.0011115873
0000b0 b2 89 9b b9 a4 04 dc ba e0 df d8 3a a2 d2 61 39
       -0.00029666495 -0.0016786051 0.0016546212 0.00021536139
0000c0 6e f0 be 3a c4 98 a9 ba ec 46 fd 39 65 bd 3b ba
       0.0014567503 -0.0012939204 0.0004830876 -0.0007161706
0000d0 07 2d 4f 3a 68 29 22 ba 3b b5 91 3a ca d5 a3 ba
       0.0007903133 -0.00061859796 0.0011116633 -0.0012499627
0000e0 64 d3 3c b9 af 76 d2 ba 9d 3a e2 b7 09 ad 03 b8
       -0.00018007826 -0.0016057099 -2.6968593e-05 -3.1393985e-05
0000f0 43 0e 60 3a a5 7d 0a bb 7a 61 cf 3a ed 4b c4 ba
       0.0008547047 -0.002113202 0.0015821897 -0.0014976241

layers.bn1.running_mean f4 [64]
000000 23 38 e2 bd 99 ad 20 bd 03 71 21 3e 02 2e 9f 3d
       -0.110458635 -0.039228056 0.15765767 0.07772447
000010 12 1c 74 3d d6 93 90 3d 22 52 60 3b 25 15 8e 3d
       0.059597082 0.070594475 0.0034228642 0.06937627
000020 94 a6 d0 bd 66 1a 85 bd 6e d5 c5 3d a7 b8 ef 3c
       -0.10188022 -0.06499176 0.09659849 0.029262854
000030 71 82 f0 3d f0 07 1d bc 67 97 e0 3b 5b b8 5e bd
       0.1174363 -0.009584412 0.006853986 -0.054375034
000040 d3 d7 2e 3c 40 bb 00 be f5 15 c2 3d 83 c0 97 3c
       0.010671574 -0.1257143 0.09476844 0.018524414
000050 ed 39 1b bd 82 66 eb 3c 8f 29 12 3d 96 93 8a 3d
       -0.03789704 0.028735403 0.035684165 0.06766431
000060 85 ac b9 bc 90 7e 51 3d 84 61 8c bd 28 5c 83 3d
       -0.022665272 0.05114609 -0.06854537 0.06414062
000070 dd d2 f3 3d 7f 40 ac bc 1b cd 62 3c 85 29 47 3e
       0.11905453 -0.021026848 0.013842846 0.19449432
000080 09 b8 f4 bd 26 17 f1 3c 68 db 70 3d c2 36 9a 3d
       -0.119491644 0.029429983 0.058802992 0.075299755
000090 b6 7e da bc 23 c5 80 3c 5a b5 3f 3d a5 83 07 3d
       -0.026671749 0.015719002 0.04680381 0.03308453
0000a0 e9 3e ea bd 77 69 70 3c 4e 6f f5 bc 62 aa 11 3d
       -0.114377804 0.014673582 -0.0299603 0.03556288
0000b0 06 0e 02 bd 32 c9 8f bd f4 64 25 3e 0c 78 00 3c
       -0.031751655 -0.07020797 0.16151792 0.007841121
0000c0 46 cd 3e 3d 9e 16 df 3d 42 33 15 3d 1a ea 12 bc
       0.046582483 0.10892986 0.036425836 -0.008966947
0000d0 97 8f 86 3d 14 e9 e5 bd 1b c7 32 3e 4a 81 bc bd
       0.06570356 -0.11226097 0.17458765 -0.092043474
0000e0 70 a6 12 bb 84 83 ff 3c 34 f0 44 bd f2 96 47 bd
       -0.0022377037 0.031190641 -0.048080638 -0.048727937
0000f0 d8 af 92 bb e4 4c 4e bc 2a 16 78 bd cc 59 22 bd
       -0.0044765286 -0.012591574 -0.060568012 -0.03963642

layers.bn1.running_var f4 [64]
000000 28 30 2b 3d 73 f4 df 3c eb 0f 0a 3d 81 41 35 3d
       0.041793972 0.027338242 0.033706587 0.044251923
000010 35 69 cc 3c 48 c3 19 3d 2f 98 08 3d 6f bb e8 3c
       0.02495251 0.03753975 0.03334826 0.028409688
000020 5d e2 20 3d 50 85 11 3d 15 9f 1a 3d ab 8a 21 3d
       0.039278377 0.035527527 0.03774937 0.039438885
000030 48 fa 10 3d b1 01 cf 3c 3c f4 11 3d 27 6f 03 3d
       0.035394937 0.025269361 0.03563331 0.032088425
000040 74 61 1f 3d a9 48 06 3d 63 55 f3 3c 41 ee 14 3d
       0.038911298 0.032784138 0.029703801 0.03636003
000050 f1 ea 12 3d 4d ee 06 3d 13 52 00 3d e5 ce ea 3c
       0.03586859 0.032942105 0.031328272 0.028663108
000060 9f bb 04 3d 83 12 08 3d 8b 4d 11 3d e1 2c 01 3d
       0.032405492 0.03322078 0.03547434 0.03153694
000070 6e dc cf 3c 48 d0 fa 3c 06 2d 00 3d 11 dc 1e 3d
       0.025373664 0.030616894 0.031292938 0.03878409
000080 cf e9 d0 3c 80 42 07 3d 81 0c 27 3d 74 73 0a 3d
       0.025502114 0.033022404 0.04078341 0.03380151
000090 d8 3c 06 3d 5d 35 0a 3d 18 d7 0f 3d b1 c9 0a 3d
       0.03277287 0.033742297 0.03511724 0.033883754
0000a0 0b 11 13 3d d0 4d 4f 3d 92 9a e5 3c 0a 6e 1d 3d
       0.035904925 0.050611317 0.028027806 0.03843502
0000b0 03 40 0d 3d 98 3e ef 3c 63 33 1c 3d f6 bb f0 3c
       0.034484874 0.029204652 0.038134944 0.029386502
0000c0 bd 2c f2 3c a8 a0 10 3d 83 43 be 3c b5 8b f5 3c
       0.029562348 0.035309464 0.023225551 0.029973844
0000d0 d0 25 db 3c c7 ed 04 3d 98 35 ed 3c 9d 2d 05 3d
       0.026751429 0.032453325 0.02895622 0.032514203
0000e0 41 b0 df 3c 54 3f 0b 3d e7 b6 12 3d 45 37 00 3d
       0.027305724 0.03399594 0.03581896 0.03130271
0000f0 dc 9a 18 3d e8 d3 2a 3d 12 6b 2a 3d 49 64 e1 3c
       0.03725706 0.041705996 0.041606016 0.02751364

layers.bn2.weight f4 [32]
000000 9f 62 80 3f e4 59 80 3f 62 6b 7f 3f 6d b5 7f 3f
       1.0030097 1.0027432 0.9977323 0.9988621
000010 73 7c 7f 3f d0 66 7f 3f e9 9d 7f 3f 3d a9 7f 3f
       0.9979927 0.99766254 0.99850327 0.9986761
000020 bc bb 7f 3f 5c 63 7f 3f ca c6 7f 3f a4 6e 7f 3f
       0.99895835 0.99760985 0.99912703 0.997782
000030 6a c3 7f 3f 9c aa 7f 3f 03 54 7f 3f 53 9c 7f 3f
       0.99907553 0.99869704 0.99737567 0.99847907
000040 92 55 7f 3f f9 4e 7f 3f 92 d0 7f 3f ad 60 7f 3f
       0.99739945 0.9972988 0.9992763 0.9975689
000050 68 58 7f 3f 96 77 7f 3f 7a 72 7f 3f cf 6f 7f 3f
       0.9974427 0.9979185 0.9978405 0.9977998
000060 9f 72 7f 3f 5c a1 7f 3f 67 aa 7f 3f e9 53 7f 3f
       0.9978427 0.9985559 0.9986939 0.9973741
000070 74 63 7f 3f 8d 5c 7f 3f ff b7 7f 3f bb 9d 7f 3f
       0.9976113 0.99750596 0.9989013 0.9985005

layers.bn2.bias f4 [32]
000000 c7 cd 43 3b 52 b3 28 3b c4 88 23 bb d5 73 e7 ba
       0.0029877292 0.002574165 -0.0024953345 -0.0017658422
000010 d4 74 19 bb 48 ab 24 bb 15 2b e4 ba 03 f4 d7 ba
       -0.0023415582 -0.0025126506 -0.0017407859 -0.0016475919
000020 1b 69 c1 ba 00 a0 2f bb 1f 37 f6 b9 6a 91 1f bb
       -0.0014756055 -0.0026798248 -0.00046961845 -0.0024348148
000030 c5 dd 94 ba fd 10 bd ba e7 21 30 bb 09 47 f0 ba
       -0.0011357596 -0.0014424619 -0.0026875676 -0.0018331717
000040 9b 5c 36 bb f0 d4 3a bb 73 4b 8a ba 37 2f 2b bb
       -0.0027826193 -0.0028508268 -0.001055105 -0.0026120672
000050 b8 bf 36 bb 86 d0 1c bb 56 95 1a bb 9e d0 21 bb
       -0.002788527 -0.0023928 -0.0023587546 -0.0024690996
000060 e1 e6 1c bb 3a 65 e0 ba d8 21 dd ba 7e a9 33 bb
       -0.0023941325 -0.0017120012 -0.0016871048 -0.0027414258
000070 e1 37 2d bb 1f 0f 2e bb 1d a7 cf ba 2f ce e9 ba
       -0.0026431012 -0.0026559306 -0.001584265 -0.0017837937

layers.bn2.running_mean f4 [32]
000000 9e 74 86 3d 40 f7 bc bd 24 94 27 bd fa e0 8e be
       0.06565212 -0.09226847 -0.040912762 -0.27906018
000010 f9 73 c6 3c 44 e6 19 bd a8 a8 72 be dd 02 98 be
       0.024225222 -0.037573114 -0.2369715 -0.29689685
000020 f9 a5 01 be b5 64 a2 bd d6 a5 92 be 8c 16 5e 3d
       -0.1266097 -0.079293646 -0.28642148 0.05422072
000030 f2 3f 91 be 61 f0 41 be a5 6e 27 3e 2f 9f 5b be
       -0.283691 -0.18939354 0.16350801 -0.21447442
000040 1c 6d d2 3d b4 5b af 3d 46 2b 64 be 6f 21 2f bd
       0.10274717 0.08562413 -0.22282133 -0.042756494
000050 9d 01 16 3e a2 28 23 3d 55 80 25 3d 91 fc 4c 3b
       0.14649053 0.039833672 0.04040559 0.003127847
000060 47 7c bd bd e5 ab 19 be 33 b8 80 be 27 fc db bd
       -0.0925222 -0.15006979 -0.25140533 -0.107414536
000070 3a fa 68 3e 3c ab 60 bc 99 36 19 be 7e 76 82 be
       0.22751704 -0.0137127 -0.14962234 -0.25481027

layers.bn2.running_var f4 [32]
000000 3a 3b d1 3e e7 17 86 3e 5b 77 13 3f be 43 cb 3e
       0.408655 0.2619011 0.57603997 0.3970012
000010 c3 bf 1a 3f 62 29 cf 3e 91 48 aa 3e fe f6 ae 3e
       0.60448855 0.4046126 0.3325849 0.34172815
000020 7a d2 92 3e 2e b5 05 3f c0 24 a5 3e 9d af f1 3e
       0.28676206 0.52229583 0.322546 0.47204295
000030 f9 ab e9 3e 37 ae b6 3e e1 90 da 3e 7d 92 83 3e
       0.45639017 0.3567979 0.4268866 0.256977
000040 b8 c9 06 3f 0b 01 1c 3f b1 2f b4 3e c6 ac fe 3e
       0.5265155 0.6093909 0.35192636 0.4974119
000050 86 a5 2c 3f 09 dc da 3e c8 53 c6 3e f4 ae 42 3f
       0.6744007 0.42745999 0.38735795 0.7604821
000060 c4 00 16 3f ee 76 8a 3e 6b 4b bd 3e ac a1 d4 3e
       0.5859492 0.2704386 0.36971602 0.41529596
000070 0c 98 2f 3f e8 e1 b2 3e 01 40 96 3e 4b 82 ad 3e
       0.6859138 0.34937978 0.29345706 0.33888468

layers.conv1_1.weight f4 [64, 4, 9]
000000 40 ce 0f 3e c3 3e 11 3e 9c 97 d2 3d be 57 51 3d
       0.14043522 0.14184098 0.102828234 0.051109068
000010 20 b1 2a 3e 67 b4 08 bd f7 e4 aa bd 19 41 20 be
       0.1666913 -0.03337517 -0.08344453 -0.15649833
000020 24 35 23 be 38 50 5f 3d ef f1 09 be 1f c0 15 3e
       -0.1593824 0.054519862 -0.13471197 0.1462407
000030 3e 3a 4a bd ca 18 ac bc 67 c4 e8 3c 02 71 03 3e
       -0.04937195 -0.021007914 0.028413964 0.12836078
000040 64 3e 51 bd d4 99 0b be b1 9e de 3c b9 3c ca 3c
       -0.05108489 -0.136329 0.02717528 0.024687158
000050 26 bf 93 bd 19 16 fb bd 65 16 a6 3d ab c6 42 3d
       -0.07214193 -0.12260074 0.0810974 0.047552746
000060 14 80 b2 3b 69 bb b8 3d 20 b6 07 be df 55 f4 3b
       0.005447397 0.09020121 -0.13253069 0.0074565257
000070 2a 54 7f ba c9 4a 00 bd a0 1f c7 bd ce 3a f5 bd
       -0.00097400194 -0.03132132 -0.09722829 -0.11974107
000080 b7 d6 e1 3d b8 70 ee 3c f9 23 78 bd 9c db 42 bc
       0.11027282 0.029106483 -0.06058118 -0.011893179
000090 08 d8 e0 3b be b8 37 3d 88 66 08 bd 8b 55 c8 bc
       0.0068616904 0.04485392 -0.033300906 -0.024454853
0000a0 52 01 ef bd aa 29 15 be 77 e2 23 be b8 bd d7 bd
       -0.11670174 -0.14566675 -0.16004358 -0.10534233
0000b0 11 db f2 bc 47 f6 78 bc 0b 83 8d 3d f7 ea c6 bd
       -0.029645475 -0.015195436 0.0690976 -0.09712785
0000c0 d2 f0 c4 3d 1a 7b 95 3d 35 b3 03 bd 6c ae 9f 3d
       0.09616245 0.072988704 -0.032153327 0.0779694
0000d0 a0 88 12 3e c9 48 bb bd 73 ad cf 3d 2c 9d 36 bd
       0.14309931 -0.09144742 0.10140505 -0.044583485
0000e0 83 b9 b0 bc df aa 4d 3c b9 14 11 be 05 0c 9e 3c
       -0.021572834 0.012552946 -0.14168061 0.01929284
0000f0 c7 bb 24 be d5 23 2b bd 87 5f 16 3e 7d ee 8b 3d
       -0.16087256 -0.04178222 0.14684878 0.068325974
000100 6b 0b 80 3c 63 7f ac 3d ca e7 01 3c 0b d4 69 bd
       0.015630445 0.084227346 0.007928798 -0.057086986
000110 16 69 88 3d 79 8b 02 be 92 02 d2 bd ae 4e 25 3e
       0.066606686 -0.12748517 -0.102543965 0.16143295
000120 bb 86 02 3e 6d 5b 0a bd 5a 8f 81 3d 1d d8 54 bd
       0.12746708 -0.033778597 0.0632617 -0.051963914
000130 5e a2 c4 3c 1f 9e 11 3e aa a4 0c be 6e 08 29 3e
       0.024003204 0.14220475 -0.1373469 0.16507122
000140 c0 d8 25 bd 21 31 9e 3c 57 63 1f bd e4 49 bc 3d
       -0.040489912 0.019310536 -0.038913097 0.09193781
000150 e7 63 cc bd a0 c0 1d 3c 16 09 19 be 16 eb e4 bd
       -0.09979992 0.009628445 -0.14944872 -0.111776516
000160 ba 33 2d bd d3 d6 4f 3c 0d 25 cf 3d 10 b9 b6 bd
       -0.04228566 0.012685495 0.10114489 -0.089220166
000170 a0 e1 22 3e 21 bb 1d 3e 0e cc 5a 3c ff 2a 96 bd
       0.15906382 0.15403415 0.0133543145 -0.073324196
000180 8d 76 cb 3d 53 da 0a 3e 3e 06 42 3d 5d a4 97 bd
       0.09934721 0.13559847 0.047369234 -0.07404397
000190 0c 10 03 3e 3e b9 9c bd 43 7c 22 bd 67 c4 c9 bd
       0.1279909 -0.0765252 -0.039669286 -0.09851914
0001a0 1d 66 d9 3c 1f 86 a6 3c fc dd ff 3c 01 3a 5e 3d
       0.02653795 0.020327626 0.03123378 0.054254536
0001b0 f2 1d 45 bb 78 7c fe bd 7b e5 59 bd f7 34 f8 bc
       -0.0030077663 -0.12426084 -0.053197365 -0.030298693
0001c0 d4 76 22 be a3 ee 64 bd ed 7b 21 3e fd 29 bd 3c
       -0.15865642 -0.055891644 0.1576993 0.02309131
0001d0 4d 23 fe bd bb b5 2a be c7 2c 10 3e 6b 5b 59 3d
       -0.12409077 -0.16670887 0.14079581 0.0530657
0001e0 e4 76 15 bd 2b cf b4 bd cf 5b b0 bd 83 fa 08 be
       -0.036490336 -0.08828577 -0.08611261 -0.13376813
0001f0 c4 cd 32 3c 0b 56 f9 3d 0b ff 17 3d 89 04 d4 bd
       0.010913316 0.121746145 0.037108462 -0.103524275
000200 23 db e5 3c d4 1f 23 bc 6f 20 33 3d 13 53 81 bd
       0.028058594 -0.009956319 0.043732103 -0.06314673
000210 39 e3 26 3e 1f e1 79 bd 26 46 2c 3c d4 b7 93 bc
       0.16297616 -0.061005708 0.010514772 -0.018031992
000220 ca 51 0b 3e 07 06 ac 3b 46 a7 78 bd d3 23 8a bd
       0.13605419 0.005249742 -0.0607064 -0.06745114
000230 2b e6 8f bd 62 a2 c6 bd 1c de 91 3a 66 dc e2 bc
       -0.07026323 -0.09698941 0.0011128816 -0.027692985
000240 26 7e db 3d 1c c7 0d 3c 7d 4f 3c 3c ce a9 54 bd
       0.1071742 0.008653428 0.011493561 -0.05191975
000250 e2 a6 9c 3d 66 ea bc 3d 91 39 10 3e d2 e2 0c be
       0.07649018 0.092243955 0.1408446 -0.137584
000260 17 e5 f3 3b 85 b7 00 3e 4e e7 a2 3c 6a ca 79 3c
       0.007443081 0.12570007 0.019885685 0.015246013
000270 72 54 02 3e c5 0a 8b 3d 2a 70 5b 3d 42 52 62 3c
       0.12727526 0.067891635 0.053573765 0.013813557
000280 d6 a9 e1 bc f7 7e 7b bc ff b5 a0 bb fb f4 f8 3d
       -0.027546804 -0.015350095 -0.004904508 0.12156101
000290 60 3d c6 bd 2c 5a 9a 3d 8d 4c a0 bd f5 2f 18 3e
       -0.09679675 0.0753673 -0.07827101 0.14862044
0002a0 3b ea 09 3e c7 94 14 be bc 56 f5 3b 11 1f 93 bd
       0.13468258 -0.14509879 0.007487146 -0.0718366
0002b0 0b ce 25 3e 89 e0 b5 bd 8e bb 2e bc dd a7 aa bd
       0.1619188 -0.08880717 -0.010664834 -0.08332799
0002c0 26 b3 c5 bc 80 16 22 3e 0b b7 ad bd d2 4d 9d bd
       -0.024133276 0.15828896 -0.08482178 -0.07680859
0002d0 fd 95 ec bd ec 44 c6 3d 23 3b c5 3c 4c d4 eb 3d
       -0.115520455 0.096811146 0.02407605 0.11515102
0002e0 8d 6e 04 3e 3c 34 98 3d a1 02 f1 bd 4b eb dc 3c
       0.12932797 0.07431838 -0.117680795 0.026967665
0002f0 6f e6 b7 3d 7c 93 29 3e 92 74 e4 bd 96 71 0d be
       0.089794986 0.16560167 -0.111550465 -0.13812861
000300 92 b2 7c 3d 69 7e 21 bd f7 5e ce bd 5d fc 8e 3c
       0.061693735 -0.039427195 -0.10076707 0.01745432
000310 0b f5 0d 3c eb 3a a1 3d b3 35 e0 3d ef 1e ea bd
       0.00866438 0.07872566 0.10947742 -0.11431681
000320 0e bb 10 be 89 c8 82 3d 53 7c ab 3d 3c bf 37 3d
       -0.14133856 0.06385905 0.08373322 0.04486011
000330 ff 13 7d bd e0 5c 09 3e fc 4a 12 be b1 4d 25 bc
       -0.061786648 0.13414335 -0.14286417 -0.010089324
000340 1a 28 ab bd 70 d9 fd 3d 68 ee 5f 3d 54 63 0c be
       -0.08357258 0.123949885 0.05467072 -0.13709766
000350 27 33 d8 bd 91 f4 f2 bc b4 04 05 be 72 f8 1d bd
       -0.105566315 -0.029657634 -0.12990075 -0.038567014
000360 de f2 59 bd 7b cc af 3c 44 94 9b 3d 12 75 52 bd
       -0.05321013 0.021459809 0.07596639 -0.05138118
000370 84 62 39 bd 6f 8a 08 3e 7c 81 58 bd 27 93 8a 3d
       -0.045259967 0.13334058 -0.05285786 0.06766348
000380 74 8d 4a bd 2d 48 32 bd 9a 63 bf bd 79 31 3f bd
       -0.049451306 -0.043525863 -0.09345169 -0.04667804
000390 ed 22 a0 bd 39 57 25 3e ee d3 fe bc ad f1 96 3d
       -0.078191616 0.16146554 -0.031106915 0.07370315
0003a0 b9 69 1a 3e b5 56 45 3d 43 29 72 3d 6d e4 d8 3b
       0.15079392 0.048178393 0.05912138 0.0066190274
0003b0 84 e9 f7 bd 4c 00 6d bd 74 2a 48 3d 0e 8f 17 be
       -0.121050864 -0.05786161 0.04886861 -0.14800665
0003c0 bc 5b 16 bd ee b5 c9 bd 2d 51 72 3d c4 52 8e bd
       -0.03670858 -0.098491535 0.059159447 -0.0694938
0003d0 82 2a 0b 3e 36 b4 c8 3d a8 dc 5b bd 11 65 11 3e
       0.13590434 0.097999975 -0.05367723 0.1419871
0003e0 a9 02 ec 3d b6 07 07 3e 70 c8 de 3c f7 18 2c 3d
       0.11523945 0.13186535 0.027195185 0.042015996
0003f0 1a b9 cb 3d 9a 11 ee 3d a9 6b 66 bd 70 f9 14 3c
       0.09947415 0.11624451 -0.056255016 0.009092674

layers.conv1_1.bias f4 [64]
000000 fb 34 30 3d 14 27 cb 3d f4 07 22 3e fa d9 e2 3d
       0.043019276 0.09919563 0.15823346 0.11076732
000010 87 29 9c 3d f0 0f 23 bc 58 a8 81 3d c1 45 4a 3d
       0.07625108 -0.00995253 0.06330937 0.04938293
000020 ef 67 e2 3c fa 29 27 be f2 72 a9 3d 8d 54 44 3d
       0.02763745 -0.16324607 0.08273877 0.047932196
000030 6e c7 02 3e 41 23 99 bc 28 38 11 bd 91 88 d7 bd
       0.12771389 -0.018693568 -0.035453945 -0.10524095
000040 72 84 ec bd d3 f3 24 be 15 dc 23 3d 90 af 4f 3d
       -0.115486994 -0.16108637 0.04000481 0.05070454
000050 41 b1 03 be 0b 84 99 3b 1c c9 23 3e 86 1b f7 3d
       -0.12860586 0.00468493 0.15994686 0.120657966
000060 15 bd dd bd 1e 49 23 bc f5 78 cc bd 05 5f d7 3d
       -0.1082708 -0.009966163 -0.09984008 0.105161704
000070 41 ae dd 3d aa 7e 12 bd aa aa 07 bd af 19 15 3e
       0.10824252 -0.035765328 -0.033121742 0.14560579
000080 5e 00 0a be bc d0 56 3d f9 46 05 be aa e1 74 3c
       -0.13476703 0.05244516 -0.13015355 0.014946381
000090 fb ac 4b 3d 7f e0 7b bd 93 a9 97 3d d2 ee 03 3e
       0.049725514 -0.061493393 0.074053906 0.12884071
0000a0 76 0b 17 be 79 09 0c 3e ae 06 e4 bd 08 cf 20 3d
       -0.14750466 0.13675489 -0.111340865 0.03925994
0000b0 01 89 56 bd ae a3 b3 bd b7 37 29 3e 0b 22 a3 bd
       -0.05237675 -0.08771454 0.1652516 -0.079654776
0000c0 19 b0 95 3c 88 f0 d0 bc 91 b0 ce bb f0 05 19 bd
       0.018272446 -0.02550532 -0.0063076694 -0.037359178
0000d0 78 af 18 3d 96 3a ef bd ad 86 20 3e 83 d2 22 be
       0.037276715 -0.11681096 0.15676375 -0.15900616
0000e0 6f 87 82 bd c9 56 c7 3d fd 50 06 3e 27 c1 0b be
       -0.06373488 0.0973335 0.13116832 -0.136479
0000f0 e4 e7 04 be 63 03 4a bc f9 52 0f be b7 3e f7 3d
       -0.12979084 -0.012329909 -0.13996495 0.12072509

layers.conv1_2.weight f4 [32, 64, 9]
000000 78 6c ff 3b 77 d7 39 bc da 53 cf bc 41 df 2c 3d
       0.007794913 -0.011342875 -0.025308538 0.0422051
000010 c8 a3 13 3d 32 67 18 bc dd e2 4c 3c 43 03 98 bb
       0.036044866 -0.009301947 0.01250526 -0.0046390607
000020 8f e1 16 3d f2 d6 54 bc 41 d1 1a 3d ca c2 28 3d
       0.036836203 -0.0129907 0.037797216 0.04120139
000030 3d 6f 1e bd 49 02 95 3b d8 c6 2d 3d ef 57 df 3c
       -0.038680304 0.0045473916 0.04242596 0.02726361
000040 d9 2e 66 bc 6c 4f a0 bc 55 e9 1e bb 05 3f 1a 3d
       -0.014049255 -0.019569121 -0.0024247963 0.037657756
000050 ff 4f 81 3c 6b 18 00 bd e5 78 1c bd af 7b 58 3c
       0.015785215 -0.031273287 -0.03820123 0.013213082
000060 f8 46 b4 3b 14 1c 22 bb b9 c7 4c bc 7a 49 47 bc
       0.005501624 -0.0024735974 -0.0124987895 -0.012163514
000070 5a 64 78 3b a9 5f fa bb dd 04 20 3c 62 25 9e 3c
       0.003790161 -0.007640798 0.0097667845 0.019304935
000080 0b 41 6c bc b5 3f 06 3d 48 8f 1e bd e8 74 1f bc
       -0.014419804 0.0327756 -0.038710862 -0.0097324625
000090 d8 c1 27 3c 34 6b 35 3c 03 84 0a 3d 64 7c a7 3c
       0.010239087 0.0110729225 0.033817302 0.020445056
0000a0 6c 5a 22 3d f0 5a 29 3c 20 71 3c 39 31 91 62 3a
       0.039637014 0.010336623 0.0001797122 0.0008642851
0000b0 21 d8 7a 3c ad 8f a2 3c 8f 03 1a bd 81 77 8a 3c
       0.015310318 0.0198439 -0.03760105 0.016902687
0000c0 af 15 f4 3c 26 35 7e bc 2c da 1d 3d 3d be 82 3c
       0.029795496 -0.015515601 0.038538143 0.015959853
0000d0 76 d5 f4 3c 1c 72 0e 3d 90 27 ec 3c bc f6 a3 bc
       0.029886942 0.034776792 0.028827459 -0.020015113
0000e0 88 46 e2 bc df 13 9a bc 87 0c e3 3c c9 15 15 bd
       -0.027621523 -0.018808303 0.027715934 -0.03639773
0000f0 12 59 e1 3b 37 a3 de bc 69 29 05 bd 4f 4b 0d 3d
       0.006877073 -0.027177436 -0.032510195 0.034495648
000100 26 fd b8 bc 7a 60 23 bd bc be 83 bc 3a 34 78 bc
       -0.022581648 -0.03988693 -0.01608216 -0.0151491705
000110 40 33 0b 3d b7 12 db bc 2d 15 20 3d c1 63 38 bc
       0.033984423 -0.026742322 0.039082695 -0.011254252
000120 8d 9a fe 3c 11 ae 99 bb 47 14 13 bd a9 a1 00 3d
       0.031079555 -0.00468994 -0.03590801 0.03140417
000130 7a 62 09 bc e2 a7 32 bc 55 7a 0e bd a2 28 05 3d
       -0.008385295 -0.010904284 -0.034784634 0.032509454
000140 11 8e 1a bd 1f 44 99 bc e8 31 d4 3c 91 22 22 3d
       -0.03773314 -0.01870924 0.025902703 0.039583746
000150 45 7e 9d 3c 8a 45 bf 3b 01 1d 9d 3c 2a 46 81 bb
       0.019225249 0.005837147 0.01917887 -0.003945132
000160 5a d9 9d 3c b6 ee 04 3d 5c e3 06 bd 23 d1 17 3d
       0.01926868 0.032454215 -0.03293167 0.037064683
000170 6e 50 bc 3c 7a a8 44 bc 0f c2 93 3c 3f 04 14 bb
       0.02298757 -0.012003059 0.01803687 -0.0022585539
000180 fd f9 19 bc 9a 7d b2 3c b2 3e 0c 3d b5 44 12 3d
       -0.009397981 0.021788407 0.03423948 0.035710055
000190 45 c8 0a bc 12 d7 e0 bc 7a b5 12 3d 39 71 86 39
       -0.0084706 -0.027446304 0.0358176 0.0002564283
0001a0 9d 9e d3 3c 48 e6 1b 3d 17 5c 92 bc af f8 8e 3c
       0.025832469 0.03806141 -0.017866177 0.017452566
0001b0 84 9b 15 bd 90 27 c5 3c e3 d5 a1 3c 29 df ef bb
       -0.036525264 0.024066716 0.01975531 -0.007320304
0001c0 b8 1e 4e 3b 45 b0 b2 3c 40 c3 13 bd ac 78 7f 3c
       0.0031451415 0.021812567 -0.036074877 0.015592735
0001d0 6b 3f b5 bc b0 43 02 bd 6a 36 0b bd b8 0b 04 3c
       -0.022124967 -0.031802833 -0.03398744 0.008059435
0001e0 13 3b a2 bc e4 a1 50 bc 10 6f f5 bc 57 67 ae 3c
       -0.01980356 -0.01273391 -0.029960185 0.02128951
0001f0 49 3f 88 3c 55 6d 22 3d a0 e1 36 bc 06 23 27 3d
       0.01663174 0.03965505 -0.011162192 0.040804885
000200 a0 c3 e7 3c 86 58 eb bc f6 cd dc 3c be bf b0 3c
       0.028291523 -0.028728735 0.026953679 0.021575805
000210 3a 87 c4 bc 01 00 bf 3c 6e 29 82 3c ab b9 a9 3c
       -0.023990262 0.023315432 0.015888896 0.020718416
000220 8d d2 8a 3c c8 27 13 3c 11 c8 0f bd 48 80 15 3d
       0.016946102 0.008981653 -0.035102908 0.03649929
000230 3e a6 39 bc c2 c4 0b bd a5 09 dc bb d0 65 06 3d
       -0.011331139 -0.03412319 -0.006715017 0.03281194
000240 13 20 eb bb bb 0f 8b bc 9f 63 d0 bc d0 08 05 3b
       -0.0071754544 -0.016975274 -0.025438128 0.0020299442
000250 68 0e c5 3c de 38 b2 3c 3f 4d e5 bc 55 78 e1 3b
       0.024054721 0.021755632 -0.027990935 0.0068808
000260 ce 87 1e 3c 67 fe 11 3d 82 82 d4 bc 46 07 b8 3a
       0.009675933 0.035643008 -0.025941137 0.0014040254
000270 75 06 dc bc cf d3 d4 bc 0b 38 d1 bc 17 0d bc bc
       -0.026858548 -0.025979904 -0.025539419 -0.02295546
000280 a8 c3 40 3c 67 bc 02 bd 4c 30 8b bc 2d 55 23 ba
       0.011765398 -0.031917956 -0.016990803 -0.0006230649
000290 62 dc 2c bc d7 61 0e 3d 06 70 d1 3c 01 eb 03 3d
       -0.01055059 0.034761276 0.025566112 0.03220654
0002a0 ad e6 04 3d ac 65 88 3c 7b 0d 73 3c e7 37 06 3d
       0.032446552 0.016650043 0.014834757 0.032768156
0002b0 60 6d 18 bc df c4 09 3d 80 ad 0d 3d 80 ba 17 3c
       -0.009303421 0.033635017 0.03458929 0.009260774
0002c0 56 a9 08 3d 70 94 86 3c 1f 37 0e bd 75 eb 9c bc
       0.033364616 0.016428202 -0.034720536 -0.019155243
0002d0 b5 2e 10 bd b4 50 33 bc a2 0a 0e bd 87 47 f5 3c
       -0.035200793 -0.010944534 -0.03467811 0.029941333
0002e0 73 23 b9 3c 86 74 0a 3d 38 26 a7 bc b9 c0 81 3c
       0.022599911 0.03380253 -0.020403966 0.015838968
0002f0 55 d3 ec 3c 7d 94 f9 3c bf 38 56 3c 62 8d 5e bc
       0.028909365 0.030466313 0.013075053 -0.013583513
000300 8f aa 2c bd d5 bc 8a 3a 7d d7 0a bc 0b 9b 05 3d
       -0.042154845 0.0010584841 -0.008474228 0.032618564
000310 3e 52 2a 3d 25 20 e8 3b 84 dd 79 bc c2 5f c4 bc
       0.04158234 0.00708391 -0.015250567 -0.023971442
000320 20 dc 87 ba 43 84 d5 bc a9 a5 17 bc 36 09 23 bd
       -0.0010365285 -0.026064044 -0.009255805 -0.039803706
000330 bd 03 73 3c b8 8b e1 bc a2 80 d2 bb 5c a0 20 bd
       0.014832434 -0.027532443 -0.0064240256 -0.03921543
000340 bb c5 ed 3c 25 8e 5a 3c db f8 10 3d b5 e0 c3 3c
       0.02902495 0.013339554 0.035393577 0.02391086
000350 8a 24 90 bb 25 56 0f bd 3e 93 d7 3b bd a8 8c 3c
       -0.004398887 -0.034994263 0.006578832 0.017170304
000360 3f 65 bd 3b 44 b8 18 bd a1 21 de bc 32 46 13 3d
       0.0057798917 -0.037285104 -0.027115645 0.035955615
000370 73 dc 9e 3a df ec 29 3d 4f 35 cd bc 23 69 9e ba
       0.0012120142 0.041485664 -0.025049834 -0.0012085777
000380 16 3f 1a 3d 85 6d 5f bc 5c 82 cf 3b ab ec e8 bc
       0.03765782 -0.013636951 0.0063326787 -0.028433165
000390 7e 69 24 bd b4 8f 7a 3c ca 54 21 3d 8c 7d 10 3d
       -0.040139668 0.015293051 0.0393875 0.03527598
0003a0 fa e5 94 3c fc a3 19 3d bb c0 74 bb 2b cc 2a 3d
       0.018176068 0.037509903 -0.0037346322 0.041698616
0003b0 4a cb 0c 3d 91 06 c6 3c af 24 b3 3c 98 b6 4d bc
       0.03437356 0.024173053 0.021868078 -0.012555741
0003c0 59 eb bb bc 2b 5a 9e 3c 8a 1e 22 bd a7 de 95 3c
       -0.022939371 0.019330105 -0.039579906 0.018294645
0003d0 56 88 10 3d ec 00 b6 bc d2 a9 50 bc e0 b0 fb bc
       0.03528627 -0.022217236 -0.012735801 -0.030723989
0003e0 57 ab dc bc 87 f8 f2 bc 65 7f f7 3c c2 be 19 3d
       -0.02693717 -0.029659523 0.030212114 0.037535436
0003f0 9b cb 1d 3d 1c 02 fb 3c e2 b0 c1 3c 07 a6 b4 3c
       0.03852425 0.030640654 0.023643915 0.022051824

layers.conv1_2.bias f4 [32]
000000 75 64 cc 3a 15 38 11 bd aa d6 b7 bc 3e 56 a4 bc
       0.0015593903 -0.035453875 -0.022441227 -0.020060655
000010 9f 32 a3 bc 41 8c 86 bc 7e 37 05 bc 48 fe 1e bc
       -0.019921599 -0.0164243 -0.008130906 -0.00970418
000020 79 b6 7b bc ab 07 e3 3b 2f 92 c6 3c 43 87 7b 3b
       -0.015363329 0.0069284043 0.024239628 0.0038380183
000030 4b 70 d3 bc 17 7c 8e 3b 19 84 86 bc 26 e9 22 bd
       -0.025810381 0.0043482888 -0.016420411 -0.03977313
000040 2a 68 1c ba 81 85 02 3c 51 29 53 3c c8 b2 0e 3d
       -0.00059664494 0.0079664 0.012888269 0.034838468
000050 d4 95 00 bc 90 96 09 3d 04 4a c6 bc 4b 2b 06 bc
       -0.007848222 0.033590853 -0.024205215 -0.008189033
000060 e0 91 9e 3a e9 de 22 bd b0 d4 0b 3b b7 bf fa 3c
       0.0012097917 -0.039763365 0.0021336488 0.030608995
000070 ed 07 06 3d 3a 16 88 3b 42 84 e2 bc cf 50 28 bd
       0.032722402 0.0041530402 -0.027650956 -0.04109269

layers.conv2_1.weight f4 [64, 4, 20]
000000 e5 7b db 3d 36 0f bd 3d f4 b2 83 bd f9 85 64 3c
       0.107169904 0.09231417 -0.06430617 0.013947957
000010 45 3f d9 3c 39 90 93 3d 40 ce c4 bd a3 0c 9b 3d
       0.026519427 0.07205243 -0.096096516 0.0757077
000020 fd 6a da bd 8c 00 40 bd 4f 4a 92 bd c6 44 a5 bc
       -0.10664938 -0.04687552 -0.071430795 -0.020174395
000030 3b a2 ce 3c 37 6a 49 bd fe b0 6b 3d 4f 2b cd bd
       0.025223842 -0.04917356 0.05754184 -0.10018026
000040 45 2a 6f bd 18 3e 96 3d 07 d1 c6 bd d6 2e 19 3d
       -0.05838992 0.07336062 -0.097078376 0.03739818
000050 e6 57 d2 3d 9e 10 d3 bd 39 06 5a 3b 10 47 68 bd
       0.102706715 -0.10305904 0.003326787 -0.056708395
000060 2e 1c 5f 3d 0d b5 ff bc b4 84 c8 bd 27 e7 d7 bd
       0.054470234 -0.031214261 -0.09790936 -0.10542136
000070 a3 58 aa b9 b8 a3 b9 bd 9d 40 d3 3c d6 de cf 3d
       -0.00032490966 -0.0906443 0.025787646 0.101499245
000080 23 41 5a bb 3c 64 35 3a 43 18 d0 3d 69 a4 14 bd
       -0.0033302985 0.0006919538 0.101608776 -0.036289606
000090 07 eb cf 3c 2d 78 d8 3d c3 19 a1 bd 74 93 b5 3d
       0.025380624 0.10569797 -0.07866242 0.08866015
0000a0 64 d4 4d 3d d8 1f 93 bd 32 73 09 3d 2f f4 9f bd
       0.05025138 -0.07183808 0.033557124 -0.07810246
0000b0 1b 96 ad bd 24 09 36 bd 60 61 08 bd 92 af dd bc
       -0.08475896 -0.04444231 -0.03329599 -0.027061258
0000c0 50 c9 66 3d 3d d7 25 3d ac 0a 80 bd fe 9c 80 bd
       0.05634433 0.04048847 -0.062520355 -0.06279944
0000d0 d9 f0 95 bd c5 7e df bd de 97 89 bd 14 a5 b0 bd
       -0.07321329 -0.10912851 -0.067184195 -0.08625236
0000e0 39 76 70 ba fc 95 9a bd c2 3c 28 3d 66 7d e1 bc
       -0.000917289 -0.075481385 0.04107357 -0.027525615
0000f0 b3 9c e4 bd f7 9d 89 bd 79 9b 77 3d 9a 98 c7 3c
       -0.111627005 -0.067195825 0.060451005 0.024364758
000100 b6 a3 ca bc 28 ec 87 bd f3 28 af bd 2e fd a3 bd
       -0.024736267 -0.0663684 -0.08552732 -0.080072746
000110 ac a7 e0 bd 13 aa 05 3c 3a 70 0b 3c 08 e8 cd bd
       -0.10969481 0.008158225 0.008510644 -0.10054022
000120 86 73 5a bd ea 5b 35 3d 5d 22 22 bd cf c7 7b 3d
       -0.053332828 0.04427711 -0.039583553 0.06146985
000130 ad cb ca 3c 22 12 24 3d 86 cb 47 3c a5 4a ac bc
       0.024755323 0.040056355 0.01219452 -0.021031687
000140 98 a9 8e bd 7c ac 70 bd d2 ff 81 3d 04 b0 97 bd
       -0.06965941 -0.058758244 0.06347622 -0.07406619
000150 29 88 c9 bc 5d 03 c9 bc a0 ee a5 3b f9 0d ba bd
       -0.024601059 -0.024537737 0.0050638467 -0.09084696
000160 c5 67 3b bd fe eb 54 3d b0 f9 cb 3d c3 76 d1 3d
       -0.04575326 0.051982872 0.099597335 0.1022773
000170 b5 c9 08 bc 1b 17 bb bd 78 ae 92 bd c7 6c 97 3d
       -0.008348872 -0.091352664 -0.071621835 0.073937945
000180 7c 9d 23 3c cb c9 5a 3d db 8c 4d 3d 0a d3 91 bd
       0.009986278 0.0534151 0.05018316 -0.07120331
000190 d4 7f 87 3d 8c d7 26 bd 6d 03 e4 3c a5 a1 b8 bc
       0.06616178 -0.040732905 0.027833665 -0.022538016
0001a0 64 93 ac 3d 12 97 4c bd 1f f3 c5 3c 8c f9 76 3d
       0.0842655 -0.04994876 0.02416378 0.06029658
0001b0 83 77 8f 3d c7 0d ba bd 30 95 4c bd ea 05 d4 bd
       0.07005217 -0.09084659 -0.049946964 -0.103526905
0001c0 cc d1 95 3d ba c2 b8 bd 2a 68 f9 bc 72 00 66 bd
       0.07315406 -0.09021516 -0.030445177 -0.05615277
0001d0 cf 8b a8 3d 65 32 ad 3d 25 12 64 bd 9d e0 b5 3c
       0.082297914 0.084568776 -0.055681366 0.02220183
0001e0 f7 d2 01 bd 15 dd a2 3d d5 9c e3 bb d7 9d bd 3d
       -0.031695332 0.07952324 -0.006946186 0.09258621
0001f0 2d ae d1 bc e2 f6 91 3d 73 9f 14 3d 9c 14 8f bd
       -0.025595749 0.07127167 0.036284875 -0.06986353
000200 fb 54 2b 3b 2d 50 88 3c f5 a1 19 3d 81 9f 96 3c
       0.0026143182 0.016639793 0.03750797 0.018386604
000210 3e cd 45 3c 19 37 84 bc 5c 4f 05 3d b4 ca ad 3c
       0.012072859 -0.016139554 0.032546386 0.02121482
000220 43 1d 87 bd ee 03 3a 3c 3f d6 fc bb b5 1e 9c 3b
       -0.06597378 0.011353476 -0.00771597 0.0047644028
000230 3c 7b e7 bc 64 a8 b4 3c 9b 4c 47 bd 46 1a cd bd
       -0.028257005 0.022052951 -0.04865704 -0.10014777
000240 f4 10 3e 3d e7 bf c1 bd 0c 73 c9 bd 40 25 6d bd
       0.046402887 -0.094604306 -0.098363966 -0.057896852
000250 d1 1a c3 3d ff 77 d1 3d c0 79 8e bd 0d 66 10 3d
       0.09526599 0.102279656 -0.06956816 0.035253573
000260 1d f9 d1 3b e6 32 95 bc a5 df 93 bd 11 4d f2 bb
       0.0064078704 -0.018212747 -0.07220391 -0.007394441
000270 b5 71 97 3a 02 ee 28 3d a7 90 88 bd 0f eb be bd
       0.0011554273 0.041242607 -0.06668215 -0.093221776
000280 3e d2 98 bb 69 a3 9c 3d ac 5b 68 ba 04 3d de 3d
       -0.0046637347 0.076483555 -0.0008863758 0.108514816
000290 96 54 b1 bd 09 31 e1 3d fd db d0 3d 0b e3 84 bd
       -0.086587116 0.10995681 0.101982094 -0.064886175
0002a0 02 df 98 bd b9 b7 1e 3d 75 72 60 3d 09 93 de ba
       -0.0746441 0.03874943 0.054796655 -0.0016981076
0002b0 54 a3 e7 3d 73 f1 ad 3d 43 3e 9d 3d 9a f7 29 3c
       0.11310449 0.084933184 0.07677891 0.010373974
0002c0 a8 19 63 bd 5a 80 e9 3b b4 79 45 bd 5e 41 bf bc
       -0.05544439 0.0071258964 -0.04821177 -0.0233466
0002d0 72 f1 85 bc 2c 0d 1c bd 0f ae bf bd a5 7d d9 bc
       -0.016350482 -0.0380985 -0.09359371 -0.02654917
0002e0 98 a4 5a 3d 86 9a 87 bd 62 b6 db 3d 40 c3 3e 3b
       0.053379625 -0.0662127 0.10728146 0.0029108077
0002f0 e8 66 c7 3d 0e 3a 35 bc ae fb e2 3d dd 81 61 3d
       0.09736425 -0.011061205 0.1108316 0.055055488
000300 b0 e0 9d 3d cc 25 7e bd a5 df df bc bc 48 4e bc
       0.07708871 -0.062047765 -0.027328322 -0.012590583
000310 45 cf 9a 3d 89 27 e4 3b d7 4a 9b 3d 07 40 ca bc
       0.07559065 0.006962721 0.07582634 -0.024688734
000320 b2 93 ef bb 9c 3f c7 bd d1 cd e8 bc 0d 25 b8 bd
       -0.007311308 -0.097289294 -0.028418453 -0.08991442
000330 33 c5 a2 bd 18 4b a8 3c 06 54 a3 bd 29 35 b5 3c
       -0.07947769 0.02054362 -0.079750106 0.022120075
000340 aa 93 7d 3d 7f ff 7e 3d f6 21 20 3d 65 89 83 bd
       0.0619084 0.06225538 0.039094888 -0.0642269
000350 7f 9f d4 bd 7c a5 0c bd b4 00 ce bd cb 4e de bd
       -0.10381984 -0.034337506 -0.10058728 -0.10854872
000360 5b 96 d2 bd a6 1f 8f bc a1 bb 54 3d bb 92 bf bd
       -0.10282584 -0.017471146 0.05193675 -0.093541585
000370 43 c6 30 bd f7 27 33 3d 09 a3 9e 3d ae e6 d4 3d
       -0.043157827 0.043739285 0.0774594 0.10395561
000380 65 1f d5 3d 18 ed c6 bd 26 41 cc bd eb 45 95 bc
       0.10406379 -0.09713191 -0.099733636 -0.018221816
000390 3c 21 7c 3c a9 27 6a bc b9 b5 54 3c 47 82 a5 bd
       0.015388783 -0.014291682 0.012982779 -0.08081489
0003a0 7a 85 c6 3d a6 5e 58 3c 38 a4 ca bd 22 32 9c bd
       0.096934274 0.01320616 -0.098946035 -0.076267496
0003b0 b7 51 2c bd 83 d4 ab 3d db 94 85 3d 37 29 d7 3b
       -0.042070117 0.08390143 0.065225326 0.0065661925
0003c0 b7 b5 85 3d 54 fa 5f bd 4c f9 8f bd 25 34 c1 3d
       0.065288 -0.05468209 -0.070299715 0.09433774
0003d0 cb f4 76 3c c4 06 a9 bb f5 d5 28 3d 4f 90 66 3d
       0.015073012 -0.005158277 0.04121967 0.056289967
0003e0 0b 90 a8 3d 37 87 9a bd 1d 04 a7 3d 71 e9 c8 3b
       0.08230599 -0.075453214 0.081550814 0.006131344
0003f0 ee cf a0 bd 75 80 85 3c 00 80 aa 3d 53 d2 66 3d
       -0.078521594 0.016296605 0.08325195 0.056352925

layers.conv2_1.bias f4 [64]
000000 49 fe c3 bd 87 c7 ac bd 3f 7a d0 3d b0 bf a0 bc
       -0.095699854 -0.08436494 0.101795666 -0.019622654
000010 63 f7 a8 bd 84 ac 68 3d 6a 5d 18 bd 94 8d d1 3d
       -0.0825031 0.05680515 -0.03719846 0.10232082
000020 e1 bc bc bd 03 52 b9 bd 46 54 a6 bb 69 e3 cb bd
       -0.09215713 -0.090488456 -0.005075964 -0.099554844
000030 28 63 08 bd 23 f4 12 3c 7b c8 d2 bd fe 28 1f bd
       -0.033297688 0.00896934 -0.10292145 -0.038857453
000040 35 25 8a 3a 0e cc a2 bc 5e 2c d6 3b aa 65 87 bb
       0.0010539653 -0.019872691 0.0065360507 -0.0041319923
000050 6e ed af 3d 77 0b e5 3d 8b c6 6b bd 33 dd 01 bd
       0.08590208 0.11183827 -0.057562392 -0.031705093
000060 5c 91 98 3d 39 9d bf 3d 62 0f 43 bd 8d ad 60 3d
       0.074496 0.0935616 -0.047622092 0.05485301
000070 d4 db b9 3d 37 fc 67 bb dd a9 7a 3b 5d 1b 89 3d
       0.09075132 -0.0035398134 0.003824822 0.06694672
000080 8c e3 86 bd 2d 89 be bd 7d ae ce 3d 8a e7 41 3d
       -0.0658637 -0.09303508 0.10091875 0.047339953
000090 90 b4 56 bd c6 0b ae 3d 0e 7d e4 3d f3 c3 64 bd
       -0.05241829 0.08498339 0.11156665 -0.055850934
0000a0 41 22 b5 3b c7 04 f0 3c 68 c2 f2 3c 3f 44 a9 bc
       0.005527765 0.029299153 0.029633716 -0.020662425
0000b0 14 99 40 bd 9d dc fb 3c 76 8a 9f ba a0 ad 02 bd
       -0.047020987 0.030744845 -0.0012172002 -0.031903863
0000c0 6b 08 e6 3c 97 61 95 3d 2d 42 90 3d 33 96 a9 bc
       0.028080186 0.072940044 0.07043872 -0.020701503
0000d0 25 cc ef 3c f4 39 6e bd 15 fa da 3d 27 3e 77 b8
       0.029272148 -0.058160737 0.106922306 -5.8947273e-05
0000e0 90 73 70 3d 80 45 c5 bd 02 53 c0 bd 2c fa 3d 3b
       0.05870396 -0.09632397 -0.093908325 0.0028988225
0000f0 5f b9 6e 3c 36 6e 9c 3d 04 67 1e bd 08 46 b9 bd
       0.014570563 0.076382086 -0.038672462 -0.090465605

layers.conv2_2.weight f4 [32, 64, 20]
000000 0e 45 c1 bc e6 62 1b bc 30 91 8e bc a9 4a 8b 3c
       -0.023592498 -0.009484028 -0.017403215 0.017003374
000010 49 96 6f 3b d3 a8 e8 bc 70 22 89 3c 71 36 98 3c
       0.0036558083 -0.028400814 0.016740054 0.018580647
000020 49 ec bf 3c 5c 6c 3e 3c a7 0a 44 3c 5d db fa bb
       0.0234281 0.011622515 0.01196543 -0.0076555447
000030 6a 09 db bc 07 35 0f bc 07 15 54 bc 91 57 e3 bb
       -0.026737887 -0.00874067 -0.012944466 -0.006937929
000040 83 e1 04 bc de 3f a4 bc bd dd 9e bc a4 bd 18 bc
       -0.008110407 -0.020049985 -0.019392842 -0.009322558
000050 09 b3 65 3c 27 3d c6 bc ff d5 4c bb 5e 1a 59 3a
       0.014019736 -0.024199082 -0.0031255481 0.0008281822
000060 b9 dd c7 ba bc 30 e7 bb b2 8e af 3c b3 7c 16 3c
       -0.0015248574 -0.00705537 0.021430347 0.009185004
000070 24 c0 40 3c be 70 91 3c fd 04 a3 bc 39 aa 9c bb
       0.01176456 0.017753955 -0.01989984 -0.0047810343
000080 3b 87 05 3b 87 2b bc bc 57 45 8f 3c 31 9d 9d 3c
       0.0020374793 -0.022969974 0.017489119 0.019239994
000090 7f 34 96 bb ad b1 65 bc 0c bb a5 3c f7 29 59 3c
       -0.0045838947 -0.014019412 0.020230792 0.013254634
0000a0 8b 2b 4e 3b e6 d0 b4 3c 9f 38 88 bc 2a 8d 10 3b
       0.003145906 0.022072267 -0.016628562 0.0022056797
0000b0 50 5f 79 3c b6 2f 96 3c 36 2c ab bb 93 64 7d 3c
       0.015220478 0.018333297 -0.005223776 0.015465873
0000c0 31 e6 de ba ab da 99 bc 3d 0d 48 3c c4 00 c9 bc
       -0.0017005858 -0.018781027 0.0122101875 -0.024536498
0000d0 0a ec 06 bb a4 06 e8 3c d2 a7 96 bc fe 22 2e 3c
       -0.0020587468 0.028323479 -0.01839057 0.01062846
0000e0 35 60 7e 3c 07 d4 d0 3b 3b 26 3f bb 10 c1 0e 3c
       0.015525867 0.006372932 -0.0029167074 0.008713022
0000f0 e4 38 ae 3c 2d 45 25 3c be fe 92 3c fc a9 46 bc
       0.021267362 0.010087294 0.017943736 -0.012125488
000100 63 2c 34 bc 7e 79 a8 bc a4 de d0 bc d1 77 84 bb
       -0.010996911 -0.020565744 -0.025496788 -0.0040426035
000110 b0 e0 8a 3c 3e aa a5 3b 97 fb 54 bb 52 ba 73 bc
       0.016952842 0.005055695 -0.0032498592 -0.014875965
000120 b0 fc 3a 3c 7f 49 97 3c 9b d5 09 3c 69 2f 8c ba
       0.011412784 0.018467663 0.008412744 -0.0010695282
000130 a0 b3 7d 3b 6f 9d 96 bc 4b ee 4f 3c 7f b9 34 bc
       0.0038711801 -0.018385617 0.012691091 -0.011030554
000140 e1 fe 02 3c 72 c6 a5 bb 40 8d b2 bc 06 ce 8d 3b
       0.007995338 -0.005059057 -0.021795869 0.0043275384
000150 8c a3 de 3b 60 96 99 bc 63 79 87 bc 3b 41 cb bc
       0.0067943987 -0.018748462 -0.016537374 -0.024811378
000160 c3 24 af 3c 78 21 ee bb aa 1a 90 3c 49 30 8e bb
       0.021379834 -0.0072671734 0.01759084 -0.004339252
000170 75 a6 a2 3c ef 6e 2d 3c df 65 8b bc 20 c1 cd 3c
       0.019854764 0.010585531 -0.01701635 0.025116503
000180 4e 89 89 3c e7 46 27 bc cf 2b 54 bb 13 65 7a bb
       0.016789105 -0.0102097755 -0.0032374745 -0.0038207218
000190 4f 5f 1f bc 57 65 2f bc 30 d3 ed 3c 73 fc ec 3c
       -0.009727313 -0.010705314 0.029031366 0.02892897
0001a0 af c2 8e 39 27 01 0a 3c fe 3c 97 bc 6a 6c ca bc
       0.000272294 0.008423126 -0.0184617 -0.024709899
0001b0 8c f9 cd bb 0a 26 80 bc b2 aa b6 bb fc 9f 10 bc
       -0.006285852 -0.015643138 -0.0055745477 -0.008827206
0001c0 c0 c7 b6 bb d7 34 ac bb 3f 3d 03 3c 77 e8 99 3c
       -0.0055780113 -0.0052553224 0.008010208 0.018787606
0001d0 be d2 d9 3c 74 4c 70 bc dd 9f c2 bc 66 6e 3b 3b
       0.026589748 -0.014666665 -0.02375787 0.0028599738
0001e0 0d 84 47 3c 3d 27 2a bc b8 fc 10 3c 65 c6 cd 3c
       0.012177479 -0.010385332 0.008849315 0.025119016
0001f0 ba f9 76 3c 1c bc 9d 3c 40 41 c9 3b 38 fb a3 bc
       0.015074188 0.019254737 0.0061418116 -0.020017251
000200 03 33 6b bc 52 03 bf bc 07 76 ab bb 23 94 da 3c
       -0.014355424 -0.023317013 -0.005232576 0.026681965
000210 74 3e c7 3c 49 bd b4 bb ad 73 71 bc 49 53 ce bc
       0.024321772 -0.0055157286 -0.014737052 -0.025186198
000220 a3 1a d2 3c 2c 47 a4 38 06 64 b9 3c 5d 89 9f 3c
       0.025647467 7.833386e-05 0.022630703 0.01947468
000230 81 07 e2 3a 54 c4 ec 3c 8d fa f1 36 89 2c 96 bc
       0.0017244668 0.02890221 7.2115276e-06 -0.018331783
000240 81 b7 6b bc 23 24 80 3c e5 8e b4 bc 62 bd 4a 3c
       -0.014387012 0.015642231 -0.022040794 0.012374254
000250 50 e6 eb 3a bd 6a 91 3c 49 23 c5 3c 0b 0a a0 3a
       0.0017997716 0.017751092 0.024064677 0.0012210024
000260 fb ec 66 bc 3c 7a 3c bc 5d aa 99 3c 49 2e 59 3b
       -0.0140945865 -0.011503752 0.018757993 0.003313916
000270 eb e9 ba 3b 8c f5 cb bb 28 a9 6b 3c af 3b d2 bb
       0.0057041547 -0.00622434 0.014383592 -0.0064158062
000280 4d 6c 66 3c a0 ea 54 3c 13 8d 87 3c 3f ef 81 3c
       0.014063907 0.012995392 0.016546762 0.015861152
000290 56 9a 1e bc fa 1a a7 3c cc 4d cd bb e9 54 d9 bb
       -0.009680351 0.020398606 -0.0062653776 -0.0066324365
0002a0 0d 60 cf bc 13 88 7b 3c 8a 10 28 bc 06 af ab bc
       -0.025314355 0.015352267 -0.0102578495 -0.020957481
0002b0 7f fe 58 3b a9 c6 72 3b b9 ab a6 3c 65 c1 2f bc
       0.0033110676 0.003704468 0.020345556 -0.010727261
0002c0 70 a0 01 3c 87 51 57 bb 89 18 af 3c 54 76 1e 3b
       0.007911786 -0.003285499 0.021374004 0.0024179416
0002d0 67 24 9d 3c 42 37 c7 3c 43 81 3c 3c bf 62 5b 3c
       0.019182397 0.024318341 0.011505428 0.013390242
0002e0 87 21 85 3c 07 e8 80 bb 6f 97 31 3c 37 be d1 3c
       0.016251339 -0.00393391 0.010839327 0.025603397
0002f0 e7 0e a0 3c b5 3a cb 38 4b 92 2a bc b6 3a 4e 3c
       0.019538356 9.690729e-05 -0.0104108555 0.01258724
000300 27 b7 c4 3c 65 2c 0d 3c a1 16 3f bc 5c 49 b1 bc
       0.024013115 0.0086165415 -0.01166311 -0.021641426
000310 ff aa b3 3c ed e8 2b bc d1 d0 95 3c 47 33 e7 3c
       0.021932123 -0.010492546 0.018288048 0.028222693
000320 2e a5 ac b8 bc f7 41 3c 8b 1a d4 3c 51 24 a7 bb
       -8.232366e-05 0.01183885 0.025891563 -0.005100765
000330 81 77 89 3c b3 db 4c bc c2 fd ee 3c 0e e6 92 3c
       0.016780617 -0.012503552 0.029173736 0.017931964
000340 d4 14 d4 b9 6d 98 62 bb f2 21 da 3b 67 c9 5b bc
       -0.0004045131 -0.0034575716 0.0066568786 -0.013414717
000350 ff 4f 3c bc 61 27 b6 bc fb e9 a1 bc 70 ca 84 3c
       -0.011493682 -0.022235574 -0.01976489 0.016209811
000360 70 f3 9d bb 2e 69 7c 3c d3 90 d2 39 2a 0f f1 39
       -0.00482028 0.015405936 0.00040162224 0.000459784
000370 86 94 92 bc cf 84 a7 3b 91 49 c4 bc d4 98 51 3b
       -0.017893087 0.0051122676 -0.02396086 0.0031981962
000380 27 9c 81 3c cb 71 ad bc af 65 cf 3c 64 9d 83 3c
       0.01582153 -0.021172425 0.025317041 0.01606626
000390 3b 28 3c 3c 2f b8 e7 3c 76 b9 b1 bc 8f e4 ae 3c
       0.011484201 0.028286068 -0.02169488 0.02134922
0003a0 72 de 18 bc b5 66 91 bc 85 34 b8 3b 58 98 75 bc
       -0.009330379 -0.01774917 0.005621495 -0.014989935
0003b0 3d 6b d8 3b a0 50 84 bc b9 2d 8e 3c 7a f4 b9 bc
       0.0066045807 -0.016151726 0.017355787 -0.022699583
0003c0 3c a9 a6 bc 54 5d aa 3c 7c 33 63 3c d1 b2 91 bc
       -0.02034437 0.020796455 0.013867255 -0.017785462
0003d0 58 9c cc bc 99 f6 ab ba c0 a0 59 3c 61 d4 e2 ba
       -0.024976894 -0.0013119756 0.013282955 -0.0017305725
0003e0 83 ec 61 ba a0 89 f8 3b 8d aa cc 3c 3a 05 5e 3c
       -0.0008618312 0.0075847656 0.024983669 0.013551051
0003f0 e6 fb a5 bb bb 6e a8 bb 67 42 cb 3b a2 22 1f bc
       -0.005065429 -0.005140153 0.006202984 -0.009712847

layers.conv2_2.bias f4 [32]
000000 32 32 40 3c 8c 98 68 3c 5a 63 85 bb 91 ea 2e 3c
       0.0117307175 0.014196526 -0.0040706815 0.010676042
000010 e8 6f 81 bc e5 1a 91 bb 23 7a 95 bc 33 a0 d6 bc
       -0.015800431 -0.004428255 -0.018246716 -0.026199436
000020 7a 01 4a 3c f2 c3 27 bc df 47 ae bc 36 66 12 bc
       0.012329454 -0.010239588 -0.021274505 -0.008935502
000030 35 3d 26 3c d7 84 a3 bc ef a0 ca bc 5f 7a cb bc
       0.010146429 -0.019960804 -0.024734942 -0.024838625
000040 cb fc fd bb ed 49 cb 3c 05 ec 7a bc 30 4f 59 3b
       -0.0077510825 0.024815524 -0.0153150605 0.0033158772
000050 dc 50 91 bb d3 e5 6c bb e4 31 fb bb 15 28 b3 3c
       -0.004434688 -0.0036147728 -0.0076658595 0.021869699
000060 5d c6 a3 bc b8 2d 80 3b cc 86 5d 3b 5c 3e a3 3b
       -0.019992048 0.0039117 0.003380227 0.004981799
000070 a1 fe 7b 3c de f9 31 3c 63 30 93 bc 87 15 8b ba
       0.0153805325 0.010862796 -0.017967409 -0.0010611274
