mRNAlocalization/cnn_models/CNN_model_fold2.pth (torch, 531886 bytes, 22 tensors)

layers.bn1.weight f4 [64]
1.0067636 0.99997425 1.0054349 0.99643636 1.0061698 0.99538773 1.0037451 0.99921095
0.99871933 0.99532133 1.0058364 1.0023247 1.0036054 0.9937384 0.99736786 0.9977179
0.9990089 1.0020354 1.0035994 1.0024245 0.99770707 0.99875116 0.99848664 1.0053308
1.002726 0.9972998 1.0024867 1.0052083 0.9985043 0.9981254 0.9991321 1.0025713
1.0014001 0.99685353 0.9975927 0.99502176 1.0049485 0.99995124 1.0005897 1.000201
1.0006181 1.0050265 1.0052433 1.0016868 1.0065213 0.9991671 0.99987674 1.0011392
1.0008063 1.0011821 1.000858 1.0028882 1.00166 0.9955375 1.0035573 0.998246
0.99777114 0.9998444 0.9990664 1.0010426 0.99791783 0.9974529 0.99798644 1.0031075
00000000: a1dd 803f 50fe 7f3f 17b2 803f 7416 7f3f
00000010: 2cca 803f bbd1 7e3f b87a 803f 4acc 7f3f
00000020: 12ac 7f3f 61cd 7e3f 3fbf 803f 2d4c 803f
00000030: 2476 803f a465 7e3f 8053 7f3f 716a 7f3f
00000040: 0cbf 7f3f b242 803f f275 803f 724f 803f
00000050: bb69 7f3f 28ae 7f3f d29c 7f3f aeae 803f
00000060: 5359 803f 0a4f 7f3f 7c51 803f aaaa 803f
00000070: fa9d 7f3f 2585 7f3f 1fc7 7f3f 4254 803f
00000080: e12d 803f cb31 7f3f 3c62 7f3f bfb9 7e3f
00000090: 27a2 803f cefc 7f3f 5313 803f 9606 803f
000000a0: 4114 803f b5a4 803f d0ab 803f 4637 803f
000000b0: b1d5 803f 6ac9 7f3f ecf7 7f3f 5425 803f
000000c0: 6c1a 803f bc26 803f 1d1c 803f a45e 803f
000000d0: 6536 803f 8cdb 7e3f 9174 803f 0d8d 7f3f
000000e0: ee6d 7f3f cdf5 7f3f d1c2 7f3f 2a22 803f
000000f0: 8b77 7f3f 1359 7f3f 0a7c 7f3f d465 803f

layers.bn1.bias f4 [64]
0.0055455742 0.003506437 0.0014572128 -0.0014522611 0.00741092 -0.0032636493 0.0045673554 0.006907674
-0.0004894072 -0.002174331 0.0032953022 0.0036311655 0.0058232816 -0.0060139582 -0.0038388965 -0.00015604576
0.0015090334 0.0012938033 -0.0038584094 0.0011242533 -0.0027731769 -0.0011597188 -0.0041602068 0.006893817
-0.00093344774 -0.004778655 0.00020099046 0.004459672 -0.003901526 0.0011951389 -0.0015276849 -0.0012436757
0.0012532776 -0.00010035025 -0.00044608035 -0.002611118 0.006349169 0.0041586463 -0.0018593292 0.005630984
0.006731037 0.0058850157 -6.768046e-05 -0.006654867 0.0064266054 0.003844175 -0.0016573629 0.005783679
0.002827367 -0.004848427 0.0018662848 0.0017517238 0.0021754345 -0.004589649 0.006517674 0.0005442833
2.4451516e-05 0.0037848668 -0.0014208878 -0.00061050674 0.0017465089 0.000908653 0.0048636734 0.0032964852
00000000: a6b7 b53b 40cc 653b f3ff be3a cc59 beba
00000010: 4ed7 f23b f3e2 55bb c1a9 953b c559 e23b
00000020: 904b 00ba 397f 0ebb fff5 573b d9f8 6d3b
00000030: 3ad1 be3b bd10 c5bb ff95 7bbb 37a0 23b9
00000040: c2ca c53a d694 a93a 5edd 7cbb ae5b 933a
00000050: 30be 35bb b501 98ba 5852 88bb 87e5 e13b
00000060: 9eb2 74ba 4396 9cbb f7c0 5239 7122 923b
00000070: bfb0 7fbb 35a6 9c3a 993c c8ba d502 a3ba
00000080: 0545 a43a 2173 d2b8 e4df e9b9 4a1f 2bbb
00000090: b10c d03b 4145 883b bcb4 f3ba 1e84 b83b
000000a0: 0890 dc3b 17d7 c03b acef 8db8 1211 dabb
000000b0: 4696 d23b 8eee 7b3b df3b d9ba 0485 bd3b
000000c0: 594b 393b 8edf 9ebb 209e f43a 199a e53a
000000d0: bc91 0e3b c464 96bb 3692 d53b 3cae 0e3a
000000e0: 3b1d cd37 870b 783b 153d baba 6a0a 20ba
000000f0: 1deb e43a ac32 6e3a 735f 9f3b d809 583b

layers.bn1.running_mean f4 [64]
-0.010400795 -0.029365132 -0.048902813 0.1828564 0.20698196 0.0007865229 0.029968496 0.07206373
0.14615409 0.016593771 -0.0007698602 0.02358604 -0.119712286 0.100140706 0.14197752 0.05520903
-0.20826995 -0.05117908 0.011491472 0.036923174 -0.008863396 0.09699157 -0.03150303 0.04120903
-0.030069316 -0.0071199853 -0.0133323055 0.06381711 0.013541086 0.13661326 0.007453571 0.032140467
0.09409771 0.11839004 -0.06882191 -0.035109863 0.019749876 -0.024990933 -0.058882643 0.034253996
0.036249973 0.19951034 0.013287161 -0.05830695 -0.12297292 -0.0036568174 -0.048509426 0.082994446
0.1741981 -0.07108854 0.06342855 0.035649184 -0.19386515 -0.24335177 -0.08394659 0.06677286
0.124675654 -0.08050537 -0.027173782 -0.19298373 0.10002517 0.030444779 -0.19211361 0.013138429
00000000: 1968 2abc 258f f0bc 514e 48bd b53e 3b3e
00000010: 14f3 533e a92e 4e3a 7e80 f53c 2696 933d
00000020: 6ba9 153e a9ef 873c 72d0 49ba 8337 c13c
00000030: b72b f5bd 9216 cd3d 8e62 113e dd22 623d
00000040: b844 55be 28a1 51bd ba46 3c3c c13c 173d
00000050: c737 11bc 84a3 c63d 5209 01bd cdca 283d
00000060: ed53 f6bc c44e e9bb be6f 5abc 8cb2 823d
00000070: 6edb 5d3c 59e4 0b3e 163d f43b b9a5 033d
00000080: 4db6 c03d 7a76 f23d 80f2 8cbd 5ccf 0fbd
00000090: 7eca a13c c9b9 ccbc ed2e 71bd eb4d 0c3d
000000a0: da7a 143d 704c 4c3e 64b2 593c 45d3 6ebd
000000b0: 3ad9 fbbd 37a7 6fbb d2b1 46bd fef8 a93d
000000c0: fd60 323e de96 91bd d4e6 813d e104 123d
000000d0: 9684 46be 3531 79be 31ec abbd 36c0 883d
000000e0: f355 ff3d 00e0 a4bd 8d9b debc 879d 45be
000000f0: ffd9 cc3d 5467 f93c 6eb9 44be 9142 573c

layers.bn1.running_var f4 [64]
0.0312621 0.042541668 0.037569173 0.05160389 0.04076429 0.028093148 0.03530282 0.034644682
0.043787595 0.038033318 0.029363452 0.045938805 0.040871296 0.038070843 0.031068929 0.034546223
0.06590757 0.039021604 0.045305777 0.04257442 0.03582738 0.028211705 0.02886374 0.04639227
0.0383852 0.036028683 0.03533386 0.038212307 0.027250202 0.032175317 0.033391938 0.036072973
0.032197494 0.034971148 0.039997455 0.038526703 0.033419054 0.040433977 0.0336756 0.048602954
0.047131408 0.04604924 0.032650813 0.034595396 0.04413345 0.030975254 0.03590227 0.04039759
0.038972195 0.027569322 0.030344797 0.036775075 0.058296975 0.047769085 0.031319145 0.033279892
0.04085852 0.05457224 0.03517393 0.06157995 0.053463187 0.0301897 0.048562232 0.035608344
00000000: b00c 003d 2c40 2e3d 22e2 193d 9a5e 533d
00000010: 75f8 263d 9a23 e63c b199 103d 95e7 0d3d
00000020: 9f5a 333d d3c8 1b3d 9f8b f03c 542a 3c3d
00000030: a968 273d 2cf0 1b3d 4484 fe3c 5780 0d3d
00000040: 8cfa 863d 1ed5 1f3d 8d92 393d 8462 2e3d
00000050: bbbf 123d 3c1c e73c a673 ec3c d205 3e3d
00000060: cd39 1d3d d092 133d 3dba 103d 8284 1c3d
00000070: d13b df3c 44ca 033d fcc5 083d 41c1 133d
00000080: 85e1 033d e83d 0f3d 5fd4 233d 2dce 1d3d
00000090: 6be2 083d 199e 253d 6def 093d e413 473d
000000a0: dd0c 413d 219e 3c3d dcbc 053d e7b3 0d3d
000000b0: 47c5 343d d1bf fd3c 420e 133d f177 253d
000000c0: 4fa1 1f3d 0fd9 e13c a795 f83c 76a1 163d
000000d0: cfc8 6e3d 84a9 433d 8148 003d 7f50 083d
000000e0: 435b 273d 2487 5f3d 8a12 103d 423b 7c3d
000000f0: 37fc 5a3d 6450 f73c 31e9 463d 0eda 113d

layers.bn2.weight f4 [32]
1.0099969 1.0083613 0.9892109 0.9897934 0.99459094 0.99015623 0.9947559 0.9887177
0.9944825 0.99403965 0.9968755 0.99290246 0.99040776 0.99579024 0.98952156 0.995668
0.9923528 0.99371547 0.99535066 0.98901665 0.99512166 0.99061424 0.98975277 0.9895797
0.99427545 0.99469495 0.99055856 0.9950665 0.9932998 0.9906086 0.9936735 0.99420315
00000000: 9447 813f fc11 813f ed3c 7d3f 1a63 7d3f
00000010: 839d 7e3f e17a 7d3f 53a8 7e3f 9a1c 7d3f
00000020: 6896 7e3f 6279 7e3f 3c33 7f3f db2e 7e3f
00000030: 5d8b 7d3f 1cec 7e3f 4951 7d3f 19e4 7e3f
00000040: d50a 7e3f 2364 7e3f 4dcf 7e3f 3230 7d3f
00000050: 4bc0 7e3f e598 7d3f 7060 7d3f 1855 7d3f
00000060: d688 7e3f 54a4 7e3f 3f95 7d3f aebc 7e3f
00000070: e548 7e3f 8698 7d3f 6361 7e3f 1984 7e3f

layers.bn2.bias f4 [32]
0.010289022 0.0068645235 -0.011046497 -0.010510569 -0.0012409507 -0.0104850745 -0.00525746 -0.011352389
-0.003273136 -0.0068914443 0.00254998 -0.006111479 -0.010150636 -0.00520281 -0.0107619 -0.0011535094
-0.0029514972 -0.004080915 -0.0055313287 -0.011172688 -0.00016899877 -0.010207538 -0.010520365 -0.010677509
-0.004734637 -0.0066035213 -0.010220044 -0.0039375145 -0.00478519 -0.010093792 -0.004600281 -0.0069587086
00000000: 4993 283c ccef e03b 5efc 34bc 8634 2cbc
00000010: 65a7 a2ba 97c9 2bbc c546 acbb 5fff 39bc
00000020: 1c82 56bb a0d1 e1bb 911d 273b cd42 c8bb
00000030: da4e 26bc 557c aabb ae52 30bc 5a31 97ba
00000040: e86d 41bb 32b9 85bb 2640 b5bb a60d 37bc
00000050: 4335 31b9 843d 27bc 9c5d 2cbc b8f0 2ebc
00000060: 0425 9bbb 5a62 d8bb f971 27bc 4406 81bb
00000070: 15cd 9cbb 6f60 25bc f4bd 96bb e105 e4bb

layers.bn2.running_mean f4 [32]
0.08969224 -0.23903662 -0.13923092 0.55802995 -0.42883736 -0.07081861 -0.31056073 -0.26499525
-0.4243178 -0.44472829 -0.5205335 -0.43570542 0.7038147 -0.28687623 0.14777288 -0.31127498
-0.4497658 -0.45664665 -0.29422492 -0.16310646 -0.45830128 0.1269568 -0.03303406 -0.058939286
-0.4692185 -0.31865337 0.043390375 -0.32942882 -0.4473123 0.0031705266 -0.47746268 -0.35356712
00000000: 91b0 b73d 04c6 74be 8d92 0ebe 0ddb 0e3f
00000010: 9290 dbbe 5909 91bd d101 9fbe 75ad 87be
00000020: 2f40 d9be 6db3 e3be af41 05bf c814 dfbe
00000030: 332d 343f 71e1 92be c651 173e 6f5f 9fbe
00000040: b447 e6be 97cd e9be a6a4 96be 6105 27be
00000050: 77a6 eabe f700 023e b94e 07bd 526a 71bd
00000060: 683d f0be 8926 a3be 1bba 313d e5aa a8be
00000070: 1e06 e5be 9cc8 4f3b fd75 f4be c006 b5be

layers.bn2.running_var f4 [32]
2.9329312 1.4591132 2.0536292 5.6941876 2.1996012 3.905069 1.3690335 2.6015093
1.8359247 2.1813698 2.1246617 2.3245766 6.7963943 1.2099224 3.223178 1.4027476
2.492303 1.6461998 1.2716362 2.1557918 1.3778149 3.9224894 1.7329378 1.7186282
1.3842463 1.3617013 5.285302 1.2952839 2.0323513 5.452824 1.8072014 1.8850954
00000000: 25b5 3b40 39c4 ba3f a96e 0340 c936 b640
00000010: 44c6 0c40 a7ec 7940 7d3c af3f 217f 2640
00000020: 95ff ea3f 909b 0b40 75fa 0740 ddc5 1440
00000030: 107c d940 bdde 9a3f 8c48 4e40 3c8d b33f
00000040: e481 1f40 adb6 d23f fac4 a23f 7ef8 0940
00000050: 3d5c b03f 110a 7b40 e8d0 dd3f 02fc db3f
00000060: fc2e b13f 3a4c ae3f 3221 a940 ddcb a53f
00000070: 0b12 0240 897d ae40 6052 e73f ce4a f13f

layers.conv1_1.weight f4 [64, 4, 9]
0.00594963 0.061847955 0.03319486 0.08469153 0.120988965 -0.09923296 0.06262494 -0.0073956233
0.16321486 -0.06210052 -0.07845266 -0.034343656 0.0065072346 -0.07718672 0.13245256 -0.06512307
0.14724784 -0.007038643 -0.052781586 0.15011941 -0.14951304 -0.04987072 -0.08285937 0.11447758
-0.041574933 0.110090956 0.07506355 -0.13008952 -0.0381257 -0.020317134 0.14494292 0.14999333
-0.15942384 0.031444363 -0.12663668 -0.11506225 0.0930624 0.070119135 0.12236428 -0.10233249
-0.07279321 -0.0081983395 0.06078419 -0.14914797 0.063269734 -0.08025585 -0.041112285 -0.052265313
0.13747516 0.045713414 -0.1445068 0.09580089 -0.15773441 0.0502902 -0.003462896 -0.0039520725
-0.0004421559 -0.0947166 -0.019132977 -0.043403383 0.063149475 0.09900892 -0.11693466 -0.11038301
-0.12995781 -0.16673337 -0.059329182 0.018627845 -0.09985818 -0.102078766 -0.14582644 -0.13274801
0.048730895 -0.09979346 0.14779098 0.032507837 -0.016218131 -0.039210264 -0.05631509 0.13237217
0.15912114 -0.087458484 -0.098053835 0.015868723 0.05029031 0.17051817 -0.11926275 0.07899864
0.08928713 -0.15268895 0.02778397 -0.053314716 0.042248715 -0.053972915 0.049604036 -0.107110925
-0.028239384 -0.12626323 0.004415402 0.14358898 0.062428594 0.04109448 0.050118934 0.09360817
-0.12848982 -0.037073158 -0.028458714 -0.14288591 -0.13967738 -0.11659272 0.071615905 0.116604544
-0.14487788 -0.0012582269 -0.088955134 0.12049164 -0.09044721 -0.06255036 -0.0026654343 -0.09700607
-0.011517245 -0.08098177 0.026915085 0.0074308566 0.095970735 0.068028495 0.12980354 -0.14729625
-0.06657431 -0.07161352 -0.067712925 0.06304733 0.062161483 -0.10690045 -0.13138422 0.16088267
0.15357712 0.042938117 -0.06499123 0.11325703 -0.022298794 0.15272608 0.031218117 0.03420649
-0.028530227 -0.08757466 0.076609164 0.06423969 0.037905928 0.08454775 -0.13447243 -0.022369962
-0.13825929 0.03556387 0.098167926 0.15314816 -0.14280926 0.113118984 0.020189604 0.052265435
-0.11942825 0.026988026 0.106096886 0.14216183 0.13346618 0.07231935 0.04602523 -0.11946773
0.0068058926 0.113403246 0.027257258 -0.04733171 -0.061534915 0.11967963 0.102703996 0.117197335
0.013304942 -0.06277661 -0.067414306 0.10024782 -0.04125638 0.11121357 0.05191952 0.03558863
0.06421931 -0.12290394 0.103822194 -0.09637678 -0.0900312 0.099283576 0.011859854 -0.1641608
0.045770533 0.13129182 0.04132467 -0.10865499 -0.107266836 -0.042222045 -0.12201717 0.031084128
0.0740415 0.12689324 0.03166775 0.15946342 -0.04454324 -0.12760104 -0.15293196 0.15603942
-0.084465675 -0.1542873 0.04243871 0.0053771087 0.091579966 -0.15231378 0.06377607 -0.07000112
-0.00053878466 0.066481225 0.07812471 -0.09814151 -0.10280741 0.012376473 0.08512435 0.011596752
0.04506844 -0.07401575 0.006342697 0.10336544 -0.102630466 -0.15618812 0.15760458 0.06500967
-0.013941127 0.1342586 0.0066310973 -0.0012439993 0.12818915 0.094904974 0.16102037 0.07629782
0.029135829 -0.13801357 -0.0018339866 0.10442238 0.040011898 0.1287494 -0.06961688 -0.15714242
0.13271345 -0.0035633456 0.1039191 -0.039961852 -0.019542987 0.121339954 -0.002565439 -0.12670459
00000000: 1df5 c23b 4854 7d3d 55f7 073d c172 ad3d
00000010: 10c9 f73d a63a cbbd 8141 803d fc56 f2bb
00000020: cc21 273e 1d5d 7ebd caab a0bd efab 0cbd
00000030: a43a d53b 1214 9ebd a5a1 073e 3e5f 85bd
00000040: 23c8 163e 6ba4 e6bb 8131 58bd e7b8 193e
00000050: f219 19be 3d45 4cbd 2cb2 a9bd 3973 ea3d
00000060: 7a4a 2abd 5e77 e13d ebba 993d 3036 05be
00000070: b229 1cbd 1e70 a6bc eb6b 143e da97 193e
00000080: 0140 23be cecb 003d 0cad 01be c2a5 ebbd
00000090: 8097 be3d 9f9a 8f3d 209a fa3d b293 d1bd
000000a0: 9b14 95bd 5452 06bc d8f8 783d 3fba 18be
000000b0: 9093 813d 2e5d a4bd 5b65 28bd 2714 56bd
000000c0: 4ac6 0c3e fd3d 3b3d 97f9 13be 4233 c43d
000000d0: 2185 21be 19fd 4d3d c1f1 62bb 6380 81bb
000000e0: 29d1 e7b9 c7fa c1bd c3bc 9cbc bfc7 31bd
000000f0: 8354 813d 30c5 ca3d 707b efbd 7d10 e2bd
00000100: a913 05be 27bc 2abe 2803 73bd 6c99 983c
00000110: 7282 ccbd ac0e d1bd 8753 15be 18ef 07be
00000120: 0c9a 473d 8360 ccbd 8556 173e f026 053d
00000130: e3db 84bc f19a 20bd a7aa 66bd 928c 073e
00000140: a7f0 223e 6f1d b3bd 73d0 c8bd 20ff 813c
00000150: 36fd 4d3d 519c 2e3e 0740 f4bd 0aca a13d
00000160: 2cdc b63d 7e5a 1cbe 359b e33c 8860 5abd
00000170: fd0c 2d3d b412 5dbd 9a2d 4b3d f95c dbbd
00000180: 4856 e7bc 264b 01be 14af 903b fd08 133e
00000190: 20b5 7f3d af52 283d 8349 4d3d a4b5 bf3d
000001a0: d692 03be 06da 17bd 4022 e9bc af50 12be
000001b0: 9607 0fbe 2ac8 eebd 5cab 923d 5dce ee3d
000001c0: de5a 14be 17eb a4ba 1c2e b6bd 52c4 f63d
000001d0: 633c b9bd 671a 80bd 91ae 2ebb 1eab c6bd
000001e0: d4b2 3cbc c5d9 a5bd 067d dc3c 8b7e f33b
000001f0: 4e8c c43d 8652 8b3d 38eb 043e d4d4 16be
00000200: 1d58 88bd 1caa 92bd 13ad 8abd f51e 813d
00000210: 0a9d 7e3d a0ee dabd 9689 06be 6dbe 243e
00000220: 5243 1d3e e1df 2f3d 1f1a 85bd 4df3 e73d
00000230: f6ab b6bc 3a64 1c3e 23bd ff3c 1b1c 0c3d
00000240: 39b8 e9bc 585a b3bd 44e5 9c3d 1990 833d
00000250: 3f43 1b3d 5f27 ad3d 24b3 09be 3641 b7bc
00000260: d893 0dbe 6cab 113d 440c c93d dfd2 1c3e
00000270: 973c 12be edaa e73d ab64 a53c 4814 563d
00000280: cc96 f4bd fe15 dd3c 5349 d93d df92 113e
00000290: 5cab 083e 2b1c 943d f484 3c3d 7fab f4bd
000002a0: f703 df3b f63f e83d 9d4a df3c e5de 41bd
000002b0: 090c 7cbd 981a f53d 7956 d23d 2805 f03d
000002c0: f9fc 593c 0691 80bd 8310 8abd bb4e cd3d
000002d0: 73fc 28bd f1c3 e33d 90a9 543d 62c5 113d
000002e0: 6a85 833d 10b5 fbbd bba0 d43d 3061 c5bd
000002f0: 4762 b8bd 3055 cb3d d54f 423c c519 28be
00000300: e279 3b3d 5d71 063e 0f44 293d 8286 debd
00000310: b7ae dbbd 06f1 2cbd 23e4 f9bd 24a4 fe3c
00000320: 12a3 973d 4df0 013e 0bb6 013d 614a 233e
00000330: f972 36bd d9a9 02be 329a 1cbe ccc8 1f3e
00000340: 57fc acbd 7dfd 1dbe 36d4 2d3d 7532 b03b
00000350: 478e bb3d 25f8 1bbe 079d 823d bf5c 8fbd
00000360: 3a3d 0dba 4f27 883d d9ff 9f3d 6afe c8bd
00000370: b18c d2bd b1c6 4a3c ad55 ae3d 4e00 3e3c
00000380: af99 383d 9295 97bd 66d6 cf3b 43b1 d33d
00000390: ec2f d2bd c7ef 1fbe 1863 213e ca23 853d
000003a0: 5369 64bc 167b 093e ad49 d93b b10d a3ba
000003b0: 0444 033e 8a5d c23d 86e2 243e 0842 9c3d
000003c0: 43ae ee3c 6e53 0dbe 6162 f0ba 67db d53d
000003d0: 84e3 233d e2d6 033e 4b93 8ebd f1e9 20be
000003e0: 09e6 073e 0587 69bb 89d3 d43d 0aaf 23bd
000003f0: 9d18 a0bc 1581 f83d ed20 28bb d9be 01be

layers.conv1_1.bias f4 [64]
-0.115529165 -0.04624044 0.08754311 0.1634644 0.16436261 0.14863095 -0.129011 0.1599391
0.15889671 -0.10363294 -0.04514939 -0.09478373 -0.06598124 0.08514148 0.052801274 0.06907629
-0.10223908 -0.097311065 -0.11391608 -0.14789748 -0.043697346 0.12973316 -0.023126375 -0.05988561
-0.101539984 -0.07085016 -0.15994866 0.102556854 0.11155251 0.15071878 0.0738899 -0.07509275
-0.014214309 0.1350932 -0.12449542 -0.041185226 -0.027744392 -0.04655914 -0.12370435 0.09378725
0.07891678 0.123032145 0.07595049 -0.13815446 -0.13536425 0.046151973 0.029430868 0.1479598
0.12211931 -0.12049117 -0.079632506 0.13853996 -0.06308994 -0.15073682 -0.050554313 0.160206
0.08032823 -0.104464404 -0.010806654 -0.12504151 0.13068731 0.13662687 -0.13327459 -0.11120515
00000000: 8e9a ecbd 9e66 3dbd cd49 b33d 3663 273e
00000010: ac4e 283e b632 183e 761b 04be 13c7 233e
00000020: d2b5 223e 823d d4bd 91ee 38bd f91d c2bd
00000030: 2c21 87bd a85e ae3d 2646 583d df77 8d3d
00000040: b962 d1bd 064b c7bd d54c e9bd 7072 17be
00000050: fdfb 32bd c5d8 043e 8673 bdbc 9d4a 75bd
00000060: 32f4 cfbd e419 91bd 95c9 23be 5409 d23d
00000070: a475 e43d 0656 1a3e 9753 973d 3aca 99bd
00000080: 22e3 68bc df55 0a3e 74f7 febd d7b1 28bd
00000090: 3548 e3bc ccb4 3ebd b558 fdbd 8813 c03d
000000a0: 1f9f a13d 47f8 fb3d ee8b 9b3d 5d78 0dbe
000000b0: ed9c 0abe da09 3d3d 0119 f13c c682 173e
000000c0: b019 fa3d 13c4 f6bd 5e16 a3bd 6bdd 0d3e
000000d0: 4c35 81bd c15a 1abe 0a12 4fbd 0b0d 243e
000000e0: 2183 a43d 6ff1 d5bd 640e 31bc e20a 00be
000000f0: e5d2 053e eae7 0b3e 2279 08be 87bf e3bd

layers.conv1_2.weight f4 [32, 64, 9]
-0.016109068 0.024037812 0.027726108 0.03936648 -0.034052365 0.032373473 -0.035547066 0.035061095
-0.03206454 -0.033891194 0.03161232 0.00023405021 0.030855967 -0.010345538 0.030190054 0.014379158
-0.021373361 -0.01740865 -0.0020521919 0.00765829 0.006257485 -0.013929128 0.037932493 -0.011501538
-0.028404702 0.037008967 -0.0038390907 0.019048398 0.033601906 0.0033718292 0.019037995 -0.014794216
0.031889934 0.008106768 -0.026424956 0.03216388 -0.02483273 0.017345993 -0.01510811 0.017551038
-0.036790535 0.037566908 -0.015481681 0.023664325 0.022472614 -0.03762011 -0.02726974 -0.02225771
0.0074407966 0.024314228 0.028208515 -0.0015267765 -0.03023984 -0.022501143 -0.008574084 -0.03737688
0.026739625 -0.034048524 0.03664901 0.04613387 -0.012004628 0.020256108 -0.03998185 0.02925996
-0.008543969 0.017908482 -0.039259303 0.025939023 -0.010853427 -0.03572791 0.0169432 0.027180437
-0.019891916 0.038633827 0.014602968 -0.020348255 -0.030690506 0.03583649 0.02824994 -0.03550458
-0.028344972 0.041580677 -0.032887585 0.015580064 -0.01841999 -0.03470484 0.03902413 -0.002198414
-0.011365584 0.022679282 0.022401065 -0.005629351 -0.032294895 0.0030806956 -0.0370552 0.03818555
0.020464968 -0.0055390713 0.033196654 -0.027329514 -0.033397738 -0.022269739 -0.03691775 -0.020882858
0.022195606 -0.0059909844 -0.0035327468 0.009886554 0.0056005386 -0.038690843 0.021755304 0.009112818
-0.004647775 0.021413185 0.04332561 0.034136705 0.012623504 -0.030853111 -0.025899235 -0.0023473199
0.012040008 -0.021355445 -0.03312544 -0.036600832 0.019723287 -0.0053148293 0.016245676 0.008710802
0.029154034 -0.008933244 0.004335111 -0.006287414 0.0008291653 0.018215358 0.008434773 -0.027661249
-0.029149566 -0.03253105 0.023407849 0.029907264 -0.033725522 0.037622105 0.039032653 -0.021910867
-0.034611143 0.03518796 -0.021056954 0.013429625 0.034417428 0.0062611327 0.003681173 -0.01709918
-0.020294627 -0.03594463 0.00028397364 0.012585438 -0.028671367 0.0035245267 -0.0032813183 -0.0064365887
-0.019603057 0.0076752184 -0.026786916 0.017649477 0.03857622 0.018606378 -0.023901662 0.0028281142
-0.0076428326 -0.0062311008 -0.0039165937 0.024053328 0.029563496 -0.021470616 0.011572545 0.02063128
0.042830825 -0.027068416 -0.013196973 -0.030662881 -0.00058392325 0.0022488357 0.02176298 0.011918174
0.024739929 0.010108394 0.028219426 0.033992685 -0.0063009597 -0.029468859 0.035370838 -0.0058114477
-0.026631402 0.006201853 -0.009177518 0.03276538 -0.013240618 -0.04252601 0.04138147 0.022900596
-0.03142458 0.0122596985 -0.028708426 -0.027994813 0.040768746 -0.034196626 0.009608142 0.0011105004
-0.03808957 0.035297226 -0.02851552 0.01106211 0.011685073 -0.026338149 -0.013982516 -0.0090872515
-0.022906955 0.016079944 0.027015485 -0.006032969 0.0048794146 -0.03304452 0.03874414 0.009927652
0.019533634 -0.011478358 -0.0017812812 0.02426178 0.013656506 0.032165222 0.010831895 -0.010717691
-0.020785214 -0.031978536 -0.011856766 0.039451536 -0.037030637 -0.017708648 0.020104945 -0.0014464097
-0.026378576 0.015651355 -0.0044394555 0.005760416 0.009149888 0.02983907 0.042438094 -0.0013384914
-0.026223533 0.024445947 0.041283578 0.017558886 -0.013929518 0.03590664 0.027845358 -0.022035496
00000000: 2af7 83bc f2ea c43c dd21 e33c bf3e 213d
00000010: 7e7a 0bbd 0c9a 043d cd99 11bd 399c 0f3d
00000020: 1b56 03bd 7ed1 0abd ec7b 013d 606b 7539
00000030: a7c5 fc3c 5580 29bc 2251 f73c 8f96 6b3c
00000040: 3017 afbc 969c 8ebc 117e 06bb 65f2 fa3b
00000050: 970b cd3b ff36 64bc 1a5f 1b3d f270 3cbc
00000060: fab0 e8bc b796 173d 4199 7bbb 630b 9c3c
00000070: 27a2 093d e8f9 5c3b 92f5 9b3c 7063 72bc
00000080: 059f 023d 40d2 043c 2679 d8bc 46be 033d
00000090: 026e cbbc 2f19 8e3c 0288 77bc 32c7 8f3c
000000a0: acb1 16bd c2df 193d e0a6 7dbc b0db c13c
000000b0: 7d18 b83c 8b17 1abd ca64 dfbc cd55 b6bc
000000c0: edd1 f33b a22e c73c 8b15 e73c 1e1e c8ba
000000d0: 8ab9 f7bc 5154 b8bc 517a 0cbc 8018 19bd
000000e0: 0f0d db3c 7776 0bbd 461d 163d def6 3c3d
000000f0: 0faf 44bc 23f0 a53c 02c4 23bd 95b2 ef3c
00000100: 01fc 0bbc cfb4 923c 5dce 20bd 137e d43c
00000110: 93d2 31bc 6e57 12bd 77cc 8a3c 82a9 de3c
00000120: 5ff4 a2bc 813e 1e3d 4941 6f3c 62b1 a6bc
00000130: a86a fbbc 49c9 123d 6b6c e73c 406d 11bd
00000140: b733 e8bc 8050 2a3d 22b5 06bd 8643 7f3c
00000150: 85e5 96bc aa26 0ebd c4d7 1f3d 4413 10bb
00000160: b736 3abc e7c9 b93c 7082 b73c 6b76 b8bb
00000170: a747 04bd 7fe5 493b 32c7 17bd 7468 1c3d
00000180: 26a6 a73c 1981 b5bb 37f9 073d 25e2 dfbc
00000190: 11cc 08bd 076f b6bc 1137 17bd 8712 abbc
000001a0: 8fd3 b53c 0550 c4bb a885 67bb 37fb 213c
000001b0: b984 b73b 4a7a 1ebd 2e38 b23c ee4d 153c
000001c0: 5d4c 98bb b46a af3c 3276 313d eed2 0b3d
000001d0: d0d2 4e3c aabf fcbc a22a d4bc 7ed5 19bb
000001e0: 7443 453c 9df1 aebc 8bae 07bd c1ea 15bd
000001f0: bb92 a13c 0528 aebb a715 853c c0b7 0e3c
00000200: 71d4 ee3c be5c 12bc 8c0d 8e3b a706 cebb
00000210: 575c 593a 6038 953c 0132 0a3c d899 e2bc
00000220: 12cb eebc 473f 05bd d1c1 bf3c 1400 f53c
00000230: c623 0abd a319 1a3d b4e0 1f3d 6b7e b3bc
00000240: 6ac4 0dbd 4021 103d a27f acbc ee07 5c3c
00000250: 4af9 0c3d 302a cd3b d63f 713b 9413 8cbc
00000260: eb40 a6bc ad3a 13bd 4ce2 9439 2733 4e3c
00000270: 37e0 eabc bffb 663b 630b 57bb 05ea d2bb
00000280: 9796 a0bc 6680 fb3b 3c70 dbbc a395 903c
00000290: 1902 1e3d 676c 983c 6bcd c3bc e257 393b
000002a0: ba70 fabb 432e ccbb c556 80bb 7c0b c53c
000002b0: 252f f23c 25e3 afbc c69a 3d3c ee02 a93c
000002c0: 606f 2f3d 95be ddbc 1e38 58bc b930 fbbc
000002d0: 6d12 19ba 3461 133b 4748 b23c 7244 433c
000002e0: 64ab ca3c ad9d 253c 6d2c e73c ea3b 0b3d
000002f0: 4878 cebb ad68 f1bc 03e1 103d f56d bebb
00000300: 192a dabc ea38 cb3b 4d5d 16bc fe34 063d
00000310: 2def 58bc c12f 2ebd 9e7f 293d 089a bb3c
00000320: 0fb7 00bd e7dc 483c ef2d ebbc 6155 e5bc
00000330: 21fd 263d c311 0cbd 786b 1d3c 368e 913a
00000340: cf03 1cbd d393 103d 6199 e9bc da3d 353c
00000350: c072 3f3c 1ac3 d7bc ec16 65bc b2e2 14bc
00000360: 5ea7 bbbc 16ba 833c 944f dd3c 36b0 c5bb
00000370: 7fe3 9f3b b159 07bd 2db2 1e3d 97a7 223c
00000380: 0005 a03c b90f 3cbc e179 e9ba a4c0 c63c
00000390: 8abf 5f3c aebf 033d 4378 313c 4199 2fbc
000003a0: c145 aabc edfb 02bd e242 42bc ef97 213d
000003b0: 70ad 17bd ba11 91bc 20b3 a43c 7595 bdba
000003c0: e217 d8bc 4537 803c da78 91bb dfc1 bc3b
000003d0: 69e9 153c 1171 f43c 91d3 2d3d 5270 afba
000003e0: bcd2 d6bc de42 c83c f818 293d a7d7 8f3c
000003f0: a238 64bc d712 133d f31b e43c c983 b4bc

layers.conv1_2.bias f4 [32]
-0.02954797 0.008781778 -0.025589112 -0.027983353 -0.011100888 -0.016013984 -0.03614743 -0.028850092
-0.011258125 0.028466215 0.01708202 0.039949253 0.020436745 -0.02109652 0.0047013494 -0.040769584
-0.008031964 0.03509309 0.004268951 -0.0129936645 0.04089222 -0.03383954 0.035972167 0.0032480606
-0.035840947 -0.00017875496 0.03951516 -0.032487165 0.012197878 -0.036349386 -0.0041993307 0.028424384
00000000: 960e f2bc 72e1 0f3c 42a0 d1bc 583d e5bc
00000010: 80e0 35bc c22f 83bc 540f 14bd 0757 ecbc
00000020: 0074 38bc fb31 e93c 98ef 8b3c d4a1 233d
00000030: f66a a73c 9cd2 acbc c70d 9a3b 02fe 26bd
00000040: 8098 03bc c6bd 0f3d 8ee2 8b3b 61e3 54bc
00000050: 9a7e 273d 549b 0abd 8d57 133d 6add 543b
00000060: f5cd 12bd 2b70 3bb9 a6da 213d 4311 05bd
00000070: 9cd9 473c 18e3 14bd 8a9a 89bb 41da e83c

layers.conv2_1.weight f4 [64, 4, 20]
-0.050787345 -0.05339561 -0.036811642 0.042357836 0.024559107 0.011531539 0.100074135 -0.012589411
-0.04613414 -0.06983445 0.10280751 0.001938269 -0.020234274 0.03398774 0.056715 0.013557488
0.02066649 0.019814543 -0.09974361 0.115134634 0.0164141 -0.08025703 -0.073037274 0.053395074
-0.09819669 0.025563177 -0.02231229 -0.100517794 -0.09915903 0.100209035 0.021723118 -0.0851323
0.09961274 0.06318803 -0.08429728 0.0018684284 0.093159534 -0.06689098 -0.10441034 -0.042504415
-0.083181605 -0.0031366274 0.07162441 0.052808322 0.07310457 -0.027571477 -0.023451956 0.021662269
-0.07101459 -0.050011225 -0.020976905 0.009708937 0.049304172 -0.0063188234 -0.103447944 0.07459043
0.08191037 -0.0073395516 -0.043486346 -0.060998492 -0.079912454 -0.069296286 0.056368325 0.03145733
-0.020603236 -0.0369531 -0.049540404 0.038324013 -0.00950458 -0.013425229 0.057803076 0.0810217
-0.098500155 -0.04391921 -0.021153478 0.050029818 0.026516557 0.057376 0.04374256 0.07938562
-0.07420823 0.11484641 -0.043283362 0.055364534 -0.012001214 0.027799582 -0.050005414 -0.06971946
-0.08488172 0.059920512 -0.032902636 0.07948035 -0.0077922717 -0.07355428 0.03230105 -0.083343334
-0.03817064 -0.056776382 -0.012488025 -0.030976566 0.06102957 0.100002386 0.05523472 0.018555313
0.10842169 0.09049373 -0.095522605 0.032408487 0.010926226 0.051112473 0.09944868 0.05741118
-0.09085408 0.038274344 0.11505195 -0.06910514 0.09265407 0.10458782 -0.06556815 -0.07716136
0.08215146 -0.022775445 -0.104983345 -0.088645756 0.07360418 -0.0023256538 -0.035443664 0.012728019
-0.0909396 0.065128066 0.06630204 -0.089347206 -0.031331755 0.023105904 0.0013094238 -0.025161343
0.017023375 0.044749424 0.007273171 -0.058278445 0.08380094 -0.012437103 -0.07437954 0.10202637
-0.07212515 0.11113851 -0.017466955 0.05076361 -0.08866658 0.11648224 -0.066440746 -0.014784378
-0.06189885 0.109659344 -0.06700283 0.1147192 0.011872658 -0.09415157 0.03630965 0.012266275
0.07599962 -0.07775904 0.067298725 -0.06286648 0.09213273 -0.08054752 -0.025211236 -0.047498222
0.044872474 -0.10574099 -0.021839038 0.01032439 -0.012977694 -0.054989025 0.01487572 -0.051910926
-0.088778175 0.020578582 0.0235117 -0.0226221 -0.0668211 -0.015599005 0.07557359 0.08578308
-0.09112516 0.05565264 -0.076854035 -0.06473304 0.076699406 -0.10914518 0.0014208651 -0.06386989
-0.08976932 -0.041686416 0.0395155 -0.08340767 -0.011323571 0.06610263 -0.11787327 -0.042759873
0.064675584 -0.08590454 0.0024477944 -0.059267562 0.09923008 -0.09897653 -0.08927161 -0.088837534
0.01866852 0.07387667 -0.02438361 0.057328485 -0.04660624 -0.11262762 -0.05737266 -0.05544506
0.028541539 -0.02600156 -0.036858384 0.022775134 0.06868733 0.010454733 0.06073642 -0.06459623
0.024566738 -0.016342422 -0.07115683 -0.005844423 0.02502509 0.09447245 -0.05091178 0.014281882
-0.10204413 0.016428517 -0.08578978 -0.036125217 -0.03678048 -0.020585421 0.048294533 -0.050858334
-0.07004285 -0.052117568 -0.062967144 -0.07130063 0.0631041 0.096091695 0.074762784 0.09408017
-0.030016052 0.012905388 0.07665301 0.00062226463 -0.032413855 -0.045719277 0.09093864 0.020533478
00000000: 6406 50bd 5bb5 5abd cec7 16bd 697f 2d3d
00000010: 2e30 c93c c8ee 3c3c abf3 cc3d d143 4ebc
00000020: 27f7 3cbd 5d05 8fbd be8c d23d 840d fe3a
00000030: 59c2 a5bc ba36 0b3d fd4d 683d 3a20 5e3c
00000040: c54c a93c 1c52 a23c 6146 ccbd b5cb eb3d
00000050: dd76 863c cc5d a4bd 9194 95bd cbb4 5a3d
00000060: 591b c9bd de69 d13c 43c8 b6bc 46dc cdbd
00000070: e413 cbbd 653a cd3d aef4 b13c d859 aebd
00000080: c401 cc3d ba68 813d 0da4 acbd 0ee6 f43a
00000090: 6dca be3d 23fe 88bd 17d5 d5bd 1c19 2ebd
000000a0: 1e5b aabd e08f 4dbb d2af 923d 8a4d 583d
000000b0: d9b7 953d 94dd e1bc 511e c0bc 1275 b13c
000000c0: 1970 91bd 92d8 4cbd c2d7 abbc 3c12 1f3c
000000d0: 2cf3 493d 220e cfbb 84dc d3bd dec2 983d
000000e0: a0c0 a73d 9f80 f0bb bd1e 32bd 8ed9 79bd
000000f0: 24a9 a3bd 36eb 8dbd 79e2 663d 67d9 003d
00000100: 1ec8 a8bc 225c 17bd e1ea 4abd a4f9 1c3d
00000110: 19b9 1bbc 7ef5 5bbc ebc2 6c3d b4ee a53d
00000120: 73ba c9bd a1e4 33bd 0f4a adbc 11ec 4c3d
00000130: 4039 d93c 1903 6b3d 662b 333d ee94 a23d
00000140: 7cfa 97bd 9834 eb3d e549 31bd ecc5 623d
00000150: bda0 44bc f3bb e33c 7ad2 4cbd 14c9 8ebd
00000160: 78d6 adbd 366f 753d eac4 06bd 98c6 a23d
00000170: 5056 ffbb a0a3 96bd 1b4e 043d e9af aabd
00000180: d158 1cbd 5a8e 68bd 939a 4cbc 91c2 fdbc
00000190: 24fa 793d 0dce cc3d cd3d 623d 5001 983c
000001a0: 310c de3d c754 b93d 5ba1 c3bd c3be 043d
000001b0: ea03 333c 505b 513d c0ab cb3d fc27 6b3d
000001c0: b411 babd 8fc5 1c3d 5ba0 eb3d ff86 8dbd
000001d0: 6bc1 bd3d 2432 d63d 9848 86bd c606 9ebd
000001e0: 063f a83d 9293 babc 8201 d7bd e88b b5bd
000001f0: cabd 963d ff69 18bb 602d 11bd 2e89 503c
00000200: 8a3e babd dd61 853d 5dc9 873d abfb b6bd
00000210: ba55 00bd 9848 bd3c f9a0 ab3a 291f cebc
00000220: 9b74 8b3c 2c4b 373d c853 ee3b 61b5 6ebd
00000230: d49f ab3d fec4 4bbc 4d54 98bd 34f3 d03d
00000240: 5ab6 93bd 969c e33d dc16 8fbc 81ed 4f3d
00000250: d396 b5bd 3e8e ee3d 1612 88bd 2d3a 72bc
00000260: a689 7dbd 1495 e03d c838 89bd e6f1 ea3d
00000270: 8985 423c 8ad2 c0bd 6db9 143d 7cf8 483c
00000280: b0a5 9b3d 2240 9fbd ead3 893d 24c0 80bd
00000290: 16b0 bc3d 19f6 a4bd cb87 cebc 7f8d 42bd
000002a0: 33cc 373d bb8e d8bd c8e7 b2bc a127 293c
000002b0: 65a0 54bc 2c3c 61bd 4bb9 733c 8da0 54bd
000002c0: 55d1 b5bd 6a94 a83c 9c9b c03c fb51 b9bc
000002d0: 80d9 88bd f892 7fbc 54c6 9a3d 0aaf af3d
000002e0: d49f babd 06f4 633d a665 9dbd c292 84bd
000002f0: 9414 9d3d 8287 dfbd 523c ba3a 38ce 82bd
00000300: fad8 b7bd 60bf 2abd 01db 213d a4d1 aabd
00000310: 8086 39bc d160 873d 8a67 f1bd fa24 2fbd
00000320: a274 843d b8ee afbd 2d6b 203b 8bc2 72bd
00000330: 2439 cb3d 35b4 cabd 09d4 b6bd 74f0 b5bd
00000340: b9ee 983c a74c 973d 23c0 c7bc 46d1 6a3d
00000350: 2fe6 3ebd 4fa9 e6bd 98ff 6abd 5c1a 63bd
00000360: f2cf e93c 3901 d5bc d1f8 16bd eb92 ba3c
00000370: f1ab 8c3d 544a 2b3c c1c6 783d 074b 84bd
00000380: 2f40 c93c 8be0 85bc acba 91bd 9382 bfbb
00000390: 6b01 cd3c c67a c13d df88 50bd 8efe 693c
000003a0: 83fc d0bd 1995 863c 8db2 afbd 09f8 13bd
000003b0: 21a7 16bd c2a2 a8bc 7dd0 453d d450 50bd
000003c0: a072 8fbd 3b79 55bd ebf4 80bd 1106 92bd
000003d0: b93c 813d b9cb c43d 3b1d 993d 1bad c03d
000003e0: 39e4 f5bc 1f71 533c 41fc 9c3d 791f 233a
000003f0: 64c4 04bd 2344 3bbd 0a3e ba3d d335 a83c

layers.conv2_1.bias f4 [64]
0.0832311 0.069446556 -0.022722542 0.015418783 0.054902546 -0.095387906 0.0033302945 0.054944314
-0.06551216 -0.03402706 -0.059311528 -0.047032103 -0.10471444 -0.0021989923 0.081935085 0.0054797237
-0.017539375 0.101846516 0.025957614 0.08461025 0.054213323 0.047151156 -0.027749937 -0.07387476
-0.061560668 -0.04745092 0.033278663 -0.09300579 -0.097317874 0.051573727 -0.10605907 0.055298705
0.10389558 0.012343422 0.065949336 -0.0682454 -0.052413616 -0.07706952 -0.030612845 0.0035487204
-0.06281112 -0.008407187 -0.09406317 0.00043545983 0.052955072 -0.03916674 -0.08042623 0.09637359
0.058565654 -0.029859208 0.044520125 -0.09844867 -0.072757706 -0.11096628 -0.11089071 -0.081001796
0.015338672 0.04755244 -8.956382e-05 0.029238408 -0.110085145 0.024832394 0.0001507935 0.013442899
00000000: 1175 aa3d ff39 8e3d a024 babc 109f 7c3c
00000010: 7ee1 603d bc5a c3bd 1241 5a3b 4a0d 613d
00000020: 3d2b 86bd f55f 0bbd a5f0 72bd bca4 40bd
00000030: 8674 d6bd f81c 10bb 95cd a73d 418f b33b
00000040: bcae 8fbc e894 d03d 10a5 d43c 2448 ad3d
00000050: ca0e 5e3d 9221 413d d653 e3bc a64b 97bd
00000060: 0a27 7cbd e55b 42bd 354f 083d d279 bebd
00000070: 984e c7bd f93e 533d 7f35 d9bd e580 623d
00000080: 35c7 d43d 103c 4a3c 7210 873d 3fc4 8bbd
00000090: a9af 56bd a0d6 9dbd cac7 fabc a691 683b
000000a0: 1ea3 80bd 4cbe 09bc 31a4 c0bd 6e4e e439
000000b0: 6be7 583d 4e6d 20bd 82b6 a4bd 845f c53d
000000c0: 8ae2 6f3d 4c9b f4bc bc5a 363d 759f c9bd
000000d0: fe01 95bd 4a42 e3bd ab1a e3bd 45e4 a5bd
000000e0: 0e4f 7b3c 59c6 423d 36d4 bbb8 6385 ef3c
000000f0: 5274 e1bd 4e6d cb3c 521e 1e39 9b3f 5c3c

layers.conv2_2.weight f4 [32, 64, 20]
0.029746234 0.0053389324 -0.000804581 0.018158017 0.017852644 -0.002923829 -0.011802967 0.016870698
0.024023179 0.016480213 0.023662679 0.01975445 0.0008871274 0.006884498 0.026814004 0.006367865
0.008100269 -0.009617633 -0.0033178665 -0.011641832 -0.00921416 -0.002999416 0.009027703 0.016118608
0.02602193 0.006808823 0.019944672 -0.014727586 0.015411969 0.02768977 -0.010170672 -0.0005458992
-0.014006209 0.021427404 0.016150314 0.027297372 0.008923425 0.0067596566 0.023017034 0.023519296
-0.027127352 -0.029504271 -0.003004983 0.011574442 -0.031013956 0.01669342 0.010879876 0.00030657157
0.0055666836 -0.0067791934 -0.0045565534 -0.027165655 -0.018572405 -0.0175443 -0.019381432 -0.0025164576
-0.034372684 -0.016488634 -0.003789911 -0.015443299 0.0058712997 -0.012234768 -0.012325695 -0.007967666
-0.008449048 -0.014879131 0.034557518 0.026612278 0.02875842 0.02617079 0.028584994 -0.002708223
-0.004696063 0.008555539 0.016462173 0.0032514338 0.02359169 -0.016966421 0.028576965 0.005563329
-0.017278649 0.017364899 0.00021297099 0.01792734 0.026504247 -0.0065891203 0.01315112 -0.008711606
0.027209416 0.0071029933 0.033386078 0.01996137 0.011788886 0.011296325 -0.007357854 0.016585555
0.02578369 0.012566448 0.019339379 0.021461435 -0.0070664324 0.001846213 0.021793121 -0.0066781975
0.025702484 0.019239837 0.009320362 -0.010488672 0.007879432 0.004478106 0.020590503 0.011087824
-0.0048350976 -0.016631298 0.01465382 0.0072426107 -0.008639612 0.014204835 0.006575734 -0.0074531115
-0.002486249 -0.01637673 -0.018570682 0.021846453 -0.01450014 0.022960708 -0.0102743115 0.020522568
0.017324295 0.014447799 0.029853677 0.01104816 0.02783437 0.005472133 -0.007940385 0.0115844915
0.033390786 -0.0022926466 0.03302936 0.009764613 0.031392887 -0.016317971 0.02045445 0.011012444
-0.0043346197 0.021862602 -0.008973106 -0.016692383 0.018239304 0.004610564 -0.013663188 0.015924433
-0.008116683 6.333218e-05 0.02873297 0.020563168 -0.009238609 0.017914558 0.004528416 0.0102602
0.00076959544 0.020647753 -0.0008260899 -0.006403623 -0.011326745 0.01319723 0.009375613 0.022242572
0.0060421317 -0.012121845 0.0004773035 -0.009649636 0.027214559 0.00849281 -0.0041324347 0.034030102
-0.011634032 0.03284867 -0.0052017407 0.02859289 -0.006577006 0.01750019 0.0074534733 -0.014229742
0.0014407281 0.023890803 -0.010553653 -0.008148769 -0.013435116 -0.0092334915 0.03194335 -0.025582127
-0.017570974 -0.007680133 0.026469111 0.031862766 0.016432242 -0.017985735 -0.006079034 -0.005443617
0.031795744 0.025851917 -0.010658139 0.034839135 0.005448277 -0.0041300855 -0.009373626 0.028614447
0.005451166 0.03167584 0.004331373 -0.0008983298 0.02348089 0.019663952 -0.0144338785 -0.0084187435
0.019345295 0.004638344 0.028767956 0.025775176 0.025219481 0.00059115747 0.009083377 -0.0053140786
0.03194773 -0.02195658 0.0022849657 0.004609205 -0.009009083 -0.011178196 0.0044232877 0.029658498
0.02556011 0.011130442 0.021973487 -0.005799788 -0.012310254 0.008986263 0.031331714 0.0029255615
-0.017606746 -0.010223977 -0.0095555885 -0.013583016 -0.030109055 0.00017537909 -0.00972951 -0.034381114
-0.022480289 0.011786296 -0.010486332 0.014992647 0.015330806 -0.013564167 0.023583433 -1.0622199e-06
00000000: 60ae f33c 36f2 ae3b 84ea 52ba 1fc0 943c
00000010: b53f 923c b69d 3fbb 3b61 41bc 6b34 8a3c
00000020: 42cc c43c 8301 873c 3cd8 c13c 16d4 a13c
00000030: 1d8e 683a 5b97 e13b 0ba9 db3c 86a9 d03b
00000040: feb6 043c 4793 1dbc 9070 59bb 62bd 3ebc
00000050: fdf6 16bc da91 44bb eee8 133c 2c0b 843c
00000060: f12b d53c 8c1c df3b 0263 a33c f94b 71bc
00000070: 7c82 7c3c a8d5 e23c e4a2 26bc ad1a 0fba
00000080: 4c7a 65bc 8688 af3c aa4d 843c bd9e df3c
00000090: 8f33 123c 1c80 dd3b 388e bc3c 8aab c03c
000000a0: 2e3a debc f1b2 f1bc 40ef 44bb baa2 3d3c
000000b0: fb10 febc a4c0 883c 8241 323c 57bb a039
000000c0: ba68 b63b ff23 debb 244f 95bb 828a debc
000000d0: 2825 98bc 10b9 8fbc cfc5 9ebc 27eb 24bb
000000e0: 5fca 0cbd 2c13 87bc 2860 78bb e405 7dbc
000000f0: 0864 c03b 5674 48bc b6f1 49bc d08a 02bc
00000100: e06d 0abc 99c7 73bc 2f8c 0d3d fe01 da3c
00000110: c796 eb3c 2064 d63c 142b ea3c 717c 31bb
00000120: 6fe1 99bb 882c 0c3c aedb 863c 0216 553b
00000130: 5c43 c13c 2afd 8abc 3d1a ea3c 964c b63b
00000140: f48b 8dbc d540 8e3c f750 5f39 5bdc 923c
00000150: 6f1f d93c 8ce9 d7bb cc77 573c 20bb 0ebc
00000160: 48e6 de3c 3ac0 e83b d7bf 083d 0786 a33c
00000170: 2c26 413c 3914 393c 271a f1bb 6ede 873c
00000180: 5138 d33c 81e3 4d3c 9e6d 9e3c e4cf af3c
00000190: 888d e7bb a1fc f13a 7d87 b23c c8d4 dabb
000001a0: 048e d23c dd9c 9d3c 6eb4 183c aed8 2bbc
000001b0: bc18 013c 13bd 923b 6aad a83c b4a9 353c
000001c0: bd6f 9ebb 5c3e 88bc 9316 703c 6c53 ed3b
000001d0: 298d 0dbc 65bb 683c 4179 d73b 3b39 f4bb
000001e0: 56f0 22bb 7e28 86bc 8b21 98bc 55f7 b23c
000001f0: ff91 6dbc 1818 bc3c 9655 28bc f21e a83c
00000200: aeeb 8d3c 76b6 6c3c b38f f43c 5703 353c
00000210: e804 e43c 944f b33b 6318 02bc e1cc 3d3c
00000220: c7c4 083d 3a40 16bb cb49 073d c1fb 1f3c
00000230: d495 003d 44ad 85bc 1790 a73c 8a6d 343c
00000240: 6d09 8ebb 3319 b33c ef03 13bc 77be 88bc
00000250: 986a 953c 3714 973b 90db 5fbc f573 823c
00000260: d6fb 04bc 35d1 8438 6861 eb3c 1774 a83c
00000270: 895d 17bc 8dc1 923c 1b63 943b 661a 283c
00000280: adbe 493a 7a25 a93c f48d 58ba 7cd5 d1bb
00000290: d093 39bc 3239 583c 2c9c 193c 0e36 b63c
000002a0: 13fd c53b b49a 46bc 973e fa39 8219 1ebc
000002b0: 11f1 de3c 6d25 0b3c 6069 87bb 2663 0b3d
000002c0: ab9c 3ebc 548c 063d 5d73 aabb a33b ea3c
000002d0: ed83 d7bb 8f5c 8f3c 443c f43b dd23 69bc
000002e0: d0d6 bc3a a5b6 c33c 3be9 2cbc 6a82 05bc
000002f0: f61e 5cbc 1248 17bc 08d7 023d 9c91 d1bc
00000300: 01f1 8fbc a0a9 fbbb c0d5 d83c 8882 023d
00000310: e99c 863c d256 93bc a232 c7bb 5e60 b2bb
00000320: 413c 023d 66c7 d33c 7a9f 2ebc 7bb3 0e3d
00000330: 7687 b23b ab55 87bb d693 19bc d868 ea3c
00000340: b29f b23b 87be 013d 31ee 8d3b e47d 6bba
00000350: ff5a c03c 4c16 a13c 137c 6cbc c5ee 09bc
00000360: 067a 9e3c 40fd 973b c7aa eb3c 7626 d33c
00000370: 1699 ce3c e8f7 1a3a 72d2 143c b921 aebb
00000380: 9fdb 023d 49de b3bc 5dbf 153b d008 973b
00000390: d59a 13bc c124 37bc 3af1 903b 61f6 f23c
000003a0: 7063 d13c 755c 363c be01 b43c 260c bebb
000003b0: f3b0 49bc 1e3b 133c af55 003d c7ba 3f3b
000003c0: 063c 90bc 7882 27bc 0b8f 1cbc 4c8b 5ebc
000003d0: 44a7 f6bc f7e5 3739 8668 1fbc 36d3 0cbd
000003e0: 9528 b8bc 4f1b 413c ddce 2bbc b8a3 753c
000003f0: 102e 7b3c 3d3c 5ebc 0b32 c13c 9991 8eb5

layers.conv2_2.bias f4 [32]
-0.01047815 0.001022411 0.00833522 0.026832793 -0.008890894 0.002964543 0.026257485 0.007814627
-0.0142097585 -0.011615194 0.027491573 -0.018221626 0.012637294 -0.010182267 -0.016171498 -0.014860848
0.020825233 0.025155537 -0.02100107 0.015224689 -0.014564128 -0.0030325695 0.011765293 -0.010477867
-0.0049582636 0.014861715 0.0002300474 0.011693298 0.016304499 0.021634351 -0.00046215387 -0.0032719492
00000000: 8cac 2bbc 6c02 863a 7290 083c 72d0 db3c
00000010: 1dab 11bc c748 423b f019 d73c ec08 003c
00000020: 0cd0 68bc a84d 3ebc 0236 e13c 8545 95bc
00000030: a70c 4f3c 86d3 26bc 177a 84bc ea7a 73bc
00000040: ae99 aa3c fc12 ce3c 700a acbc f970 793c
00000050: 619e 6ebc 13be 46bb 37c3 403c 5cab 2bbc
00000060: ee78 a2bb 8d7e 733c e138 7139 3f95 3f3c
00000070: 0391 853c 863a b13c 3e4d f2b9 336e 56bb

layers.conv3_1.weight f4 [32, 4, 49]
-0.060776804 -0.076005235 -0.04317731 -0.046423968 -0.016148014 0.042500842 -0.05562944 -0.07108792
-0.07384581 0.014238529 -0.0056267385 -0.04499969 -0.0060994686 -0.05471557 -0.064401835 0.064695224
-0.0006303007 0.03624435 -0.02273361 0.0006408468 -0.07509518 -0.053280998 0.00958697 -0.043579698
-0.06214867 -0.01071745 -0.0064190296 0.023125852 -0.053004917 -0.021840427 0.011145933 -0.03925513
0.038130023 -0.06882352 0.0037822705 -0.0033936899 0.045441903 0.022597492 0.026517373 -0.053809356
0.027533557 0.037420735 -0.0008067077 0.00013068656 -0.013269897 -0.060594626 -0.03580366 0.026936796
-0.0011428711 -0.05772793 0.01682315 -0.023076566 -0.031308133 -0.07484535 -0.0721134 -0.009906666
0.00029668512 0.04304077 -0.032494545 0.028627055 -0.00873541 -0.030133482 -0.066395156 0.04557421
-0.07298576 0.047851864 -0.055214465 0.061781164 0.041638732 0.063765034 -0.039596293 -0.03783289
-0.06161132 -0.05677029 0.045583405 0.04100458 -0.020662274 0.04955737 0.038817678 -0.03231848
-0.003643445 -0.049308468 -0.051262595 -0.008861476 0.032057565 -0.029731603 0.023430109 0.061204843
-0.03658722 0.030946929 0.017200403 -0.034267344 0.026820442 -0.060483746 0.00091720436 0.0031704577
0.062741585 -0.06339403 0.022509523 0.02203927 0.046624314 -0.070920125 0.007198325 0.041328978
0.05207263 -0.026701456 -0.032376114 -0.027758103 -0.06366116 0.062777735 -0.048201002 -0.03290967
-0.06459102 -0.07329564 -0.062000636 -0.026247254 -0.056107476 0.016175525 -0.036491435 -0.00754235
0.01064393 -0.025361037 -0.072015956 -0.032330923 0.063326545 -0.054503202 -0.004614048 -0.03699444
0.065442026 -0.017415687 -0.004694115 0.009992117 0.01409487 -0.0692933 0.023759728 -0.07119327
-0.010661621 0.038076077 -0.020852964 -0.063963994 0.03938475 0.013204633 -0.05854394 -0.0060477536
0.01143672 -0.0663962 0.016089408 0.01922351 0.030068995 -0.03851579 -0.045320846 -0.050058894
-0.059571832 0.037074056 -0.008102564 -0.032569773 0.04280447 0.0027333223 -0.0062037893 -0.03613103
0.024352072 -0.047263052 -0.021957466 -0.010414437 -0.07382185 -0.06366476 -0.073487625 -0.056003172
-0.021091351 -0.032869987 -0.013752873 0.03456936 0.023312321 -0.037659585 0.002006164 0.013877057
-0.06848873 0.03354475 0.023077795 -0.058311544 0.057200115 0.011498973 0.013510221 -0.038106896
-9.0270376e-05 -0.04214102 0.006767748 -0.03440332 -0.0314701 -0.03459656 -0.052346766 0.010242809
-0.0006140288 0.0028026833 0.0070250123 0.048274595 -0.018406019 -0.028076053 0.03260443 0.037910074
0.030762082 0.054206084 0.043021474 -0.00264432 0.05661401 0.03004284 0.035511486 -0.033850465
0.020372119 0.07833951 -0.043104924 0.06260359 -0.0138115985 0.064952165 -0.033070914 0.040240318
-0.023408126 0.07020461 -0.024501622 0.03683785 0.054899372 -0.011613406 -0.025333446 0.07913812
-0.0013664883 0.02089839 -0.010059944 -0.036615018 0.06496462 -0.033681665 0.023022812 0.030408924
0.006351689 0.050221957 -0.004292044 -0.03058157 0.046748463 0.0022747372 0.009455732 0.045981325
0.05447769 0.04876371 -0.03788463 -0.029225523 0.05340892 -0.04383178 -0.03103385 0.009065006
0.013464097 -0.0025915434 0.072640836 0.036340997 0.02483344 0.060860116 -0.017136054 -0.0490739
00000000: 19f1 78bd a2a8 9bbd b1da 30bd 0f27 3ebd
00000010: d748 84bc 5d15 2e3d b2db 63bd 8b96 91bd
00000020: 793c 97bd b848 693c 8160 b8bb 9851 38bd
00000030: 0dde c7bb 6f1d 60bd 1ce5 83bd ee7e 843d
00000040: c43a 25ba f574 143d d63b babc 80fe 273a
00000050: 80cb 99bd 2d3d 5abd ab12 1d3c a080 32bd
00000060: 9b8f 7ebd 3e98 2fbc b956 d2bb 6d72 bd3c
00000070: af1b 59bd b2ea b2bc 6e9d 363c fdc9 20bd
00000080: 3a2e 1c3d 58f3 8cbd f8df 773b ab68 5ebb
00000090: 4a21 3a3d 601e b93c f63a d93c 3367 5cbd
000000a0: 0e8e e13c 7c46 193d 3d79 53ba e808 0939
000000b0: fb69 59bc 1232 78bd dca6 12bd 8eaa dc3c
000000c0: 64cc 95ba 1f74 6cbd b4d0 893c 110b bdbc
000000d0: f53c 00bd 8548 99bd 31b0 93bd 924f 22bc
000000e0: 678c 9b39 854b 303d 0019 05bd 4983 ea3c
000000f0: f71e 0fbc 7eda f6bc 2ffa 87bd 06ac 3a3d
00000100: 8f79 95bd 5100 443d 9028 62bd 3f0e 7d3d
00000110: 608d 2a3d 3e97 823d b92f 22bd a9f6 1abd
00000120: 275c 7cbd f787 68bd aab5 3a3d 6bf4 273d
00000130: ee43 a9bc abfc 4a3d 49ff 1e3d 6260 04bd
00000140: ddc6 6ebb adf7 49bd baf8 51bd b92f 11bc
00000150: cb4e 033d b18f f3bc 80f0 bf3c eeb1 7a3d
00000160: 7bdc 15bd 6a84 fd3c dce7 8c3c ea5b 0cbd
00000170: 8bb6 db3c cebd 77bd 8b70 703a 74c7 4f3b
00000180: a97e 803d bbd4 81bd e465 b83c b38b b43c
00000190: 23f9 3e3d 923e 91bd eddf eb3b 9348 293d
000001a0: 1c4a 553d 03bd dabc d19c 04bd f664 e3bc
000001b0: c860 82bd 9d91 803d 6a6e 45bd 4acc 06bd
000001c0: 4c48 84bd 061c 96bd 61f4 7dbd 7b04 d7bc
000001d0: f4d0 65bd 8982 843c 0b78 15bd d125 f7bb
000001e0: e163 2e3c f3c1 cfbc 1a7d 93bd 6e6d 04bd
000001f0: 59b1 813d c03e 5fbd 7131 97bb 7b87 17bd
00000200: 7806 863d 58ab 8ebc 17d1 99bb fab5 233c
00000210: 2bee 663c a5e9 8dbd c3a3 c23c c7cd 91bd
00000220: 14ae 2ebc a9f5 1b3d d6d3 aabc 8eff 82bd
00000230: e751 213d 3f58 583c c5cb 6fbd 3c2c c6bb
00000240: 1561 3b3c bbfa 87bd efcd 833c 9f7a 9d3c
00000250: 4153 f63c bcc2 1dbd 5aa2 39bd 8e0a 4dbd
00000260: 9801 74bd f7da 173d 9ec0 04bc e267 05bd
00000270: bd53 2f3d 8a21 333b 2849 cbbb 22fe 13bd
00000280: ff7d c73c e796 41bd 25e0 b3bc 51a1 2abc
00000290: e92f 97bd ab62 82bd ae80 96bd 9563 65bd
000002a0: c5c7 acbc aea2 06bd bb53 61bc 9a98 0d3d
000002b0: 7bf9 be3c f040 1abd d979 033b 985c 633c
000002c0: d243 8cbd 3866 093d a50d bd3c 16d8 6ebd
000002d0: ab4a 6a3d 3066 3c3c f959 5d3c fa15 1cbd
000002e0: 8a4f bdb8 109c 2cbd fcc3 dd3b 7fea 0cbd
000002f0: cbe6 00bd 1fb5 0dbd 9069 56bd 74d1 273c
00000300: c6f6 20ba 39ad 373b 1332 e63b 95bb 453d
00000310: 38c8 96bc c0ff e5bc 398c 053d 9847 1b3d
00000320: c300 fc3c 3307 5e3d 4937 303d 544c 2dbb
00000330: 18e4 673d 671c f63c 7e74 113d c9a6 0abd
00000340: 6ee3 a63c 7770 a03d ca8e 30bd 5036 803d
00000350: 0b4a 62bc a405 853d 5e75 07bd 08d3 243d
00000360: 66c2 bfbc 6fc7 8f3d a0b7 c8bc 49e3 163d
00000370: 2ade 603d 2846 3ebc 1688 cfbc 2b13 a23d
00000380: bd1b b3ba 1a33 ab3c 77d2 24bc a1f9 15bd
00000390: 2c0c 853d c9f5 09bd 569a bc3c 231c f93c
000003a0: d421 d03b 8ab5 4d3d 46a4 8cbb 3386 fabc
000003b0: 517b 3f3d c213 153b 37ec 1a3c ea56 3c3d
000003c0: 0024 5f3d 75bc 473d ea2c 1bbd 5d6a efbc
000003d0: 50c3 5a3d f488 33bd b33a febc 6485 143c
000003e0: 8498 5c3c e2d6 29bb b8c4 943d 4cda 143d
000003f0: 806f cb3c 7548 793d e960 8cbc b701 49bd

layers.conv3_1.bias f4 [32]
-0.04603774 0.05323485 -0.03903785 -0.04946715 -0.06987539 -0.0059783296 0.024242936 0.020351244
0.060385823 0.049401242 0.030501857 -0.021455266 0.017563421 -0.02347768 0.048320517 0.028199533
0.02946924 -0.06771655 0.04961756 -0.06251639 -0.037777428 0.034740277 0.028141888 0.054739766
-0.038308863 0.045462463 0.06099373 -0.028159622 0.024029432 -0.053264543 -0.062275622 0.06084924
00000000: 1292 3cbd c90c 5a3d 27e6 1fbd 119e 4abd
00000010: d41a 8fbd dde5 c3bb 1f99 c63c a7b7 a63c
00000020: 2057 773d f558 4a3d 08df f93c f4c2 afbc
00000030: 2ae1 8f3c 4354 c0bc bceb 453d b502 e73c
00000040: 7a69 f13c f9ae 8abd c83b 4b3d 9808 80bd
00000050: 81bc 1abd d24b 0e3d d189 e63c ce36 603d
00000060: c1e9 1cbd d936 3a3d 90d4 793d 02af e6bc
00000070: 5fd9 c43c ec2b 5abd b914 7fbd 0d3d 793d
