mRNAlocalization/cnn_models/CNN_model_fold7.pth (torch, 531886 bytes, 22 tensors)

layers.bn1.weight f4 [64]
00000000: dec5 7f3f ff93 7f3f ca3d 803f ca95 7f3f
00000010: 0e51 803f 2a09 803f e90f 803f bf2f 803f
00000020: 4377 7f3f e2e0 7f3f d501 803f bb39 803f
00000030: f534 803f 2232 803f 9bb3 7f3f ba1a 803f
00000040: f83f 803f 6510 803f 5201 803f c657 7f3f
00000050: 96ba 7f3f feb3 7f3f 4538 803f 03ea 7f3f
00000060: 4e13 803f 2bb0 7f3f 1622 803f 9a0c 803f
00000070: 6612 803f 2113 803f 5dd1 7f3f 18de 7f3f
00000080: ec06 803f 4182 7f3f 8a3d 803f bbca 7f3f
00000090: 0c04 803f 1dce 7f3f 9d2b 803f 573e 803f
000000a0: 317b 7f3f 3580 7f3f d0dd 7f3f 3b00 803f
000000b0: 8c1c 803f d72d 803f 262d 803f 2bda 7f3f
000000c0: 1c29 803f e238 803f f504 803f 0acf 7f3f
000000d0: 38b8 7f3f 241f 803f 1bc6 7f3f 320e 803f
000000e0: b53c 803f 9b08 803f a7c6 7f3f f32e 803f
000000f0: ecef 7f3f 5791 7f3f 6c02 803f c3c1 7f3f
0.99911296 0.998352 1.0018857 0.99837935 1.0024736 1.0002797 1.0004855 1.0014571
0.99791354 0.9995252 1.0000559 1.0017618 1.0016161 1.0015299 0.9988343 1.0008156
1.0019522 1.0005003 1.0000403 0.99743307 0.9989408 0.9988402 1.0017172 0.9996645
1.0005891 0.99878186 1.0010402 1.0003846 1.0005615 1.0005838 0.9992884 0.99948263
1.0002112 0.99808127 1.001878 0.9991872 1.0001235 0.9992388 1.001331 1.0019025
0.9979735 0.99805003 0.99947834 1.000007 1.0008712 1.0013989 1.0013778 0.9994227
1.0012546 1.0017359 1.0001513 0.9992529 0.9989047 1.0009503 0.9991166 1.0004332
1.0018526 1.0002626 0.99912494 1.0014328 0.99975467 0.99831146 1.0000739 0.9990503

layers.bn1.bias f4 [64]
00000000: db12 c3ba 8e84 d8b7 26d3 c03a a149 b4ba
00000010: ceb6 bf3a 6af8 2838 d09d 90b9 608b f43a
00000020: f4da 27bb bac9 ef38 226d 17b8 4cbe 083b
00000030: 528e 863a 269c 1c3b 2981 60ba 736f 1aba
00000040: 2452 913a 23ad da39 2364 c53a 0d78 cbba
00000050: 7769 f4ba 267e 14ba 94f3 663a 7f51 b2ba
00000060: 28fe c03a fea0 6cba e7f0 bb3a 7533 77b9
00000070: 3c63 90ba 3a52 0abb e2bc 5137 0051 c2ba
00000080: 7838 353a 52cb 0fbb 8a57 633a 7499 143a
00000090: ab7a d13a 7dfb bb3a 1122 703a 92f8 f23a
000000a0: 8127 12bb 8315 09bb e4e1 9eba df03 8538
000000b0: aa5c c739 10db e8ba bab9 e03a 93f4 7f3a
000000c0: 3faf 083b b56b 3939 0eb7 6c39 009a 15ba
000000d0: e8a9 f3ba 9bfe 0c3b f72e 2fba 330b 3c3a
000000e0: 8069 e33a ef91 32b9 313c 9dba d92e 2cb9
000000f0: 3eac f3ba acdc 58ba 9c53 50ba a813 02ba
-0.0014882939 -2.5810932e-05 0.0014711365 -0.0013754853 0.0014626624 4.0285675e-05 -0.000275834 0.001865726
-0.0025612684 0.000114339826 -3.6102843e-05 0.002086538 0.0010265803 0.0023896783 -0.0008564168 -0.0005891241
0.0011087102 0.00041709197 0.001505975 -0.0015523449 -0.0018647154 -0.00056645495 0.00088100997 -0.001360461
0.0014724182 -0.0009026675 0.0014338762 -0.00023574925 -0.0011015902 -0.002110614 1.25013485e-05 -0.0014825165
0.00069130166 -0.0021941257 0.0008672407 0.0005668618 0.0015981992 0.0014341917 0.000916035 0.0018537214
-0.0022301378 -0.0020917363 -0.0012121764 6.342655e-05 0.00038025278 -0.0017765481 0.0017145195 0.00097639224
0.0020856408 0.00017683099 0.00022574907 -0.0005706847 -0.0018590065 0.0021514061 -0.00066827185 0.00071732997
0.0017350167 -0.00017029767 -0.0011996088 -0.0001642065 -0.0018590761 -0.0008272629 -0.0007947029 -0.00049620355

layers.bn1.running_mean f4 [64]
00000000: 2eb9 debc 9b62 b1bc a8e9 76bb c2ed 933d
00000010: 899d bf3d 04c1 393d c014 d33c e64e 013e
00000020: 6a6f 703d f01e b1bd a5fa 4cbd 7a06 883c
00000030: 83b5 fc3b cd62 8ebc 488c 913c 00ff adbd
00000040: e009 82bd 85ce 213d b4f5 493d be2f e0bc
00000050: 0022 43bd cb1e bb3d d52e a13d 994f b83d
00000060: 6b1f be3d d239 873c 01fd 10ba b6e4 1bbb
00000070: f983 39bd 3222 11be 4aa8 873c 6f21 98bc
00000080: 26e1 a53c 544d 50bd 24f2 a33c 4720 0c3d
00000090: aca1 fabd a025 183c d957 39bd a69b 4bbd
000000a0: 6d59 c1bd b1ed 263d 13b8 eabc 6d25 0a3d
000000b0: b395 0d3e f684 7d3d 8823 83bb d836 a2bd
000000c0: f4ab b03d c00e 0b3d 9602 f53d df44 a1bd
000000d0: a5c3 a7bd 329b d0bc 62ab 91bd bab2 223c
000000e0: 8190 b63d dca9 633d 5053 7fbd b790 80bc
000000f0: 24d9 1ebb e753 a33d b5f2 9ebc c814 163d
-0.02718791 -0.021653464 -0.003767589 0.07223083 0.09356219 0.04535009 0.02576673 0.12627754
0.058700003 -0.08648479 -0.05004372 0.01660465 0.0077120676 -0.017381096 0.017767087 -0.08495903
-0.0634954 0.039503593 0.049306586 -0.027366515 -0.047639847 0.09136733 0.078702606 0.08999557
0.09283336 0.016507063 -0.00055308646 -0.0023787445 -0.045291875 -0.141732 0.016559739 -0.01857063
0.02024896 -0.050854996 0.020012923 0.03421047 -0.12237868 0.009286314 -0.045249794 -0.049708985
-0.09440885 0.040754024 -0.028652227 0.0337271 0.13826637 0.06189438 -0.0040020384 -0.07920617
0.086265475 0.033949614 0.11963384 -0.07874464 -0.08191613 -0.025464628 -0.07112767 0.009930307
0.08914281 0.055581912 -0.062335312 -0.015694005 -0.0024238313 0.079749875 -0.019402841 0.036640912

layers.bn1.running_var f4 [64]
00000000: 6b1e 003d 42df e03c 04af de3c 2acf 9e3c
00000010: 33bd c63c 7b51 103d cff1 ec3c b7df ee3c
00000020: dad6 e73c 2e9c e83c 21a1 983c 962e 273d
00000030: 8629 f83c b86d 3e3d d47c ac3c 99a4 123d
00000040: d442 c63c cb27 ed3c 3362 d73c d7ae fd3c
00000050: fa34 dc3c 4d56 cf3c b9da e43c 9dea d23c
00000060: 4aa2 2c3d a152 d13c 769a 093d 87d0 d63c
00000070: c23d b73c 5d20 bd3c 962e 053d 488c ca3c
00000080: 5010 193d a668 013d bbd9 bb3c 0915 033d
00000090: ad0a 563d 16bc f33c 3478 f63c df44 273d
000000a0: bb8a d33c 2ed1 003d ac5d e03c acf5 bf3c
000000b0: 076a 273d 6a96 ba3c 83ff db3c 3427 303d
000000c0: ffc3 363d 913c 0e3d be6b 183d bbd4 063d
000000d0: a247 9b3c 59fd 433d 80aa 183d 53fe c73c
000000e0: fbe8 c43c 4732 ae3c f34e ef3c 84b5 e83c
000000f0: 0698 fc3c 9e5b fc3c 1f76 ee3c 7a90 2a3d
0.03127901 0.027450208 0.027183063 0.019385893 0.02426014 0.035233956 0.028923897 0.02915941
0.028300691 0.028394785 0.01863152 0.040815912 0.030293237 0.046491355 0.021055616 0.035801504
0.024201788 0.028949639 0.026291942 0.03096716 0.02688073 0.025309706 0.027936326 0.025746638
0.04214696 0.025552096 0.03359457 0.02622248 0.022368316 0.023086721 0.03251513 0.024725094
0.037369072 0.03159394 0.02293097 0.032002483 0.052256275 0.029752772 0.030086614 0.040837165
0.025822988 0.03144949 0.027388416 0.023432575 0.0408726 0.022776801 0.026855236 0.043006137
0.04462051 0.03472573 0.037212126 0.03291772 0.018955056 0.047849033 0.037271976 0.024413263
0.024036875 0.021264208 0.02921245 0.028406866 0.03083421 0.030805405 0.029109059 0.04164169

layers.bn2.weight f4 [32]
00000000: 8f67 803f a865 803f f6e1 7f3f 9cb7 7f3f
00000010: 9eb3 7f3f e9a7 7f3f 6e35 7f3f dd47 7f3f
00000020: 7f4d 7f3f 974a 7f3f 96aa 7f3f 0e4d 7f3f
00000030: e4e7 7f3f dcbb 7f3f 4bb1 7f3f c636 7f3f
00000040: 0692 7f3f 2e4b 7f3f 6438 7f3f 2597 7f3f
00000050: e851 7f3f c8cf 7f3f d7b6 7f3f c0ab 7f3f
00000060: 81e9 7f3f f445 7f3f 1375 7f3f baa6 7f3f
00000070: 514b 7f3f c92f 7f3f fea5 7f3f 22be 7f3f
1.0031604 1.0031023 0.99954164 0.9988954 0.9988345 0.99865586 0.996909 0.9971903
0.99727625 0.9972319 0.9986967 0.9972695 0.9996321 0.99896026 0.998799 0.9969295
0.9983219 0.9972409 0.9969542 0.99840003 0.99734354 0.99926424 0.99888366 0.99871445
0.99965674 0.99716115 0.99788016 0.9986378 0.997243 0.9968229 0.9986266 0.99899495

layers.bn2.bias f4 [32]
00000000: ccd1 493b 0e1e 4c3b f955 48b9 1f87 2eb9
00000010: f0e6 b7ba e1cc 92ba d9d3 44bb 3a10 3fbb
00000020: 19bc 3dbb 9c93 3cbb cf86 c6ba 6c5f 3cbb
00000030: 8fff 32ba 648c 90ba 0d79 c4ba d554 51bb
00000040: e421 edba ba49 3ebb f552 51bb d773 35ba
00000050: f1dd 3abb 4840 dfb9 8487 8cba 4633 53ba
00000060: ceef 45b9 63af 40bb 0dc0 0dbb 0f46 8cba
00000070: a104 3fbb 5c59 54bb cf68 d3ba ad1a 4cba
0.0030795215 0.0031145844 -0.00019105514 -0.0001664427 -0.0014030617 -0.0011199975 -0.0030033498 -0.002915396
-0.0028951226 -0.0028774505 -0.0015146377 -0.00287434 -0.00068282423 -0.0011028168 -0.0014989689 -0.0031941433
-0.0018091765 -0.0029035644 -0.0031940315 -0.00069218635 -0.0028513635 -0.00042581768 -0.0010721539 -0.00080566516
-0.00018876718 -0.0029401414 -0.0021629364 -0.0010702031 -0.0029147046 -0.0032401895 -0.0016129258 -0.00077859574

layers.bn2.running_mean f4 [32]
00000000: 3f62 edbd 4c4b 56be b007 aabe ad6a b9be
00000010: 82d6 6abe c36c 93be 8de9 4ebe 5dd6 8cbc
00000020: b79d 2fbd ec11 d33c 4cb8 7cbe 0487 72bd
00000030: f75e 84be c2f9 73be 9a68 41be 6ce6 683e
00000040: 8ce6 71be a1bf 82bc 2ea4 ad3e 0a86 acbe
00000050: 0867 40bc d038 8cbe 516d 7ebe c7b6 98be
00000060: eaff 67be aa6c 733d a614 4abe 23d7 8dbe
00000070: 1277 393d 01dd 423d 3c95 51be ab03 98be
-0.115910046 -0.20927161 -0.3320899 -0.362142 -0.2293339 -0.28793916 -0.2020628 -0.01719206
-0.042875018 0.025765382 -0.24679679 -0.059210792 -0.25853702 -0.23825744 -0.18887559 0.22744149
-0.23623103 -0.015960516 0.33914322 -0.33696014 -0.011743315 -0.27387094 -0.24846388 -0.29826948
-0.22656217 0.059429802 -0.19734439 -0.277032 0.04527957 0.047574047 -0.20467085 -0.29690298

layers.bn2.running_var f4 [32]
00000000: 2be5 c13e 17f2 c03e 9c1e 093f c5f2 163f
00000010: fe93 f73e e214 e73e edc9 033f 418d 173f
00000020: 5587 043f c054 193f 718a b33e e6a5 d43e
00000030: f7e2 ee3e c654 b53e 6326 c33e 3e05 4f3f
00000040: ad14 e33e 5b41 133f ad17 973f b10a 1b3f
00000050: fd15 013f 2e30 143f 5216 be3e 135b 043f
00000060: 1753 c73e 163a c33e ed14 cc3e a306 f93e
00000070: 5442 503f e0ec 2a3f 76ec ce3e fe05 063f
0.37870154 0.376847 0.5356233 0.58964187 0.48355097 0.4513312 0.5147999 0.5919991
0.51769 0.59894943 0.3506656 0.4153282 0.46657535 0.3541624 0.38115224 0.80867374
0.44351712 0.575216 1.18041 0.6056319 0.50424176 0.57886016 0.37126404 0.5170147
0.3893058 0.38130254 0.39859715 0.48637876 0.8135121 0.6676769 0.4041478 0.52352893

layers.conv1_1.weight f4 [64, 4, 9]
00000000: 5aae f5bd 4f17 f03d c5dc b23c b679 c0bd
00000010: f825 0bbe 61a3 efbd 56af 74bd c40e c23c
00000020: 6cda 99bd d12b fabd 1cf4 10be 90fc a33d
00000030: 1983 c9bd f0a0 27be 539f 7a3d c773 13be
00000040: ab73 ff3c 712c 84bd 1517 84bd c52d 26be
00000050: 826b 03be cec7 e03d 6475 ac3d 2b14 1b3e
00000060: 0a62 a1bd d318 aebd bc9d d23d 8b22 0c3e
00000070: 3fb7 273d 0bf0 aa3c 10ee 1abe 08c8 b9bd
00000080: 65bf c9bd bba7 b5bc 4f11 b7bb 36ba 0a3e
00000090: efd6 57bc 51f8 f73d c484 86bd b7cf 85bd
000000a0: a1a9 103e bd78 09bd 3f40 1bbe 2822 453d
000000b0: e670 79bd 9931 603d 7e9a 913d 8625 2bbe
000000c0: 8832 8b3d df07 653d c550 1e3e 06d4 003e
000000d0: a20a 273d f749 8b3d 9ba8 f43b 36ea 963d
000000e0: 7afa 0f3e b4f2 c83d a2ea 6f3d a181 18be
000000f0: 4c20 e7bd 0d85 ad3d d18b 14bc 0079 d9bd
00000100: c7c0 0dbe 407c 11be e86b ab3d e63c 813c
00000110: 4240 84bd 8e8f 283d b62c 853d 9e01 02be
00000120: 74c1 7dbc e6b0 ce3d bd89 033d e91d 0ebe
00000130: 3e7b 2fbd a79e a73d dac4 093e acda 29be
00000140: f8b6 0a3e 9e4c 843d d576 e1bd 714a 373c
00000150: 3f56 22be 18a7 043e 6a3f 143e 9060 103e
00000160: e3b2 16be 6745 8d3d 0281 c43d 7816 b33d
00000170: 66c1 d23d a013 863d 0a8d ed3d 8d94 a1bd
00000180: 2f7c cdbd cf60 0cbe c2a3 ccbc c81d ccbd
00000190: c894 e0bd c946 263e e979 91bd 453d b1bd
000001a0: 5f81 f9bb 1c20 e1bc 51a3 953d b799 d63d
000001b0: 627d 9b3c 60c9 d0bd d25c bc3b fd52 d5bd
000001c0: 9531 123e 6973 f53c f85c fcbb 6f05 e6bd
000001d0: 83eb a5bd be35 033e 97dd d8bd 43d1 883d
000001e0: 2cda 2a3c 15de 1dbc 97ff 083d 920f 833d
000001f0: 0fb5 d2bd 1bef 9a3c 84b0 6e3d 549c 5b3d
00000200: e9d4 7d3d 2822 273c c1d3 933d 80c3 aa3d
00000210: 023b 01bd a73b c7bd 0232 4c3d 3631 2abe
00000220: 1810 823d 6fcc 20be f4eb 743d 2034 003e
00000230: e929 08bd 9bd6 813d 0a04 fd3a 8fde 16be
00000240: 6e8a 743d 3def 4e3d e224 e03d 2b19 e23c
00000250: 64aa 21be 67a8 c03d 2e85 bd3c a78f 10be
00000260: cbed 183e 0ebe 9fbd feb3 843d 54ca 86bd
00000270: 4ab4 7ebd 4c12 0f3e 5363 88bd 8dee b2bc
00000280: 43ec 52bd 5cb3 47bd 9d73 173e f5b1 cf3d
00000290: 9fcb 02be d713 1b3d 75d7 173d 4558 c9bd
000002a0: 9371 2bbc d181 28be 0d8c 31bd 4af4 ffbb
000002b0: 3711 603d f1ed e13c 0488 e83c 7c89 c8bd
000002c0: 0337 c33d e696 84bc e366 05bc b05d 6e3d
000002d0: 501a 04be 9f44 b53d 0560 d6bd d5b7 ea3d
000002e0: 9e0e 17be 73b7 04be 9867 24be c909 04be
000002f0: 9abd f1bd 32fb 323d 487d 04be ee82 6a3d
00000300: 8b87 293e 0927 d6bd 49c8 02be 0920 29be
00000310: 9bb6 6c3d 6cbf a53d 6b85 673d ee6e 0fbe
00000320: 472f 043e e32b 573d cae6 cdbd da0a 2dbd
00000330: 0856 743d bfd4 05bd ffa3 67bd 4f3e 1e3e
00000340: ab71 903d 9ab7 183e 01bc edbd fb0d 893d
00000350: c5b1 203e 7c7d 493d 2063 013d 3c62 42bd
00000360: e0d8 133e b597 d63c a750 7fbd 04c9 fe3d
00000370: 836e b13d 1f8a e4bc f0d9 1ebe 4f19 bd3d
00000380: b569 1abe d27a c83c 783b 22be 4c69 0fbe
00000390: f688 c63c c699 293a 2b69 be3c 8905 293e
000003a0: d5bd 623d 5f04 0b3e 66ec d53b 3c3d 8abd
000003b0: 08ba c33d 5273 86bc 9ec8 1ebe ce80 c1bc
000003c0: eebd 8abd 554d 40bd 3c4e c43d 7f69 25be
000003d0: 8f35 dabd 0c6c 613d 5cbd 18bd da5b 03bd
000003e0: 4238 953d e446 c53d 66bb 9d3d baa8 b63d
000003f0: 6ae8 b23d 505a f23d dfb5 91bd 4d2f d43d
-0.119961455 0.11723196 0.021833787 -0.093982145 -0.13588703 -0.11701084 -0.059737526 0.023688681
-0.07512364 -0.122153886 -0.1415562 0.08007157 -0.09839458 -0.16369987 0.0611871 -0.14399634
0.031183084 -0.06453789 -0.06449715 -0.16228397 -0.1283398 0.1097561 0.08420828 0.15144412
-0.078800276 -0.085008286 0.10283992 0.13685052 0.04094624 0.020866415 -0.15129876 -0.09071356
-0.09850959 -0.022174707 -0.00558678 0.13547596 -0.013173803 0.121079095 -0.06568292 -0.06533759
0.14127208 -0.03356241 -0.15161227 0.048128277 -0.060898684 0.0547348 0.07109545 -0.16713533
0.067967474 0.05591571 0.15460499 0.1258088 0.040781625 0.06801217 0.0074663884 0.07368891
0.14060393 0.09811917 0.058573373 -0.148932 -0.11285457 0.08472643 -0.009066538 -0.10618782
-0.1384307 -0.14207554 0.08370191 0.015776109 -0.06457569 0.04115253 0.065026686 -0.1269593
-0.015488017 0.100923344 0.03211378 -0.13878597 -0.042842142 0.081845574 0.13453999 -0.16587323
0.1354636 0.06459926 -0.110089935 0.011187182 -0.15853213 0.12954366 0.14477316 0.14099336
-0.14716677 0.06898003 0.09594919 0.0874452 0.10290794 0.06546712 0.11599167 -0.07889662
-0.10033452 -0.13708805 -0.02498043 -0.09966618 -0.10965878 0.1623794 -0.07103331 -0.08654264
-0.007614299 -0.027481131 0.07306541 0.104785375 0.018980686 -0.10194659 0.0057483697 -0.104162194
0.14276727 0.029962258 -0.0077015124 -0.11231505 -0.08101561 0.1281347 -0.1058914 0.066805385
0.010427993 -0.009635468 0.033446874 0.06399454 -0.102884404 0.018912842 0.058273807 0.053615883
0.061970625 0.010201015 0.07218123 0.0833807 -0.031550415 -0.09728175 0.04985238 -0.16620335
0.06350726 -0.15702985 0.059795335 0.12519884 -0.033243094 0.06339761 0.0019303572 -0.14733337
0.05970233 0.050521124 0.10944535 0.027599892 -0.15787655 0.0940712 0.023134794 -0.14117299
0.14934461 -0.07799922 0.06479643 -0.0658156 -0.062183656 0.13971823 -0.066595696 -0.021842266
-0.051494848 -0.048755035 0.14790197 0.101413645 -0.12772988 0.037860718 0.03707071 -0.09831289
-0.01046409 -0.16455771 -0.043346453 -0.007811104 0.054703917 0.02757928 0.02838517 -0.09791848
0.09531977 -0.016185235 -0.008142206 0.058194816 -0.12900662 0.08850979 -0.10467533 0.114608444
-0.1475167 -0.12960605 -0.16055143 -0.12894358 -0.11803742 0.04369659 -0.12938416 0.05725377
0.16555612 -0.10456664 -0.12771715 -0.16516127 0.057791334 0.080931515 0.05652372 -0.1400716
0.1290866 0.052532088 -0.10053785 -0.042246677 0.05965236 -0.032673594 -0.056552883 0.15453456
0.070529304 0.14913788 -0.116081245 0.0669212 0.15692814 0.049191937 0.031588674 -0.047456965
0.144382 0.026195386 -0.062332775 0.124406844 0.086636566 -0.027897893 -0.15512824 0.09233343
-0.15079387 0.024472628 -0.15842998 -0.14005011 0.02423523 0.00064697524 0.023243507 0.16506018
0.05535682 0.13575886 0.006528425 -0.06749961 0.09556967 -0.01641241 -0.15506217 -0.02362099
-0.067745075 -0.04694875 0.095852345 -0.16153525 -0.10654747 0.055034682 -0.037289962 -0.03207002
0.07286121 0.09632662 0.07701759 0.08918901 0.08735736 0.11833632 -0.07114767 0.103605844

layers.conv1_1.bias f4 [64]
00000000: 18ec 133d 652f cfbd 4bc1 66bd c435 2a3e
00000010: 3e18 b43d e518 e6bb 4052 5abd 43bc 513d
00000020: be95 113e 5ec2 debd 00e0 863b 3536 09be
00000030: b3ea 923c 40fc 863c 02e7 cfbd ad97 0dbe
00000040: 0a02 f4bd 1e9b 023d c8a5 243d 1011 bebd
00000050: 7e0c 8fbd fe72 e53d 6c45 c23b e42a 143e
00000060: 99ca e23d 3425 e73c 7625 5bbc aff7 efbc
00000070: aaee eabc 4718 2abe e645 f43d 7f61 f8bd
00000080: d590 b5bd 81fa 703c ab15 053d 4163 b1bd
00000090: 0c5d c4bd 8363 b03c 13c9 30bd cda1 ddbd
000000a0: 4aec 05be 2805 993d 01f8 6abc 2877 f5bc
000000b0: 9976 253e 1e19 a23c 5f8c 03bd 8103 d93d
000000c0: f00c fa3d 33d8 993b 7950 1f3e fa29 a8bd
000000d0: 9f7c e7bd 378d 223e 797b 23be 4abb c9bd
000000e0: f877 923d 20e5 c13d 19f2 59bd 72d2 933d
000000f0: 5066 07bc 61c7 f4bc 8862 ee3d 2cca 4ebd
0.03611383 -0.10116462 -0.056336682 0.16622072 0.08793686 -0.0070220106 -0.053301096 0.05120493
0.14217278 -0.10876916 0.0041160583 -0.13399585 0.017934179 0.016477704 -0.10151483 -0.13827391
-0.119144514 0.031886213 0.040197164 -0.09280598 -0.069848046 0.11203574 0.005928686 0.14469486
0.11073799 0.028215982 -0.013375631 -0.02929291 -0.028678257 -0.16610824 0.119273946 -0.12127971
-0.08865515 0.014708162 0.032491367 -0.08661509 -0.0958806 0.021531826 -0.04316051 -0.10821877
-0.13078418 0.074716866 -0.014341355 -0.029964045 0.16158523 0.019787367 -0.03211629 0.105963714
0.12209499 0.0046949624 0.15558042 -0.082111314 -0.113030665 0.15874182 -0.1596507 -0.09850176
0.071517885 0.0946753 -0.053209398 0.07217874 -0.008264139 -0.029880228 0.11639887 -0.050485775

layers.conv1_2.weight f4 [32, 64, 9]
00000000: c526 dfbc 470a 71bc ae9d 15bd bc57 1ebc
00000010: 1959 993c f4a3 5c3b e8dd db3b 67d9 183d
00000020: fd9a 1c3d 7baa 603c 133e 0a3d d2a0 9e3c
00000030: 352a f7bb 76c9 d9bc beac 213d 2a9a 9d3c
00000040: 6670 ed3c 696b e43c 3729 18bd 9683 5d3c
00000050: 4d2c 763c feb6 19bd 2a26 40ba aad9 dd3c
00000060: b2b0 053d 6597 1cbd 9db9 0dbd f018 1abd
00000070: 9bc5 833c 04a7 2bbc e64d aab9 3c5e 6e3c
00000080: 243d b8bc beba adbc 83e1 1fbb 2d52 143d
00000090: a9ee 07bd d473 3b3c 8fd5 02bd 37de 17bd
000000a0: 3b9c 7bbc af49 54ba 6c42 b33c c171 1a3d
000000b0: 007c 0b3c 8646 72bb f375 bbbb 9b61 093d
000000c0: 0dce b73c 2186 27bb f541 22bd 4e60 eb3b
000000d0: 471e 8fbc e6c7 23bd 0fcf 24bd e5e3 debc
000000e0: 5f2a e1bb 7f16 d3bc be5d ed3c 65e2 e0bc
000000f0: ad97 e53c 3192 7b3c db28 fe3c d120 223d
00000100: 4b53 e83c b5b5 c4bc 2296 063d 5669 1d3d
00000110: 21ad d5ba e083 95bc 7756 ff3c 5683 d33a
00000120: a891 a3bc 56c4 0f3c ca3c 1a3d ef66 05bd
00000130: bfbe 20bc 7b9d 04bd f670 0abd 5e65 54bc
00000140: f53a 2cbc a3e4 003d 8d12 113c 8944 1bbc
00000150: 34e5 fdbc 7be2 6dbb cccb d03b a4a0 1a3c
00000160: c094 a33c 26f8 e1bc 03da dcbc 0a72 f73c
00000170: aa40 7e3c 3e04 f6bb 669d 7ebc 4b17 cf3c
00000180: 26d1 133d 762c 1bbc 8bfa 2cbd a0fc 833c
00000190: 20f9 babc 3fcd bd3c 9275 bb3c 46af 473c
000001a0: 2a9f 14bd 1b4e 2dbd 540f 2d3c f388 ef3c
000001b0: 853c 1abd 6277 bd3c 35da eabb e7df a63c
000001c0: e9e9 083c 0a56 cfbb 0cb1 12bd 6102 0f3c
000001d0: a9f1 c23c b69e fdbc a27b 43bb 89e0 213d
000001e0: cb68 aa3c a7e2 35bc 0648 763c 71d8 cbbc
000001f0: 56ca 2bbc 806c ac3c ff9b b83c 9fea 933c
00000200: f19d 9fbb e837 063d dfb5 b6bc 400d 49bc
00000210: eb9d d73c f355 1e3d d65f c83c 07a4 13bb
00000220: 0c6a 14bd b20b 273c a817 c73c 886b 9bbc
00000230: 4c50 1bbd e22e b8bb 2914 77bc ecce 68bc
00000240: 4a43 29bd 65ad 29bd 17de 093c 5615 78ba
00000250: 7ba7 14bc f2d0 8ebc b0c1 30bd 1109 0ebd
00000260: 176f bcbc 1f44 efbc 813f 173d c370 b73c
00000270: 29c1 06bd c1f2 1dbc c8eb 143c 60b9 2c3d
00000280: 5cf0 66bc 1d82 8c3c 7320 713c 23d8 b63b
00000290: 9173 57bb 48e6 0fbd 8112 c0ba 8517 16bd
000002a0: d4c4 143c c03f 60ba 8434 a8bc c6ad 133d
000002b0: a21d 59bc daee 3fbc 8d70 0a3d e9d1 14bd
000002c0: ee7f 22bc aee3 86bc 952d 16bd acd7 1ebd
000002d0: 24cb 30ba b49d 003c d866 b7bb 2157 993c
000002e0: 0065 b2bc f211 bcbc 0771 e33c ddc7 d0bc
000002f0: d165 3b3c 7784 1ebc fc10 d33c a385 bfbc
00000300: 77d8 84bc 2d44 093d 5c86 a0bc 7462 d13c
00000310: a54a dc3c c44b 013d 267d 0bbd 7306 843c
00000320: 95fb d43c eab9 5b3c 0db1 07bd c7e2 ca3c
00000330: d9e2 2dbd 1561 d83c b68e 03bd fcaa 03bd
00000340: aa17 593c 00f7 293d 5006 2b3c 1b21 1fbd
00000350: f68b e93c d989 373c 01fe 6a3c ee05 53bc
00000360: 77da 563c 84c2 43bb a546 b2bc b5c1 1b3d
00000370: 8f9d 7b3c 6aae 1abd 049c 313b 4f5f c63c
00000380: b34c b83c 1ee0 983c f839 8cbc 65cc bdbc
00000390: 06d8 8dbb 9476 d6bc f99d 1abc 40ae 0c3d
000003a0: 6c52 70bc fd2a 283d c401 643c 5427 9abc
000003b0: 69ad b03c 8434 e8bc fc8f 1e3d 89b0 0d3d
000003c0: 232c db3a 1441 98b9 ebd5 6cbc 3df0 d0bc
000003d0: 93eb 913b b775 e43c d8c2 cb3c 0836 1abd
000003e0: 8df5 8ebb 417a 33bc e0a6 bc3c 6437 eb3c
000003f0: 458c 1abd b235 0dbc 0db6 a53b 6ce2 e83b
-0.027240166 -0.014711923 -0.03652733 -0.009664472 0.018719243 0.003366706 0.006709803 0.037316706
0.038233746 0.013712521 0.033750605 0.019363794 -0.0075428733 -0.026585322 0.03947138 0.01923855
0.02898426 0.027883248 -0.03714868 0.013520142 0.015025211 -0.03752803 -0.00073299056 0.02708133
0.032639213 -0.03823032 -0.034600843 -0.03762144 0.016085437 -0.010476831 -0.00032482966 0.014548834
-0.022490092 -0.02120721 -0.002439589 0.03621118 -0.03318659 0.01144119 -0.031941947 -0.037077155
-0.015357072 -0.0008098138 0.021882258 0.03770614 0.008513451 -0.0036968305 -0.0057208478 0.03354035
0.02243712 -0.0025562125 -0.039613683 0.0071831113 -0.017470492 -0.03998556 -0.04023653 -0.027208278
-0.006871506 -0.025767563 0.028975364 -0.027451703 0.028026426 0.015354679 0.03102534 0.039582077
0.02836003 -0.024012426 0.03285802 0.038430534 -0.0016302207 -0.01825136 0.03116916 0.0016137164
-0.019966915 0.0087748375 0.03765563 -0.03256887 -0.009811102 -0.032376748 -0.033799134 -0.012963621
-0.010512103 0.031468045 0.0088545205 -0.009476789 -0.030993082 -0.0036298323 0.0063719507 0.009437714
0.01996839 -0.027584147 -0.026959425 0.030205745 0.015518347 -0.00750783 -0.015540456 0.025279662
0.03608813 -0.0094710495 -0.042231124 0.016111672 -0.02282387 0.023169158 0.02288321 0.012187785
-0.036284603 -0.042310815 0.010562737 0.029240107 -0.037655372 0.023128215 -0.0071671256 0.020370437
0.00835655 -0.0063273953 -0.035813376 0.0087285945 0.023796873 -0.030959468 -0.002982833 0.039520774
0.020801922 -0.011101401 0.01503182 -0.02488348 -0.010485252 0.02104783 0.022535322 0.018056212
-0.004871123 0.03276816 -0.02230352 -0.012271225 0.026320418 0.038656186 0.02445976 -0.0022528188
-0.036233947 0.0101956595 0.024303272 -0.018972173 -0.037918374 -0.0056208232 -0.01508049 -0.01420949
-0.041323937 -0.041425128 0.008414767 -0.00094636285 -0.009073134 -0.017433617 -0.043153465 -0.034676615
-0.02300219 -0.029207287 0.036925796 0.022392636 -0.032899056 -0.009640397 0.009089418 0.042168975
-0.014095392 0.017151887 0.014717209 0.0055799647 -0.003287528 -0.035131723 -0.0014653952 -0.036643524
0.009080131 -0.00085544214 -0.020532854 0.036054395 -0.013251694 -0.0117146615 0.033798743 -0.036333
-0.009918196 -0.016465988 -0.036664564 -0.0387799 -0.00067441375 0.007850099 -0.0055969767 0.018718304
-0.021776676 -0.022957776 0.027763857 -0.025485927 0.011437849 -0.009675137 0.025764935 -0.023379153
-0.0162165 0.033512283 -0.019595318 0.025559641 0.026891062 0.031566396 -0.034054898 0.016116356
0.02599887 0.013411025 -0.033127833 0.024766339 -0.042452667 0.02641348 -0.03211852 -0.032145485
0.013250271 0.041495323 0.010438517 -0.03884993 0.028509121 0.011202299 0.014342786 -0.012879832
0.0131136095 -0.002987058 -0.021762202 0.03802653 0.015357389 -0.03776399 0.002710105 0.024215369
0.02249751 0.018661555 -0.017117485 -0.023168752 -0.0043287305 -0.02617959 -0.009437078 0.034345865
-0.014668088 0.04105662 0.013916437 -0.018817581 0.021567063 -0.028345354 0.038711533 0.034592185
0.0016721528 -0.00029040186 -0.014455299 -0.02550518 0.0044531315 0.027888162 0.024873182 -0.037649184
-0.004362768 -0.010954441 0.023028791 0.028712936 -0.037731428 -0.008618759 0.0050571025 0.0071070697

layers.conv1_2.bias f4 [32]
00000000: 67f6 08bc 0afe d43b ff7a 2abd c659 d1bc
00000010: 1fd2 713c f119 65bc b701 093d c3f1 b93b
00000020: 8987 20bd 4072 d53c 4367 123d 7af2 763c
00000030: eafc b9bc 79f2 e03c 8ad9 d53c a9c1 e33c
00000040: 2e17 aebc f473 efbc d500 8f3c 2c6d ce3c
00000050: 7e1a 6e3c 437a 64bc 9431 143d a603 eb3c
00000060: 8a1f 02bd d055 11bc 0827 443b 1d35 793c
00000070: c7e4 94bc c6aa 0a3d b42d 15bc aa2b 6b3c
-0.008359528 0.0065000104 -0.041621204 -0.025555503 0.014759569 -0.013983236 0.0334489 0.005674572
-0.039191756 0.026055455 0.03574301 0.015072459 -0.022703607 0.02745937 0.026104707 0.027802305
-0.021251287 -0.029230095 0.017456451 0.025198542 0.014532683 -0.013945165 0.036180094 0.028688263
-0.03176836 -0.008870557 0.002993049 0.015210417 -0.018175496 0.03385427 -0.009105135 0.014353672

layers.conv2_1.weight f4 [64, 4, 20]
00000000: 385d babd 2fce 4ebd 7165 fc3b 5ae8 f2bb
00000010: 46ee ab3a f0df d7bd 83fc 32b9 73b4 843d
00000020: e589 073d 26cc b73d 15bb d9bd b252 b73d
00000030: 46ad b63d 9df1 6fbd 7262 653d 0f52 99bd
00000040: 8a0f 23bd 6950 8a3d 2675 04bd 81d3 95bd
00000050: ed68 6abd 615d babd 2220 8cbd 4411 353c
00000060: 2238 d33d 6239 a3bd 9d2d 863c f36c e33d
00000070: 0781 7d3d 3443 a9bd 0921 b93c a7ac a83d
00000080: 2413 fd3c 2c1a 5cbd d583 963d 92b5 4a3d
00000090: 0869 9fbd 33d6 a2bd c783 b13d 02cf e33d
000000a0: 1152 c73c 4078 afbd 48f2 03bd 3f26 9bbc
000000b0: 7637 313c 7bc8 843b d577 923d a3ee d63d
000000c0: bc41 793c 2325 bdbc db26 bcbd eb56 9a3d
000000d0: 76fc cdbd 1f63 65ba fe7e e0bc 572c b53d
000000e0: 554a 5b3d f1e6 833d 9c38 51bc 0e31 88bc
000000f0: b121 a63d 48a3 01bc 79cf 363d 139e 82bc
00000100: 08db d93d d49d 1b3d 18f8 8cbd 7c75 dcbc
00000110: b7da ad3d 1eb0 77bd 3aef 31bd 93ef 233d
00000120: cf63 31bd 9fde d4bd a5fa ab3d c933 37bd
00000130: caf8 69bd 8d32 babd c70b 8ebd aa86 ae3d
00000140: 0b3d 8bbd 8c9f 55bd e290 8f3d 3a62 d3bd
00000150: a311 99bd fb04 d7bd 0b2e 0f3c cf7a b53d
00000160: c038 77bd a1b2 afbd 4aa4 a83d 48ff d93d
00000170: e937 143c e5b6 833c 6607 b8bd c122 b83d
00000180: 291b a5bc bc06 aaba f581 97bd 4523 e2bc
00000190: fcbc c4bd 16d5 8a3c 042a e7bd 1a9d 823d
000001a0: 4b2e 52bd eecd dfbd 838a 2d3d 812a 8a3d
000001b0: f2d6 86bd 332a dabd d7a4 27bd d3d3 b33d
000001c0: 23fd db3d f5d2 d4bd 8d44 bebc 65b7 bdbd
000001d0: faca 363d 571c 983d 432c ae3c ec41 973d
000001e0: 6ff8 353d 10c9 d03d e5c7 593d 7213 f73c
000001f0: 5b42 19bd 2496 a8bd c845 1fbd 4811 cb3c
00000200: 75d6 1b3d dbee 89bd 11d8 dc3d 26e1 c53d
00000210: 8e2e 953d 66c8 04bd c274 0cbd 6720 aebd
00000220: ccd0 aebc d147 8cbd 00d6 6f3d 1a7f 28bd
00000230: 44f0 38bd 5737 803d 5104 e7bd 722b f2bc
00000240: 0687 13bd 8b2c bebc 8ac7 513d 0f7e 32bd
00000250: 0816 a03d 8fee e1bc 9f82 70bc 570c 193d
00000260: 5b2b 9bbd 2b5f 6dbd 7950 bebd b502 6b3d
00000270: e1d1 d5bc 299c f7bc 1e9b 633c 2d62 44bd
00000280: 5adf a53d 531b 19bd f9e5 3bbd 6f8d d6bd
00000290: 5d4e 4ebd cfa9 ce3d bf7e 39bd cd43 8a3c
000002a0: 3594 c4bd d0bc abbd 5465 a53d b4cd 293d
000002b0: cb2c ccbd ac77 1e3d 091e 923d 31b4 edbb
000002c0: 72b3 96bd a187 cdbc 03e7 d3bd a3e5 5bbb
000002d0: 4c1b 42bd a049 8fbd 7f7c 39bc cd06 dfbd
000002e0: 1e60 de3d 0d81 bb3d 4e62 32bb a119 d43d
000002f0: 7148 e4bd be1a bebd 2ef6 a5bc 4f36 bf3d
00000300: d219 9939 c86d a4bd 48b5 2e3b d3b6 99bd
00000310: 7970 dabd 02e5 993d d66b 72bd f751 4c3c
00000320: 2bb3 cdbd 8e53 05bd 094a e3bd af3f 02bd
00000330: 4c1e 93bd 3c63 28bb 3e9c 41bd 4a28 003d
00000340: 0215 0cbd d50c 85bd 4f7a 13bd 0faf 423d
00000350: fb3d c53d e5cd 663d 7b53 393d f0b9 9abc
00000360: 03d7 5abd 45ab 55bd 1653 d93b c187 2f3d
00000370: 7c40 2ebd 4b6f e03d 620c 26bd b8fa 8bbd
00000380: f31d c93d 74ee 7abd 7f37 2c3d 917a 63bc
00000390: 012a 0fbc c161 bfbd 3860 583d 716c a03d
000003a0: 2b58 30bd 3a79 423d 9b55 7b3c 2fbb 6cbd
000003b0: b3a9 3b3d c8ea 983d 48b4 2dbc 54d9 a13c
000003c0: 7962 583d 3e50 41bc f7b9 1cbd e903 c13d
000003d0: 2468 8cbc 52d4 ad3d 39ba 98bc f02b bbbd
000003e0: 36e8 023d 42f6 983d 93bf bd3d 3a08 6b3b
000003f0: 4c52 e0bd 554c b43d c96f 63bc ca76 5e3c
-0.09099811 -0.0504896 0.0077025224 -0.0074129524 0.0013117276 -0.105407596 -0.00017069471 0.064797305
0.03309049 0.08974485 -0.10631386 0.0895132 0.08919768 -0.05858003 0.056002088 -0.074863546
-0.03980974 0.06753618 -0.032338284 -0.07315732 -0.05722897 -0.09099842 -0.06842066 0.01105148
0.10313441 -0.07969929 0.016379172 0.11104765 0.06189063 -0.08264771 0.02259876 0.08236056
0.030892916 -0.053735897 0.07349364 0.049489565 -0.07783705 -0.079510115 0.08667713 0.11123468
0.024331124 -0.08567858 -0.03221348 -0.018939136 0.010816446 0.0040522194 0.071517624 0.10494735
0.015213426 -0.023088997 -0.091870986 0.075361095 -0.10057919 -0.0008750427 -0.027404305 0.08846348
0.053537685 0.06440533 -0.012769844 -0.016624954 0.08111895 -0.007912464 0.044631455 -0.015944516
0.1063748 0.037992314 -0.06883258 -0.02691149 0.08488982 -0.060470693 -0.043441035 0.040023398
-0.043308076 -0.10394024 0.08397416 -0.04472712 -0.05712203 -0.09091673 -0.0693584 0.08521779
-0.067987524 -0.05215411 0.07010056 -0.103214696 -0.07474067 -0.10498997 0.008739005 0.088613145
-0.060356855 -0.08578993 0.08234461 0.10644394 0.009046533 0.016078422 -0.08985786 0.08991004
-0.020154553 -0.0012971978 -0.07397834 -0.027604708 -0.096063584 0.01694731 -0.11287311 0.06377621
-0.05131368 -0.1092795 0.042368423 0.06746388 -0.06583966 -0.1065258 -0.040928688 0.08780637
0.10741641 -0.10391799 -0.023226047 -0.09263495 0.044627167 0.074272804 0.02126134 0.073856205
0.044426378 0.101946 0.05316915 0.03016064 -0.037416797 -0.08231762 -0.038884908 0.024788514
0.03804632 -0.06735011 0.10783399 0.09662084 0.0728427 -0.032417677 -0.034291036 -0.08502274
-0.021339796 -0.068496354 0.058553696 -0.04113684 -0.04515101 0.06260555 -0.1128012 -0.029561732
-0.03601744 -0.0232146 0.051215686 -0.04357725 0.07816702 -0.027579574 -0.01467958 0.037365284
-0.07576629 -0.057952087 -0.09292693 0.05737563 -0.026101055 -0.03022583 0.013891963 -0.04794519
0.080992416 -0.037379574 -0.045873616 -0.10476195 -0.0503677 0.10090982 -0.04528689 0.016878033
-0.09598581 -0.083856225 0.080759674 0.04145594 -0.09969481 0.038688347 0.07134635 -0.0072541465
-0.07358445 -0.025089087 -0.10346796 -0.0033553622 -0.047389314 -0.06996465 -0.011321186 -0.10889969
0.10858177 0.09155474 -0.0027219239 0.10356451 -0.111466296 -0.092824444 -0.02025899 0.093365304
0.00029201672 -0.080287516 0.0026658345 -0.07505574 -0.10665984 0.07514383 -0.05918487 0.012470714
-0.10043939 -0.032550387 -0.110981055 -0.031799015 -0.07183513 -0.0025693914 -0.047268145 0.031288423
-0.034199722 -0.06496588 -0.036005314 0.04753023 0.096309625 0.0563487 0.04524563 -0.01888749
-0.053427707 -0.05216529 0.006632219 0.042854074 -0.042541966 0.109587274 -0.040539153 -0.0683493
0.098201655 -0.061262563 0.042045113 -0.013884203 -0.008738042 -0.09344817 0.052826136 0.078331836
-0.043052834 0.047478892 0.015340234 -0.0577957 0.045816135 0.07466656 -0.010602064 0.01975695
0.052828286 -0.011798916 -0.038263287 0.09424574 -0.017139502 0.084877625 -0.018643485 -0.0913924
0.031959735 0.07468845 0.092650555 0.0035863058 -0.10953197 0.08803622 -0.013881632 0.013578126

layers.conv2_1.bias f4 [64]
00000000: cd2f e73b 6fa8 e33d eac8 bd3d c5cc 25bc
00000010: f5c8 cb3c c91d 733d 1dbf 053d d182 ba3d
00000020: 93dc f73c 1e24 223d 3c58 8dbd 618b b0bc
00000030: 8e16 5fbd cf57 5cba f938 c63d 9734 47bd
00000040: 3d89 92ba 7d00 91bc dd77 6bbd 8ad1 d83d
00000050: a64a 543d e71e 87bc 7c55 9e3d 6543 9839
00000060: 7158 993c 170c 1abd 6cac cdbd d4ab c93c
00000070: 0189 0bbd 36ee a9bd 4baa 753d a77a 373d
00000080: 60c2 4dbb dacb 9fbc b7b4 c4ba 96fc abbc
00000090: f964 c33d 317e 9c3d bb4b 8fbc 106a 853d
000000a0: 4c23 cfbd b58e 0fbd 2505 57bd 7b7d c13c
000000b0: debf 72ba 7642 dd3d 00cc 33bc dab1 7bbd
000000c0: 63ef eebb b665 c9bc d092 c9bc 3897 c4bc
000000d0: 38c5 08bd e887 85bd 50d3 d53d 43f9 3b3d
000000e0: d166 4d3d 9030 57bc d5a3 a1bc 0e3a 9dbd
000000f0: ebdb d13d 040b ca3d a839 c7bd d594 923d
0.007055259 0.111161105 0.09266837 -0.010119622 0.024876097 0.059354577 0.032652963 0.091069825
0.030256545 0.039585225 -0.06901595 -0.021550836 -0.05446487 -0.00084054185 0.096788354 -0.048634138
-0.0011179816 -0.017700428 -0.057487357 0.105868414 0.051829003 -0.016494228 0.077311486 0.00029041912
0.01871893 -0.037609186 -0.100426525 0.024618067 -0.034066204 -0.08297388 0.059976857 0.044794705
-0.0031396374 -0.019506384 -0.001500747 -0.020994466 0.095407434 0.076412566 -0.017492166 0.065143704
-0.10114154 -0.035048205 -0.05249514 0.023619404 -0.0009260158 0.10803692 -0.01097393 -0.06144891
-0.0072917207 -0.024584632 -0.024606138 -0.023997888 -0.033391207 -0.06520063 0.10440695 0.04589201
0.05014688 -0.013134137 -0.019731442 -0.07677089 0.10247024 0.09865382 -0.09727794 0.07157294

layers.conv2_2.weight f4 [32, 64, 20]
00000000: 1876 92bc c914 51bc dfa5 183c e9ca 7bbc
00000010: 8d93 c83c 4369 993b c1f4 d2bc b70b 3ebc
00000020: 1088 c0ba e12c b939 4dba dd3b d737 55bb
00000030: 2034 aa3c 5d8e 9f3c 94cc b1bc e9e4 cd3c
00000040: 6e1f 58bc 2da0 7cbc 45c0 58bc 6f86 c53c
00000050: b3fe 8cbc 4c12 883c 0fed c1bb 6c90 813c
00000060: 2508 3a3c 85f5 3dbc b634 45bb 7abb 9e3c
00000070: d075 c03b b6e4 80bc a295 9b3c 648f 8d3b
00000080: 570f bc3c be54 15bb d298 a93c ef69 263c
00000090: 8d01 983c 4150 c33c 068f b13c 2647 bebc
000000a0: c66d fcbb b378 ab3c df27 313c 31f9 27bc
000000b0: f64c ec3b 77d1 1e3c 3fc7 8fbc 0483 9b3c
000000c0: aee3 4c3c dac4 aabc ec34 e63c 844e 83bc
000000d0: 164f 923c d681 4b3b f85b cabc f213 cb3c
000000e0: aa2e 7b3c d0f1 983b 1185 b6bc 8bf3 93bb
000000f0: a54e 31bc 8a19 a63b 5e0c 49bb bcee 323c
00000100: d72e 743c d010 b13a fdc2 27bc 82a8 1a3c
00000110: 68c0 babb ee2a 9c3c d4d2 99bc 3693 ec3b
00000120: eac1 383c ff3c c8bc 2320 e9bc 9018 bd3c
00000130: 3351 e4bc e15d a8bc e1b6 553c a5b2 c5bb
00000140: 6e1d 92bc 3ae2 cfbb 2c7e f83b 7fd2 a6bc
00000150: dae4 9cbc 259d 3abc fb53 b43c 4df1 9e3c
00000160: f8ea babc 30b1 6d3c d910 9bbc d2b4 64bc
00000170: f5cb 7fbc 33cb b1bc 42be ccbc 431f d23b
00000180: ea10 a1bc e219 233c d1b7 37bc bf4d 6dbc
00000190: a11d 27bc 5022 dcbb 78ef 573c 51fc 893c
000001a0: bde2 b23c 1020 91bc 8db3 c3b9 960b ab3c
000001b0: 00dd a73c d50a 163c 877f 813c dc9e 9939
000001c0: 80b6 323c 3103 a4bb 2fa6 93bc 4de7 743c
000001d0: f127 71bc bfa6 b63b fa0d b5bc b4bc d43c
000001e0: b231 6f3c a3b4 183c 2246 c1bc 279a 643a
000001f0: 6246 a43c ac0a 43bc 62f5 46ba a896 07bc
00000200: 88ea b73c 7626 89bb 606a ce3b 7606 5e3c
00000210: deed 2abc 1e48 cb3c a244 543c 3954 dd3b
00000220: ecd8 863c 3272 853c e911 6dbb d21e 083c
00000230: b2d7 d13c 6aa7 753c 4936 8939 be85 363c
00000240: 825c 7fbb 93dd ba3b cc45 8b3c 22d5 92bb
00000250: 5d31 913c c574 72bc 626f 88bc 87ba eabc
00000260: 0831 09bc 5243 5c3c 3eb7 37bc 1be4 adbc
00000270: d6fb c2bc be74 b43c f834 c63c db15 95bb
00000280: 27e3 963c e08d bebb 172a 4fbc 5a0d c9bc
00000290: 7950 233c e3c7 c43c 3dc0 7f3c 856b d63c
000002a0: 2a17 36bc 602a 4fbc 93b5 aabb ca6f 893b
000002b0: 5441 673b 1af4 8a3c 12ac 7b3c ba0d b2bb
000002c0: 7ea5 69ba e72f 823b 264f ebbc f685 cbbb
000002d0: 887f 413c 5f09 cf3a 3833 9ebc 7b46 91bc
000002e0: 088f bfbc 6e07 da3c 9c41 bf3c 5450 df3b
000002f0: 5e40 0c3c 3bff 003c d1b4 a93b 4cf3 873c
00000300: d2bf 743c 1a60 78bc 087a 67bc 42f1 a939
00000310: 1bf5 943c e1e6 90bc 6e61 d33b 2e94 eb3b
00000320: 6419 813b 3a7a 97bc 7057 4f3c d9e5 9a3c
00000330: 78df 96bb e630 d0bc 7b42 553b eb82 8b3a
00000340: 9e39 fb3b 26a4 99bc dfd6 ef3b 9d27 9ebb
00000350: 9b61 aa3b 7437 e63b 7bb4 86bc 629f c53b
00000360: e6f9 67bc d041 eb3b 91e4 67bb 37fd 373b
00000370: ce9d 96bc 97f2 e2bc 5ee4 e83b 3f1e 06bc
00000380: 71f8 d5bb afab 723c a9ca 18bc 7f94 333b
00000390: ec47 8b3a bf74 92bc ab84 963c 23f2 0cbb
000003a0: b27b c23c 371a 53bc 9d83 183c fb6d 2dbb
000003b0: da47 cf3b 7d6a bb3c 323c da3b d5f3 d33a
000003c0: fcd6 7bbc e781 7bbc 1b0a 103b e5b3 b63c
000003d0: 2ba3 943b f2a6 d93b 4997 d33c 641c 91bc
000003e0: e154 5b3c a2ec 5ebc 6ef8 b93c 7e7a c639
000003f0: 000e 7d3b 98d2 03bc cc8f 25bb 5027 c3ba
-0.017878577 -0.012761303 0.0093168905 -0.015368202 0.02448442 0.0046817376 -0.025751473 -0.011599473
-0.0014688987 0.00035319387 0.0067665935 -0.0032534504 0.020776808 0.019477064 -0.021703996 0.025133567
-0.013191087 -0.015419048 -0.013229434 0.024111954 -0.017211294 0.016610287 -0.005918152 0.015815936
0.011354481 -0.011594181 -0.0030091233 0.019376505 0.0058734193 -0.015734058 0.018992249 0.004320072
0.022956533 -0.0022786106 0.020702753 0.0101570925 0.018555427 0.023841979 0.021674644 -0.023227286
-0.0077035157 0.020931577 0.010812729 -0.010252283 0.007211323 0.009693495 -0.017551063 0.018983372
0.012505455 -0.02084582 0.028101407 -0.01602865 0.017859977 0.003105273 -0.024702057 0.024789784
0.01533095 0.004667498 -0.022280248 -0.0045151166 -0.010821973 0.0050689625 -0.0030677537 0.0109211765
0.014903746 0.0013509039 -0.01023936 0.009439589 -0.005699206 0.01906344 -0.018777288 0.0072196973
0.011276701 -0.024443148 -0.028457707 0.023083001 -0.02787075 -0.020552577 0.01304409 -0.006033259
-0.017836299 -0.006344107 0.0075834002 -0.020364044 -0.019152094 -0.011390005 0.022012701 0.01940217
-0.02281712 0.014507577 -0.018928932 -0.013959127 -0.015612592 -0.021703338 -0.024993066 0.006412418
-0.019661386 0.009954901 -0.011213259 -0.014483868 -0.010199935 -0.0067179576 0.013179652 0.016843947
0.021836633 -0.017715484 -0.00037327074 0.020879548 0.020491123 0.009157856 0.01580788 0.00029300794
0.010907769 -0.0050052633 -0.018023578 0.0149477245 -0.014718995 0.005574077 -0.022101391 0.025968887
0.014599251 0.009320411 -0.023593012 0.000872048 0.020053092 -0.0119044 -0.00075896655 -0.008275665
0.0224507 -0.004185493 0.006299302 0.013551345 -0.0104326885 0.024814662 0.012955816 0.006754425
0.016460858 0.016289804 -0.0036174005 0.008308129 0.025615547 0.014993528 0.00026171122 0.011140285
-0.003896505 0.0057026832 0.017001055 -0.004480974 0.017723734 -0.014798348 -0.016654674 -0.028653396
-0.008373506 0.013443785 -0.011213122 -0.021226933 -0.023801725 0.022028323 0.02419518 -0.0045497245
0.018418862 -0.0058152527 -0.012644312 -0.0245425 0.009967917 0.024021095 0.015609798 0.026174316
-0.011113921 -0.01264438 -0.0052096336 0.0041942345 0.0035286741 0.0169621 0.015360849 -0.0054337652
-0.0008912905 0.0039729956 -0.028724264 -0.0062110377 0.011810191 0.001579564 -0.019311532 -0.017733803
-0.023383632 0.02661487 0.023346715 0.006814996 0.008560268 0.007873352 0.0051790257 0.016595505
0.014938312 -0.015159631 -0.014128216 0.00032413943 0.018183282 -0.017688217 0.0064508235 0.0071892953
0.0039397944 -0.0184909 0.012655124 0.018908428 -0.0046042763 -0.025413942 0.0032540846 0.0010643875
0.0076667806 -0.01875503 0.007319316 -0.0048264996 0.0051996238 0.0070256535 -0.016443482 0.006030963
-0.0141587015 0.0071794763 -0.003538404 0.0028074512 -0.018385794 -0.027703566 0.0071073016 -0.008185922
-0.0065298607 0.01481144 -0.009325662 0.0027401743 0.0010626293 -0.017877935 0.018373808 -0.002150663
0.023740623 -0.012884668 0.009308723 -0.0026463259 0.006325704 0.022877926 0.006660008 0.001617069
-0.0153710805 -0.015350795 0.002197868 0.022302577 0.0045360527 0.006642216 0.025828974 -0.017713733
0.013386936 -0.013606222 0.022701468 0.00037856767 0.003861308 -0.008045815 -0.0025262712 -0.0014889035

layers.conv2_2.bias f4 [32]
00000000: f442 96bb 410b cabb 46ab ae3c 6cce bd3b
00000010: f56d 023c c9db a5bc 9bc3 42bc ace9 c2bc
00000020: f16f 3dbc 0c12 71bb fff2 d03c 9c08 d5bb
00000030: c04f a83c 04f4 df3c 56fd a83c 7219 7fbc
00000040: f208 adbc e505 71bc a7c4 b2bb 3a37 253c
00000050: a530 d7ba 00f4 b6bb 27a8 7c3c 631b 2cbc
00000060: a038 1cbc ccd4 a13c 5861 443c d48b bfbb
00000070: c3ad a73b 00e6 f9ba 082c 70bc 2ace bfbb
-0.004585618 -0.0061658924 0.021321904 0.0057924297 0.007960786 -0.020246403 -0.011887456 -0.023793064
-0.011562333 -0.0036784438 0.025506495 -0.0065012705 0.02054584 0.027338035 0.020628612 -0.0155700315
-0.02112243 -0.014710878 -0.0054555717 0.010083968 -0.0016417695 -0.0055832863 0.01542095 -0.010504576
-0.009534985 0.01975479 0.011986099 -0.0058455262 0.0051171496 -0.0019065738 -0.014658935 -0.005853434

layers.conv3_1.weight f4 [32, 4, 49]
00000000: 7331 05bd 6259 8bbc 8132 1abd 437a 703d
00000010: a3b9 f53b d091 3ebd ec41 24bd 56de 80bd
00000020: 8cdd 7dbc d0b3 21bd da73 11bd 2137 8c3d
00000030: 3fab ee3a 5302 86bd b7a5 923d 70dd 8cbd
00000040: d675 9abc c5c6 20bd 9c8c 5bbd dcc4 ad3c
00000050: ac07 5e3d 0819 ee3c 01be 953d f7ac 893d
00000060: 4427 513d b29e 053d 650b 7ebc 8cf9 0dbb
00000070: 2ff1 f73c 6c9a 85bd 8a91 74bd 71a0 35bd
00000080: be17 823d 01b1 0c3d 9bf6 59ba da03 5b3d
00000090: 1f5e 7dbd 7302 5c3d c334 5abd 3c06 0ebd
000000a0: 61c9 c7bc ddac 333d ec0f 09bc a945 7a3d
000000b0: 125e 8a3b bc1d 26bd 74ca 19bc a310 84bd
000000c0: 071b 37bd fd8b 26bd d69e e33c cd5c 683d
000000d0: 9ca7 c0bc 2293 d23c 461c f6b8 db53 21bc
000000e0: 7c55 713d c7e1 2c3c c6cd 993b 4deb debc
000000f0: 4c6a 1b3d c3d4 903d a6f6 8bbd adc6 e4bb
00000100: a47d 52bd c11e 103d 8c6c 14bd d89e 2a3c
00000110: dba8 543d ef47 613d 2330 953d 45c7 1abd
00000120: 350f 163b 472a 99ba 7cb4 773d f54f 86bd
00000130: 638a b13c a769 02bd 04f8 3ebd a738 74bd
00000140: 1202 ca3a 5aa9 4a3d f307 04bd 5611 933d
00000150: b69a 8c3d 8b38 8c3c e715 8f3d 3b74 71bd
00000160: 0d78 96bb 3830 1dbd 1ce4 013d f80a 813d
00000170: e5cb 4fbb 9187 aebb 247b 0a3d 961a 313d
00000180: 6456 52bd d232 953d 77b6 4b3c 23de aabc
00000190: ee02 8c3d 2ab6 f83c 16cd 17bd 5191 13bd
000001a0: 55d2 633d aba9 a83c be09 61bd c08f 51bd
000001b0: e4be ff3c 030d 2ebd bebf 843c 0da8 483d
000001c0: f0d2 d63c e054 a2bc b2f1 1b3d eab8 41bd
000001d0: 38c3 b7bb 4a2c 203d d839 14bd 0dd5 923d
000001e0: ca0a 1b3d 3766 6dbd 6016 e73c 2348 623d
000001f0: d582 5f3b c310 4c3d f97b 6fbd e747 20bd
00000200: bda4 d2bc 02fd 01bc 9038 af3c 431c 1f3d
00000210: ee71 fd3c d2c1 8c3d ed3a f53c 5073 b6bc
00000220: 8d9b 8b3d 3970 62bd 3a43 7cbd 8598 aa3c
00000230: 0012 4d3d bec7 2d3d 5f53 8cbd d9ea 5dbd
00000240: c628 7cbd f314 0ebd bb74 9fbc c72a d43c
00000250: f8b5 37bd ae88 b8bc 93b4 dd3c 3a78 0f3d
00000260: af46 8e3d 384d 0dbd 2cde 823d 327e 87bd
00000270: a5bd 8b3d 06ee c7bb ba35 cabc d5ff cdbc
00000280: 9e13 52bc 1691 8f3d af33 e4bc b286 773d
00000290: 4ddf 6abd ee49 f8bc 5986 3e3c c7cc 85bd
000002a0: 2137 893d 7e4e 81bd 9caa 08bd f692 ccbc
000002b0: 339f 16bd 7b0b 9ebc 421f 583d 2564 bc3c
000002c0: e608 f33c ef70 7dbd 0b8b a7bc 570f 6c3c
000002d0: 4b3a 1bbd 3c72 983c 3d7f 18bc 1229 5fbd
000002e0: 82f6 7abd 0bd7 fa3b ebe8 373d ce5b 163d
000002f0: d3c9 7fbd aac5 1a3d edb6 8d3c 87a5 1e3d
00000300: 0185 e8bb 0f78 8bbd edec 913b d5ca 843c
00000310: bc88 7abd 3043 383d 1dc1 5b3c 2af5 803c
00000320: ed42 87bc ede5 7e3d 00ad 27bd ef7c eabc
00000330: 71a9 663d 892a 76bd f24f 3e3c 5988 19bd
00000340: 583e 09bd 859f 73bc 2a25 443d 5f96 2bbd
00000350: ec8e 3a3d 9a9c 753b 3f19 1abd 455f 3dbd
00000360: 06e2 0a3d 099f 293d c73b 0c3d b2f8 5b3c
00000370: b511 7e3d b245 0fbd 21fe 813b b90c 38bd
00000380: 2efd 0c3d ba45 243d 01a8 ffbb 805e 2e3b
00000390: 1076 82bd 40ac 853d 152f 1dbd c49a eb3c
000003a0: d8e8 4abc e335 2bbc 3a70 323d 881a 8fbd
000003b0: 8619 403d acc8 a3bc 2652 2cbd d077 4d3d
000003c0: 3ea4 8bbd 3454 50bd db52 2e3d 389d a4bc
000003d0: 005f 84bd c7d5 133d e9d7 90bb 1a46 7a3d
000003e0: 68ee afbc c4b9 123d 56e3 713d c256 0b3b
000003f0: 3fb9 e83c 69be 3a39 2131 523d 8c2a 593d
-0.03251786 -0.017010394 -0.03764582 0.058710348 0.0074989363 -0.046525776 -0.04010193 -0.06292407
-0.015494715 -0.039478123 -0.035510875 0.068464525 0.0018208994 -0.06543412 0.07160514 -0.06878173
-0.018855017 -0.03925206 -0.053600892 0.021212034 0.054206535 0.02906467 0.07311631 0.067224436
0.051062837 0.032622047 -0.015505646 -0.0021663634 0.030266372 -0.06523594 -0.05970911 -0.044342462
0.06352185 0.03434849 -0.000831464 0.05347047 -0.06185734 0.053713273 -0.053272974 -0.034673914
-0.024388017 0.043866027 -0.0083656125 0.06110159 0.00422264 -0.0405557 -0.0093866475 -0.06448486
-0.04470351 -0.040660847 0.0277857 0.056729127 -0.023517422 0.025704924 -0.000117354604 -0.009846653
0.058919415 0.010551876 0.0046937196 -0.02721181 0.03794317 0.07071831 -0.06834154 -0.006981692
-0.05138935 0.03518558 -0.03623633 0.010413848 0.051918846 0.05500024 0.07284572 -0.037787694
0.0022897248 -0.0011685573 0.060474858 -0.06558219 0.021672433 -0.03183904 -0.046623245 -0.05962434
0.0015411994 0.049477912 -0.032234143 0.07181041 0.06865446 0.017116806 0.069865994 -0.058948737
-0.004591948 -0.038376063 0.031711683 0.0630092 -0.0031707224 -0.0053262194 0.033808842 0.043238245
-0.05135192 0.07285084 0.01243364 -0.020857876 0.06836496 0.0303603 -0.03706082 -0.036027256
0.05562051 0.020588716 -0.05494093 -0.05116248 0.031218953 -0.042492878 0.016204711 0.04898839
0.02622363 -0.019815862 0.038072295 -0.04729549 -0.0056079887 0.039104737 -0.036187977 0.071695425
0.037852086 -0.057958808 0.028208911 0.055244576 0.0034105082 0.049820673 -0.05846784 -0.03913107
-0.025713319 -0.007933857 0.021389276 0.03884531 0.030938115 0.06872906 0.029935325 -0.022271782
0.06816778 -0.055282805 -0.06158755 0.02082468 0.050065994 0.042426817 -0.06851839 -0.054179046
-0.061562322 -0.034687947 -0.019464841 0.025899304 -0.044851273 -0.022526111 0.027063644 0.035026766
0.069470756 -0.03449747 0.06390032 -0.06615867 0.06823281 -0.0061013727 -0.024683822 -0.025146404
-0.01282206 0.07010095 -0.027856676 0.06043119 -0.057341862 -0.03030869 0.011628711 -0.06533199
0.06699968 -0.06313799 -0.03336583 -0.02497242 -0.036772918 -0.019292584 0.052764185 0.022996971
0.029667329 -0.06187528 -0.020452043 0.014407954 -0.03789739 0.018609159 -0.00930768 -0.054482527
-0.061270244 0.0076550297 0.044899862 0.036708646 -0.062448334 0.037786163 0.01729914 0.038732078
-0.0070959334 -0.06810009 0.0044532926 0.01621 -0.061165556 0.04498595 0.013412741 0.015741903
-0.016511405 0.062230993 -0.04093647 -0.028624026 0.056313936 -0.06009916 0.01161574 -0.037483547
-0.03350672 -0.014869575 0.047887005 -0.041891452 0.045546457 0.0037477375 -0.037621733 -0.046233434
0.03390696 0.041411433 0.034236696 0.013425993 0.062028605 -0.034978576 0.003967062 -0.04493401
0.03442114 0.04010556 -0.00780201 0.002660662 -0.06370175 0.06526995 -0.03837498 0.028760321
-0.012384616 -0.010449859 0.04356406 -0.06987482 0.04689934 -0.019993149 -0.04207053 0.05016309
-0.06818436 -0.050861552 0.042559486 -0.020094499 -0.06463432 0.036092546 -0.0044202697 0.06110201
-0.021475986 0.03582169 0.059054695 0.0021261428 0.028408645 0.00017809276 0.051316384 0.05301909

layers.conv3_1.bias f4 [32]
00000000: be2d babc 70f5 95bc 7094 be3c b174 fbbc
00000010: a928 19bc 9f7e 093d c77d 24bd bfc3 813d
00000020: 9eba 08bb ae48 f73c 2dfe 3abd abe8 df3b
00000030: ac25 ccbb 0f12 c2bc efd8 babc cbb3 383d
00000040: a9b2 1dbd 39b8 603d 6ec4 f43c 8dea 46bd
00000050: 5d05 00bd afe9 40bd 8b61 893c 5336 2dbd
00000060: d59d 443d b162 49bd 37a6 06bd 4e6d 223d
00000070: 4649 cebc 29f8 da3c 274c 1bbd 36e0 21bd
-0.02272689 -0.01830551 0.02326414 -0.030695291 -0.009348073 0.03356802 -0.040159013 0.06336164
-0.0020863186 0.030186024 -0.045652557 0.006833156 -0.006230077 -0.023690252 -0.02280852 0.04509334
-0.03850046 0.05486319 0.029878821 -0.04856353 -0.031255115 -0.047097858 0.016770145 -0.042288136
0.048002083 -0.049166385 -0.03287336 0.039655022 -0.025181424 0.02672966 -0.03791442 -0.039520465
