mRNAlocalization/cnn_models/CNN_model_fold3.pth (torch, 531886 bytes, 22 tensors)

layers.bn1.weight f4 [64]
0	0x3f7fde01	0.99948126
1	0x3f7fa45a	0.99860156
2	0x3f8031bf	1.0015181
3	0x3f7faf19	0.9987655
4	0x3f8042d3	1.0020393
5	0x3f800e33	1.0004333
6	0x3f800472	1.0001357
7	0x3f801fb7	1.0009679
8	0x3f7f9961	0.9984341
9	0x3f7ff06e	0.9997624
10	0x3f8000b3	1.0000213
11	0x3f802d4c	1.0013824
12	0x3f802594	1.0011468
13	0x3f8026da	1.0011857
14	0x3f7fb5af	0.998866
15	0x3f8016b4	1.0006928
16	0x3f80341c	1.0015903
17	0x3f801005	1.0004889
18	0x3f7ffaa7	0.9999184
19	0x3f7f76a3	0.997904
20	0x3f7fcb0c	0.999192
21	0x3f7fb284	0.9988177
22	0x3f802b60	1.0013237
23	0x3f7ff35e	0.99980724
24	0x3f8013a7	1.0005997
25	0x3f7fc3cb	0.9990813
26	0x3f80153f	1.0006484
27	0x3f8001ce	1.0000551
28	0x3f801b66	1.0008361
29	0x3f800b43	1.0003437
30	0x3f7fe3d7	0.9995703
31	0x3f7fd4ac	0.99933887
32	0x3f80042a	1.0001271
33	0x3f7fa013	0.9985363
34	0x3f802e0c	1.0014052
35	0x3f7fd563	0.9993498
36	0x3f7ffc76	0.999946
37	0x3f7fe331	0.9995604
38	0x3f801c8d	1.0008713
39	0x3f802f8f	1.0014514
40	0x3f7f9b86	0.99846685
41	0x3f7f9bf6	0.9984735
42	0x3f7febc0	0.999691
43	0x3f7fe89b	0.999643
44	0x3f800e9f	1.0004462
45	0x3f8028ad	1.0012413
46	0x3f8026f1	1.0011884
47	0x3f7fd1de	0.99929607
48	0x3f8023c0	1.001091
49	0x3f80265b	1.0011705
50	0x3f800253	1.0000709
51	0x3f7fecb6	0.9997057
52	0x3f7fc0e4	0.999037
53	0x3f801f10	1.000948
54	0x3f7fbe35	0.9989961
55	0x3f8014cd	1.0006348
56	0x3f8033f4	1.0015855
57	0x3f800864	1.0002561
58	0x3f7fce4c	0.9992416
59	0x3f802783	1.0012058
60	0x3f7ff70e	0.9998635
61	0x3f7fa399	0.99859005
62	0x3f800339	1.0000983
63	0x3f7fcfdd	0.9992655

layers.bn1.bias f4 [64]
0	0xbab8d5b4	-0.0014101774
1	0x38d51295	0.00010160093
2	0x3a987bf0	0.0011633616
3	0xba83a451	-0.0010043477
4	0x3a8fbb35	0.0010965826
5	0xb9284c6e	-0.00016050201
6	0xb9f92a69	-0.0004752458
7	0x3aac5585	0.0013148045
8	0xbb06fecc	-0.0020598648
9	0x3973acb6	0.00023238626
10	0x393c95b4	0.00017984846
11	0x3ad48bb4	0.0016215951
12	0x3a24489d	0.0006266924
13	0x3af98019	0.0019035368
14	0xba488aa0	-0.0007650051
15	0xb9e5ce8c	-0.00043832173
16	0x3a485fcf	0.0007643671
17	0x3a0cf70f	0.0005377391
18	0x3a880bee	0.0010379532
19	0xbaa92c4c	-0.0012906878
20	0xbaca3c39	-0.0015429325
21	0xb9f99678	-0.0004760509
22	0x3a1f3c4e	0.0006074355
23	0xba999115	-0.0011716211
24	0x3ac5b87e	0.001508489
25	0xba40e24f	-0.00073579414
26	0x3a81a731	0.0009891746
27	0xb9eb8860	-0.000449243
28	0xba4a1d69	-0.0007710071
29	0xbad8e9e8	-0.0016549202
30	0x38bdd64b	9.0521375e-05
31	0xbaaee4f0	-0.0013343375
32	0x3a00156a	0.00048860034
33	0xbae72987	-0.0017636277
34	0x39fe0adf	0.00048454755
35	0x39008f90	0.00012260512
36	0x3a93b141	0.0011268036
37	0x3aa54337	0.0012608533
38	0x39ccce79	0.00039063746
39	0x3ab38418	0.0013695983
40	0xbae4d39b	-0.0017458083
41	0xbad4908c	-0.0016217395
42	0xba843dcd	-0.0010089219
43	0xb95dd974	-0.0002115721
44	0xb8890cc6	-6.535048e-05
45	0xbab49eb6	-0.001378021
46	0x3aa65534	0.0012690187
47	0x3a65db73	0.0008768357
48	0x3ae55005	0.0017495161
49	0xb99d9a5b	-0.00030060377
50	0x38cd20be	9.7812605e-05
51	0xb9645e84	-0.00021778984
52	0xbabf2437	-0.0014582936
53	0x3ae954f0	0.0017801803
54	0xba6558b9	-0.00087488774
55	0x3a34367d	0.00068745745
56	0x3ab71d5e	0.0013970544
57	0xb9564bea	-0.0002043691
58	0xba8e502b	-0.0010857632
59	0xb9e32b81	-0.00043329227
60	0xbac529b6	-0.0015042338
61	0xba022e9e	-0.0004966053
62	0xba6a8c97	-0.0008947341
63	0xba4bca5a	-0.0007773988

layers.bn1.running_mean f4 [64]
0	0xbcb80e14	-0.02246765
1	0xbc72f792	-0.014829533
2	0xb9e4bb66	-0.00043627172
3	0x3d940806	0.07228093
4	0x3daf0c48	0.08547264
5	0x3d2a05a5	0.04150929
6	0x3cae76ab	0.02129682
7	0x3df2c55e	0.11854051
8	0x3d75ef91	0.06004292
9	0xbd9dbe30	-0.07702291
10	0xbd49e07d	-0.049286354
11	0x3bd6685d	0.006543203
12	0x3b029938	0.0019927751
13	0xbc5f692c	-0.013635915
14	0x3c8098eb	0.015697917
15	0xbdb664d1	-0.08905948
16	0xbd830a7e	-0.063984856
17	0x3d0c0a38	0.034189433
18	0x3d27a7d3	0.040931534
19	0xbcad1f6d	-0.021133149
20	0xbd2f5da3	-0.04281391
21	0x3db234b4	0.087014586
22	0x3d99a3cd	0.07501946
23	0x3db27b14	0.087148815
24	0x3daff445	0.085915126
25	0x3c3b56ad	0.011434239
26	0xbc232029	-0.009956398
27	0xbb2faf18	-0.0026807245
28	0xbd34b9b1	-0.0441224
29	0xbe0d5eaa	-0.13805643
30	0x3ccc3158	0.024925873
31	0xbca6265c	-0.020281963
32	0x3c4c7f3f	0.01248151
33	0xbd4297bd	-0.04750799
34	0x3cabe0cc	0.020981215
35	0x3cd011c3	0.025399094
36	0xbddf99ee	-0.10918032
37	0x3c7704a1	0.015076787
38	0xbd4113eb	-0.047138136
39	0xbd45b668	-0.04826966
40	0xbdc24672	-0.094860926
41	0x3d0f110e	0.034928374
42	0xbd04e403	-0.03244401
43	0x3cebc5fc	0.02878093
44	0x3e043eda	0.12914601
45	0x3d719ef3	0.058989476
46	0xbc30e5f0	-0.010797009
47	0xbd89514d	-0.0670496
48	0x3da93c06	0.08263402
49	0x3ccced6e	0.025015559
50	0x3dea433a	0.11438604
51	0xbd98a091	-0.074525006
52	0xbda819f1	-0.08208073
53	0xbc783543	-0.015149417
54	0xbd82bcf3	-0.063836955
55	0x3bc21260	0.0059226006
56	0x3daa813c	0.08325431
57	0x3d537b12	0.05163104
58	0xbd8006d4	-0.06251302
59	0xbc67b660	-0.014142603
60	0x3b34c0d0	0.0027580746
61	0x3d9b69ff	0.075885765
62	0xbc98cd55	-0.018652597
63	0x3d0d63fb	0.034519177

layers.bn1.running_var f4 [64]
0	0x3ceb5a39	0.028729545
1	0x3ccc5b33	0.02494583
2	0x3ccb93d6	0.024850767
3	0x3c8f5abf	0.017499326
4	0x3cb22891	0.02174786
5	0x3d017677	0.031607118
6	0x3cd71e4a	0.02625956
7	0x3cd9239d	0.02650624
8	0x3cd25a26	0.025677752
9	0x3cd2db7b	0.025739422
10	0x3c8b7d84	0.017027624
11	0x3d18af96	0.037276827
12	0x3cde91d1	0.02716914
13	0x3d2c5f06	0.04208281
14	0x3c9cafe3	0.019126838
15	0x3d03bb47	0.032161023
16	0x3cb40995	0.021977225
17	0x3cd620dd	0.026138717
18	0x3cc0bdd6	0.02352802
19	0x3cdff86d	0.027340138
20	0x3cc61529	0.024180012
21	0x3cbbeef2	0.022941086
22	0x3cd4a6ce	0.025958445
23	0x3cc244aa	0.023714382
24	0x3d1aa89c	0.037758455
25	0x3cbe4899	0.023227977
26	0x3cf7a6a3	0.030230826
27	0x3cc32428	0.023820952
28	0x3ca6da7d	0.020367855
29	0x3caad0c2	0.020851497
30	0x3cf0c537	0.029390914
31	0x3cb91c5e	0.022596534
32	0x3d0c7017	0.034286585
33	0x3cecc5b6	0.02890287
34	0x3ca92f17	0.020652337
35	0x3cf3649c	0.02971106
36	0x3d46d721	0.048545007
37	0x3cdb910d	0.026802564
38	0x3ce0058b	0.027346393
39	0x3d19f6fa	0.03758905
40	0x3cc1d3a3	0.023660487
41	0x3ce95fa6	0.028487992
42	0x3ccc6804	0.024951942
43	0x3cac34f4	0.021021344
44	0x3d18af84	0.03727676
45	0x3cac16b7	0.021006925
46	0x3cc64e1f	0.024207173
47	0x3d1f2ab9	0.038859103
48	0x3d2540f6	0.040345155
49	0x3d00cf8b	0.03144793
50	0x3d0c996f	0.034326013
51	0x3cf55a68	0.029950336
52	0x3c8d10ee	0.017219987
53	0x3d32958e	0.043599658
54	0x3d09e931	0.033669654
55	0x3cb5b529	0.02218111
56	0x3cb14f76	0.021644335
57	0x3c9ddfe6	0.019271802
58	0x3cdc7364	0.026910491
59	0x3cd0409e	0.025421437
60	0x3ce25152	0.027626667
61	0x3ce685e5	0.028140018
62	0x3cd96852	0.026539002
63	0x3d1cd596	0.03828963

layers.bn2.weight f4 [32]
0	0x3f8053cd	1.0025574
1	0x3f80522b	1.0025076
2	0x3f7fd7d4	0.999387
3	0x3f7fb444	0.9988444
4	0x3f7fb3e4	0.99883866
5	0x3f7fae8e	0.99875724
6	0x3f7f5e7a	0.99753535
7	0x3f7f6f85	0.9977954
8	0x3f7f7533	0.99788207
9	0x3f7f70f5	0.99781734
10	0x3f7fb202	0.99880993
11	0x3f7f769b	0.9979035
12	0x3f7fda74	0.9994271
13	0x3f7fbddc	0.9989908
14	0x3f7fb2d8	0.9988227
15	0x3f7f5f16	0.99754465
16	0x3f7f9f2c	0.9985225
17	0x3f7f7338	0.99785185
18	0x3f7f60b4	0.9975693
19	0x3f7fa176	0.99855745
20	0x3f7f7698	0.99790335
21	0x3f7fc6b4	0.9991257
22	0x3f7fbabe	0.9989432
23	0x3f7fb0f8	0.9987941
24	0x3f7fddbe	0.99947727
25	0x3f7f6ccc	0.99775386
26	0x3f7f84da	0.9981209
27	0x3f7fabea	0.99871695
28	0x3f7f7169	0.99782425
29	0x3f7f5835	0.9974397
30	0x3f7fad98	0.9987426
31	0x3f7fbd05	0.99897796

layers.bn2.bias f4 [32]
0	0x3b228694	0.0024799453
1	0x3b2562b8	0.0025235843
2	0xba26bbd7	-0.0006360388
3	0xba19e840	-0.0005871095
4	0xbab98f96	-0.0014157172
5	0xbaa15f51	-0.0012311732
6	0xbb1ab866	-0.0023608445
7	0xbb16aaf8	-0.002299009
8	0xbb14e6eb	-0.0022720646
9	0xbb15196e	-0.0022750753
10	0xbab6112d	-0.0013890617
11	0xbb126130	-0.002233576
12	0xba81747a	-0.0009876632
13	0xba93c940	-0.0011275187
14	0xbabba5d1	-0.0014316385
15	0xbb2829f1	-0.0025659765
16	0xbacc4b9f	-0.0015586502
17	0xbb155ee0	-0.0022792146
18	0xbb282f0c	-0.0025662808
19	0xba7e3441	-0.00096971175
20	0xbb13f505	-0.0022576463
21	0xba59c330	-0.0008306978
22	0xba9aa330	-0.0011797901
23	0xba8f2d43	-0.0010923523
24	0xba14c642	-0.00056752947
25	0xbb18798b	-0.0023265805
26	0xbaf3cb10	-0.0018599946
27	0xba937512	-0.00112501
28	0xbb17357c	-0.002307265
29	0xbb2afab6	-0.0026089377
30	0xbac4e4bb	-0.001502178
31	0xba86b1bb	-0.0010276356

layers.bn2.running_mean f4 [32]
0	0xbdbc54ca	-0.0919586
1	0xbe3679a0	-0.17819834
2	0xbe957658	-0.29191852
3	0xbe9ee86a	-0.31036693
4	0xbe488233	-0.19580917
5	0xbe79a78d	-0.24380322
6	0xbe355f65	-0.17712171
7	0xbc90efe9	-0.017692523
8	0xbd3f9615	-0.04677399
9	0x3cd1a70a	0.025592346
10	0xbe55f55a	-0.20894375
11	0xbd4b6eea	-0.049666323
12	0xbe637c4a	-0.22215381
13	0xbe51e6ac	-0.2049815
14	0xbe23854c	-0.15968817
15	0x3e3ef605	0.18648537
16	0xbe4f4ab6	-0.20243344
17	0xbca2705b	-0.019828966
18	0x3e8ea6a0	0.278615
19	0xbe95db4b	-0.2926887
20	0xbc1fe4ce	-0.009759141
21	0xbe7383fd	-0.23780818
22	0xbe59213b	-0.21204083
23	0xbe8065af	-0.25077578
24	0xbe46af40	-0.1940279
25	0x3d746cf6	0.059674226
26	0xbe25ddbd	-0.16197868
27	0xbe6c450f	-0.23073219
28	0x3ce7b825	0.02828605
29	0x3cd9b2d2	0.026574526
30	0xbe2f67a8	-0.17129385
31	0xbe804fe4	-0.25060952

layers.bn2.running_var f4 [32]
0	0x3ea8a54f	0.3293862
1	0x3eb0549e	0.34439558
2	0x3eface04	0.48985302
3	0x3f042be8	0.51629496
4	0x3ed93457	0.42422745
5	0x3ed0c716	0.4077689
6	0x3ee6bec0	0.45067406
7	0x3f01e368	0.5073762
8	0x3edb4488	0.42825723
9	0x3f019af1	0.50627047
10	0x3ea2d430	0.3180251
11	0x3ebdabf9	0.37045267
12	0x3ed440e3	0.41455755
13	0x3e9fbc3a	0.31198293
14	0x3ea8afaa	0.3294652
15	0x3f2265c4	0.6343653
16	0x3ec5f010	0.38659716
17	0x3ef596d8	0.47966647
18	0x3f774fd7	0.966062
19	0x3f0cde2f	0.55026525
20	0x3ed5a8dd	0.41730395
21	0x3f075a83	0.52872485
22	0x3eacd37a	0.33755094
23	0x3eeaa135	0.45826116
24	0x3eb138e0	0.34613705
25	0x3ea372e7	0.319236
26	0x3eaf58b1	0.34247354
27	0x3ed781f2	0.42091328
28	0x3f255339	0.6458011
29	0x3f0d8283	0.5527727
30	0x3eb57d2a	0.35447055
31	0x3eee7a18	0.46577525

layers.conv1_1.weight f4 [64, 4, 9]
0	0xbdf56273	-0.11981668
1	0x3defffcf	0.117187135
2	0x3cb56a0b	0.022145292
3	0xbdc010d7	-0.09378212
4	0xbe0abce1	-0.13548614
5	0xbdefafe7	-0.117034726
6	0xbd72ddda	-0.059293605
7	0x3cc52ccc	0.024069212
8	0xbd99f406	-0.07517247
9	0xbdf9cca4	-0.12197235
10	0xbe109b98	-0.14121854
11	0x3da4c5c7	0.080455355
12	0xbdc8f941	-0.098131664
13	0xbe2734b0	-0.16328692
14	0x3d7c53d2	0.061603375
15	0xbe1390f7	-0.14410768
16	0x3d001942	0.031274088
17	0xbd83dad1	-0.0643822
18	0xbd83f579	-0.064433046
19	0xbe25c47a	-0.16188231
20	0xbe033f50	-0.1281712
21	0x3de18dfa	0.11013408
22	0x3dac5306	0.08414273
23	0x3e1b64a4	0.1517511
24	0xbda14bc1	-0.07875777
25	0xbdadf294	-0.08493534
26	0x3dd35484	0.103188545
27	0x3e0c7bcb	0.13719098
28	0x3d28903c	0.041153178
29	0x3ca95058	0.020668194
30	0xbe1ae2f5	-0.1512564
31	0xbdb91862	-0.09037854
32	0xbdc989a1	-0.09840704
33	0xbcb2fb79	-0.021848427
34	0xbbad5d3a	-0.0052906545
35	0x3e0b16fe	0.1358299
36	0xbc5709db	-0.013124908
37	0x3df77063	0.12081983
38	0xbd8786ac	-0.066174835
39	0xbd863846	-0.06553702
40	0x3e1039db	0.1408457
41	0xbd0b62a5	-0.03402962
42	0xbe1b99b6	-0.15195355
43	0x3d439d09	0.047757182
44	0xbd7b47ed	-0.06134789
45	0x3d60f89a	0.054924585
46	0x3d924d0e	0.07143603
47	0xbe2ab54b	-0.1667072
48	0x3d8b24c3	0.06794121
49	0x3d652236	0.05594083
50	0x3e1ea24b	0.15491597
51	0x3e013aee	0.12620136
52	0x3d27d19f	0.040971395
53	0x3d8c17b2	0.06840457
54	0x3be7cc2a	0.007073899
55	0x3d962f92	0.07333292
56	0x3e0fb364	0.14033276
57	0x3dc8d662	0.09806515
58	0x3d70cfbc	0.05879186
59	0xbe185592	-0.14876392
60	0xbde7c7b8	-0.1131739
61	0x3dad2929	0.08455116
62	0xbc13dab3	-0.00902431
63	0xbdd903a1	-0.10596395
64	0xbe0d7459	-0.13813914
65	0xbe11245f	-0.1417403
66	0x3dabc274	0.08386698
67	0x3c839b5f	0.016065298
68	0xbd840702	-0.06446649
69	0x3d28ccac	0.041210815
70	0x3d85b4b0	0.06528604
71	0xbe020998	-0.12698972
72	0xbc7bff03	-0.015380624
73	0x3dcdc721	0.100477464
74	0x3d01714c	0.03160219
75	0xbe0e3989	-0.13889135
76	0xbd30497f	-0.04303884
77	0x3da85079	0.08218474
78	0x3e0a04fb	0.13478462
79	0xbe296ef1	-0.16546227
80	0x3e0a99d3	0.13535242
81	0x3d83364b	0.0640684
82	0xbde216ed	-0.11039529
83	0x3c3740cf	0.011184885
84	0xbe22a6d3	-0.15883951
85	0x3e0433d5	0.12910397
86	0x3e13f2ff	0.14448164
87	0x3e10314b	0.14081304
88	0xbe1727ed	-0.14761324
89	0x3d8c5cf4	0.06853667
90	0x3dc53eaa	0.09631093
91	0x3db3c637	0.08778041
92	0x3dd242a7	0.10266619
93	0x3d853061	0.06503368
94	0x3dee07ad	0.11622558
95	0xbda26771	-0.07929886
96	0xbdce627c	-0.10077378
97	0xbe0c851e	-0.13722655
98	0xbccab1b5	-0.02474294
99	0xbdcd0e96	-0.10012548
100	0xbde17cfc	-0.11010167
101	0x3e2652f8	0.16242588
102	0xbd919fa6	-0.07110529
103	0xbdb1ff7f	-0.0869131
104	0xbc04f961	-0.008116097
105	0xbce4ba66	-0.027920913
106	0x3d94a304	0.07257655
107	0x3dd5cd4f	0.1043955
108	0x3c9c265c	0.01906126
109	0xbdcfd7a9	-0.10148556
110	0x3bc82562	0.006107972
111	0xbdd57106	-0.10421948
112	0x3e12a854	0.14322025
113	0x3cf683ff	0.030092238
114	0xbc02ebe8	-0.007990815
115	0xbde4effe	-0.111785874
116	0xbda5b31d	-0.08090804
117	0x3e03ad85	0.12859161
118	0xbdd8f35b	-0.10593291
119	0x3d88443b	0.06653639
120	0x3c2d29dc	0.010569062
121	0xbc1bf434	-0.009518672
122	0x3d0903f2	0.03345103
123	0x3d8369c2	0.06416656
124	0xbdd2b3d7	-0.10288208
125	0x3c9d3c12	0.019193683
126	0x3d6d2658	0.057897896
127	0x3d5ab1b4	0.053392127
128	0x3d7f27c9	0.0622938
129	0x3c2d99d4	0.0105957575
130	0x3d9430be	0.07235859
131	0x3dab5ed2	0.08367695
132	0xbd009c1b	-0.031398874
133	0xbdc81a57	-0.09770649
134	0x3d4b53ff	0.04964065
135	0xbe2a0b96	-0.16605982
136	0x3d82392a	0.063585594
137	0xbe20f886	-0.15719804
138	0x3d7402e7	0.05957308
139	0x3dff9150	0.12478888
140	0xbd089b8c	-0.033351466
141	0x3d8270aa	0.06369145
142	0x3af50309	0.0018692921
143	0xbe16a20f	-0.14710258
144	0x3d730b19	0.059336755
145	0x3d4d9414	0.050190046
146	0x3de00de3	0.10940149
147	0x3cdfddf1	0.02732751
148	0xbe221755	-0.15829213
149	0x3dc08826	0.09400968
150	0x3cba569c	0.022746377
151	0xbe10c488	-0.1413747
152	0x3e186ddd	0.1488566
153	0xbda0627d	-0.07831285
154	0x3d846ca9	0.06466038
155	0xbd86a837	-0.06575053
156	0xbd7fcaf9	-0.06244943
157	0x3e0eccb0	0.1394527
158	0xbd8944b7	-0.067025594
159	0xbcb643bd	-0.022249097
160	0xbd550942	-0.052010782
161	0xbd49037c	-0.04907559
162	0x3e174625	0.14772852
163	0x3dcef25c	0.1010482
164	0xbe033c24	-0.1281591
165	0x3d1923e8	0.03738776
166	0x3d1708e2	0.036873706
167	0xbdca407f	-0.09875583
168	0xbc2e10ce	-0.010624124
169	0xbe28af27	-0.16473065
170	0xbd321410	-0.043476164
171	0xbc064155	-0.008194287
172	0x3d5eb55f	0.054372188
173	0x3cddf564	0.02709455
174	0x3ce75d62	0.02824277
175	0xbdc9419f	-0.09826969
176	0x3dc2c640	0.095104694
177	0xbc85c557	-0.01632945
178	0xbc039823	-0.008031878
179	0x3d6dfbef	0.05810159
180	0xbe039ba3	-0.1285234
181	0x3db4eccd	0.08834229
182	0xbdd608c8	-0.10450894
183	0x3deba9fd	0.11507032
184	0xbe172c7c	-0.14763063
185	0xbe050b83	-0.12992673
186	0xbe24224d	-0.1602871
187	0xbe03a468	-0.12855685
188	0xbdf1299d	-0.11775515
189	0x3d310631	0.043218795
190	0xbe04ac2c	-0.12956303
191	0x3d6987ea	0.057014383
192	0x3e292176	0.1651667
193	0xbdd6ca56	-0.10487811
194	0xbe031bff	-0.12803648
195	0xbe294eab	-0.16533916
196	0x3d6b6d53	0.057477307
197	0x3da50d06	0.08059125
198	0x3d675f97	0.056487646
199	0xbe0fa8f6	-0.14029297
200	0x3e03ef53	0.12884264
201	0x3d558466	0.052128218
202	0xbdce71a2	-0.100802675
203	0xbd2e548e	-0.042561106
204	0x3d7451c9	0.05964831
205	0xbd0676f5	-0.03282829
206	0xbd680025	-0.056640763
207	0x3e1e4d81	0.15459253
208	0x3d90f95b	0.07078811
209	0x3e18e21e	0.14930007
210	0xbded0996	-0.11574094
211	0x3d89e0de	0.06732343
212	0x3e212ae7	0.15739022
213	0x3d488cfc	0.04896258
214	0x3d016bca	0.031596936
215	0xbd41d043	-0.047317754
216	0x3e137c21	0.1440282
217	0x3cd29f2e	0.025710668
218	0xbd8006a3	-0.06251266
219	0x3dfea5af	0.124339454
220	0x3db1ddec	0.08684906
221	0xbce7f17c	-0.02831339
222	0xbe1eeb94	-0.15519553
223	0x3dbcfd85	0.092280425
224	0xbe1af270	-0.15131545
225	0x3cc628f7	0.024189455
226	0xbe21e616	-0.15810427
227	0xbe0f61cc	-0.1400215
228	0x3cc75506	0.024332535
229	0x39a44bcb	0.00031336988
230	0x3cbbf7fe	0.0229454
231	0x3e28ca1f	0.16483353
232	0x3d61e158	0.055146545
233	0x3e0adc20	0.13560534
234	0x3bd0a83d	0.006367712
235	0xbd8abb79	-0.06774039
236	0x3dc3842a	0.09546693
237	0xbc8999b8	-0.016796932
238	0xbe1f211e	-0.15539977
239	0xbcbfcbcf	-0.023412613
240	0xbd8bb552	-0.068216935
241	0xbd412c26	-0.047161244
242	0x3dc3c644	0.095593005
243	0xbe25ac8f	-0.16179107
244	0xbdda4c3a	-0.1065907
245	0x3d5f6096	0.05453547
246	0xbd1a5d08	-0.037686378
247	0xbd04970b	-0.03237061
248	0x3d94f164	0.07272604
249	0x3dc51c09	0.09624488
250	0x3d9d062a	0.07667191
251	0x3db753fc	0.089515656
252	0x3db1df4e	0.0868517
253	0x3df19681	0.117962845
254	0xbd92810d	-0.07153521
255	0x3dd32de1	0.10311485

layers.conv1_1.bias f4 [64]
0	0x3d13ef01	0.036116604
1	0xbdcf3bd5	-0.10118834
2	0xbd6711f2	-0.0564136
3	0x3e2a347b	0.16621582
4	0x3db4170c	0.08793458
5	0xbbe6844e	-0.007034815
6	0xbd5a321f	-0.053270455
7	0x3d519fde	0.05117785
8	0x3e11ac66	0.14225921
9	0xbddecc81	-0.1087885
10	0x3b865e05	0.0041005635
11	0xbe0930f3	-0.13397579
12	0x3c92aa5c	0.0179035
13	0x3c873b46	0.016507756
14	0xbdcfd466	-0.10147934
15	0xbe0d931d	-0.1382565
16	0xbdf3d3f5	-0.11905662
17	0x3d02b406	0.031909965
18	0x3d248cd0	0.04017335
19	0xbdbdfafa	-0.092763856
20	0xbd8f12da	-0.069860175
21	0x3de586db	0.11207362
22	0x3bc15bea	0.0059008496
23	0x3e14285b	0.1446852
24	0x3de2e5f5	0.11079017
25	0x3ce6f2b1	0.028191896
26	0xbc5adf11	-0.013358847
27	0xbcefd37c	-0.029275648
28	0xbceb430c	-0.028718494
29	0xbe2a27ce	-0.16616747
30	0x3df45bd2	0.11931576
31	0xbdf85f73	-0.121275805
32	0xbdb5722d	-0.08859668
33	0x3c70747c	0.01467621
34	0x3d056961	0.0325712
35	0xbdb16c03	-0.0866318
36	0xbdc44770	-0.09583938
37	0x3cb038ad	0.0215114
38	0xbd30b9bb	-0.043145876
39	0xbddd9376	-0.108191416
40	0xbe05f305	-0.13080986
41	0x3d9916e2	0.07475068
42	0xbc6a2e66	-0.014293289
43	0xbcf593d5	-0.029977718
44	0x3e257a3f	0.16159914
45	0x3ca195d6	0.019724768
46	0xbd037a48	-0.03209904
47	0x3dd8fd6a	0.1059521
48	0x3dfa1278	0.12210554
49	0x3b9a10e0	0.0047017187
50	0x3e1f5620	0.15560198
51	0xbda8030f	-0.082037084
52	0xbde797c9	-0.113082476
53	0x3e228bd3	0.15873651
54	0xbe237cf1	-0.1596563
55	0xbdc9a860	-0.09846568
56	0x3d926858	0.07148808
57	0x3dc1d7a2	0.09464957
58	0xbd59fa17	-0.05321702
59	0x3d93c803	0.072158836
60	0xbc084b3a	-0.008318717
61	0xbcf4aaac	-0.029866539
62	0x3dee58cc	0.116380304
63	0xbd4e8e39	-0.050428603

layers.conv1_2.weight f4 [32, 64, 9]
0	0xbcde6c25	-0.027151177
1	0xbc6af157	-0.014339766
2	0xbd1493b8	-0.036273688
3	0xbc1c15de	-0.009526698
4	0x3c984ef6	0.018592339
5	0x3b5de91c	0.0033860868
6	0x3be46904	0.0069705267
7	0x3d19ef39	0.037581656
8	0x3d1e00f6	0.038575135
9	0x3c5cfc31	0.0134878615
10	0x3d0bfc08	0.034175903
11	0x3ca2b14f	0.019859938
12	0xbbf05cdc	-0.0073352885
13	0xbcd5a508	-0.02607967
14	0x3d2207cb	0.039558213
15	0x3c9998b7	0.018749578
16	0x3cf059c1	0.029339673
17	0x3ce7abd4	0.028280176
18	0xbd17d1ed	-0.037065435
19	0x3c5cecd3	0.013484198
20	0x3c7d8ebf	0.015475928
21	0xbd19f655	-0.037588436
22	0xb9fc56a7	-0.00048129747
23	0x3cde8398	0.027162358
24	0x3d03cb55	0.032176334
25	0xbd1c684d	-0.038185406
26	0xbd0db8bc	-0.034600005
27	0xbd1ab8bc	-0.037773833
28	0x3c8525a3	0.016253298
29	0xbc2b39d7	-0.010450802
30	0xb9ac7bb0	-0.0003289855
31	0x3c739046	0.01486594
32	0xbcb7ae6c	-0.022422038
33	0xbcabaf1f	-0.020957528
34	0xbb11396d	-0.0022159473
35	0x3d1404b2	0.03613729
36	0xbd0703a2	-0.03296245
37	0x3c3914d8	0.011296473
38	0xbd04563e	-0.03230881
39	0xbd17e953	-0.03708775
40	0xbc7de823	-0.01549724
41	0xbaaab489	-0.0013023774
42	0x3cb3cc9e	0.021948155
43	0x3d1944e9	0.037419233
44	0x3c05efa8	0.008174814
45	0xbb507125	-0.003180572
46	0xbbaf1fe7	-0.005344379
47	0x3d0b5144	0.034013048
48	0x3cb9afbb	0.022666803
49	0xbb1810a0	-0.0023203269
50	0xbd229df2	-0.03970141
51	0x3be2716a	0.0069104927
52	0xbc8b648a	-0.017015714
53	0xbd222e3a	-0.039594866
54	0xbd266d3d	-0.04063152
55	0xbcdb40a5	-0.026764223
56	0xbbd3d79f	-0.006464913
57	0xbcd4e7d9	-0.02598946
58	0x3cee3246	0.029076707
59	0xbce010e7	-0.02735181
60	0x3ce1c3e7	0.027559234
61	0x3c76abb1	0.015055583
62	0x3cffc394	0.031221189
63	0x3d23b545	0.039967794
64	0x3ce46121	0.027878346
65	0xbcc5b890	-0.024135858
66	0x3d0688c8	0.03284529
67	0x3d1d9bfa	0.03847883
68	0xbaa1ed27	-0.0012354002
69	0xbc978b6d	-0.0184991
70	0x3cfddb82	0.030988459
71	0x3aebf6c4	0.0018002619
72	0xbca538aa	-0.020168621
73	0x3c08467c	0.008317586
74	0x3d196c8a	0.037457027
75	0xbd0634f8	-0.03276536
76	0xbc297502	-0.010342838
77	0xbd06a128	-0.032868534
78	0xbd0c056f	-0.03418487
79	0xbc5b3e24	-0.013381515
80	0xbc34da8c	-0.011038434
81	0x3d01e290	0.031710207
82	0x3c090ea9	0.008365312
83	0xbc147d17	-0.009063027
84	0xbcfc8416	-0.030824702
85	0xbb7a8cd9	-0.0038230924
86	0x3bddd899	0.006770205
87	0x3c224018	0.009902976
88	0x3ca5d308	0.02024223
89	0xbcdf2389	-0.027238624
90	0xbce0944f	-0.027414469
91	0x3cfa9594	0.030588903
92	0x3c80ff08	0.015746608
93	0xbc02c994	-0.00798263
94	0xbc80247f	-0.015642403
95	0x3cd0b1c1	0.025475385
96	0x3d1291cf	0.035783585
97	0xbc1e33f3	-0.00965594
98	0xbd2c6eed	-0.042097975
99	0x3c84ebbb	0.016225686
100	0xbcbc169c	-0.02296
101	0x3cc13006	0.02358247
102	0x3cbd5358	0.02311103
103	0x3c48108c	0.012210976
104	0xbd131b9d	-0.035915006
105	0xbd2c510a	-0.042069472
106	0x3c277a29	0.010221996
107	0x3cf1229e	0.029435452
108	0xbd1bbfc9	-0.038024697
109	0x3cbd0d4a	0.023077626
110	0xbbf99ccb	-0.007617568
111	0x3ca37bed	0.019956553
112	0x3c10ba36	0.008833459
113	0xbbd3c0e3	-0.006462203
114	0xbd1245c7	-0.035711076
115	0x3c11e8cf	0.008905604
116	0x3cc05941	0.02348006
117	0xbcfe41f7	-0.031037314
118	0xbb3709f9	-0.0027929528
119	0x3d20d0d7	0.039261665
120	0x3ca69e85	0.02033926
121	0xbc3c5de4	-0.011496995
122	0x3c6eba64	0.014570806
123	0xbccefb1e	-0.025266226
124	0xbc303990	-0.0107559115
125	0x3ca98e69	0.02069779
126	0x3cbc59f6	0.022992115
127	0x3c96886c	0.018375598
128	0xbb95d21c	-0.004572166
129	0x3d04d6ca	0.0324314
130	0xbcb2ab1a	-0.021810103
131	0xbc46a6f0	-0.012124762
132	0x3cda202f	0.026626674
133	0x3d1fa479	0.038975213
134	0x3cc5c13f	0.024139998
135	0xbadebf21	-0.0016994217
136	0xbd14f8e7	-0.036370184
137	0x3c2993b3	0.010350156
138	0x3cca880a	0.024723072
139	0xbc98a8cb	-0.018635174
140	0xbd1a28f7	-0.037636723
141	0xbbb15f82	-0.0054129967
142	0xbc7442e3	-0.014908525
143	0xbc695543	-0.014241519
144	0xbd2a6115	-0.04159649
145	0xbd2a272e	-0.04154127
146	0x3c058230	0.008148715
147	0xbabe6eea	-0.0014528905
148	0xbc17bf5e	-0.009261934
149	0xbc901456	-0.017587822
150	0xbd2eca0b	-0.042673152
151	0xbd0bf7c6	-0.034171842
152	0xbcba13bc	-0.022714488
153	0xbcf06216	-0.029343646
154	0x3d19221d	0.03738605
155	0x3cba8b0b	0.022771379
156	0xbd06e052	-0.032928772
157	0xbc19db4e	-0.009390665
158	0x3c145f44	0.009055916
159	0x3d2a847f	0.041630264
160	0xbc605f3c	-0.013694581
161	0x3c8f1849	0.017467635
162	0x3c6f437a	0.01460349
163	0x3bc1a5c3	0.005909653
164	0xbb4469ca	-0.0029970282
165	0xbd107c96	-0.035275064
166	0xba909df4	-0.0011033402
167	0xbd1614a7	-0.03664079
168	0x3c15b267	0.009136773
169	0xba6f13d8	-0.00091200834
170	0xbcaa9933	-0.020825004
171	0x3d12b079	0.03581283
172	0xbc5cca30	-0.01347594
173	0xbc47acd0	-0.012187198
174	0x3d09141b	0.03346644
175	0xbd163929	-0.036675606
176	0xbc28ebb0	-0.0103100985
177	0xbc8a0002	-0.016845707
178	0xbd17f634	-0.037100032
179	0xbd204ec6	-0.039137624
180	0xba0921df	-0.00052311824
181	0x3bf7b456	0.0075593395
182	0xbba8237c	-0.005131183
183	0x3c987572	0.01861069
184	0xbcb41442	-0.021982316
185	0xbcb8e2e6	-0.022569131
186	0x3ce61f2e	0.02809104
187	0xbcd00b0b	-0.02539589
188	0x3c40040b	0.011719714
189	0xbc180a51	-0.009279803
190	0x3cce7f52	0.025207195
191	0xbcbbea14	-0.022938766
192	0xbc874d88	-0.016516462
193	0x3d0b3ffe	0.033996575
194	0xbc9ceb72	-0.019155238
195	0x3cd520dd	0.026016647
196	0x3cddcbfe	0.02707481
197	0x3d0208aa	0.031746544
198	0xbd09e71d	-0.033667672
199	0x3c82dde4	0.015974946
200	0x3cd8bb35	0.026456455
201	0x3c634ace	0.013872815
202	0xbd06aa6d	-0.032877374
203	0x3ccbc33d	0.02487337
204	0xbd2c3318	-0.042040914
205	0x3cda0757	0.026614828
206	0xbd01ef07	-0.031722095
207	0xbd0356fa	-0.03206537
208	0x3c587c1a	0.013213182
209	0x3d29caf2	0.04145331
210	0x3c2ae6ea	0.010431031
211	0xbd1d82b8	-0.03845474
212	0x3ced75d6	0.028986853
213	0x3c31a9d7	0.010843716
214	0x3c65e3ef	0.014031394
215	0xbc5624c0	-0.013070285
216	0x3c56ddd9	0.013114416
217	0xbb3d425b	-0.0028878662
218	0xbcb466dd	-0.022021705
219	0x3d1a3691	0.037649695
220	0x3c7e79fc	0.015532013
221	0xbd1b7b53	-0.037959408
222	0x3b16d5f2	0.0023015705
223	0x3cc76874	0.0243418
224	0x3cb85b3f	0.022504447
225	0x3c980ff1	0.018562289
226	0xbc8ac54d	-0.016939783
227	0xbcc1dee1	-0.023665847
228	0xbb993053	-0.00467495
229	0xbcd9ac98	-0.026571557
230	0xbc22cfa4	-0.009937201
231	0x3d0b238b	0.033969443
232	0xbc75ab5a	-0.014994467
233	0x3d272b08	0.040812522
234	0x3c5ce60a	0.01348258
235	0xbc9d5935	-0.019207576
236	0x3cae0667	0.021243287
237	0xbceab1eb	-0.028649291
238	0x3d1ce2ae	0.038302116
239	0x3d0c5090	0.034256518
240	0x3ad86f32	0.0016512631
241	0xba380154	-0.0007019241
242	0xbc72ce7e	-0.014819739
243	0xbcd0954b	-0.025461813
244	0x3b88f925	0.004180091
245	0x3ce57e9e	0.028014477
246	0x3cc86bcd	0.024465466
247	0xbd1a0f9f	-0.037612554
248	0xbb97ca1e	-0.0046322485
249	0xbc2dcf18	-0.010608457
250	0x3cbcc575	0.023043374
251	0x3ceb9cfa	0.028761376
252	0xbd1a613b	-0.037690382
253	0xbc0b9cee	-0.008521302
254	0x3bb07e09	0.0053861183
255	0x3bddd3f3	0.006769651

layers.conv1_2.bias f4 [32]
0	0xbc07f270	-0.008297548
1	0x3bd42a7f	0.0064747925
2	0xbd2a7a3b	-0.041620474
3	0xbcd166ed	-0.025561774
4	0x3c71d2b5	0.014759709
5	0xbc6523e2	-0.013985606
6	0x3d08dd96	0.033414446
7	0x3bb99ca0	0.005664423
8	0xbd208cc8	-0.03919676
9	0x3cd5537e	0.026040789
10	0x3d1262f6	0.035738908
11	0x3c768523	0.015046391
12	0xbcb9fd13	-0.022703683
13	0x3ce0de07	0.02744962
14	0x3cd5cfc8	0.026100054
15	0x3ce40897	0.027836127
16	0xbcae2bbc	-0.021261089
17	0xbcef716b	-0.029228887
18	0x3c8ef65d	0.01745146
19	0x3cce74ce	0.025202181
20	0x3c6d9cad	0.014502686
21	0xbc6469d4	-0.013941247
22	0x3d142e14	0.036176756
23	0x3ceb11a0	0.028694928
24	0xbd021e84	-0.031767383
25	0xbc113017	-0.008861563
26	0x3b432ae6	0.0029780208
27	0x3c792796	0.015207192
28	0xbc94f3ab	-0.018182596
29	0x3d0a938b	0.033832114
30	0xbc155b53	-0.009116012
31	0x3c6b2d09	0.014353999

layers.conv2_1.weight f4 [64, 4, 20]
0	0xbdbb1a5b	-0.09135886
1	0xbd503ce7	-0.05083933
2	0x3beeae1a	0.007283938
3	0xbbee8da0	-0.0072800666
4	0x3a792e7d	0.00095055235
5	0xbdd88b63	-0.10573461
6	0xb9635af3	-0.00021682288
7	0x3d83f64a	0.0644346
8	0x3d0651c3	0.032792818
9	0x3db71441	0.0893941
10	0xbdda55db	-0.10660907
11	0x3db6a39b	0.08917924
12	0x3db61888	0.08891398
13	0xbd70e8f6	-0.05881592
14	0x3d63d5f9	0.055623982
15	0xbd9a0419	-0.07520313
16	0xbd244eab	-0.040114086
17	0x3d8a06a4	0.06739548
18	0xbd05401d	-0.032531846
19	0xbd967fcc	-0.07348594
20	0xbd6b9b53	-0.057521176
21	0xbdba9602	-0.09110643
22	0xbd8c5222	-0.06851603
23	0x3c307914	0.010771055
24	0x3dd26acc	0.10274276
25	0xbda36785	-0.07978729
26	0x3c831bc1	0.016004445
27	0x3de2b04b	0.110687815
28	0x3d7cfd2e	0.06176489
29	0xbda88d33	-0.082300566
30	0x3cb73ea6	0.02236874
31	0x3da7f1bd	0.08200405
32	0x3cfa24b5	0.030535081
33	0xbd5d1a6b	-0.053980272
34	0x3d95b2b6	0.07309477
35	0x3d4949e3	0.04914273
36	0xbda004dd	-0.078134276
37	0xbda31ece	-0.0796486
38	0x3db1803d	0.08667038
39	0x3de30747	0.110853724
40	0x3cc4a54f	0.024004607
41	0xbdb02af5	-0.086019434
42	0xbd0568a7	-0.032570507
43	0xbc9ddcc2	-0.019270305
44	0x3c3153e2	0.010823222
45	0x3b785e21	0.0037897902
46	0x3d91efaf	0.07125794
47	0x3dd7122a	0.105015114
48	0x3c73c416	0.0148782935
49	0xbcc09928	-0.02351053
50	0xbdbcedc1	-0.092250355
51	0x3d9a2798	0.07527083
52	0xbdce9b0e	-0.10088168
53	0xba839bb7	-0.0010040913
54	0xbce1878f	-0.02753046
55	0x3db4f2f1	0.088354
56	0x3d5a43f8	0.053287476
57	0x3d830b23	0.063986085
58	0xbc586c6e	-0.013209445
59	0xbc8b1704	-0.016978748
60	0x3da5ce75	0.08096019
61	0xbc063b9c	-0.008192923
62	0x3d366bee	0.044536524
63	0xbc860d58	-0.016363785
64	0x3dd97791	0.106185086
65	0x3d1a139a	0.03761635
66	0xbd8da261	-0.06915737
67	0xbcdefd68	-0.027220443
68	0x3dad36af	0.08457696
69	0xbd790361	-0.060794238
70	0xbd325cf9	-0.043545697
71	0x3d22d245	0.03975131
72	0xbd31fbdf	-0.043453094
73	0xbdd5b5d7	-0.10435074
74	0x3dabf59d	0.083964564
75	0xbd385fb5	-0.04501315
76	0xbd6b10cc	-0.057389066
77	0xbdbac800	-0.09120178
78	0xbd8eb089	-0.06967265
79	0x3daeaec5	0.085294284
80	0xbd8b4b5d	-0.06801484
81	0xbd54f927	-0.051995423
82	0x3d8fe528	0.0702613
83	0xbdd3145f	-0.1030662
84	0xbd98abb5	-0.074546255
85	0xbdd6bd62	-0.10485341
86	0x3c0e7f82	0.008697392
87	0x3db5e229	0.08881027
88	0xbd7745f8	-0.06036946
89	0xbdaf5c02	-0.08562471
90	0x3da8e4f6	0.08246796
91	0x3dda49cf	0.10658609
92	0x3c1489a8	0.009066023
93	0x3c83d5d7	0.016093178
94	0xbdb78073	-0.089600466
95	0x3db7c601	0.08973313
96	0xbca40e29	-0.020026283
97	0xba975062	-0.0011544342
98	0xbd972734	-0.07380524
99	0xbce138b8	-0.027492866
100	0xbdc45982	-0.09587385
101	0x3c8c5222	0.017129008
102	0xbde6eea0	-0.11275983
103	0x3d82f4cf	0.0639435
104	0xbd522531	-0.051305
105	0xbddfdde6	-0.10930996
106	0x3d2e7583	0.042592537
107	0x3d8a8191	0.06762994
108	0xbd86a247	-0.06573921
109	0xbdd9a7f4	-0.10627738
110	0xbd27d3fe	-0.040973656
111	0x3db40914	0.08790794
112	0x3ddc244c	0.107491106
113	0xbdd470f4	-0.103731066
114	0xbcbf024c	-0.023316525
115	0xbdbd4967	-0.09242516
116	0x3d3732e3	0.044726264
117	0x3d98a561	0.074534185
118	0x3cb0e866	0.021595191
119	0x3d97b2a5	0.074071206
120	0x3d36e3eb	0.044650953
121	0x3dd10edd	0.10207913
122	0x3d5a7919	0.053338144
123	0x3cf7bf3a	0.030242551
124	0xbd18b264	-0.0372795
125	0xbda8194a	-0.082079485
126	0xbd1e6e3e	-0.038679354
127	0x3ccac819	0.024753617
128	0x3d1caf15	0.03825291
129	0xbd89ec6b	-0.06734546
130	0x3ddd4a8b	0.108052336
131	0x3dc64460	0.0968101
132	0x3d95916e	0.07303129
133	0xbd03c30e	-0.03216844
134	0xbd0c34c2	-0.03423
135	0xbdad83b4	-0.08472386
136	0xbcad4276	-0.021149855
137	0xbd8c3912	-0.06846823
138	0x3d70192f	0.058617767
139	0xbd2887a4	-0.041144982
140	0xbd38d230	-0.045122325
141	0x3d804039	0.062622495
142	0xbde71b70	-0.1128453
143	0xbcf1679b	-0.029468348
144	0xbd12e3e9	-0.035861883
145	0xbcbd4f59	-0.023109125
146	0x3d51f78d	0.051261473
147	0xbd320c4b	-0.043468755
148	0x3da0659f	0.07831883
149	0xbce11c4d	-0.027479315
150	0xbc6e42b7	-0.014542273
151	0x3d194493	0.037418913
152	0xbd9aab3f	-0.07552194
153	0xbd6d3f21	-0.057921533
154	0xbdbdc78c	-0.09266576
155	0x3d6bb877	0.057548966
156	0xbcd51a99	-0.02601366
157	0xbcf7f7ee	-0.03026959
158	0x3c60a3b1	0.013710902
159	0xbd43ca5f	-0.047800418
160	0x3da6ef6f	0.08151137
161	0xbd17629a	-0.03695927
162	0xbd39e09f	-0.04538023
163	0xbdd5922b	-0.1042827
164	0xbd4cc782	-0.049994953
165	0x3dcfba16	0.10142915
166	0xbd377a19	-0.044794176
167	0x3c8e76db	0.01739066
168	0xbdc3c75c	-0.09559509
169	0xbdaafa30	-0.08348501
170	0x3da649f9	0.08119578
171	0x3d2b9e45	0.041898984
172	0xbdcb27fc	-0.09919736
173	0x3d2099af	0.039209064
174	0x3d9322e9	0.07184393
175	0xbbe09c09	-0.0068545383
176	0xbd95b9c1	-0.0731082
177	0xbcc99a71	-0.024609776
178	0xbdd2f303	-0.10300257
179	0xbb3e07cb	-0.0028996344
180	0xbd405046	-0.046951555
181	0xbd8e68c5	-0.06953577
182	0xbc31d4ae	-0.010853929
183	0xbdddfe70	-0.10839546
184	0x3ddf4520	0.109018564
185	0x3dbc7736	0.09202425
186	0xbb12cc42	-0.002239958
187	0x3dd4f670	0.10398567
188	0xbde35eb9	-0.11102051
189	0xbdbd23d8	-0.09235352
190	0xbca2d2af	-0.019875852
191	0x3dc034dc	0.09385082
192	0x3a511b45	0.0007976781
193	0xbda388bd	-0.07985065
194	0x3b48cb5d	0.0030638792
195	0xbd98a6af	-0.07453667
196	0xbdd9fbd2	-0.10643734
197	0x3d9ada02	0.07561113
198	0xbd705931	-0.05867881
199	0x3c53c67d	0.012925741
200	0xbdccdbc9	-0.10002858
201	0xbd0359b2	-0.032067962
202	0xbde253a2	-0.11051108
203	0xbd00a29b	-0.031405073
204	0xbd9243b5	-0.0714182
205	0xbb0c0af1	-0.0021368826
206	0xbd4002c4	-0.046877638
207	0x3d01d35f	0.03169572
208	0xbd0a1307	-0.033709552
209	0xbd843b2f	-0.06456601
210	0xbd11a6b0	-0.035559356
211	0x3d44cb5c	0.0480455
212	0x3dc60fca	0.0967098
213	0x3d6896b3	0.056784343
214	0x3d3b22cd	0.045687485
215	0xbc970c24	-0.018438406
216	0xbd590086	-0.052979015
217	0xbd539f2f	-0.05166548
218	0x3be8b51e	0.007101669
219	0x3d316815	0.04331215
220	0xbd2cdd26	-0.04220309
221	0x3de17d37	0.11010211
222	0xbd242154	-0.040070847
223	0xbd8afa83	-0.067860626
224	0x3dca3825	0.0987399
225	0xbd79271a	-0.060828306
226	0x3d2e3c6e	0.0425381
227	0xbc5b9c65	-0.013403987
228	0xbc072aa5	-0.008249913
229	0xbdbe48df	-0.09291243
230	0x3d5a91b1	0.0533616
231	0x3da14182	0.07873823
232	0xbd2e63c9	-0.04257563
233	0x3d445a19	0.047937486
234	0x3c81d6a6	0.015849423
235	0xbd6abb75	-0.05730768
236	0x3d3dc926	0.04633441
237	0x3d99ce4f	0.07510053
238	0xbc269ae2	-0.010168763
239	0x3ca62132	0.0202795
240	0x3d562198	0.05227813
241	0xbc48e915	-0.012262602
242	0xbd1ee25c	-0.038790092
243	0x3dbfe430	0.09369695
244	0xbc90aa3e	-0.017659303
245	0x3dacd447	0.08438926
246	0xbc9c7e03	-0.019103056
247	0xbdbc5606	-0.09196095
248	0x3d00e5af	0.031469043
249	0x3d97e672	0.07417001
250	0x3dbcb6fb	0.09214588
251	0x3b51d6cf	0.0032018905
252	0xbde11bfe	-0.10991667
253	0x3db3410f	0.08752643
254	0xbc6c6944	-0.014429394
255	0x3c5558bc	0.013021644

layers.conv2_1.bias f4 [64]
0	0x3be6e4e5	0.0070463293
1	0x3de3ad77	0.1111707
2	0x3dbdceec	0.09267983
3	0xbc261124	-0.010135923
4	0x3ccbd1c2	0.024880294
5	0x3d73121f	0.059343453
6	0x3d05babf	0.032648798
7	0x3dba8220	0.091068506
8	0x3cf7c45d	0.030245
9	0x3d2231c8	0.039598256
10	0xbd8d5be2	-0.06902291
11	0xbcb093c9	-0.021554844
12	0xbd5f1909	-0.054467235
13	0xba55cbc5	-0.0008155669
14	0x3dc6399c	0.09678957
15	0xbd472c54	-0.04862626
16	0xba950707	-0.0011369892
17	0xbc90e40a	-0.017686862
18	0xbd6b6882	-0.057472713
19	0x3dd8d5a6	0.10587625
20	0x3d544917	0.051827516
21	0xbc8715dd	-0.016489917
22	0x3d9e4fb5	0.07730047
23	0x3990f6fb	0.00027649835
24	0x3c99780c	0.018734
25	0xbd1a01e2	-0.03759945
26	0xbdcda905	-0.100420035
27	0x3cc9974e	0.02460828
28	0xbd0b9db8	-0.03408596
29	0xbda9fc02	-0.0830002
30	0x3d75b9f1	0.05999178
31	0x3d3764ee	0.04477399
32	0xbb4d64e2	-0.0031340648
33	0xbc9fe3e9	-0.019517856
34	0xbac66d75	-0.0015138822
35	0xbcabef1b	-0.020988038
36	0x3dc373c9	0.09543569
37	0x3d9c7e2b	0.07641252
38	0xbc8f448a	-0.017488737
39	0x3d856f56	0.06515376
40	0xbdcf2118	-0.10113734
41	0xbd0f8d7d	-0.035047043
42	0xbd570048	-0.052490503
43	0x3cc17def	0.02361962
44	0xba721698	-0.0009234934
45	0x3ddd3ca7	0.10802584
46	0xbc33a93c	-0.010965642
47	0xbd7ba421	-0.061435822
48	0xbbef2ae0	-0.0072988123
49	0xbcc96a0c	-0.0245867
50	0xbcc978c8	-0.024593726
51	0xbcc4be37	-0.024016483
52	0xbd08c59c	-0.03339158
53	0xbd8579a6	-0.06517343
54	0x3dd5da90	0.10442078
55	0x3d3bf599	0.045888517
56	0x3d4d6bff	0.05015182
57	0xbc571d03	-0.0131294755
58	0xbca1a9ef	-0.019734351
59	0xbd9d332f	-0.07675778
60	0x3dd1da35	0.10246698
61	0x3dca0604	0.09864429
62	0xbdc7343e	-0.09726761
63	0x3d929a90	0.07158387

layers.conv2_2.weight f4 [32, 64, 20]
0	0xbc90df73	-0.017684674
1	0xbc4d77f3	-0.012540805
2	0x3c1bf162	0.009517999
3	0xbc79f6df	-0.015256613
4	0x3cca3bf6	0.024686795
5	0x3b9f21b4	0.0048563126
6	0xbcd18df3	-0.025580382
7	0xbc3aea7f	-0.011408447
8	0xbaabf701	-0.0013119878
9	0x3a0ada3a	0.00052968005
10	0x3be32bfc	0.0069327336
11	0xbb4b2187	-0.0030995326
12	0x3cabf404	0.02099038
13	0x3ca0ea6d	0.019643033
14	0xbcb0fd94	-0.02160529
15	0x3ccfa42f	0.025346844
16	0xbc56d6f6	-0.013112774
17	0xbc795bf6	-0.015219679
18	0xbc55c499	-0.013047361
19	0x3cc71852	0.024303589
20	0xbc8e1b0c	-0.017346881
21	0x3c85fdbc	0.016356342
22	0xbbc97eb7	-0.006149139
23	0x3c814b1d	0.015782887
24	0x3c367fcb	0.011138867
25	0xbc3c1485	-0.011479502
26	0xbb4a70c2	-0.0030889963
27	0x3c9ed70f	0.019389657
28	0x3bb631c2	0.005560131
29	0xbc81bf6e	-0.015838351
30	0x3c994f70	0.018714637
31	0x3b87fd56	0.004150073
32	0x3cbaf25f	0.02282065
33	0xbb22aff5	-0.0024824117
34	0x3ca95ff6	0.02067564
35	0x3c24afa8	0.010051645
36	0x3c98b3b5	0.018640378
37	0x3cc3b3bc	0.023889415
38	0x3cb1bd9b	0.021696856
39	0xbcbf8f5e	-0.023383792
40	0xbc023df9	-0.007949346
41	0x3ca95fb6	0.020675521
42	0x3c2e3ca5	0.010634576
43	0xbc28e28f	-0.010307922
44	0x3be6e9fb	0.0070469356
45	0x3c1ff89d	0.009763864
46	0xbc91a8e9	-0.017780738
47	0x3c9a3de3	0.018828338
48	0x3c493178	0.012279861
49	0xbcac2fb7	-0.021018846
50	0x3ce4ffce	0.027954008
51	0xbc850892	-0.016239438
52	0x3c9032b1	0.017602297
53	0x3b3bebbf	0.0028674451
54	0xbccc757b	-0.024958363
55	0x3cc8edec	0.024527512
56	0x3c77d773	0.015127051
57	0x3b927784	0.004469814
58	0xbcb8b833	-0.02254877
59	0xbb97c5d2	-0.0046317363
60	0xbc2eb2e6	-0.01066277
61	0x3baa00c5	0.00518808
62	0xbb3d9672	-0.0028928784
63	0x3c35d5d1	0.011098341
64	0x3c762de2	0.015025588
65	0x3acd1814	0.0015647435
66	0xbc25fa22	-0.010130437
67	0x3c1e293b	0.009653385
68	0xbbb4ae8a	-0.0055139707
69	0x3c9dac58	0.019247219
70	0xbc9905cf	-0.018679528
71	0x3bf234fb	0.0073915697
72	0x3c3c12c2	0.011479082
73	0xbcc71578	-0.02430223
74	0xbce8117e	-0.028328653
75	0x3cbea2c4	0.023270972
76	0xbce2cb0f	-0.027684717
77	0xbca6dfa6	-0.020370316
78	0x3c588111	0.013214366
79	0xbbbe6b77	-0.0058111507
80	0xbc90d892	-0.017681394
81	0xbbc97e8d	-0.006149119
82	0x3bff676e	0.007794312
83	0xbca5319c	-0.020165257
84	0xbc9b7d37	-0.018980606
85	0xbc37662d	-0.011193794
86	0x3cb61628	0.022227362
87	0x3ca0bbe2	0.01962084
88	0xbcb9729a	-0.022637654
89	0x3c716347	0.014733142
90	0xbc995f61	-0.018722238
91	0xbc6224ef	-0.013802751
92	0xbc7ceea7	-0.0154377585
93	0xbcb058b1	-0.021526666
94	0xbccb784a	-0.024837632
95	0x3bd882cb	0.0066073886
96	0xbca02fcd	-0.019554043
97	0x3c2636af	0.0101448735
98	0xbc34e5dc	-0.011041131
99	0xbc6ab751	-0.014325933
100	0xbc2564cf	-0.010094835
101	0xbbd78df5	-0.006578202
102	0x3c5a7da4	0.013335619
103	0x3c8b8e24	0.017035551
104	0x3cb46420	0.0220204
105	0xbc900f66	-0.017585468
106	0xb979b504	-0.00023813924
107	0x3cac47d0	0.021030337
108	0x3ca96724	0.020679064
109	0x3c18da6c	0.00932942
110	0x3c82e87b	0.015979996
111	0x39f64ecb	0.00046979482
112	0x3c35b5a0	0.011090666
113	0xbba0e40b	-0.0049099973
114	0xbc91eba9	-0.017812567
115	0x3c77e02f	0.015129133
116	0xbc6e9089	-0.014560827
117	0x3bbca94b	0.005757486
118	0xbcb391cf	-0.021920113
119	0x3cd5d24c	0.026101254
120	0x3c724ebf	0.014789282
121	0x3c1bf7c3	0.00951952
122	0xbcbfbab8	-0.023404464
123	0x3a90f674	0.0011059777
124	0x3ca5e6f3	0.020251727
125	0xbc3f7797	-0.011686227
126	0xba1c1b22	-0.0005954971
127	0xbc068c05	-0.008212094
128	0x3cb95265	0.022622297
129	0xbb83dfcb	-0.004024481
130	0x3bd294b2	0.0064264173
131	0x3c6059a3	0.013693246
132	0xbc28d79c	-0.0103053115
133	0x3cccd733	0.025004959
134	0x3c56c58c	0.013108622
135	0x3be2a41a	0.006916535
136	0x3c884a20	0.016636908
137	0x3c86fc96	0.016477864
138	0xbb6048aa	-0.0034222999
139	0x3c0adc93	0.008475441
140	0x3cd3c3b0	0.025850147
141	0x3c79710f	0.015224709
142	0x39c2f754	0.00037186837
143	0x3c39eac1	0.011347474
144	0xbb735307	-0.0037128346
145	0x3bc2b574	0.005942041
146	0x3c8d7ec1	0.017272355
147	0xbb8d0a5f	-0.004304215
148	0x3c937533	0.01800022
149	0xbc7000c8	-0.014648624
150	0xbc866b82	-0.016408686
151	0xbce8f3d6	-0.028436583
152	0xbc063f6f	-0.008193835
153	0x3c60324e	0.013683869
154	0xbc344e13	-0.0110049425
155	0xbcacc919	-0.021091985
156	0xbcc151fe	-0.023598667
157	0x3cb65564	0.022257514
158	0x3cc80b39	0.024419414
159	0xbb8e2400	-0.0043377876
160	0x3c976cc2	0.018484477
161	0xbbbc7dfa	-0.0057523223
162	0xbc4cb95c	-0.012495365
163	0xbcc8d66e	-0.02451631
164	0x3c26185b	0.010137643
165	0x3cc5c816	0.02414326
166	0x3c81512b	0.015785774
167	0x3cd7dd44	0.026350625
168	0xbc33cd49	-0.010974237
169	0xbc4bebb8	-0.012446336
170	0xbba7836a	-0.0051121013
171	0x3b8df37f	0.0043320055
172	0x3b6b5a6d	0.0035912052
173	0x3c8b8683	0.017031914
174	0x3c7cacb0	0.015422031
175	0xbbb1bc1c	-0.0054240357
176	0xba593fcd	-0.00082874
177	0x3b87eaca	0.004147862
178	0xbcea86d0	-0.028628737
179	0xbbc846aa	-0.0061119394
180	0x3c3f28c7	0.011667437
181	0x3ae1a2b0	0.0017214622
182	0xbc9fd3f0	-0.01951024
183	0xbc92392a	-0.017849524
184	0xbcc09977	-0.023510678
185	0x3cd7ff6e	0.026366916
186	0x3cbeb3be	0.023279067
187	0x3bd7a881	0.0065813665
188	0x3c0801df	0.008301227
189	0x3bfc76cb	0.007704591
190	0x3ba72e46	0.005101952
191	0x3c85d1e2	0.016335431
192	0x3c73d868	0.014883138
193	0xbc76dd5a	-0.015067423
194	0xbc6c1f1f	-0.014411717
195	0x3986128b	0.00025572287
196	0x3c94b1c8	0.018151179
197	0xbc92a05a	-0.017898727
198	0x3bcbb80a	0.0062170075
199	0x3be38417	0.0069432366
200	0x3b87821e	0.004135384
201	0xbc964688	-0.018344179
202	0x3c529fdc	0.012855496
203	0x3c9cb8f7	0.019131167
204	0xbb927b42	-0.00447026
205	0xbccfd5ba	-0.025370467
206	0x3b62904d	0.0034570873
207	0x3a97c9c7	0.001158052
208	0x3c007d1d	0.007842329
209	0xbc98ca7c	-0.01865124
210	0x3bf4f47f	0.0074754353
211	0xbb97a0a3	-0.0046273037
212	0x3bb0af0c	0.005391961
213	0x3bea3ff4	0.007148737
214	0xbc84f7f5	-0.016231516
215	0x3bcb7b9c	0.0062098037
216	0xbc658e52	-0.014010983
217	0x3bf1d4cd	0.007380104
218	0xbb5e288f	-0.0033898687
219	0x3b44747d	0.002997666
220	0xbc9548cf	-0.018223194
221	0xbce24575	-0.02762101
222	0x3bef9cfc	0.007312415
223	0xbc034c20	-0.008013755
224	0xbbd0beba	-0.0063703926
225	0x3c764779	0.015031689
226	0xbc16713e	-0.0091822725
227	0x3b4054a6	0.002934733
228	0x3aa5c567	0.0012647331
229	0xbc91565a	-0.017741371
230	0x3c9829d0	0.018574625
231	0xbb03c50f	-0.002010647
232	0x3cc39bee	0.023878064
233	0xbc4fb637	-0.012677721
234	0x3c1b2fde	0.009471862
235	0xbb234eb2	-0.0024918732
236	0x3bd641af	0.006538592
237	0x3cbcf61b	0.023066571
238	0x3be12e9c	0.0068720113
239	0x3aeaad14	0.0017904365
240	0xbc79321a	-0.015209699
241	0xbc78d152	-0.015186625
242	0x3b1f5d3f	0.0024317054
243	0x3cb8894e	0.02252641
244	0x3b9c0783	0.0047616377
245	0x3bdfc22c	0.006828567
246	0x3cd5831f	0.0260635
247	0xbc8f99df	-0.017529426
248	0x3c5f477b	0.013627882
249	0xbc5b2986	-0.013376599
250	0x3cbb8243	0.022889262
251	0x3a16f7e3	0.0005758984
252	0x3b8633dc	0.0040955376
253	0xbc0040f6	-0.007827988
254	0xbb187224	-0.0023261392
255	0xbaa12fc2	-0.0012297558

layers.conv2_2.bias f4 [32]
0	0xbb96268c	-0.004582232
1	0xbbca195f	-0.0061675753
2	0x3caea722	0.02131993
3	0x3bbde2e6	0.0057948707
4	0x3c02706f	0.007961377
5	0xbca5d558	-0.020243332
6	0xbc42c533	-0.011887836
7	0xbcc2cb8c	-0.0237787
8	0xbc3d69f0	-0.011560902
9	0xbb713018	-0.0036802348
10	0x3cd0f8ef	0.025509326
11	0xbbd504f4	-0.0065008346
12	0x3ca85208	0.020546928
13	0x3ce0004d	0.027343893
14	0x3ca90250	0.020630985
15	0xbc7f158e	-0.015569104
16	0xbcad05ac	-0.021120869
17	0xbc712bd7	-0.014719925
18	0xbbb35680	-0.005472958
19	0x3c2545e4	0.010087464
20	0xbad6e7fb	-0.001639604
21	0xbbb6fe46	-0.005584511
22	0x3c7c9be8	0.01541803
23	0xbc2c0f96	-0.010501763
24	0xbc1c3a87	-0.009535438
25	0x3ca1d2c6	0.019753825
26	0x3c4475f3	0.011991012
27	0xbbbf55bb	-0.0058390773
28	0x3ba7ad3a	0.0051170858
29	0xbafd45de	-0.001932319
30	0xbc7036db	-0.014661516
31	0xbbbfc278	-0.00585204

layers.conv3_1.weight f4 [32, 4, 49]
0	0xbd064b53	-0.03278668
1	0xbc8ce9d4	-0.017201342
2	0xbd1b16fc	-0.037863716
3	0x3d6f6570	0.058446348
4	0x3bec6d62	0.007215188
5	0xbd3fbe3e	-0.04681229
6	0xbd25360e	-0.040334754
7	0xbd8136c6	-0.06309275
8	0xbc80d559	-0.015726732
9	0xbd22c292	-0.039736338
10	0xbd12a068	-0.035797507
11	0x3d8bb172	0.068209544
12	0x3ac1dd79	0.0014790735
13	0xbd865056	-0.065582916
14	0x3d922a16	0.071369335
15	0xbd8d51ed	-0.06900392
16	0xbc9c8a93	-0.019109046
17	0xbd217a05	-0.039423008
18	0xbd5c2e3c	-0.05375503
19	0x3caba5f1	0.02095315
20	0x3d5d2c7c	0.0539975
21	0x3cecb27a	0.028893698
22	0x3d9539b8	0.072863996
23	0x3d8932ef	0.06699168
24	0x3d5049a3	0.050851475
25	0x3d04a7bc	0.032386526
26	0xbc812594	-0.015764989
27	0xbb1ba3fe	-0.002374887
28	0x3cf6356b	0.030054769
29	0xbd863014	-0.06552139
30	0xbd75529a	-0.059893228
31	0xbd36cee3	-0.044630896
32	0x3d818cb4	0.06325665
33	0x3d0bba97	0.034113493
34	0xba8f731e	-0.0010944342
35	0x3d5a0c62	0.053234465
36	0xbd7e747c	-0.062122807
37	0x3d5aebf2	0.05344767
38	0xbd5b4142	-0.05352903
39	0xbd0ec795	-0.034858305
40	0xbcc9bcb1	-0.024626108
41	0x3d329c3f	0.04360604
42	0xbc0d9079	-0.008640402
43	0x3d78f9bc	0.06078504
44	0x3b81ad5c	0.0039574336
45	0xbd274ba6	-0.04084363
46	0xbc1ed862	-0.009695144
47	0xbd847afa	-0.064687684
48	0xbd38677c	-0.045020565
49	0xbd278e17	-0.04090699
50	0x3ce1be4e	0.027556565
51	0x3d67739c	0.056506738
52	0xbcc29443	-0.023752337
53	0x3cd03c40	0.025419354
54	0xb99354c7	-0.0002810119
55	0xbc251430	-0.010075614
56	0x3d7039c7	0.05864885
57	0x3c2942d8	0.010330878
58	0x3b91d70f	0.004450686
59	0xbce158d6	-0.02750818
60	0x3d1aa21e	0.037752263
61	0x3d90e064	0.07074049
62	0xbd8c7859	-0.06858892
63	0xbbee5fb8	-0.007274594
64	0xbd534112	-0.051575728
65	0x3d0f3467	0.034962084
66	0xbd158fb3	-0.036513995
67	0x3c256278	0.010094278
68	0x3d53935f	0.051654216
69	0x3d603f20	0.0547477
70	0x3d949e1c	0.072567195
71	0xbd1baa59	-0.038004253
72	0x3b08451e	0.002079315
73	0xbac11ca7	-0.001473327
74	0x3d76c7ff	0.060249325
75	0xbd86be86	-0.06579308
76	0x3caf1dec	0.021376573
77	0xbd037476	-0.032093488
78	0xbd3fd9b8	-0.046838492
79	0xbd7525bf	-0.05985045
80	0x3aa6a8df	0.0012715122
81	0x3d4a799a	0.049432375
82	0xbd053dd9	-0.032529686
83	0x3d9298fb	0.07158085
84	0x3d8c17dd	0.06840489
85	0x3c8ab03a	0.016929734
86	0x3d8ec8ad	0.069718696
87	0xbd72c413	-0.059269022
88	0xbb9cc1fa	-0.004783866
89	0xbd1e73d1	-0.03868467
90	0x3d00e5a4	0.031469002
91	0x3d806441	0.06269122
92	0xbb5c6eb3	-0.0033635318
93	0xbbb3b647	-0.0054843756
94	0x3d09633a	0.033541895
95	0x3d30ad4c	0.04313402
96	0xbd53bed7	-0.05169567
97	0x3d94e531	0.07270277
98	0x3c4884ff	0.01223874
99	0xbcac34dd	-0.0210213
100	0x3d8b78b8	0.06810135
101	0x3cf6b192	0.030113969
102	0xbd18b27b	-0.037279587
103	0xbd14a177	-0.036286797
104	0x3d62bd0c	0.05535607
105	0x3ca6f3f7	0.020380003
106	0xbd61e22e	-0.055147342
107	0xbd52438a	-0.05133394
108	0x3cfe0b76	0.031011324
109	0xbd2f20b7	-0.04275581
110	0x3c829bba	0.015943397
111	0x3d4724a0	0.048618913
112	0x3cd57e3f	0.026061175
113	0xbca46015	-0.020065347
114	0x3d1af6ef	0.03783315
115	0xbd427969	-0.047479067
116	0xbbbf7d06	-0.0058437614
117	0x3d1fa679	0.03897712
118	0xbd14f1ee	-0.036363535
119	0x3d923b38	0.07140201
120	0x3d1a1f8e	0.03762775
121	0xbd6e7174	-0.058213666
122	0x3ce52894	0.02797345
123	0x3d615c61	0.05501974
124	0x3b5226b7	0.0032066533
125	0x3d4afa05	0.049554843
126	0xbd706e75	-0.05869909
127	0xbd214138	-0.039368838
128	0xbcd54de0	-0.02603811
129	0xbc0521e7	-0.008125759
130	0x3cace4f7	0.021105273
131	0x3d1e27a1	0.03861201
132	0x3cfc9eba	0.030837405
133	0x3d8c4014	0.068481594
134	0x3cf35095	0.02970151
135	0xbcb90f7b	-0.02259039
136	0x3d8b71ca	0.06808813
137	0xbd63661f	-0.055517312
138	0xbd7d3c85	-0.061825294
139	0x3ca93ac1	0.020657899
140	0x3d4c27f3	0.049842786
141	0x3d2cee9f	0.042219754
142	0xbd8ce97a	-0.068804696
143	0xbd5e99f4	-0.05434604
144	0xbd7d2df9	-0.06181142
145	0xbd0f1ab2	-0.034937568
146	0xbca13958	-0.019680664
147	0x3cd23bbb	0.025663247
148	0xbd390ebc	-0.045180067
149	0xbcba80b7	-0.022766454
150	0x3cdc1227	0.026864124
151	0x3d0eff7f	0.03491163
152	0x3d8dd04b	0.06924494
153	0xbd0e3100	-0.0347147
154	0x3d82503c	0.0636296
155	0xbd88129c	-0.066441745
156	0x3d8b3323	0.06796863
157	0xbbcc25c5	-0.0062300884
158	0xbccc2921	-0.024921956
159	0xbcd0066a	-0.025393683
160	0xbc53d133	-0.012928295
161	0x3d8f0fd5	0.069854416
162	0xbce67f4a	-0.028136868
163	0x3d7698be	0.06020426
164	0xbd6c1c6c	-0.057644293
165	0xbcfa070b	-0.030520936
166	0x3c3a4a86	0.011370307
167	0xbd866821	-0.0656283
168	0x3d88d93a	0.06682058
169	0xbd81cc4c	-0.06337795
170	0xbd09a6cf	-0.033606347
171	0xbcce0e39	-0.025153266
172	0xbd17a9e9	-0.037027273
173	0xbca02f40	-0.01955378
174	0x3d5776d0	0.052603543
175	0x3cba4a05	0.022740373
176	0x3cf17177	0.02947305
177	0xbd7e47e2	-0.06208027
178	0xbca92b91	-0.020650657
179	0x3c671cf8	0.014106028
180	0xbd1bfd6c	-0.03808348
181	0x3c95b215	0.018273393
182	0xbc1c8fac	-0.009555738
183	0xbd605ade	-0.054774158
184	0xbd7be541	-0.06149793
185	0x3bf1a3bc	0.007374255
186	0x3d367d24	0.044552937
187	0x3d15ac0c	0.03654103
188	0xbd808827	-0.06275969
189	0x3d1a2cae	0.037640266
190	0x3c8b8622	0.017031733
191	0x3d1d7e2d	0.03845041
192	0xbbf1599a	-0.0073654177
193	0xbd8c14ba	-0.06839891
194	0x3b8d11a3	0.004305081
195	0x3c82439d	0.015901381
196	0xbd7b86ff	-0.06140804
197	0x3d3739b1	0.044732753
198	0x3c57bd16	0.01316764
199	0x3c7c34c0	0.015393436
200	0xbc88cb21	-0.016698422
201	0x3d7e95fe	0.062154762
202	0xbd28b5f3	-0.041189145
203	0xbcec493f	-0.02884352
204	0x3d65bd78	0.056088895
205	0xbd77586d	-0.060387064
206	0x3c38f7d7	0.011289558
207	0xbd1b1674	-0.03786321
208	0xbd09a538	-0.03360483
209	0xbc778fd6	-0.015109977
210	0x3d42fe67	0.0476059
211	0xbd2d288d	-0.042275
212	0x3d3987af	0.045295414
213	0x3b7114bd	0.0036786043
214	0xbd1a64f3	-0.03769393
215	0xbd3e8e15	-0.04652222
216	0x3d0a1f45	0.033721227
217	0x3d28f544	0.04124953
218	0x3d0b161b	0.03395663
219	0x3c55fdde	0.013061015
220	0x3d7db474	0.06193967
221	0xbd1049ec	-0.035226747
222	0x3b6fbbc8	0.0036580432
223	0xbd38b5fa	-0.04509542
224	0x3d0b91ed	0.034074713
225	0x3d22f9e8	0.03978911
226	0xbc028078	-0.0079652
227	0x3b1d7f76	0.0024032271
228	0xbd82fcd0	-0.063958764
229	0x3d850c76	0.06496517
230	0xbd1def42	-0.038558252
231	0x3ce9cbbd	0.028539533
232	0xbc4a908b	-0.012363563
233	0xbc2cc6af	-0.010545417
234	0x3d321acb	0.043482583
235	0xbd8f586c	-0.06999287
236	0x3d3ee02c	0.046600506
237	0xbca6317a	-0.020287264
238	0xbd2ccb9f	-0.042186376
239	0x3d4c3c9f	0.0498625
240	0xbd8c2225	-0.0684245
241	0xbd51cea2	-0.05122245
242	0x3d2dfed6	0.04247936
243	0xbca682f4	-0.020326115
244	0xbd849d4a	-0.06475313
245	0x3d1312fb	0.035906773
246	0xbb94b3b9	-0.004538026
247	0x3d7944a2	0.06085647
248	0xbcb2040e	-0.021730449
249	0x3d116a24	0.035501614
250	0x3d70800d	0.05871587
251	0x3b077b15	0.0020672728
252	0x3ce5e394	0.02806262
253	0xb910b3ae	-0.00013799846
254	0x3d517754	0.05113919
255	0x3d58918b	0.052873176

layers.conv3_1.bias f4 [32]
0	0xbcba2f38	-0.022727594
1	0xbc9613ed	-0.018320048
2	0x3cbe9fad	0.023269499
3	0xbcfb5dc9	-0.030684369
4	0xbc193f2e	-0.009353442
5	0x3d09789b	0.033562284
6	0xbd247241	-0.040148024
7	0x3d81c881	0.06337071
8	0xbb085812	-0.0020804447
9	0x3cf7404b	0.030182024
10	0xbd3afde7	-0.045652296
11	0x3be03952	0.0068427706
12	0xbbcbf9e5	-0.006224858
13	0xbcc2032a	-0.02368315
14	0xbcbafa0b	-0.022824308
15	0x3d38b2e4	0.04509248
16	0xbd1db78c	-0.038505122
17	0x3d60b5c5	0.05486085
18	0x3cf4bd67	0.02987547
19	0xbd46f2ce	-0.0485714
20	0xbd000ebf	-0.031264063
21	0xbd40e120	-0.047089696
22	0x3c89710d	0.01677754
23	0xbd2d2b1e	-0.042277448
24	0x3d44a4a6	0.048008583
25	0xbd4967e9	-0.049171362
26	0xbd0696af	-0.032858547
27	0x3d228181	0.039674286
28	0xbcce3828	-0.025173262
29	0x3cdaf4b6	0.026728015
30	0xbd1b50a8	-0.037918717
31	0xbd21d846	-0.039512895
