mRNAlocalization/cnn_models/CNN_model_fold1.pth (torch, 531886 bytes, 22 tensors)

layers.bn1.weight f4 [64]
00000000: 7afb 7f3f c0c1 7f3f e11d 803f 7dcc 7f3f
00000010: 2f2a 803f e70b 803f 85f8 7f3f f606 803f
00000020: 73c6 7f3f c703 803f 0d01 803f 2d1d 803f
00000030: 1910 803f 2613 803f b6cc 7f3f 160b 803f
00000040: ac25 803f 170b 803f e0fa 7f3f e6a9 7f3f
00000050: 6ad4 7f3f 01cb 7f3f dd17 803f acfe 7f3f
00000060: 9815 803f cddd 7f3f 550a 803f d4fa 7f3f
00000070: 0f13 803f 7804 803f 59f3 7f3f 66db 7f3f
00000080: 3f04 803f 87c5 7f3f c818 803f e0e2 7f3f
00000090: bdf9 7f3f e300 803f bc06 803f 5d1d 803f
000000a0: 9dc2 7f3f d9c0 7f3f 69f9 7f3f d8ec 7f3f
000000b0: f700 803f ae1e 803f 291a 803f 91d8 7f3f
000000c0: 9815 803f f111 803f 53e8 7f3f e0ff 7f3f
000000d0: b6d9 7f3f 2f15 803f 2bd8 7f3f 550e 803f
000000e0: 2426 803f ba03 803f 5be1 7f3f 8e15 803f
000000f0: 2af8 7f3f b6c1 7f3f 8005 803f 06e2 7f3f
0.999931 0.99905014 1.0009118 0.999214 1.0012873 1.0003632 0.99988586 1.0002124
0.99912184 1.0001153 1.0000321 1.0008904 1.0004913 1.0005844 0.9992174 1.0003383
1.0011497 1.0003384 0.9999218 0.9986862 0.99933493 0.99919134 1.0007282 0.99997973
1.000659 0.99947816 1.0003153 0.9999211 1.0005816 1.0001364 0.99980694 0.9994415
1.0001296 0.9991078 1.0007563 0.9995556 0.99990445 1.0000271 1.0002055 1.0008961
0.9990633 0.9990364 0.99989945 0.9997077 1.0000294 1.0009363 1.0007983 0.9993983
1.000659 1.0005475 0.99963874 0.9999981 0.99941576 1.0006465 0.9993922 1.0004374
1.001164 1.0001137 0.9995324 1.0006578 0.99988043 0.99904954 1.0001678 0.9995426

layers.bn1.bias f4 [64]
00000000: 0cfd 82ba 4105 9339 46ea 403a 959e 20ba
00000010: 017f 153a e0eb 15b9 8e27 08ba 992a af39
00000020: ff2d a7ba 7a8b fc39 46dd c739 cf0d 823a
00000030: 27da 2a39 f035 903a 0315 c4b9 8d5f bbb9
00000040: 7a16 c239 2d27 0f3a da40 0d3a f9c2 31ba
00000050: b510 93ba 1d7f 40b9 6ca8 5c39 9399 47ba
00000060: 407e 9f3a 3f1a beb9 86ff 0f3a 8ac0 b4b9
00000070: cf25 e5b9 11c2 88ba 119d 8b37 94be 7cba
00000080: 4656 d139 8905 89ba 6769 f438 0cf1 33b9
00000090: 1a4d 053a b332 5f3a 4fe3 c9b9 7c77 473a
000000a0: 135c 8fba 06d5 6dba ff34 29ba 7892 41b9
000000b0: 465c d4b9 19ac 1fba a2e3 463a c2be 033a
000000c0: 3628 8e3a 9191 e5b9 8540 3fb9 fd90 1739
000000d0: 2f4c 4bba 6093 a03a c358 0fba 3c29 e939
000000e0: 9c4f 783a 01eb 6bb9 92b6 48ba ed86 14ba
000000f0: 23df 78ba 8bca ebb8 e0e9 1bba 851b 65ba
-0.0009993627 0.0002804194 0.0007359128 -0.0006127146 0.0005702824 -0.00014297618 -0.00051938824 0.0003341034
-0.0012754797 0.00048169104 0.000381211 0.0009922328 0.00016293731 0.0011002403 -0.00037399688 -0.0003573861
0.0003701931 0.0005460855 0.0005388387 -0.00067810673 -0.0011220189 -0.000183579 0.00021043577 -0.0007614132
0.0012168363 -0.0003625918 0.0005493093 -0.00034475728 -0.00043706453 -0.0010433813 1.6643231e-05 -0.00096414355
0.00039927865 -0.001045392 0.000116544594 -0.00017160567 0.00050850364 0.00085143297 -0.00038507066 0.0007609052
-0.0010937474 -0.00090725755 -0.00064547354 -0.00018460478 -0.0004050454 -0.0006091013 0.00075870205 0.00050256785
0.0010845724 -0.0004378674 -0.00018239215 0.00014454495 -0.00077551877 0.0012250952 -0.00054682436 0.00044471945
0.0009472312 -0.00022498892 -0.00076565996 -0.00056658575 -0.0009493699 -0.000112434 -0.0005947631 -0.00087397575

layers.bn1.running_mean f4 [64]
00000000: ca07 c3bc f998 58bc 66b3 953a a941 8f3d
00000010: 4acf a83d 2bec 1d3d 6be3 a93c 9061 ef3d
00000020: 549f 783d cfd0 99bd b2c5 52bd 2bd7 a23b
00000030: aff7 6cba 6a10 39bc da80 723c b2a4 bcbd
00000040: 33a3 86bd d2f0 033d 40a4 1f3d 7358 98bc
00000050: 9458 33bd d297 af3d 40d7 963d 5998 af3d
00000060: 47ae ac3d abaf 113c 0bac 40bc d743 94bb
00000070: 8922 40bd aed2 0cbe b872 dd3c ced6 b2bc
00000080: eab1 313c 48e7 45bd d844 a03c 8dd0 c03c
00000090: a33b dabd 8a5c 6a3c 5cf7 49bd 6e95 3fbd
000000a0: b007 c5bd caae 0a3d 532f 0dbd 95af db3c
000000b0: 3a42 023e 3e07 663d 161c 40bc d67d 83bd
000000c0: 929a aa3d b417 b33c 2150 e63d b92c 95bd
000000d0: 8ed7 abbd 91a9 5fbc 58e2 7bbd 6a76 513b
000000e0: 6565 a53d 3cc2 483d 460f 85bd 26da 84bc
000000f0: d44b 853b 5a82 973d c331 aabc 8a4e 093d
-0.023807425 -0.013220065 0.0011421263 0.069949456 0.08242662 0.038555305 0.020738324 0.116885304
0.060698822 -0.0751053 -0.05145807 0.0049694977 -0.0009039593 -0.011295417 0.014801228 -0.09211101
-0.065740965 0.032212086 0.038975 -0.018596863 -0.043785647 0.08573879 0.073652744 0.0857398
0.08431678 0.00889198 -0.011759768 -0.0045246887 -0.046907935 -0.13752243 0.027032241 -0.021830942
0.010845641 -0.04831627 0.019564077 0.023536945 -0.10655906 0.01430429 -0.049308166 -0.046773367
-0.09620607 0.033858098 -0.03446896 0.026817122 0.12720576 0.05615925 -0.011725446 -0.06420486
0.08330263 0.021861888 0.11245752 -0.07283921 -0.08390723 -0.013651268 -0.061495155 0.003196145
0.0807598 0.04901336 -0.06497054 -0.016217303 0.0040678773 0.073979095 -0.020775681 0.033522166

layers.bn1.running_var f4 [64]
00000000: aed8 eb3c 453e cb3c daff c73c e7b6 8f3c
00000010: 4386 af3c 63fa ff3c e51c d73c 345e d93c
00000020: 15e5 d33c c2e2 cf3c 6755 8c3c 3b80 173d
00000030: 2c16 de3c 4e8b 283d 99d8 9c3c 26d8 023d
00000040: e288 b53c c13a d23c 2f50 bd3c c03c dc3c
00000050: 7ed2 c73c 7b87 b83c 86e7 d53c 00ac c43c
00000060: 2798 173d 7744 bd3c 4d4e f33c a9e6 c43c
00000070: cb99 a93c 7359 aa3c 5472 ec3c d231 ba3c
00000080: 2368 0a3d f526 ed3c d12f aa3c 6584 f03c
00000090: 71f7 423d 1fa7 db3c 41b5 db3c a2e8 163d
000000a0: 82a4 c23c 0e52 e93c 800b cf3c 7e99 aa3c
000000b0: 712e 193d 300e ad3c 79cb c73c 5c04 1a3d
000000c0: 3356 243d 2bea 013d 37bb 0a3d a87c f33c
000000d0: f57a 8d3c f1c1 2e3d 7185 053d 870d b33c
000000e0: 562e af3c e40d 9d3c ff96 dd3c bace d03c
000000f0: 6c8f df3c c3f6 e33c 563d d93c 3070 193d
0.028789844 0.024809966 0.024413992 0.01754327 0.021426326 0.031247323 0.026258895 0.026534177
0.02586607 0.025376681 0.017130567 0.036987524 0.027110182 0.041148476 0.01914625 0.031944416
0.022159997 0.025662782 0.023109524 0.026884437 0.024392363 0.02252554 0.026111376 0.024007797
0.03701034 0.023103936 0.029700423 0.024035769 0.020703217 0.020794606 0.02886311 0.022728834
0.03379072 0.02894924 0.020774754 0.029360006 0.04759926 0.026813088 0.026819827 0.03684295
0.023760084 0.02848151 0.025274038 0.020825144 0.037397806 0.02112493 0.024389016 0.037601814
0.04012127 0.03171746 0.03386995 0.029722527 0.017270545 0.042665426 0.032597963 0.021857036
0.0213844 0.019171663 0.02704954 0.0254892 0.027290069 0.027827626 0.026518505 0.037460506

layers.bn2.weight f4 [32]
00000000: 2534 803f 6131 803f afc6 7f3f 42bb 7f3f
00000010: bbbd 7f3f 3abd 7f3f dd9e 7f3f f0a6 7f3f
00000020: cfa8 7f3f d8a4 7f3f 3ac1 7f3f d2ae 7f3f
00000030: b8cc 7f3f 4ac5 7f3f 7fbe 7f3f e79c 7f3f
00000040: d0b5 7f3f 14a8 7f3f bc9d 7f3f 18b8 7f3f
00000050: 2da2 7f3f aac7 7f3f 18c6 7f3f 75bd 7f3f
00000060: 7cd2 7f3f d998 7f3f 43a5 7f3f 3fb9 7f3f
00000070: 90a2 7f3f 4798 7f3f 95bb 7f3f fcc2 7f3f
1.0015913 1.0015069 0.9991254 0.9989511 0.9989888 0.9989811 0.9985178 0.998641
0.99866956 0.99860907 0.99904215 0.9987613 0.9992175 0.99910414 0.9990005 0.9984879
0.998868 0.9986584 0.9985006 0.9989028 0.99856836 0.9991404 0.9991164 0.99898463
0.9993055 0.998426 0.99861544 0.9989204 0.99857426 0.9984173 0.998956 0.999069

layers.bn2.bias f4 [32]
00000000: 1635 c93a 0746 c63a 7a58 69ba 2cde 65ba
00000010: 7c8a 95ba b2f8 90ba 002a b2ba 7e91 b7ba
00000020: e88d b4ba 1666 baba 6874 8dba 5d20 adba
00000030: 504e 84ba e4b8 7dba 7efe 95ba 3786 ccba
00000040: dd72 9bba ddd4 b6ba 4b2b cbba e6b7 7aba
00000050: 75ba c0ba 909d 70ba dc13 84ba f567 7aba
00000060: 19a7 4fba 02e8 cbba e5a1 b1ba 79ef 88ba
00000070: 7915 beba deba ceba 87b5 9bba d714 7eba
0.0015350904 0.0015127071 -0.00089014287 -0.0008768763 -0.0011409069 -0.0011060445 -0.0013592839 -0.0014005152
-0.0013775202 -0.0014221098 -0.0010792138 -0.0013208498 -0.001009414 -0.0009678735 -0.0011443642 -0.0015603964
-0.0011859793 -0.0013948936 -0.0015500573 -0.0009564146 -0.0014704006 -0.0009178752 -0.0010076719 -0.0009552234
-0.0007921323 -0.0015556815 -0.0013552277 -0.0010447345 -0.0014502249 -0.0015772243 -0.0011879661 -0.00096924364

layers.bn2.running_mean f4 [32]
00000000: 2565 84bd 3afb 17be 1c15 84be a506 89be
00000010: f5b5 24be 0c80 52be d1b4 27be eb72 83bc
00000020: e393 46bd 2cf3 f73c adf9 2dbe 0762 13bd
00000030: 9311 3ebe 50dc 2bbe 2faa 00be cd51 113e
00000040: 433b 29be 5421 b3bc 4f3c 683e 58b8 81be
00000050: 9206 33ba 3877 4dbe 43cb 31be bb74 58be
00000060: 64f2 23be 4134 c93d 2957 eebd fe82 41be
00000070: ff7d 4f3c 0ce2 983a 630c 0dbe e07d 56be
-0.06464604 -0.14841929 -0.25797355 -0.26762882 -0.16085036 -0.20556659 -0.1637757 -0.016046008
-0.04848088 0.03026732 -0.16989775 -0.035982158 -0.18561392 -0.16783261 -0.1256492 0.14191361
-0.16526513 -0.021866478 0.22679256 -0.25335956 -0.0006829287 -0.2006501 -0.17362694 -0.21138279
-0.16010433 0.0982442 -0.11637718 -0.18897626 0.012664317 0.0011664047 -0.13774256 -0.20946455

layers.bn2.running_var f4 [32]
00000000: fd22 6a3e 715c 713e cd4e ae3e 4129 ae3e
00000010: 0ba2 923e 5e26 8c3e 96ce 973e 4415 9e3e
00000020: 862f 7d3e f253 9d3e bdb5 5d3e ec80 7a3e
00000030: 926e 903e 0daf 503e cf09 613e 0fc4 b03e
00000040: 6eb1 863e fbb3 8f3e 3a6e 093f 90d4 c23e
00000050: 39c1 763e d427 bf3e 6294 673e a7e8 9f3e
00000060: e9b5 6c3e f10f 3e3e f8fc 6c3e a121 8d3e
00000070: 7e98 b83e 8e4d ac3e 6f86 713e c46f a33e
0.2286491 0.2357042 0.34044495 0.3401585 0.28639254 0.27373022 0.296498 0.308756
0.2472516 0.30728108 0.21651359 0.24463242 0.28209358 0.20379277 0.21976398 0.3452458
0.26307243 0.28067002 0.5368382 0.38052797 0.24097146 0.37335074 0.22615197 0.31232187
0.23116268 0.18560769 0.23143375 0.2756472 0.36053842 0.3365292 0.23586439 0.31921208

layers.conv1_1.weight f4 [64, 4, 9]
00000000: b726 f5bd ae90 ef3d cb0e b73c 01a4 bfbd
00000010: 483e 0abe 1add efbd 9f83 70bd 2fea c73c
00000020: 7f15 9abd a08c f9bd 1122 10be 52ee a53d
00000030: 4f7f c8bd f6bd 26be 69fa 7d3d fadf 13be
00000040: 9786 003d f93b 83bd 2249 84bd 3e49 25be
00000050: 4c07 03be b623 e23d 8649 ac3d 78c2 1b3e
00000060: 542a a1bd aace adbd 7e0f d43d 22fe 0c3e
00000070: 966d 293d a0a7 a63c 1ebf 1abe 9fa1 b8bd
00000080: 244e c9bd 8f51 afbc 36e7 a2bb df6a 0b3e
00000090: 4028 58bc 7684 f63d 6cdc 88bd 4f8f 86bd
000000a0: 6dbd 0f3e 5040 0ebd ff06 1cbe 586f 413d
000000b0: c98e 7dbd 7a57 623d 2767 933d 1526 2abe
000000c0: 8055 8b3d 74fc 653d af1e 1f3e 3fa4 013e
000000d0: 949d 293d f93b 8d3d 328e d83b 619c 953d
000000e0: ce9c 0f3e 5de2 c83d d730 723d 7803 18be
000000f0: d0db e7bd ad1a ad3d 67ff 10bc 1c13 d8bd
00000100: 8bf8 0cbe 0796 10be b36d ac3d cda0 863c
00000110: 0466 83bd 78bc 293d 2247 863d 0efa 01be
00000120: b9c5 78bc a8ae cc3d 532c fd3c a546 0ebe
00000130: f282 30bd 1b46 a93d 975c 0a3e 2221 29be
00000140: 1a6c 0a3e 2fbe 813d c50d e3bd b87c 313c
00000150: 1406 23be 139e 033e 2371 133e 92c1 0f3e
00000160: 22c1 17be e226 8b3d 6195 c53d 7e62 b43d
00000170: 86b9 d13d 881c 843d 2417 ee3d 439b a3bd
00000180: 138a cfbd c8d3 0cbe 000c c9bc 2a70 cebd
00000190: d3cd e2bd 1741 263e a163 92bd 8e2d b3bd
000001a0: 2c5c 10bc 6d1e e9bc 5a59 933d feba d43d
000001b0: 1c00 9e3c bbe2 cebd 0c12 d83b 522d d5bd
000001c0: bb1b 133e 021a f73c 72ba 06bc 6387 e3bd
000001d0: 9206 a5bd 264a 043e 4fe7 d8bd a254 873d
000001e0: 9c99 2b3c afd6 19bc 021c 0a3d 4281 833d
000001f0: 26b3 d2bd 763e a03c 0d44 6b3d 4a3a 5a3d
00000200: 38b2 803d a861 383c 63e8 943d e003 ac3d
00000210: becb febc 8928 c9bd b460 4a3d 68e8 29be
00000220: b77d 823d f109 21be ceed 723d 83c2 fe3d
00000230: e156 09bd ce2c 833d 8eab 003b 4f94 16be
00000240: 8859 703d e979 4b3d a183 df3d 69a8 dc3c
00000250: 87c3 22be 5326 c03d cb96 b53c 812f 11be
00000260: 2ab5 173e 41a1 a1bd 09bc 833d ec3d 87bd
00000270: 6d06 81bd e934 0e3e 97ac 8abd 63eb bbbc
00000280: da24 58bd 10f3 4abd 5e06 173e 05ba cd3d
00000290: aff5 03be 985b 163d 830b 163d 57a7 cbbd
000002a0: 6011 32bc e01e 29be c409 33bd bf81 0ebc
000002b0: ecb2 5c3d 6b2e d83c 449e e43c 6431 cabd
000002c0: 91ca c13d ebf3 88bc 7d60 06bc 6630 6c3d
000002d0: cb11 03be 6f6b b43d c619 d6bd 527f ec3d
000002e0: b778 17be a899 05be ac12 24be 9b95 03be
000002f0: e408 f1bd 2276 2e3d adff 04be 1e3a 683d
00000300: ef8b 283e 849c d7bd 20a2 03be 129e 29be
00000310: 1684 693d ebe4 a33d 1fa1 663d 62f4 0fbe
00000320: d36a 033e 1042 533d 0361 cfbd 7542 30bd
00000330: 7ed2 723d 13a6 07bd ffa2 68bd ab12 1e3e
00000340: d3c3 903d 3cef 183e c4c8 ecbd 3f7c 8a3d
00000350: 71b6 213e d59d 473d 8c08 013d ef80 41bd
00000360: fa28 133e e47a cd3c a278 80bd aea1 fe3d
00000370: 6a4a b23d 875b ecbc 290e 1fbe 6dd9 bc3d
00000380: 33ad 1bbe a5df c43c 95a9 21be c960 0fbe
00000390: eea9 c63c 3ea0 38b9 dac0 b93c 8757 283e
000003a0: 8378 613d f5a1 0a3e 4223 c53b 412e 8bbd
000003b0: fa16 c33d 3e78 8cbc 9484 1fbe 0ab2 bdbc
000003c0: 8e3d 8cbd e4c4 41bd bcb8 c33d 05f4 25be
000003d0: fe30 dabd 844e 5d3d 1418 1cbd fa73 05bd
000003e0: 8bb9 943d 6816 c53d 3d1f 9c3d 41d6 b73d
000003f0: ea85 b03d a6cd f03d 05a1 93bd d9a7 d13d
-0.11970275 0.11697517 0.022345921 -0.09357453 -0.13500321 -0.11712094 -0.058719274 0.02440366
-0.07523631 -0.12185025 -0.14075495 0.081020966 -0.09789907 -0.16283402 0.062006388 -0.14440909
0.031378355 -0.06407923 -0.064592615 -0.16141221 -0.12795752 0.110419676 0.08412461 0.15210903
-0.078694016 -0.08486684 0.103545174 0.13768819 0.041364275 0.020343602 -0.15111968 -0.09015202
-0.09829357 -0.021401195 -0.00497141 0.13614987 -0.01319319 0.12036984 -0.06682667 -0.06570303
0.14037104 -0.034729302 -0.15237044 0.047225326 -0.06190375 0.055259205 0.07197409 -0.1661609
0.06803417 0.05614896 0.15539049 0.12660311 0.041410044 0.068962045 0.006608748 0.073052175
0.1402466 0.098088 0.05912861 -0.14845073 -0.11321223 0.084523536 -0.008849955 -0.1055052
-0.13766687 -0.14119731 0.08419361 0.016434098 -0.06415942 0.041439503 0.06556536 -0.12693045
-0.0151838595 0.099942505 0.030904924 -0.13894136 -0.04309363 0.08265325 0.13511883 -0.16516545
0.135178 0.06335103 -0.11086611 0.010832958 -0.15920287 0.1285327 0.14398627 0.14038685
-0.14819768 0.06794526 0.096476324 0.088078484 0.10240464 0.064507544 0.116255075 -0.07988598
-0.101337574 -0.13752663 -0.024541855 -0.10079987 -0.11074414 0.16235767 -0.07147909 -0.08748923
-0.008811038 -0.028456891 0.07194777 0.103872284 0.019287162 -0.10101839 0.006593948 -0.10409035
0.14366047 0.030163769 -0.008223163 -0.11109807 -0.08057894 0.1291891 -0.105909936 0.06607939
0.010473635 -0.009389563 0.033718117 0.06421138 -0.10288076 0.019561034 0.057437945 0.053278245
0.062839925 0.011253752 0.07270887 0.083991766 -0.031103011 -0.098221846 0.04940863 -0.16592562
0.063716345 -0.15726449 0.05930882 0.12439444 -0.03353012 0.0640503 0.0019633505 -0.14705013
0.058679134 0.04967681 0.10913778 0.026935773 -0.158949 0.0938231 0.02216663 -0.14178278
0.14815202 -0.07892085 0.06432349 -0.066036075 -0.06300054 0.13887371 -0.067712 -0.02293939
-0.05276952 -0.04954821 0.14748523 0.10045246 -0.1288669 0.036708444 0.036632072 -0.09944027
-0.0108684 -0.16515684 -0.043710485 -0.008697926 0.05388157 0.026389321 0.027907498 -0.09872702
0.094624646 -0.016717872 -0.008201716 0.057663344 -0.12799756 0.08809554 -0.10454135 0.11547722
-0.14792143 -0.13046896 -0.16022748 -0.12850039 -0.11769274 0.04259313 -0.12988158 0.05669605
0.1645963 -0.105279 -0.12854815 -0.16564205 0.057010733 0.08002647 0.056306 -0.14058068
0.12833719 0.051576674 -0.101259254 -0.04303213 0.059282772 -0.033117365 -0.05679607 0.15436809
0.070686005 0.1493501 -0.115617305 0.06761979 0.15792252 0.048734505 0.03150229 -0.0472421
0.143711 0.025083013 -0.06273009 0.12433182 0.087055996 -0.028852237 -0.15532745 0.09221158
-0.15202789 0.024032423 -0.15787347 -0.14001764 0.02425095 -0.00017607302 0.022674967 0.16439639
0.05504657 0.13538344 0.006016166 -0.067959316 0.09525867 -0.01714718 -0.15577918 -0.023156185
-0.06847678 -0.04730691 0.0955672 -0.16206367 -0.10653876 0.054029956 -0.0381089 -0.032581307
0.07261952 0.09623414 0.07623146 0.089764126 0.08619292 0.11757974 -0.072084464 0.102370925

layers.conv1_1.bias f4 [64]
00000000: 54ec 133d 2b17 cfbd 2fa6 66bd 0134 2a3e
00000010: eb02 b43d fbdd e8bb faa7 59bd f9b0 513d
00000020: 23aa 113e eec5 debd 5a84 853b 8f25 09be
00000030: 103d 923c d64d 873c b0c5 cfbd 0fa2 0dbe
00000040: 3dd0 f3bd 76b4 023d 589d 243d 2230 bebd
00000050: db41 8fbd c894 e53d 3b79 be3b f320 143e
00000060: 8d1c e33d 235c e73c 3a0f 5bbc d9b2 efbc
00000070: 3ab2 ebbc ec1a 2abe e86d f43d f152 f8bd
00000080: af7c b5bd 3d58 703c 3265 053d dd72 b1bd
00000090: ec32 c4bd efc0 af3c e96a 30bd e3b1 ddbd
000000a0: d804 06be 1cfd 983d 4a88 6abc f1a7 f5bc
000000b0: 6787 253e f105 a13c 1868 03bd 6604 d93d
000000c0: 6e12 fa3d 4971 993b 1348 1f3e 58ed a7bd
000000d0: f3a1 e7bd 1577 223e 4d81 23be 58ae c9bd
000000e0: da4d 923d bec1 c13d 6e17 5abd 2dba 933d
000000f0: faf1 07bc 65a4 f4bc 7849 ee3d 1805 4fbd
0.036114052 -0.10111841 -0.05631083 0.166214 0.08789619 -0.0071065403 -0.05313871 0.051194165
0.14225058 -0.10877596 0.0040746154 -0.13393234 0.017851382 0.016516607 -0.10145128 -0.13831352
-0.11904953 0.031910382 0.040189117 -0.09286524 -0.06994983 0.112100184 0.0058127916 0.14465694
0.1108943 0.028242176 -0.0133703295 -0.029260086 -0.028771508 -0.16611832 0.119350255 -0.12125195
-0.08861672 0.014669475 0.03256721 -0.086644866 -0.09580025 0.021454303 -0.043070707 -0.10824945
-0.13087785 0.07470152 -0.01431472 -0.029987307 0.16164933 0.019656153 -0.032081693 0.10596542
0.122105464 0.004682694 0.15554838 -0.081995666 -0.11310186 0.15865739 -0.15967293 -0.098477066
0.07143755 0.094607815 -0.053245 0.072132446 -0.008297438 -0.029863546 0.11635107 -0.050541967

layers.conv1_2.weight f4 [32, 64, 9]
00000000: a1f5 dcbc 9634 64bc 37eb 12bd ca70 1abc
00000010: e7aa 973c ea03 543b 1e7a eb3b d425 1b3d
00000020: be7b 1f3d 9dd5 5e3c 668c 0e3d 33b1 a73c
00000030: 6074 e1bb 9506 d0bc b085 223d 99f3 943c
00000040: db5c f43c abb9 eb3c 15ad 16bd 5e42 5d3c
00000050: 17d1 823c 142e 19bd ac81 95b9 d95d de3c
00000060: c5de 003d 2859 1cbd 955c 0dbd 4dee 19bd
00000070: 4f56 873c 83c6 27bc e51c 5eb9 65f1 7b3c
00000080: 2cfd b5bc ed42 a7bc ea0c e9ba 0316 133d
00000090: 0bcf 05bd dd15 333c 07e3 05bd 447b 17bd
000000a0: 2d4b 82bc 9cdc ecba 5e6b b23c 6ef6 163d
000000b0: 8adf ff3b c1b6 20bb 027a 9cbb 3c53 0d3d
000000c0: ec26 bd3c 7154 fcba f255 21bd b182 e53b
000000d0: 91e1 85bc 3e0a 20bd 042e 27bd c86a d6bc
000000e0: 1b4a c6bb c52b d6bc 378b ef3c e629 e0bc
000000f0: 6432 dd3c ea0c 713c 1a19 003d d149 253d
00000100: f36e e03c ae07 c7bc 6dff 063d 0e75 1e3d
00000110: f90e 2eba c83e 99bc cd7c fa3c e492 e83a
00000120: ba51 a8bc 4775 ff3b ea85 173d af86 07bd
00000130: d78b 36bc cace 09bd 8666 0ebd 211c 66bc
00000140: a2f4 41bc 7072 033d f6bb 063c 2534 0bbc
00000150: f3bc f9bc 41e5 70bb a61b f33b 0ec9 2b3c
00000160: 31d7 a93c d589 dabc 3fd6 e4bc b81c fd3c
00000170: 9e8a 823c 1695 0cbc a7f4 81bc 690b d23c
00000180: 8544 113d eee0 22bc e6f2 2bbd 33ee 853c
00000190: d9a0 babc 2baa c43c bc5e bf3c d68d 4a3c
000001a0: 290d 11bd 6c74 2bbd f73d 1f3c 6391 f33c
000001b0: 9185 1dbd 81f8 bb3c 341d 06bc 6cb4 9f3c
000001c0: 2e1d 1a3c efc1 d9bb 102f 12bd 7287 143c
000001d0: d00e bc3c 533d ffbc 4e9c 32bb 3e09 1f3d
000001e0: b6e1 a03c 656e 47bc 379c 623c 6f2b d4bc
000001f0: 3657 38bc 6b0b a53c 44ff c03c b8e2 983c
00000200: 1824 8bbb 76d3 033d 9cb9 adbc aafa 3fbc
00000210: 4e43 dd3c 1475 213d d7cf c43c d462 8fba
00000220: b453 14bd 4e23 2d3c 4367 ce3c 595e 95bc
00000230: eb62 18bd c404 a6bb 8634 70bc 8d3c 66bc
00000240: 879c 2bbd 00ce 29bd e0b0 013c 2940 05bb
00000250: 2800 1abc 4f2e 90bc 9617 2cbd e15c 09bd
00000260: 2ab0 b6bc ffed f0bc d65d 1b3d 05ae bc3c
00000270: 14bf 06bd b15e 18bc c65d 133c f193 273d
00000280: 39ae 58bc fd5b 923c cf62 6c3c 1968 cf3b
00000290: d654 26bb 8f57 0fbd 9ff6 1aba 7cab 15bd
000002a0: 8bf1 193c b91f 2dba 02ca acbc 2c65 113d
000002b0: 005d 63bc 8822 54bc beaf 063d 99c2 17bd
000002c0: f3a9 34bc b152 8fbc 42ce 1abd 27d5 22bd
000002d0: 8186 21b9 1ce9 f83b 4a62 94bb e269 9a3c
000002e0: d282 b3bc 5f9c b4bc 640b e93c 9f23 cebc
000002f0: 3e91 463c 0ecb 0fbc 3974 c93c e07f b7bc
00000300: d4a2 88bc 36ec 0d3d fe1c 98bc c75d d93c
00000310: 58b9 df3c 6087 023d 1be8 07bd 6a44 843c
00000320: b5e7 dd3c 89a3 6c3c 6da7 04bd 2a09 ce3c
00000330: 110c 2abd 37e4 dd3c 689c febc 9a68 02bd
00000340: 0385 573c c7f2 283d 1ca8 2b3c 292f 1cbd
00000350: b51a f23c c9ba 2c3c a70a 5e3c 5f89 5ebc
00000360: 1fee 583c d495 43bb c8f6 b5bc f43c 183d
00000370: 9847 803c bd81 1dbd fc28 ea3a ef24 c93c
00000380: 5fdb b73c 51db 953c 0e10 8abc 206b c8bc
00000390: 2f1a abbb 57ed ddbc 93c0 2ebc cd10 093d
000003a0: 8ee2 7bbc 037a 253d cc5e 553c 7113 a2bc
000003b0: 9534 ab3c 9a42 efbc 5aca 1a3d 7a5a 0a3d
000003c0: 3313 a03a 2d27 a2ba 6246 79bc 58ac cebc
000003d0: 49c1 823b 92cb e73c 7fdd c33c 176f 19bd
000003e0: 1ee2 94bb 777d 28bc caaf be3c b76a eb3c
000003f0: 1efd 18bd 44eb 04bc 5f88 bb3b 5146 d43b
-0.026972594 -0.013928553 -0.03586885 -0.009426305 0.01851411 0.0032350966 0.0071861884 0.037877873
0.03893637 0.013600734 0.034801863 0.020470237 -0.006880328 -0.025393764 0.039678276 0.018182563
0.029829433 0.028775057 -0.036786158 0.013504593 0.015968842 -0.03739746 -0.00028516108 0.02714436
0.03146245 -0.038170964 -0.03451212 -0.037580777 0.016520647 -0.0102402 -0.00021182334 0.015377377
-0.022215448 -0.020417655 -0.0017780338 0.035909664 -0.032668155 0.010930506 -0.032687213 -0.03698279
-0.015904987 -0.0018071118 0.021779712 0.036856107 0.0078086304 -0.0024522992 -0.0047752867 0.034503207
0.023089848 -0.001925124 -0.039388604 0.007004105 -0.01634291 -0.039072268 -0.04081537 -0.026173964
-0.0060513145 -0.026143918 0.029241187 -0.027363729 0.027001567 0.014712552 0.03127394 0.0403536
0.027396655 -0.024295654 0.032958437 0.03868585 -0.00066398043 -0.018706694 0.030577088 0.0017743972
-0.020546783 0.007795963 0.036992945 -0.03308743 -0.011141739 -0.033644475 -0.034765743 -0.014044792
-0.01183811 0.032091558 0.008223524 -0.008496319 -0.030485606 -0.003675774 0.0074190674 0.010484947
0.020732494 -0.026677052 -0.027934192 0.030897483 0.015935238 -0.008580467 -0.01586373 0.025640206
0.035465736 -0.009941323 -0.041979693 0.016348934 -0.022781776 0.024006924 0.023360603 0.012362918
-0.03541294 -0.041859075 0.009719363 0.029732412 -0.038457457 0.022945644 -0.0081856735 0.019495212
0.009406371 -0.006645433 -0.035689414 0.009065496 0.022956282 -0.031157171 -0.002725381 0.038827173
0.019638877 -0.012172316 0.01383119 -0.025899617 -0.011251261 0.020147046 0.02355922 0.018662795
-0.004246246 0.032184087 -0.02120667 -0.011717478 0.027009632 0.039418295 0.024024887 -0.0010939487
-0.036212638 0.010567499 0.025195723 -0.018233465 -0.03720371 -0.005066486 -0.01466096 -0.014052522
-0.041897323 -0.041456223 0.007915705 -0.0020332432 -0.009399451 -0.017600207 -0.04201468 -0.03353584
-0.022300798 -0.02941036 0.037931286 0.023032198 -0.03289707 -0.00929992 0.008994525 0.040912572
-0.013225132 0.017866129 0.014427855 0.006329548 -0.0025380156 -0.03499561 -0.0005911383 -0.036540493
0.009395967 -0.00066041533 -0.021092419 0.035496876 -0.013877153 -0.012947686 0.032882445 -0.037050817
-0.011026847 -0.017495485 -0.03779436 -0.03975406 -0.00015404263 0.007596148 -0.0045283185 0.018849317
-0.021912966 -0.02204722 0.028447814 -0.02516347 0.012119589 -0.008776439 0.024591552 -0.022399843
-0.016679205 0.034649096 -0.018568512 0.026533974 0.027310058 0.031867385 -0.033180337 0.016145904
0.027088026 0.014443287 -0.032386232 0.025150854 -0.041515414 0.02708636 -0.03108044 -0.031838037
0.013154271 0.041247156 0.010477092 -0.038130913 0.02955375 0.01054258 0.013552344 -0.0135825565
0.013240366 -0.0029843943 -0.022212401 0.037167504 0.015659139 -0.038453806 0.0017864997 0.024553744
0.022443471 0.018293055 -0.016853359 -0.024465144 -0.005221627 -0.027090712 -0.01066603 0.033463288
-0.015373839 0.040399563 0.01302309 -0.019784661 0.020899097 -0.029206563 0.037790634 0.03377769
0.0012212753 -0.0012371294 -0.0152145345 -0.025228664 0.0039903265 0.028295312 0.023909329 -0.03745946
-0.004543557 -0.010283819 0.023277182 0.028737409 -0.037350766 -0.008112732 0.005723044 0.006478109

layers.conv1_2.bias f4 [32]
00000000: 5471 07bc e398 d03b 8b7b 2abd 8797 d1bc
00000010: b36f 713c 8d2f 65bc 2fd3 083d 0783 b93b
00000020: 2aad 20bd cc12 d53c d560 123d 2bda 763c
00000030: 6216 babc ccdb e03c 678d d53c 12a8 e43c
00000040: 564e aebc 5687 efbc 04eb 8e3c 656e ce3c
00000050: e02a 6d3c e069 64bc 3431 143d e9fe ea3c
00000060: f81b 02bd bfd2 10bc c79d 3f3b fb8a 783c
00000070: 661f 95bc 0da2 0a3d 22c0 15bc 5923 6b3c
-0.008266766 0.0063658818 -0.041621726 -0.02558495 0.014736104 -0.013988388 0.033404525 0.0056613716
-0.039227642 0.02600994 0.035736877 0.015066664 -0.022715751 0.027448557 0.026068402 0.027912173
-0.021277588 -0.029239338 0.017446049 0.025199125 0.014475554 -0.013941258 0.036179736 0.028686004
-0.031764954 -0.008839308 0.002923833 0.015169854 -0.018203449 0.03384595 -0.009140046 0.014351689

layers.conv2_1.weight f4 [64, 4, 20]
00000000: 52f5 bbbd 7f0a 52bd 1687 de3b ad18 f4bb
00000010: c388 0e3a 6260 d9bd 61ce fcb9 001e 833d
00000020: 37c2 043d 3235 b63d 9e24 dbbd e2c9 b53d
00000030: 305c b53d 9168 72bd e317 623d 51d7 9abd
00000040: 5bfe 25bd e76b 893d ed95 06bd ed58 97bd
00000050: 502f 6dbd 1334 bbbd 04eb 8cbd e32c 2a3c
00000060: a874 d13d 24f3 a3bd 120c 7f3c b4c6 e13d
00000070: fad8 7b3d dda0 a8bd 93dc b43c 8220 a73d
00000080: afcd f63c 7082 5ebd a3c4 943d 4576 473d
00000090: 26cb a0bd b3b9 a3bd c8f6 b03d 1623 e23d
000000a0: 411f c13c 1306 b1bd b51e 07bd 9c6f a1bc
000000b0: 0772 2d3c ad05 5e3b 7e32 913d 419d d63d
000000c0: 7893 6c3c f8a5 c4bc 4df1 bdbd ea86 993d
000000d0: 8576 cfbd 8e3b abba 463c e4bc de5b b43d
000000e0: 17e2 583d e10d 823d cf7b 60bc a67a 8ebc
000000f0: af38 a53d c6ce 0bbc 0656 353d 40c4 89bc
00000100: b9cb d83d 6e65 183d f96e 8ebd 7204 e2bc
00000110: 1175 ac3d 0e9d 7abd 6862 33bd bd62 213d
00000120: 6d3f 33bd c6a3 d6bd 8b7f ab3d 3ac9 39bd
00000130: 917e 6cbd 868d bbbd e071 8fbd 2043 ae3d
00000140: 4bde 8abd 5dc9 53bd 2088 903d e084 d2bd
00000150: c806 98bd 4e20 d6bd 3827 123c d487 b63d
00000160: 587a 76bd 98c1 aebd c071 a93d e9e1 da3d
00000170: 7b78 183c 96a9 853c 9ac6 b6bd 0f15 b83d
00000180: f5d6 a1bc 6a84 5eba a884 96bd 93df debc
00000190: 86bd c3bd 9807 8f3c f75f e6bd 5c92 833d
000001a0: 7632 51bd 0f7c dfbd 10e4 2f3d be2a 8b3d
000001b0: 3e11 86bd 4df0 d8bd 6be4 26bd ba9d b43d
000001c0: 18b8 dc3d ebbe d3bd 1d74 bdbc 75a0 bcbd
000001d0: b479 383d b35c 993d 8e49 b43c b261 983d
000001e0: a769 383d fcab d13d afbc 5b3d 041d fa3c
000001f0: 296e 17bd d761 a7bd a607 1dbd 4595 cc3c
00000200: 870d 1e3d 7968 89bd bafa dd3d 6deb c63d
00000210: b338 963d 6f43 02bd c01d 0bbd fba5 acbd
00000220: 4cb5 aabc 80af 8bbd 303f 713d 6597 27bd
00000230: 16e8 37bd 29b6 803d aaac e6bd 6728 efbc
00000240: 4dac 11bd 09eb babc d4d8 523d f3f8 30bd
00000250: 7c0a a13d 95ed debc d553 69bc 914d 1a3d
00000260: c402 9abd 9e54 6cbd 0a0f bdbd 62de 6c3d
00000270: f008 d3bc e559 f6bc af88 623c 0496 42bd
00000280: d581 a83d 0e0e 15bd 282a 37bd 0e58 d4bd
00000290: 78e9 4abd 682d d13d e5b0 34bd 145e 943c
000002a0: c9b9 c2bd 65f7 a9bd 2f5f a73d 5201 2e3d
000002b0: a8e3 c9bd 6352 233d 008f 943d 3a9a cebb
000002c0: 9a71 94bd 8e1b c4bc 49bf d1bd f8eb 17bb
000002d0: 3631 3ebd 6c58 8dbd 3e89 27bc 088d dcbd
000002e0: 508c e03d 62cc bd3d d2e0 cbba e70b d63d
000002f0: 5430 e2bd 68d1 bbbd 250b 9ebc 448a c13d
00000300: 3092 be3a b341 a2bd 0997 703b b622 97bd
00000310: 9349 d9bd 5124 9c3d 7b84 6dbd 464f 5e3c
00000320: b7ba cbbd 2592 00bd 3907 e1bd 8693 fcbc
00000330: aa1c 91bd e513 ccba 72af 3dbd 963f 043d
00000340: a824 07bd 061d 83bd a408 0fbd 1b9d 473d
00000350: 6c5a c73d eb4e 6b3d 5497 3d3d 240e 92bc
00000360: 8641 56bd 05d0 50bd d1cb ff3b 27f9 333d
00000370: 112b 2bbd c004 e33d b67b 21bd 52a8 89bd
00000380: efac cb3d 44dd 76bd 6fb9 303d 6063 51bc
00000390: 921b fabb ebb9 bcbd 9e8e 5d3d b279 a23d
000003a0: b3d6 2bbd e9b9 463d c0a7 863c 1a4f 68bd
000003b0: cbae 403d bce7 9a3d 90df 1dbc bfc0 ab3c
000003c0: 4c72 523d 428f 54bc a26b 22bd d417 be3d
000003d0: 8a65 96bc 5b68 ab3d 2a7f a2bc 0350 bebd
000003e0: d9e6 fb3c 8a14 963d b71b bb3d 22d2 2c3b
000003f0: db2b e2bd 399b b13d fb12 7bbc 8340 463c
-0.091776505 -0.05127954 0.006791006 -0.0074492306 0.0005437249 -0.10614087 -0.0004821895 0.064022064
0.03241178 0.08896865 -0.107003435 0.08876397 0.08855474 -0.059181754 0.05519856 -0.075605996
-0.040525775 0.06710034 -0.032857824 -0.07390008 -0.05790645 -0.09140792 -0.06880763 0.010386678
0.102273285 -0.0800536 0.015566843 0.11024228 0.06148622 -0.08233807 0.022077834 0.08160497
0.030127374 -0.054323614 0.07264068 0.048696775 -0.078512475 -0.07994404 0.0864082 0.11041848
0.023574473 -0.08643737 -0.03298827 -0.01970654 0.010586268 0.0033877895 0.07089709 0.104792126
0.014439456 -0.024004921 -0.0927454 0.07496436 -0.10130028 -0.0013064013 -0.027860772 0.08806585
0.05294999 0.063503034 -0.013701393 -0.017392468 0.08067452 -0.008533185 0.04427149 -0.016817212
0.10585732 0.037206106 -0.0695476 -0.02759001 0.08420766 -0.061184935 -0.04379502 0.039400805
-0.04376166 -0.10480456 0.08373936 -0.04535792 -0.05773789 -0.09157853 -0.07004142 0.08508897
-0.0678068 -0.051705707 0.07057214 -0.1027925 -0.074231684 -0.104553804 0.008920483 0.08912626
-0.06017527 -0.08533019 0.08273649 0.1068762 0.0093060685 0.016316216 -0.08924599 0.089883916
-0.01975582 -0.0008488359 -0.07349521 -0.027206218 -0.09557633 0.017459676 -0.112487726 0.064244
-0.051073514 -0.10912334 0.042942107 0.06795262 -0.065462574 -0.10592709 -0.04074518 0.088191465
0.107773006 -0.10339149 -0.023126656 -0.09210292 0.04503794 0.07488384 0.02200773 0.07440509
0.045022633 0.102378815 0.05364674 0.030531414 -0.03697029 -0.08172958 -0.038337372 0.024973521
0.03858712 -0.0670938 0.10838838 0.09712873 0.07335033 -0.03180259 -0.03396392 -0.08430096
-0.020838402 -0.06820583 0.05889815 -0.040915865 -0.04489907 0.06284744 -0.11263402 -0.02919407
-0.03556471 -0.022817152 0.051476315 -0.043206166 0.07863328 -0.027212897 -0.0142411785 0.03767163
-0.07520059 -0.057697885 -0.09231384 0.05782927 -0.025761098 -0.030072162 0.013826533 -0.047506347
0.082278885 -0.036390357 -0.044717938 -0.103683576 -0.04953906 0.10213739 -0.044114012 0.018111266
-0.09508092 -0.0829914 0.08172452 0.042481728 -0.09857875 0.039873492 0.072538376 -0.0063050063
-0.0724823 -0.02393892 -0.10241563 -0.002318142 -0.04643365 -0.06901631 -0.010225592 -0.10769087
0.109642625 0.092674986 -0.0015554673 0.10451489 -0.11044374 -0.091708004 -0.019292424 0.094502
0.0014539417 -0.079226874 0.0036711118 -0.073796675 -0.10609736 0.07624114 -0.05798767 0.013568705
-0.099477224 -0.031389374 -0.10987706 -0.030832063 -0.07085545 -0.0015569894 -0.046309896 0.032287203
-0.032993942 -0.0640202 -0.03492035 0.04873381 0.097340435 0.05744831 0.046286896 -0.017829008
-0.05230858 -0.050979633 0.007806279 0.043938782 -0.04178912 0.1108489 -0.03942462 -0.06721558
0.09945094 -0.06026961 0.043145593 -0.0127800405 -0.007632681 -0.092151485 0.05409109 0.07933368
-0.0419528 0.04851714 0.016437411 -0.056716062 0.047041696 0.07563731 -0.009635821 0.020965932
0.051378533 -0.012973608 -0.039653428 0.092818886 -0.018358964 0.083695136 -0.019836027 -0.09292605
0.030749725 0.07328136 0.091361456 0.0026370366 -0.11043521 0.086721845 -0.0153243495 0.012100342

layers.conv2_1.bias f4 [64]
00000000: e450 e63b 8aa8 e33d b1ca bd3d eec9 25bc
00000010: 79e8 cb3c 7822 733d 8cbe 053d b07f ba3d
00000020: 2fd6 f73c 9931 223d fa62 8dbd 8880 b0bc
00000030: ef1c 5fbd f323 50ba ca41 c63d a712 47bd
00000040: 03a7 95ba 36df 90bc 3d4c 6bbd 0fdf d83d
00000050: fb2b 543d 7ef4 86bc c941 9e3d d8f2 8939
00000060: ff96 993c e707 1abd 399b cdbd a296 c93c
00000070: 6496 0bbd 3104 aabd 7db4 753d fe6b 373d
00000080: 8322 4dbb ed20 a0bc f44e caba 75d4 abbc
00000090: 277b c33d 476b 9c3d 7a3b 8fbc f882 853d
000000a0: 9c1d cfbd 7c95 0fbd 91e5 56bd a761 c13c
000000b0: 60de 74ba b440 dd3d 8beb 33bc feaf 7bbd
000000c0: 262e efbb b556 c9bc 4755 c9bc 2bdf c4bc
000000d0: d1c0 08bd 3e69 85bd a1e5 d53d 94e7 3b3d
000000e0: 0675 4d3d b838 57bc 84b4 a1bc 982c 9dbd
000000f0: 8cd7 d13d 5a0a ca3d bf33 c7bd 449b 923d
0.007028686 0.11116131 0.09267176 -0.010118945 0.024891125 0.059359044 0.032652423 0.09106386
0.030253498 0.03959808 -0.06903644 -0.021545663 -0.054470953 -0.0007939927 0.09680517 -0.048601773
-0.0011417571 -0.01768456 -0.057445753 0.1058942 0.051799756 -0.016474005 0.07727391 0.0002631161
0.018748758 -0.037605193 -0.10039372 0.02460796 -0.03407897 -0.08301581 0.05998658 0.044780724
-0.0031301088 -0.01954695 -0.0015434907 -0.02097533 0.09544974 0.07637649 -0.017484415 0.06519121
-0.101130694 -0.03505467 -0.052465025 0.023606135 -0.0009340998 0.10803357 -0.010981451 -0.061447136
-0.0072992025 -0.024577478 -0.024576796 -0.024032196 -0.03338701 -0.06514214 0.10444189 0.045875147
0.05016043 -0.013136081 -0.019739397 -0.07674521 0.102461904 0.09865256 -0.09726667 0.07158521

layers.conv2_2.weight f4 [32, 64, 20]
00000000: cd46 8ebc d6e6 47bc 5339 213c 7578 76bc
00000010: 84b5 cc3c 8dc4 a83b c233 cfbc a6f0 35bc
00000020: 3a39 8aba 7390 553a 2981 eb3b 8199 3bbb
00000030: b980 ae3c bc10 a33c 266b afbc ff2d d23c
00000040: d81b 54bc 6162 74bc 392c 51bc d07a c93c
00000050: 949c 8fbc 0a01 833c b4e9 d3bb 22db 803c
00000060: 6449 313c fc7d 39bc d41e 52bb 7f9c 9e3c
00000070: 35a4 a63b f942 83bc 34e4 953c f47b 7e3b
00000080: 092d b93c 687b 34bb bac7 a83c f4a8 223c
00000090: e687 993c c517 c43c 50c1 b13c a65d c1bc
000000a0: 1248 07bc 756a a63c 349d 2a3c 19d3 29bc
000000b0: 58ca e13b a3bc 213c b242 94bc 7890 983c
000000c0: 5f3b 443c d3f9 adbc 23e3 e33c af76 87bc
000000d0: 9136 8d3c bdce 273b 4175 cfbc ba00 c63c
000000e0: 7fce 733c e1c2 8a3b 68ed bbbc 74de 9bbb
000000f0: cf6f 2abc 8ef7 b03b b3e0 2cbb d74b 3a3c
00000100: 2c75 793c 50be f73a 66d4 22bc ed56 233c
00000110: 9c60 abbb ffea 9f3c 028c 97bc 4c5e fa3b
00000120: 9fc9 403c f62f c5bc 3a79 e6bc 6e18 c13c
00000130: c89d e0bc 0293 a4bc 82ea 5c3c ec9f b4bb
00000140: 75c9 8ebc 567b bfbb 201a 053c e488 a2bc
00000150: dd27 99bc e426 32bc f5e1 b83c 2994 a33c
00000160: 480c b7bc 9a36 773c 38b3 96bc 16bf 5dbc
00000170: 5136 78bc 2203 aebc ba56 c9bc da3f e23b
00000180: e576 9ebc 5d11 2b3c 5274 30bc 9160 66bc
00000190: ab12 22bc 60c1 cfbb f0de 5e3c d301 8e3c
000001a0: eccf b63c 843d 8ebc 3744 0db6 7058 ae3c
000001b0: 3dda ab3c af53 1d3c 531b 853c 2991 453a
000001c0: 3b7b 3a3c e0a0 9abb 1e32 8fbc 96a1 7c3c
000001d0: f758 6abc 28f9 c53b e741 b1bc d7ad d73c
000001e0: c136 773c b451 213c 744d bdbc 891f c03a
000001f0: 1d72 a83c b4e2 39bc 8845 acb9 9710 04bc
00000200: 5995 bb3c 26a2 76bb 3dd2 d93b 242f 643c
00000210: 046e 25bc 542e cf3c d8d4 5a3c b43b eb3b
00000220: b09c 8a3c 7b5b 893c 9dbd 4bbb 1555 0f3c
00000230: e285 d63c 9d24 7f3c 4367 163a a5e0 3e3c
00000240: 2b3c 5ebb 4ce6 ce3b f8e5 903c c7b4 83bb
00000250: 6ac7 963c 08fa 6bbc 4b69 83bc 7328 e6bc
00000260: 25da 01bc e21c 663c 8a44 2fbc a2eb aabc
00000270: a4cb bebc ac0a b93c cac6 ca3c b3f1 83bb
00000280: 1b93 983c 3a5c b7bb 9080 48bc 02ef c7bc
00000290: bd8d 2a3c 76ca c73c 409e 833c 9839 da3c
000002a0: a6f0 2fbc 4086 46bc ca2c a1bb 674c 953b
000002b0: fdf3 743b d5da 8c3c 873d 7f3c c376 afbb
000002c0: 8fe8 33ba 8377 903b 081d e9bc 5f4d c2bb
000002d0: 61c3 3b3c 1a72 fe3a 4dfa a1bc d315 93bc
000002e0: 17e3 c1bc 4af3 d43c 7ee1 bd3c 4988 cd3b
000002f0: a643 013c 0788 f43b 1817 a53b 18bf 823c
00000300: a165 723c 2f29 74bc be62 72bc 49d1 2539
00000310: 39c0 943c b8ed 94bc 1554 c13b c728 d83b
00000320: e3cd 903b 4750 94bc 9153 573c 234e 9f3c
00000330: 5cac 8bbb acc1 cebc 4ea1 753b f543 ae3a
00000340: 0dae 043c e34f 97bc cb8d fc3b ad78 8ebb
00000350: 6c44 b93b cab2 f13b c297 82bc 9cf9 d33b
00000360: 3acc 61bc 4167 fb3b 3f3c 4fbb 1040 563b
00000370: c206 93bc 0ac6 e0bc ad21 fa3b 813e fdbb
00000380: 5cbe c7bb dcb7 7b3c 1764 12bc 9f59 543b
00000390: 8b10 cf3a 8e6e 8fbc c1bd 9a3c 416e e6ba
000003a0: 948d c53c 578d 4abc c381 1f3c 8352 12bb
000003b0: 8d9a e03b c868 bf3c 89e3 eb3b a1be 073b
000003c0: 150b 75bc a0af 74bc b82e 363b 1760 bb3c
000003d0: ecf3 a63b 0289 e93b 106f d83c 6d37 8dbc
000003e0: b508 653c dc83 55bc 72db bd3c b9a3 693a
000003f0: 9d12 913b 5c6a f5bb 2e06 05bb 55ca 5bba
-0.017367745 -0.012201032 0.009840327 -0.015043368 0.024988897 0.005150384 -0.025293235 -0.011104738
-0.0010545619 0.000814683 0.007187028 -0.002862543 0.021301614 0.01990544 -0.021413397 0.025656698
-0.012946092 -0.0149160335 -0.012766891 0.024594694 -0.017530717 0.015991706 -0.0064670686 0.01572949
0.01082072 -0.011321541 -0.0032061832 0.019361733 0.005085493 -0.016023146 0.018297292 0.0038831206
0.022604482 -0.0027539376 0.02060305 0.009927977 0.01874156 0.023937115 0.021698624 -0.023604225
-0.008256929 0.020314435 0.010413457 -0.010365271 0.0068905763 0.009871635 -0.018098209 0.018623576
0.011977046 -0.02123729 0.027818268 -0.016536085 0.017237933 0.0025605403 -0.025324466 0.024170268
0.0148807755 0.004234657 -0.022940353 -0.004756743 -0.010402634 0.0054006046 -0.0026379048 0.011370621
0.01522569 0.0018901322 -0.009938335 0.009969455 -0.0052300226 0.019521235 -0.018499378 0.0076406356
0.01176682 -0.024070721 -0.028133977 0.02357122 -0.027418986 -0.02008963 0.013483645 -0.0055122282
-0.017430047 -0.00584356 0.0081239045 -0.019840665 -0.018695766 -0.01087353 0.022568682 0.01996811
-0.022344723 0.015088702 -0.018396005 -0.013534328 -0.015149669 -0.021241728 -0.024577487 0.0069045844
-0.019343803 0.010441151 -0.01076992 -0.014061109 -0.009892146 -0.006340191 0.013602957 0.017334854
0.022315942 -0.017363317 -2.1050344e-06 0.021282405 0.020978088 0.009602471 0.01624838 0.0007536584
0.0113819195 -0.004718885 -0.017479952 0.015419384 -0.014303437 0.0060416646 -0.02163787 0.02632801
0.015088738 0.00984614 -0.023108222 0.0014657836 0.020562226 -0.011345554 -0.000328582 -0.008060596
0.022898363 -0.003763327 0.006647377 0.013927255 -0.010097031 0.025290646 0.01335641 0.007178748
0.016920418 0.016767254 -0.003108836 0.0087483125 0.026186887 0.015572694 0.0005737433 0.011650239
-0.0033910375 0.0063140746 0.017687783 -0.004019353 0.018405635 -0.014402874 -0.016041419 -0.02809546
-0.007925545 0.014044972 -0.010697493 -0.020864312 -0.023290463 0.022588097 0.024752993 -0.0040266155
0.018624833 -0.005595711 -0.012237683 -0.02440596 0.01040977 0.024388533 0.01606667 0.026638791
-0.010738527 -0.012116969 -0.0049186694 0.004556227 0.0037376874 0.017194191 0.015578634 -0.0053547337
-0.0006862962 0.004408778 -0.028456226 -0.0059296335 0.011460156 0.0019412667 -0.019772673 -0.017954743
-0.023667855 0.025994916 0.023178812 0.00627235 0.007889664 0.007462505 0.0050381534 0.015960261
0.014794738 -0.014902397 -0.01479405 0.00015813591 0.018158065 -0.01817976 0.005899916 0.006596658
0.004419075 -0.018104685 0.013142482 0.019446438 -0.00426249 -0.025238834 0.0037480178 0.0013295399
0.008098138 -0.01847071 0.0077073327 -0.004347882 0.0056539085 0.0073760496 -0.015941504 0.0064689647
-0.013781602 0.007672221 -0.0031621603 0.0032691993 -0.017947558 -0.027438182 0.007633409 -0.0077283983
-0.0060956907 0.01536366 -0.008934996 0.003240205 0.0015797777 -0.017508771 0.01888931 -0.0017580466
0.024115361 -0.0123628 0.009735527 -0.0022327013 0.0068543614 0.023365393 0.007198755 0.002071299
-0.014956255 -0.01493445 0.0027798843 0.022872968 0.0050949957 0.0071269283 0.026420146 -0.017238343
0.013979127 -0.013031926 0.023175929 0.0008912641 0.0044272677 -0.0074894857 -0.0020297873 -0.0008384337

layers.conv2_2.bias f4 [32]
00000000: 97e6 95bb 4f39 cabb 15a8 ae3c b528 be3b
00000010: 6974 023c 90ce a5bc 99df 42bc 5ebc c2bc
00000020: a57f 3dbc 6011 72bb baf2 d03c a1fb d4bb
00000030: 3b5a a83c fff8 df3c 4907 a93c 8407 7fbc
00000040: b6f4 acbc 072d 71bc 2dbf b2bb da64 253c
00000050: 3368 d4ba 9d10 b7bb f47c 7c3c b115 2cbc
00000060: db52 1cbc 80e6 a13c f37a 443c c568 bfbb
00000070: d276 a73b 8eda ffba 7929 70bc 8a3d c0bb
-0.0045746076 -0.0061713825 0.021320382 0.0058031925 0.007962325 -0.020240098 -0.01189413 -0.023771461
-0.011566077 -0.0036936626 0.025506366 -0.006499723 0.020550838 0.02734041 0.020633357 -0.015565757
-0.021112781 -0.014720208 -0.005454919 0.010094846 -0.001620537 -0.0055866973 0.0154106505 -0.0105032185
-0.009541239 0.019763231 0.011992204 -0.005841347 0.0051106 -0.001952009 -0.014658325 -0.005866711

layers.conv3_1.weight f4 [32, 4, 49]
00000000: 0c30 08bd d223 90bc a2f3 1cbd 4376 6d3d
00000010: 82d3 dc3b d2b9 41bd 3623 27bd b913 82bd
00000020: 7a8a 84bc cc70 24bd 4d7d 14bd 50cd 8a3d
00000030: 73a2 813a 3222 87bd 9542 913d 8633 8ebd
00000040: 9447 a0bc c315 23bd 27cd 5dbd 5c46 a83c
00000050: f88e 5b3d bea4 e93c e85d 943d 7a5b 883d
00000060: 21ac 4e3d 9df4 023d bab3 84bc e477 35bb
00000070: 9ad4 f23c 5c1f 87bd a5f9 76bd 73d3 38bd
00000080: 4097 803d f805 0a3d cbef cbba 3840 583d
00000090: 4e29 80bd a105 593d 7929 5dbd 1c84 10bd
000000a0: 3a37 cdbc 8dde 303d c242 15bc 94e2 763d
000000b0: 0ab3 653b 8c46 29bd 5477 26bc 6f61 85bd
000000c0: 2a61 3abd 9954 29bd 7226 de3c 6fb5 653d
000000d0: 1207 c6bc 599d cc3c 5b29 31ba c7f7 2bbc
000000e0: 1e54 6e3d f48e 223c 3897 823b 1920 e5bc
000000f0: 1cec 183d 4b37 903d ff68 8dbd c00c febb
00000100: 8402 55bd dc78 0d3d ad9b 17bd ae77 1d3c
00000110: cdb4 513d fe65 5e3d 1698 933d 5094 1dbd
00000120: 0a92 d93a f72d feba 7c0c 753d 1eae 87bd
00000130: 62f4 aa3c 1540 05bd 8596 41bd 9ee0 76bd
00000140: b4f5 553a 130b 493d 9330 07bd 78b7 913d
00000150: 692d 8b3d fe55 873c 7afb 8d3d c8c2 74bd
00000160: e6f8 a8bb de54 20bd 411c fe3c dee4 7e3d
00000170: 2b31 77bb 1f5b c1bb 1192 073d ab20 2f3d
00000180: 35c9 55bd 9f18 943d cc88 413c 0184 afbc
00000190: 5692 8a3d 7007 f33c d78a 1abd f1a2 16bd
000001a0: 50ea 603d 6174 a33c abb4 63bd 2405 54bd
000001b0: 5da6 fa3c a80e 31bd ed9f 7d3c 4cfe 443d
000001c0: f830 d23c e637 a8bc 230c 193d 9a22 44bd
000001d0: 7aaa cdbb 15f8 1d3d 5da1 16bd 694c 913d
000001e0: 5c6e 183d bc45 70bd e399 e13c b981 5f3d
000001f0: 95ce 363b a02d 493d 9342 72bd e818 23bd
00000200: 4291 d9bc 47da 0bbc 4f1d a93c 2d50 1c3d
00000210: d8b7 f93c 5152 8b3d a0d5 ef3c bb0a bdbc
00000220: fbc0 8a3d dd3d 65bd 9a28 7fbd d0f4 a53c
00000230: c155 4a3d e739 2b3d 94e3 8dbd 4c40 60bd
00000240: 8af6 7ebd 10ff 10bd 33db a4bc 48bf ce3c
00000250: 211d 3bbd 1704 bebc 27ad d83c ac75 0d3d
00000260: 3907 8d3d 6fec 0fbd 3f6c 813d 40fb 88bd
00000270: ca44 8a3d 8ed1 d9bb 30ba cfbc 51b3 d3bc
00000280: cd9a 59bc 5431 8e3d 0af3 e9bc 98f1 743d
00000290: a2f8 6dbd 948a fdbc 74b8 323c 0067 87bd
000002a0: 8cf6 873d e7bc 82bd eb97 0bbd c8c3 d1bc
000002b0: 1283 19bd 33d0 a3bc 0ac1 553d b58f b63c
000002c0: b907 ee3c 42eb 7fbd f066 acbc c790 5f3c
000002d0: c5b7 1dbd e58d 913c 8c93 23bc b85d 62bd
000002e0: d0a6 7dbd c14b e23b 0350 343d 5c03 143d
000002f0: a78f 81bd 2481 183d 59ea 873c 4cb8 1b3d
00000300: f966 00bc 781a 8dbd e826 813b a5aa 7c3c
00000310: bd8c 7bbd 0764 373d 2a2a 573c 5e82 7b3c
00000320: ae75 88bc 26ed 7e3d 3186 28bd 3c04 ecbc
00000330: 855c 663d 637c 77bd 0be3 383c f678 1bbd
00000340: 8ffa 08bd dfe4 75bc ba06 433d 500f 2dbd
00000350: bbbb 393d 21c0 7b3b c89d 19bd 5a14 3ebd
00000360: 3a23 0a3d 628e 293d 3a08 0b3d 9557 543c
00000370: 2181 7e3d df4f 10bd 7172 6c3b 3945 38bd
00000380: 3f83 0b3d d9bc 223d dd23 01bc c216 183b
00000390: 3802 83bd b4c3 843d f2bd 1dbd 39da e93c
000003a0: 7429 48bc 7fda 2abc 3235 323d 7c27 8fbd
000003b0: 429c 3e3d e93c a6bc 1363 2cbd fd34 4c3d
000003c0: 8dfc 8bbd 0ceb 51bd 85cb 2e3d 0498 a6bc
000003d0: 2b46 84bd bf4b 133d 2290 92bb 6293 793d
000003e0: b135 b2bc 0e18 113d 676a 703d 1614 133b
000003f0: 9be4 e43c 74a0 7ab9 a594 513d 4394 583d
-0.033248946 -0.017595205 -0.038318284 0.05797411 0.006739081 -0.047296353 -0.040805064 -0.06351418
-0.016179312 -0.040146634 -0.03625231 0.067774415 0.0009890333 -0.06598319 0.07092778 -0.06943421
-0.019565381 -0.039815675 -0.054150727 0.020541362 0.053603142 0.028520938 0.07244474 0.06658073
0.050457124 0.031971563 -0.016198982 -0.0027689869 0.029642392 -0.06597778 -0.060296673 -0.04512353
0.06278849 0.0336971 -0.0015559135 0.05279562 -0.06257878 0.052983884 -0.05399463 -0.03528224
-0.025050748 0.04318099 -0.009110155 0.060274675 0.0035049343 -0.041327044 -0.010160286 -0.065127246
-0.04550282 -0.041340444 0.027117942 0.05608123 -0.024173293 0.024977373 -0.00067581766 -0.010496086
0.05818569 0.009921778 0.003985312 -0.027969407 0.037334546 0.07041796 -0.06904792 -0.0077529848
-0.052004352 0.03453909 -0.0370137 0.009611053 0.051197816 0.054296486 0.072067425 -0.03847152
0.0016599309 -0.0019392361 0.05982636 -0.06625007 0.020868484 -0.032531817 -0.047262687 -0.060272805
0.0008161918 0.049082827 -0.03300531 0.07115072 0.06795771 0.016520496 0.06932731 -0.05975607
-0.005156624 -0.039143436 0.031019332 0.062229984 -0.0037718515 -0.005900755 0.033098284 0.042755764
-0.05219384 0.072312586 0.0118124 -0.021425249 0.067661926 0.029666632 -0.037730064 -0.036776487
0.054910958 0.019952955 -0.05559222 -0.051762715 0.030596906 -0.043226868 0.015480024 0.04809408
0.025658116 -0.020534467 0.03736509 -0.04788456 -0.006276426 0.038566668 -0.03677498 0.07094652
0.037214622 -0.058660254 0.0275392 0.054567073 0.0027894129 0.049115777 -0.05914552 -0.039818674
-0.026558522 -0.008535928 0.020643858 0.0381624 0.030483171 0.0680281 0.029276669 -0.023076406
0.06775089 -0.0559672 -0.06229458 0.020258337 0.049398188 0.041803267 -0.06928173 -0.05474882
-0.062246837 -0.035399497 -0.020124054 0.025237694 -0.045682076 -0.02319531 0.026449753 0.03453605
0.06886143 -0.03513759 0.063194744 -0.06688547 0.06751402 -0.0066472953 -0.025357336 -0.02584234
-0.013281536 0.06943002 -0.028558273 0.059800714 -0.058098443 -0.030949868 0.010908235 -0.066114426
0.06638822 -0.063836865 -0.034080427 -0.025606051 -0.037478514 -0.019996738 0.05218605 0.022285322
0.029056417 -0.06248022 -0.021045178 0.013645357 -0.038505334 0.017767856 -0.009983908 -0.05526516
-0.061926663 0.006906003 0.044021618 0.036136016 -0.06326228 0.037232533 0.016591238 0.038017556
-0.007837051 -0.06889814 0.0039414056 0.015421544 -0.061413515 0.044773128 0.013132611 0.015350906
-0.016657677 0.06223788 -0.0411436 -0.028810613 0.056240577 -0.06042136 0.0112846 -0.037957154
-0.033442076 -0.01500818 0.047613837 -0.04225093 0.04534505 0.0038414078 -0.037503988 -0.046406128
0.033725 0.041395552 0.033943392 0.012960334 0.062134866 -0.03523242 0.0036078955 -0.04498789
0.034060713 0.03973088 -0.007882086 0.0023206924 -0.063969076 0.0648264 -0.038511224 0.02854644
-0.012216914 -0.01042807 0.043507762 -0.06989953 0.046535738 -0.020292716 -0.042086672 0.04985522
-0.068352796 -0.05124955 0.04267456 -0.020336159 -0.06458696 0.03596091 -0.0044727484 0.06093157
-0.021754118 0.03542333 0.058695223 0.0022442392 0.027941039 -0.00023901631 0.05116715 0.05287577

layers.conv3_1.bias f4 [32]
00000000: 3a2a babc 0859 96bc be94 be3c 4f4a fbbc
00000010: 5ab9 19bc 6679 093d 2a5a 24bd 4fcb 813d
00000020: d732 08bb 312d f73c ddf9 3abd 9eb6 e03b
00000030: 9694 ccbb 9dfc c1bc 89db babc fab7 383d
00000040: 60ed 1dbd e8a4 603d 15c4 f43c 4f04 47bd
00000050: 9e13 00bd c4ee 40bd 786b 893c 4825 2dbd
00000060: 8392 443d 9f50 49bd 2fa7 06bd cf88 223d
00000070: 603e cebc 54f6 da3c 9d5b 1bbd 48d1 21bd
-0.022725213 -0.018353 0.023264285 -0.030675082 -0.00938257 0.03356304 -0.04012505 0.06337606
-0.0020782256 0.030172916 -0.045648444 0.006857707 -0.0062432988 -0.023680026 -0.02280976 0.04509733
-0.038556457 0.054844767 0.029878655 -0.048588093 -0.03126871 -0.047102705 0.016774878 -0.042271882
0.047991287 -0.049149152 -0.032874282 0.039681252 -0.025176227 0.026728787 -0.037929166 -0.039506227
