mRNAlocalization/cnn_models/CNN_model_fold4.pth (torch, 531886 bytes, 22 tensors)

layers.bn1.weight f4 [64]
000000 e2 a2 81 3f 2a 95 7e 3f 66 0e 81 3f 17 a1 7e 3f
       1.0127833 0.99446356 1.0082519 0.99464554
000010 02 b4 81 3f 71 59 7e 3f 0a 69 81 3f 1e e5 7e 3f
       1.0133059 0.99355227 1.011018 0.99568355
000020 dc 0c 7f 3f 17 3e 7e 3f 36 20 81 3f 9e 8a 7f 3f
       0.99628997 0.9931349 1.0087955 0.9982089
000030 df ed 80 3f 62 70 7c 3f ac 2d 7e 3f 30 0a 80 3f
       1.0072592 0.9860898 0.9928844 1.0003109
000040 7d 38 7f 3f 61 a2 80 3f 8c 4f 81 3f 5a d2 7f 3f
       0.9969557 1.0049554 1.0102401 0.99930346
000050 a1 a1 7f 3f d5 78 7f 3f 70 2a 7e 3f fa 66 80 3f
       0.99856 0.9979375 0.99283504 1.0031426
000060 e6 90 80 3f ec b8 7d 3f cf 87 80 3f e8 df 80 3f
       1.004422 0.99110293 1.0041445 1.0068331
000070 51 d4 7f 3f 92 42 7e 3f ed ec 7f 3f 91 c4 80 3f
       0.99933344 0.9932033 0.99970895 1.0059987
000080 32 45 80 3f 52 0a 80 3f 32 af 7f 3f 9e 5b 80 3f
       1.0021117 1.000315 0.998767 1.0027959
000090 8e 1f 81 3f 2b a0 7f 3f 2d 2f 80 3f 12 b7 7e 3f
       1.0087755 0.9985377 1.0014397 0.99498093
0000a0 49 61 80 3f d7 06 81 3f 83 69 81 3f 1f 4b 7f 3f
       1.0029689 1.0080212 1.0110325 0.99724
0000b0 a0 5a 81 3f c2 2a 7f 3f 79 09 80 3f c1 be 7f 3f
       1.0105782 0.9967462 1.0002891 0.9990044
0000c0 b9 4f 7f 3f bb 65 7f 3f e0 89 80 3f 3e 7e 80 3f
       0.9973102 0.99764603 1.0042076 1.0038526
0000d0 84 9a 80 3f cd 2b 7e 3f fc fe 80 3f 8c 28 80 3f
       1.0047154 0.99285585 1.0077815 1.0012374
0000e0 ba 9c 7e 3f 2d a5 7e 3f 3b 5e 7f 3f 60 17 80 3f
       0.99457896 0.9947079 0.9975316 1.0007133
0000f0 33 d1 7e 3f b6 15 7d 3f 07 10 80 3f a0 ea 80 3f
       0.9953796 0.98861253 1.0004891 1.0071602

layers.bn1.bias f4 [64]
000000 8a 15 93 3c da 99 4e 3c c0 dd f8 3b 0d 0e 25 bb
       0.017954607 0.012609923 0.007594794 -0.0025185377
000010 4f 03 ad 3c ca 6b 58 bb 30 92 97 3c ae 35 36 3c
       0.021119742 -0.0033023232 0.018502325 0.011121197
000020 60 f2 fe 3a 02 ed 96 b8 d3 72 e9 3b 9e 94 5e 3b
       0.0019450895 -7.1967035e-05 0.007124284 0.0033963094
000030 18 bd 52 3c be af 19 bc 23 5e 9d bb 8a e8 2c 3c
       0.012862466 -0.009380279 -0.0048024817 0.0105534885
000040 f4 3e 22 3a 8e dd 0e 3a 3e f9 04 bb 6d e5 92 3b
       0.00061891903 0.00054498843 -0.0020290161 0.004482916
000050 5a 6d 98 3b b7 4a 89 3b 9f e6 77 bb 8b db 41 3c
       0.0046517076 0.004189815 -0.003782667 0.011832128
000060 b4 01 31 bb 0e 68 53 bb 03 e6 84 3b 8c 38 38 3b
       -0.0027009072 -0.0032258066 0.00405574 0.0028109876
000070 52 ca 0b ba a4 ff b0 39 ed 44 81 3b 44 1a 2b bb
       -0.0005332577 0.00033759803 0.003944984 -0.0026108185
000080 ba e4 8d 3b 41 96 d6 3b 7f 05 bc 3a 12 60 88 3a
       0.004330245 0.0065486734 0.00143449 0.0010404608
000090 72 46 8c 3c 2c 78 0f 3c 71 85 2d bb ff 3a 29 3c
       0.017123435 0.008756679 -0.0026477242 0.010329007
0000a0 3d 25 97 3c 89 ed 55 3c d2 36 a3 3b 4e c2 5d bc
       0.018450374 0.013057121 0.0049809003 -0.013535095
0000b0 13 d9 3c 3c 06 f1 eb 3b cf 1a 1b bb c7 8e 4e 3c
       0.011526364 0.007200363 -0.0023667102 0.012607283
0000c0 90 0b 24 3b 00 7d e5 bb 7b 95 3e 3c 96 be c6 3b
       0.0025031306 -0.0070034266 0.011632319 0.0060652
0000d0 3a d9 c5 3b e1 56 c7 bb 59 26 6c 3c bc c0 6d 3c
       0.0060378583 -0.006083355 0.01441344 0.0145112835
0000e0 fd 07 10 3b 81 bf 28 3c 01 92 09 bb 06 00 01 b9
       0.0021977418 0.010299564 -0.0020991566 -0.00012302407
0000f0 8c e1 88 39 48 9f 42 b9 b2 96 80 3c 4c cc 55 3c
       0.00026107987 -0.00018560619 0.015696857 0.013049196

layers.bn1.running_mean f4 [64]
000000 b0 e8 d0 3c cc 2b 83 bb 7d 39 d6 bd 0a cc 44 3e
       0.025501579 -0.0040030237 -0.10460184 0.1921846
000010 bb 7d 79 3e 94 41 0c 3d eb d3 2e 3d af 7f de 3d
       0.24364369 0.034242228 0.04268257 0.108641975
000020 41 50 2b 3e e7 0b 34 3d 83 06 08 3d ca 64 19 3d
       0.16729833 0.043956663 0.033209335 0.037449636
000030 f1 6d d1 bd 7d dd 07 3e c5 ed 21 3e a5 e5 51 3d
       -0.10226048 0.13268085 0.15813358 0.051244397
000040 f7 e1 87 be fb 49 0b be 7d 9e 15 3d f3 dd 53 3d
       -0.26539585 -0.1360244 0.0365281 0.05172534
000050 00 23 c8 3c c5 08 16 3e 25 82 53 b9 17 00 51 3d
       0.024430752 0.14651783 -0.0002017101 0.051025476
000060 b5 6b 19 bb 88 8f c8 3c c1 af cc 3c d6 a8 a9 3d
       -0.0023410146 0.024482504 0.02498615 0.08284156
000070 b7 fb 5e 3d aa a9 29 3e 4b 7f 21 3d fd 70 96 3d
       0.054439273 0.16568628 0.039428037 0.073457696
000080 85 5b 10 3e 38 d9 10 3e ae ae bd bb 9a 97 a4 bc
       0.14097412 0.14145362 -0.0057886457 -0.02009182
000090 53 33 82 3d 27 95 96 bc b6 6f 57 bc e7 e1 25 3d
       0.063574456 -0.018381668 -0.013149193 0.04049864
0000a0 5e 01 60 3d cc b2 54 3e d3 dd 67 3d 1c 8f b2 bc
       0.054688804 0.2077133 0.056608032 -0.021796755
0000b0 16 1b c6 bd ca 88 80 3c eb 6a 8d bc 2a 08 00 3e
       -0.09673135 0.015690226 -0.017262897 0.12503114
0000c0 73 85 46 3e bb c9 0c bd 0c 39 cb 3d d9 56 96 3d
       0.19386844 -0.034372073 0.0992299 0.073407836
0000d0 5a ae 52 be 0a f1 a1 be ef 98 6d bd 66 e7 d8 3d
       -0.20574322 -0.3162921 -0.058007177 0.10591011
0000e0 03 9c 17 3e 29 44 8a bd 97 f4 38 3c 61 7a 3b be
       0.14805607 -0.06751282 0.0112887835 -0.18308403
0000f0 71 f7 f7 3d b5 21 84 3c fb a4 8c be 59 ab 34 3d
       0.121077426 0.016129354 -0.2746962 0.044108722

layers.bn1.running_var f4 [64]
000000 b3 c4 f1 3c 2d 96 3b 3d b6 47 95 3d db c5 6d 3d
       0.029512739 0.045797516 0.072890684 0.058050018
000010 21 25 5e 3d 94 06 dc 3c 9f 18 1f 3d bd 3d 26 3d
       0.054234628 0.026858605 0.03884184 0.040586222
000020 45 e0 59 3d 5e ae 39 3d 6c 0a 18 3d c6 50 52 3d
       0.053192396 0.045332305 0.037119314 0.051346563
000030 35 a7 15 3d 1b bc 5b 3d f1 1f 11 3d 17 53 08 3d
       0.036536414 0.05364619 0.035430852 0.033282366
000040 f6 ab ea 3d 5c bf ab 3d 75 01 53 3d 9e 98 3a 3d
       0.1145858 0.08386108 0.05151506 0.045555703
000050 f5 0c 02 3d d1 9b 0c 3d 55 90 ef 3c 45 0b 55 3d
       0.031750638 0.034328286 0.029243628 0.0520127
000060 1e 0d 3e 3d 8f b9 2e 3d 46 8b 31 3d dc 6a 30 3d
       0.04639923 0.04265743 0.043345712 0.04307066
000070 bf fc 08 3d ae ec 1b 3d f5 a3 1b 3d 3a e6 28 3d
       0.033444162 0.038067512 0.03799816 0.041235186
000080 85 c1 1b 3d 8f f5 25 3d c9 11 3b 3d 0a ae 28 3d
       0.03802635 0.040517386 0.045671258 0.0411816
000090 ba 96 24 3d d4 6b 43 3d 4e b5 2a 3d bc 99 43 3d
       0.040182807 0.047710255 0.041676812 0.047754034
0000a0 5b a1 70 3d a9 83 58 3d d7 ab 2c 3d fb 87 14 3d
       0.05874763 0.052859936 0.042156067 0.036262494
0000b0 9e 0f 43 3d 43 a4 09 3d fc 33 14 3d 2c 53 4b 3d
       0.047622316 0.033603918 0.03618239 0.049639866
0000c0 97 e4 3c 3d a1 be ed 3c 07 91 20 3d 62 33 2f 3d
       0.046116438 0.029021563 0.03920081 0.04277361
0000d0 a8 25 9d 3d 73 5e b8 3d e4 77 10 3d 44 eb 07 3d
       0.07673198 0.0900239 0.035270587 0.03318335
0000e0 c3 52 32 3d 94 5c 5b 3d 94 6f 16 3d 00 82 82 3d
       0.04353596 0.053555086 0.036727503 0.06372452
0000f0 bf 9b 89 3d 97 f2 f5 3c 09 93 bc 3d e2 0c 1e 3d
       0.06719159 0.030022902 0.09207732 0.038586505

layers.bn2.weight f4 [32]
000000 89 31 83 3f 15 b9 83 3f 0c d0 70 3f b6 ee 70 3f
       1.0249492 1.0290858 0.94067454 0.94114244
000010 f9 89 77 3f 05 15 71 3f 26 85 77 3f d5 be 70 3f
       0.96694905 0.941727 0.96687543 0.94041187
000020 9e 48 77 3f b0 52 77 3f 03 9d 78 3f a8 0a 77 3f
       0.9659518 0.96610546 0.9711458 0.96500635
000030 80 22 71 3f e7 d4 77 3f 85 e0 70 3f 97 d5 77 3f
       0.9419327 0.9680924 0.9409259 0.9681029
000040 29 fe 76 3f 24 20 77 3f af 7e 77 3f 69 bb 70 3f
       0.9648157 0.9653342 0.9667768 0.94035965
000050 50 f4 77 3f a9 2e 71 3f 6c ee 70 3f 4e df 70 3f
       0.96857166 0.9421182 0.941138 0.94090736
000060 88 65 77 3f a4 7f 77 3f 7b 3d 71 3f 82 7c 77 3f
       0.966393 0.9667914 0.94234437 0.9667436
000070 2d 2e 77 3f 06 44 71 3f 73 30 77 3f a7 4d 77 3f
       0.96554834 0.9424442 0.965583 0.96602863

layers.bn2.bias f4 [32]
000000 4c d8 cf 3c d7 e2 fc 3c f5 73 75 bd 7f fb 72 bd
       0.025371693 0.030869884 -0.05992504 -0.059321877
000010 90 fa 1e 3d 0a b7 71 bd 04 de 0b 3d cc 29 76 bd
       0.038813174 -0.05901245 0.034147277 -0.060098454
000020 99 54 16 3d 71 9e 01 3d 0e 73 2c 3d cd 45 0a 3d
       0.036701772 0.031645242 0.042101912 0.033757973
000030 1c 5b 70 bd 63 21 0d 3d 7d 29 74 bd 5a a7 20 3d
       -0.05868064 0.03445567 -0.05960988 0.0392221
000040 07 33 16 3d 0a aa 12 3d d3 6b 0b 3d 74 61 76 bd
       0.036669757 0.035806693 0.034038376 -0.060151532
000050 da 38 24 3d 7f d8 70 bd 68 8a 73 bd c4 5e 74 bd
       0.04009328 -0.058800217 -0.059458166 -0.059660688
000060 65 38 0f 3d 32 e9 05 3d d6 d4 6e bd 4d 3f 17 3d
       0.03496589 0.032693096 -0.058308445 0.036925603
000070 45 26 10 3d ae 5f 6e bd f3 59 11 3d 59 3d 04 3d
       0.035192747 -0.058196716 0.035486173 0.03228507

layers.bn2.running_mean f4 [32]
000000 91 67 98 3f a1 86 68 3f 99 31 73 3f c1 20 b8 3f
       1.1906606 0.9083043 0.94997555 1.4384996
000010 d5 38 30 3f b4 6b 81 3f 71 d3 34 3f e4 9f 87 3f
       0.6883672 1.0110993 0.70635134 1.059567
000020 a3 65 31 3f 88 27 4b 3f 0c c3 15 3f 27 72 39 3f
       0.6929571 0.79357195 0.5850074 0.7243981
000030 75 8b c3 3f 35 12 21 3f a5 50 bb 3f a1 4f 27 3f
       1.5276934 0.62918407 1.4633986 0.6535588
000040 91 cc 48 3f 12 dc 2e 3f 39 93 30 3f d7 43 89 3f
       0.78437144 0.6830455 0.68974644 1.0723828
000050 81 6a 01 3f ba c1 92 3f 5b b1 8a 3f 50 87 8a 3f
       0.5055314 1.1465371 1.0835375 1.0822544
000060 ab 64 11 3f bd 25 27 3f 0c 42 44 3f 31 03 23 3f
       0.5679423 0.6529196 0.7666328 0.63676745
000070 1a 3d 2e 3f 9e 63 3b 3f 33 8d 32 3f b5 c8 43 3f
       0.68061984 0.7319888 0.697467 0.7647813

layers.bn2.running_var f4 [32]
000000 b2 e3 69 41 d6 bf be 40 32 ee 09 41 45 9b 37 41
       14.61809 5.9609175 8.620653 11.475408
000010 ec 84 d3 40 38 11 8d 41 78 0f e0 40 50 f7 06 41
       6.609976 17.633408 7.0018883 8.435379
000020 a7 85 d3 40 c4 30 e9 40 b0 8e e4 40 5b c2 d4 40
       6.610065 7.287203 7.142418 6.648725
000030 43 f4 9d 41 7b ec da 40 03 4c 8f 41 5b 87 de 40
       19.744268 6.8413672 17.912115 6.954023
000040 2f 8b e5 40 f4 1b d3 40 53 e7 d8 40 d7 d2 09 41
       7.17324 6.5971622 6.778238 8.613975
000050 4f 76 e2 40 cb dd 89 41 38 dd 02 41 74 80 05 41
       7.076942 17.233297 8.1790085 8.343861
000060 66 f2 d6 40 59 6d d3 40 0c 1f 2e 41 8c cc e5 40
       6.7170897 6.607098 10.88258 7.181219
000070 ef aa da 40 fe 8d 2e 41 5c f8 e0 40 d9 e6 df 40
       6.833366 10.909666 7.0303173 6.9969296

layers.conv1_1.weight f4 [64, 4, 9]
000000 55 c6 87 3c 51 d5 85 3d 41 c4 0f 3d e1 f2 bc 3d
       0.016574064 0.065348275 0.03509927 0.09226013
000010 37 62 05 3e 15 bf c3 bd 76 1a 84 3d 10 7e 2b b9
       0.13025747 -0.095579304 0.064503595 -0.00016354793
000020 41 ea 2a 3e 0e b7 64 bd 5a 85 9b bd 86 21 e3 bc
       0.16690923 -0.055838637 -0.07593794 -0.027725946
000030 96 6e 1c 3c af a3 90 bd 1e df 06 3e a6 5d 69 bd
       0.00954785 -0.0706247 0.1317105 -0.056974076
000040 92 a7 18 3e 19 fc fa ba 97 c7 67 bd d9 7f 1b 3e
       0.14907673 -0.0019148617 -0.056586828 0.15185489
000050 b8 4b 17 be f9 81 37 bd 5f bb bc bd b3 08 f7 3d
       -0.14774978 -0.044801686 -0.09215426 0.12062206
000060 78 20 2e bd b1 2e df 3d 84 e7 8f 3d 8d 81 02 be
       -0.042511433 0.108975776 0.0702658 -0.12744732
000070 09 e5 f3 bc a9 1e 80 bc 09 1b 13 3e db 44 20 3e
       -0.029772298 -0.01563962 0.14365782 0.15651266
000080 93 b0 1b be 5a 90 18 3d 0b 70 f2 bd 10 01 d3 bd
       -0.15204076 0.03724704 -0.11837777 -0.10302937
000090 45 e8 a9 3d 9a bc 83 3d 4e 9b d7 3d 9a b2 cf bd
       0.08296255 0.06432457 0.10527669 -0.101414874
0000a0 a5 b0 9a bd e3 08 93 bc e2 75 68 3d 4c 90 20 be
       -0.075532235 -0.017948573 0.056753047 -0.15680045
0000b0 3b c9 77 3d fa 0a 9b bd 3e 4b 41 bd b6 30 4e bd
       0.060494643 -0.07570453 -0.047190897 -0.050339423
0000c0 95 1c 00 3e 8e d7 25 3d 86 13 15 be 0c df c2 3d
       0.12510903 0.040488772 -0.14558229 0.09515199
0000d0 f3 46 29 be db 62 36 3d 56 71 37 bc aa 80 ee bb
       -0.16530971 0.04452787 -0.011196455 -0.0072785215
0000e0 d1 e4 5d 3b 78 f5 c5 bd 3a 90 96 bc 4b 41 16 bd
       0.003385831 -0.0966596 -0.01837932 -0.036683362
0000f0 e0 83 62 3d 7c 9d ce 3d a1 27 ee bd c7 87 ec bd
       0.055301547 0.100886315 -0.11628652 -0.11549335
000100 08 14 0b be 5e 44 2d be 08 4b 7e bd b8 38 fa 3b
       -0.1358186 -0.16920611 -0.062083274 0.007636156
000110 5b 34 eb bd c9 f9 de bd 22 58 22 be 69 c0 14 be
       -0.114845954 -0.108874865 -0.15853932 -0.14526524
000120 3f 43 43 3d 4f bc ba bd 76 f6 1e 3e 8f ca 0d 3d
       0.047671553 -0.09117948 0.15523705 0.034617003
000130 95 a8 94 bc 3c 3e 0c bd ba 58 4e bd 34 20 0e 3e
       -0.018146792 -0.03423904 -0.050377585 0.13879472
000140 75 6f 24 3e fd 2c a4 bd 6b 4a be bd 03 9a b4 3c
       0.16058142 -0.08016393 -0.09291538 0.022046095
000150 cd 34 67 3d f8 a9 37 3e bb b4 e9 bd 6e ba a9 3d
       0.05644684 0.17935932 -0.11411425 0.08287512
000160 c4 9a b8 3d 49 eb 13 be 35 d3 e6 3c 94 7c 3a bd
       0.09013894 -0.14445223 0.028176883 -0.045528963
000170 67 e0 32 3d 6c 33 4f bd a5 40 62 3d 63 2b d5 bd
       0.043671038 -0.05058615 0.05523743 -0.10408666
000180 86 99 fc bc 0b 1a f7 bd c8 9e 8b 3b fc 49 19 3e
       -0.030834924 -0.12065514 0.0042608716 0.14969629
000190 1e 8e 5d 3d 39 8e 1b 3d 96 fc 55 3d 40 d9 be 3d
       0.05409061 0.03797743 0.052242838 0.09318781
0001a0 76 b5 02 be 42 42 00 bd 22 8f df bc 44 1e 0c be
       -0.12764534 -0.03131319 -0.02728993 -0.1368342
0001b0 52 28 0e be b7 cc e9 bd 8b ff 93 3d 37 5b f2 3d
       -0.13882568 -0.114159994 0.07226475 0.11833804
0001c0 7a ba 15 be 22 52 f4 37 79 c0 b1 bd 74 bc f9 3d
       -0.14621916 2.9125313e-05 -0.08679289 0.12194148
0001d0 f4 0c c0 bd 46 08 71 bd 5c a7 95 ba f3 b7 be bd
       -0.093774706 -0.05884578 -0.0011417675 -0.09312429
0001e0 47 25 7b bb 52 55 a1 bd 71 eb 06 3d 3f 73 1d 3c
       -0.003832178 -0.07877602 0.03293938 0.009609996
0001f0 09 64 c7 3d 49 ac 8d 3d 55 40 02 3e 8c e5 13 be
       0.09735877 0.069176264 0.12719853 -0.14443034
000200 95 be 8d bd f4 a5 8c bd 6a ea 95 bd 29 37 7d 3d
       -0.06921116 -0.068675905 -0.073201016 0.061820183
000210 93 a3 86 3d d7 9b db bd f2 5b 05 be e2 89 26 3e
       0.06574168 -0.107230835 -0.13023356 0.16263536
000220 56 a9 19 3e e4 54 31 3d ec 76 9b bd 27 a9 f1 3d
       0.15006003 0.04329385 -0.07591042 0.117998414
000230 69 7f de bc 0c 6a 16 3e 8b 07 ef 3c f0 8c 10 3d
       -0.027160363 0.14688891 0.029178401 0.03529066
000240 12 63 b0 bc 74 f1 a4 bd 36 1b a5 3d d4 d4 8a 3d
       -0.021531615 -0.08053866 0.08061831 0.06778875
000250 e9 fb 20 3d 0b e0 b1 3d 38 9d 01 be 79 a1 cc bc
       0.03930274 0.08685311 -0.1265763 -0.02497934
000260 c9 06 0a be 6e 01 21 3d 0c 07 c5 3d 9e 39 23 3e
       -0.13479151 0.039308004 0.09620485 0.15939948
000270 36 7b 0e be 8c 4c ef 3d 6d c5 94 3c f0 a9 48 3d
       -0.13914189 0.11684522 0.018160546 0.04899019
000280 e5 6b f9 bd 98 cc cf 3c 65 2a cf 3d 8b 8e 10 3e
       -0.121787824 0.025366113 0.10115508 0.14116876
000290 db 4e 05 3e af d4 8e 3d 28 3b 25 3d 6f 32 f9 bd
       0.13018362 0.0697416 0.04033962 -0.121678226
0002a0 cf 2b 10 3b 7b 6f fa 3d 6b 8f d8 3c db 8c 47 bd
       0.0021998768 0.122282945 0.026435575 -0.048718315
0002b0 9a 7f 79 bd 25 0f ef 3d 0b 49 d4 3d 4c df f8 3d
       -0.060912706 0.116728105 0.10365494 0.121519655
0002c0 00 cb 9d 3c 85 28 6c bd d8 21 89 bd bf 69 d5 3d
       0.019261837 -0.05765583 -0.06695908 0.1042056
0002d0 6e 63 21 bd 1c 6e ed 3d 7e 86 5b 3d e2 87 0a 3d
       -0.039401464 0.11593267 0.05359506 0.033820994
0002e0 0f 9f 88 3d 69 89 04 be 35 73 cd 3d 13 45 d2 bd
       0.06670963 -0.12943043 0.100317396 -0.10267081
0002f0 22 89 c4 bd 9d 33 d5 3d b9 38 61 3c 3d 26 25 be
       -0.095964685 0.10410235 0.013746434 -0.16127868
000300 49 c6 3b 3d a5 29 06 3e 25 eb 53 3d 36 38 d6 bd
       0.045843396 0.13101824 0.051737923 -0.1045994
000310 1c 16 ce bd 4d 62 1d bd 2c ce ec bd e9 37 e5 3c
       -0.10062811 -0.038423825 -0.11562762 0.027980762
000320 d0 2b 8d 3d cd fe 08 3e c9 4d f7 3c 2e 1b 2a 3e
       0.06893122 0.13378449 0.030188458 0.1661193
000330 3a a3 2f bd 19 24 03 be 7a 62 1d be 5a 39 1b 3e
       -0.042880274 -0.12806739 -0.15369597 0.15158597
000340 78 8a ab bd 83 e9 18 be ab c0 25 3d da da e7 3b
       -0.0837602 -0.14932828 0.040466946 0.0070756497
000350 d6 c9 ac 3d 97 09 1a be 35 0e 88 3d e3 f3 85 bd
       0.08436935 -0.1504272 0.06643335 -0.06540658
000360 6d 5f c9 3b c2 91 8c 3d 26 2e b7 3d 8d 3f c6 bd
       0.006145409 0.068637386 0.08944349 -0.0968009
000370 01 54 d3 bd c2 9e ac 3c 4b 83 a4 3d 2b 2d 56 3c
       -0.10318757 0.021071795 0.08032855 0.013072292
000380 0d ff 42 3d 8f e3 8a bd f5 72 56 3c 0b 26 d2 3d
       0.047606517 -0.067816846 0.013088931 0.10261162
000390 dd db da bd e2 2b 1a be b6 af 23 3e dd 66 91 3d
       -0.10686467 -0.15055802 0.15984997 0.07099698
0003a0 7f e4 0f bc 07 27 05 3e 78 7e 63 ba 74 36 7b b9
       -0.008782505 0.13003169 -0.0008678208 -0.0002395751
0003b0 a4 7b ee 3d a9 93 c6 3d 55 da 2a 3e d8 68 99 3d
       0.11644676 0.09696133 0.1668485 0.074907005
0003c0 c7 3c dc 3c bf 41 10 be 65 9f 0d bc 1a e5 d7 3d
       0.02688445 -0.1408758 -0.00864396 0.105417445
0003d0 a5 55 10 3d 2d 8c 07 3e 05 42 86 bd c0 cb 28 be
       0.035237927 0.13237067 -0.06555561 -0.16483974
0003e0 41 e9 01 3e a0 6a 83 39 8e df d0 3d 85 02 ec bc
       0.12686636 0.0002506571 0.1019889 -0.028809795
0003f0 4b 61 dc bc b8 1f f5 3d a2 7d 0d bb 3d cb 06 be
       -0.026901862 0.119689405 -0.0021589776 -0.13163467

layers.conv1_1.bias f4 [64]
000000 33 1e ee bd de 0b 3e bd cd 89 b3 3d 47 3b 27 3e
       -0.11626854 -0.046398036 0.08766518 0.16331206
000010 71 d9 28 3e cf fe 17 3e 99 3a 05 be 14 f2 23 3e
       0.16489197 0.14843296 -0.13010634 0.16010314
000020 00 a5 22 3e 6f 76 d2 bd 60 e6 39 bd 28 d1 c0 bd
       0.15883255 -0.10276496 -0.04538572 -0.094148934
000030 00 25 88 bd f8 26 ad 3d ef 6e 56 3d 9b a3 8e 3d
       -0.06647682 0.08454698 0.05235189 0.06964799
000040 05 27 d0 bd b6 20 c7 bd 54 6f eb bd 01 1c 18 be
       -0.101636924 -0.09723036 -0.114958435 -0.14854433
000050 1f bb 32 bd 5f 34 05 3e ef 0c bf bc 36 d5 74 bd
       -0.043635484 0.13008259 -0.023321597 -0.059773646
000060 28 1d cf bd f3 f0 90 bd fc ff 24 be 13 a2 d0 3d
       -0.10112983 -0.070772074 -0.16113275 0.10187163
000070 e7 7f e3 3d dc 77 1a 3e 5f 5e 97 3d be d5 99 bd
       0.1110838 0.15084785 0.07391047 -0.07511471
000080 ef 65 67 bc c6 05 0a 3e 48 ec fd bd 58 cc 28 bd
       -0.014123424 0.13478765 -0.12398583 -0.041210502
000090 eb 35 e5 bc 18 12 3c bd a4 26 fd bd b6 fc bf 3d
       -0.027979812 -0.045915693 -0.12360886 0.09374373
0000a0 00 d0 a1 3d 23 ac fb 3d 94 4e 9a 3d b5 25 0d be
       0.07901001 0.12288692 0.07534519 -0.13783915
0000b0 c9 ee 0a be 70 13 3b 3d cb 98 f2 3c dd f6 16 3e
       -0.13567652 0.045672834 0.029613873 0.14742608
0000c0 b4 b1 f9 3d f6 b7 f4 bd 3b 95 a4 bd fc 5a 0e 3e
       0.12192097 -0.1194915 -0.08036276 0.13901895
0000d0 f9 8f 80 bd 8f 5b 1a be ea c3 51 bd 98 32 25 3e
       -0.062774606 -0.1507399 -0.05121223 0.16132581
0000e0 4d fd a3 3d 73 43 d7 bd 79 e7 31 bc 64 08 fe bd
       0.08007298 -0.10510912 -0.01085841 -0.12403944
0000f0 9b a1 05 3e e5 d4 0b 3e f0 99 09 be 07 02 e4 bd
       0.13049929 0.13655432 -0.13437629 -0.11133199

layers.conv1_2.weight f4 [32, 64, 9]
000000 d6 8a 8a bc c0 76 d6 3c 97 5c 9f 3c ea 0b 31 3d
       -0.016911905 0.026179671 0.01945333 0.043224253
000010 95 50 13 bd 7c 3b d0 3c 44 cf 1a bd 4f 55 24 3d
       -0.03596552 0.02541899 -0.03779532 0.04012042
000020 be 15 04 bd d8 26 19 bd cc 44 09 3d 9f 48 f3 3a
       -0.032247297 -0.03739056 0.033512875 0.0018561071
000030 5a 3a d0 3c 67 f8 72 bc be b8 d0 3c a1 4b e8 3b
       0.02541845 -0.014829732 0.025478717 0.007089094
000040 8e 6c 89 bc 39 ea 00 bc 48 a6 75 3b 1c 58 6a 3b
       -0.016775396 -0.007868343 0.0037483145 0.0035758084
000050 e7 96 17 3c 26 1e 71 bc 60 7b 1c 3d 65 a8 4f bc
       0.0092522865 -0.014716661 0.038203597 -0.012674426
000060 b6 e7 b3 bc 0e ba 13 3d fd 16 df bb 05 cc ae 3c
       -0.021961074 0.036066107 -0.0068081603 0.021337518
000070 6f 93 02 3d e9 da 18 3b 39 cd b9 3c 41 35 84 bc
       0.031878885 0.002332384 0.022680866 -0.016138675
000080 cc 47 de 3c 65 68 b8 3b 90 ae ec bc d2 2c cc 3c
       0.027133845 0.005627679 -0.028891832 0.024923716
000090 61 a2 c3 bc f4 18 8f 3c 01 4f 5f bc 56 99 40 3c
       -0.02388114 0.017467953 -0.013629676 0.011755308
0000a0 51 69 24 bd 08 5e 15 3d 56 81 ad bc 17 a4 e6 3c
       -0.0401395 0.03646663 -0.021179836 0.028154416
0000b0 d4 90 bf 3c 37 10 0d bd 13 8b be bc 5b ee e5 bc
       0.02338449 -0.03443929 -0.023259675 -0.028067758
0000c0 84 84 85 3c 33 47 9d 3c ea b8 e3 3c 5d 43 1c 3b
       0.01629854 0.01919899 0.027798135 0.0023843863
0000d0 79 7e d8 bc 24 ba ca bc 89 35 c9 bb bf 63 35 bd
       -0.026427494 -0.024746962 -0.006140415 -0.04428458
0000e0 8a 1d 9a 3c b9 c3 13 bd 0b 43 1f 3d 15 05 43 3d
       0.018812913 -0.036075328 0.038882297 0.04761227
0000f0 c7 f3 43 bc 94 b0 54 3c c3 a5 34 bd 1d 94 03 3d
       -0.0119599765 0.012981553 -0.044103395 0.032123674
000100 52 32 89 bc 14 63 21 3c b9 a7 29 bd 3e b4 a1 3c
       -0.016747627 0.009850282 -0.04141972 0.019739266
000110 a9 29 4d bc 9d 91 00 bd e6 8d 82 3c 92 5f ab 3c
       -0.01252214 -0.031388868 0.015936803 0.020919595
000120 41 a8 98 bc 37 64 08 3d 83 ee 62 3c 9d c1 bc bc
       -0.018634917 0.033298697 0.013850811 -0.02304154
000130 a8 29 fd bc ca ab 07 3d 25 01 de 3c fa e2 1d bd
       -0.030903652 0.033122815 0.027100155 -0.03854654
000140 44 a3 df bc 36 66 2a 3d 84 31 da bc c6 3c 99 3c
       -0.02729953 0.041601382 -0.026634939 0.018705737
000150 48 e9 6c bc a2 62 01 bd 56 ee 22 3d 6d b0 ba 3b
       -0.014459915 -0.031588204 0.039778076 0.005697301
000160 a9 8e 7b bc 3b 87 a9 3c b2 d4 ea 3c 32 32 de bb
       -0.015353837 0.020694366 0.028665874 -0.006780886
000170 72 85 1d bd 7d 9c 11 3c c6 06 10 bd 99 66 fc 3c
       -0.03845734 0.008887407 -0.03516271 0.030810641
000180 cf c7 f1 3c 72 4a 9d bb d6 c5 f7 3c 08 f8 74 bc
       0.029514221 -0.0048001343 0.030245703 -0.014951713
000190 d8 6e 26 bd 76 66 ca bc 38 a4 06 bd f3 02 99 bc
       -0.040633053 -0.02470706 -0.032871455 -0.018678164
0001a0 34 b7 94 3c fd 94 5f ba 85 07 64 bb bb b0 e7 3b
       0.018153764 -0.0008528976 -0.003479452 0.0070706285
0001b0 8c ab 59 3c 52 34 35 bd 5a 1d bb 3c 24 01 cd 3b
       0.013285529 -0.04423935 0.022841144 0.0062562395
0001c0 86 13 04 bc f5 8d bf 3c 1c 03 55 3d f1 df f8 3c
       -0.008061295 0.02338312 0.05200492 0.030380221
0001d0 a7 f2 cb 3b 4f bb ab bc 1c 3e e1 bc ca dd f5 3a
       0.006223995 -0.02096334 -0.027495436 0.0018758115
0001e0 e2 40 61 3c d6 ce 81 bc eb 19 bd bc fd 56 1a bd
       0.013748379 -0.015845697 -0.023083648 -0.037680615
0001f0 94 12 6d 3c 54 25 41 3b ae 1b 48 3c f3 70 0a 3c
       0.014469761 0.0029471712 0.012213631 0.008449781
000200 a2 ec ec 3c d6 59 20 bc 51 71 db 3a b9 90 1b bb
       0.028921429 -0.009787044 0.0016742145 -0.0023737384
000210 7c c7 f2 3a d8 1b 38 3c df f5 84 3b 38 81 ad bc
       0.0018522586 0.011237107 0.0040576304 -0.02117978
000220 94 2f ef bc 10 56 d5 bc d4 31 e6 3c 5c a7 d0 3c
       -0.029197492 -0.026042014 0.028099932 0.025470428
000230 6d d8 f3 bc 6e e1 3c 3d d4 85 2e 3d 8e ac f4 bc
       -0.029766286 0.046113424 0.042608097 -0.029867437
000240 16 e0 04 bd c2 b3 f3 3c d2 3b 87 bc 2d 1b 99 3c
       -0.032440268 0.029748801 -0.016508017 0.018689716
000250 0c 94 fa 3c 87 91 55 3c e7 6a a8 3b 4c 0d b4 bc
       0.030588172 0.013035185 0.005139697 -0.021978997
000260 f9 f2 84 bc 56 74 17 bd a1 86 27 bb 57 c4 87 3c
       -0.01622914 -0.03697618 -0.0025562423 0.016573114
000270 ce 17 18 bd 00 80 81 3b 16 bb ce ba 5c bf dc bb
       -0.037132077 0.0039520264 -0.0015772309 -0.006736679
000280 ca 01 b3 bc 29 15 19 3c 38 00 0e bd 3c 29 56 3c
       -0.021851439 0.009343424 -0.034668177 0.0130713545
000290 8d e3 24 3d 43 a0 8b 3c 16 9e ba bc a9 7c fb 3b
       0.04025607 0.017044192 -0.02278046 0.0076747728
0002a0 3b 12 25 bc 6d 76 11 bb fa d0 67 bb 05 51 d5 3c
       -0.010075147 -0.0022195831 -0.0035372362 0.02603961
0002b0 27 06 ba 3c d6 73 d4 bc bc e7 21 3c 10 ed 5b 3c
       0.022708012 -0.025934141 0.00988191 0.013423219
0002c0 98 f2 16 3d 14 6d d8 bc 25 00 51 bc ee cc 0d bd
       0.03685245 -0.0264192 -0.012756382 -0.034619264
0002d0 5e 09 bd b9 2a 37 15 3b 49 8d a5 3c 43 c5 48 3c
       -0.00036055868 0.0022768476 0.020208972 0.012254062
0002e0 85 3f 99 3c 41 46 db 3b 27 61 8a 3c 86 bd 26 3d
       0.018707046 0.0066917245 0.016892029 0.040708087
0002f0 08 b4 0f bc e5 e5 99 bc a3 07 f8 3c 9d 5d 22 bb
       -0.00877095 -0.01878638 0.030277079 -0.0024775036
000300 58 81 ba bc 8b fb 8c 3c e1 cd 1d ba 8f e4 0c 3d
       -0.022766754 0.017209789 -0.0006019753 0.034397658
000310 56 0e 3b bc 5a 25 40 bd b6 ba 41 3d ae b0 84 3c
       -0.011416992 -0.04691062 0.047297202 0.016197529
000320 72 15 c9 bc 36 51 54 3c e9 ef b2 bc a9 0a fc bc
       -0.024546359 0.012958815 -0.021842914 -0.030766802
000330 96 45 41 3d e3 79 d9 bc bc 65 46 3c 08 4a 8b 3b
       0.047185503 -0.026547378 0.012109216 0.0042507686
000340 36 a6 14 bd fd 1a 33 3d 87 d4 e1 bc f4 29 15 3c
       -0.036291324 0.04372691 -0.027567161 0.009104241
000350 09 d6 62 3c 04 f4 9a bc c6 e2 21 bc f4 31 2c bc
       0.013844975 -0.018915184 -0.009880727 -0.010509957
000360 72 83 a6 bc fa dd 3e 3c 73 97 b6 3c ab 83 17 bc
       -0.02032635 0.011649603 0.022289013 -0.009247701
000370 d8 11 3b 3b 7a c0 fd bc fa 7f 31 3d 26 90 b6 3b
       0.0028544571 -0.030975569 0.04333494 0.005571383
000380 63 24 9c 3c d0 b3 fb bb fe 42 f7 3a 72 ea b3 3c
       0.01906032 -0.0076813474 0.001886457 0.021962378
000390 7d 09 77 3c 48 8f fc 3c 60 1f 19 3c d9 e8 39 bc
       0.015077946 0.03083004 0.009345859 -0.011347019
0003a0 d2 23 38 bc 78 f4 f6 bc 48 c9 44 bc 5a 4b 4c 3d
       -0.011239009 -0.030145869 -0.01201088 0.04987655
0003b0 3b c7 09 bd 86 b9 b0 bc 2b 33 b6 3c 02 d5 74 bb
       -0.033637267 -0.02157284 0.022241196 -0.0037358408
0003c0 5f 40 cf bc 78 b1 b8 3c a6 9c 6a bb 82 87 27 3b
       -0.02529925 0.022545561 -0.0035798936 0.0025562947
0003d0 b5 54 09 3c 16 f8 09 3d 85 17 44 3d 6d 55 01 bc
       0.008382012 0.03368386 0.047873992 -0.007893902
0003e0 a5 4d b7 bc 5d a1 b7 3c df 8d 20 3d c5 48 b1 3c
       -0.022375891 0.022415811 0.0391978 0.021641145
0003f0 7d 53 7e bc da 63 05 3d 88 2a e1 3c b4 5d 97 bc
       -0.015522835 0.03256593 0.0274861 -0.018477298

layers.conv1_2.bias f4 [32]
000000 d8 35 08 bd 58 4a 05 3c 97 af cb bc a5 43 de bc
       -0.033254474 0.008135401 -0.024864001 -0.027131865
000010 16 1a 36 bc 32 4b 83 bc 8c 15 14 bd d4 c9 e2 bc
       -0.011114618 -0.016027067 -0.03615336 -0.02768413
000020 c1 9e 38 bc 5d 18 e9 3c c3 e8 8b 3c 3b 8f 23 3d
       -0.011268319 0.028454 0.017078763 0.039931517
000030 b2 54 a7 3c 7a e2 ac bc 13 4a bd 3b f4 0a 27 bd
       0.020426128 -0.021104086 0.0057766526 -0.04078193
000040 7c ca 03 bc 01 ae 0f 3d 5c 57 8b 3b 01 f6 43 bc
       -0.0080438815 0.035078052 0.0042523574 -0.011960507
000050 ce 71 27 3d e1 9d 0a bd 46 1c 17 3d a3 45 85 3b
       0.040880017 -0.03384197 0.036892198 0.0040671392
000060 f8 d6 12 bd ce a8 44 b9 b5 c9 21 3d d1 22 05 bd
       -0.03584954 -0.00018754901 0.039499003 -0.032503907
000070 e2 a1 47 3c 2f e6 14 bd a2 28 8a bb c0 b6 e8 3c
       0.012184592 -0.036352333 -0.0042162696 0.028407454

layers.conv2_1.weight f4 [64, 4, 20]
000000 9b 1d 1c bd 24 e8 0c bd 32 6a ba bc 11 64 2e 3d
       -0.03811417 -0.034401074 -0.022755716 0.0425759
000010 dd f5 f3 3c 73 7d 3a 3c 21 08 d1 3d d4 49 38 bc
       0.029780323 0.0113824485 0.102066286 -0.011248071
000020 69 60 38 bd 7f 66 95 bd e8 02 e5 3d 91 d5 bd 3a
       -0.04501382 -0.0729494 0.11182195 0.0014483203
000030 d4 92 be bc b5 1e 2b 3d 74 8f 7d 3d be 77 3b 3c
       -0.023263372 0.04177733 0.061904386 0.011442123
000040 3b 2d cf 3c d8 a7 f1 3c 6c ba cf bd 4e 88 07 3e
       0.025290122 0.02949898 -0.10142979 0.1323559
000050 45 f3 49 3c e6 9d 95 bd 29 c0 8f bd 4f b5 4c 3d
       0.012326066 -0.07305507 -0.070190735 0.049977597
000060 9d 08 96 bd 1a eb 09 3d b1 11 97 bc 7b 46 a5 bd
       -0.073258616 0.033671476 -0.018441053 -0.08070084
000070 0f 50 b4 bd 00 d6 d5 3d d6 7b ef 3c 18 45 94 bd
       -0.088043325 0.10441208 0.029233854 -0.07239741
000080 2c bf d0 3d dd 1f 91 3d 1b 00 a8 bd 9f 4b 37 3c
       0.10192713 0.070861556 -0.08203145 0.011187463
000090 76 93 ba 3d 7c c1 6d bd 37 fa af bd 0d ee 57 bd
       0.09110157 -0.05804585 -0.085926466 -0.052717257
0000a0 01 59 9a bd 6a c1 9c bc 3d 17 71 3d b9 40 8e 3d
       -0.075365074 -0.019135196 0.058860052 0.069459386
0000b0 47 55 77 3d 19 cc e2 bc 59 d7 a5 bc da d4 ae 3c
       0.06038406 -0.027685212 -0.020244287 0.02134173
0000c0 92 df 87 bd 60 61 11 bd 97 b7 c5 bc 9f ba 19 3c
       -0.066344395 -0.035493255 -0.024135394 0.009382873
0000d0 db c6 70 3d c8 8b 5e bc 7e a1 d3 bd b1 00 92 3d
       0.058783393 -0.013583131 -0.103335366 0.07129038
0000e0 0b fa a9 3d 26 b3 77 bc 4e 4f 3d bd 5a c7 81 bd
       0.08299645 -0.015118396 -0.04621821 -0.063368514
0000f0 bd 26 7d bd aa e8 3e bd 14 c6 a1 3d a2 af 2e 3d
       -0.06180452 -0.046608604 0.078991085 0.042647965
000100 f7 80 ff bb 8b f0 ac bc e1 2a 10 bd b6 3d 35 3d
       -0.007797356 -0.021110794 -0.035197143 0.044248305
000110 31 63 cb ba 97 51 e8 bb 19 e1 8b 3d 22 5c c3 3d
       -0.0015517232 -0.0070898044 0.06830043 0.09539057
000120 12 53 b0 bd fd 16 00 bd 56 ff 88 bb 69 ad 8d 3d
       -0.086095944 -0.031271923 -0.004180829 0.06917841
000130 2b d7 3b 3d e6 22 95 3d 1a 95 6a 3d ec 7e cd 3d
       0.045859497 0.07282047 0.0572711 0.10033974
000140 fb 7f 32 bd 9d da 0a 3e 55 72 a9 bc 9d 67 a1 3d
       -0.043579083 0.13559957 -0.0206844 0.07881091
000150 a3 a6 e8 3b 99 86 4a 3d 09 bc e2 bc f0 68 4f bd
       0.007099943 0.04944477 -0.027677553 -0.050637186
000160 e0 85 8c bd 1c a6 aa 3d c1 da 94 bc 26 d8 bf 3d
       -0.06861472 0.08332464 -0.018170716 0.09367399
000170 62 9e 32 3c 3d 86 55 bd e3 f4 5e 3d f9 8b 66 bd
       0.010902019 -0.052129973 0.05443276 -0.056285832
000180 f9 a9 88 bc 5a ac ef bc f7 95 5c 3c 7a 42 11 bc
       -0.016682612 -0.029256988 0.013463489 -0.008865947
000190 ad 79 73 3d 3a 57 c4 3d 06 52 5c 3d 60 32 0e 3c
       0.05944221 0.0958695 0.05378916 0.0086790025
0001a0 6e c6 df 3d ae 4f b0 3d 78 f6 c6 bd 66 16 ec 3c
       0.10926519 0.08608948 -0.09714979 0.028819274
0001b0 f8 cc 18 3b db 95 3a 3d 72 f6 cc 3d 28 27 41 3d
       0.002331553 0.04555307 0.10007943 0.047156483
0001c0 86 b9 c3 bd 43 3e 1b 3d 28 fc c8 3d f5 d4 8f bd
       -0.0955687 0.037901174 0.0981372 -0.0702304
0001d0 66 90 a6 3d 21 5c ba 3d 4a a3 97 bd 96 c6 b0 bd
       0.081330106 0.090996034 -0.07404192 -0.08631627
0001e0 94 6e 82 3d ee 75 ea bc b9 4c e3 bd 71 9a ce bd
       0.06368747 -0.028620686 -0.11098618 -0.10088051
0001f0 45 2c 85 3d b8 c3 b1 bb 9e 26 4d bd 78 85 30 3c
       0.06502584 -0.005424943 -0.050085656 0.010774009
000200 1f 71 ac bd 04 ff 56 3d c3 50 7b 3d 52 cd b0 bd
       -0.08420014 0.052489296 0.061356317 -0.08632912
000210 d0 12 24 bd ef 17 a3 3c a4 48 40 ba 14 3b 32 bd
       -0.040057003 0.019908873 -0.0007335043 -0.043513373
000220 1d ef 34 3c 52 5c f6 3c 98 4b 4b bc c1 98 86 bd
       0.011043337 0.030073319 -0.01240816 -0.06572104
000230 bf 89 dd 3d 00 bc ab 3b d6 a2 76 bd c1 ec fc 3d
       0.108172886 0.005240917 -0.060213886 0.12349845
000240 70 e6 62 bd dc e2 fb 3d 5a a5 a8 ba 81 22 84 3d
       -0.055395544 0.12299129 -0.0012866661 0.064518936
000250 0e 21 9c bd 6d 22 07 3e 23 83 54 bd e6 90 73 b8
       -0.07623492 0.13196726 -0.051882874 -5.8070662e-05
000260 42 3e 46 bd 5f bc ed 3d 13 09 56 bd 3c 25 00 3e
       -0.048399217 0.116081946 -0.052254748 0.12514204
000270 00 53 d6 3c 15 df 9e bd 29 2a 5e 3d ce 91 e6 3c
       0.026162624 -0.07757393 0.054239426 0.028145697
000280 73 2c 45 3d 26 42 b4 bd 88 95 2f 3d 18 bc a8 bd
       0.048138093 -0.08801679 0.042867213 -0.08239001
000290 c9 5d 85 3d a6 a5 a1 bd a5 d5 4c bd c7 c3 65 bd
       0.06512029 -0.07892923 -0.050008435 -0.05609491
0002a0 17 9f f4 3c 80 7d e2 bd c4 3c e5 bc 17 03 7a 3b
       0.029861016 -0.110590935 -0.027983077 0.0038148814
0002b0 d8 79 b6 bc 4c 70 7a bd 8f 98 78 3b 9d cb 87 bd
       -0.022274897 -0.06114225 0.003793273 -0.06630633
0002c0 cb 98 a1 bd ad 7c 2d 3c 23 a8 df 38 9b b8 e0 bc
       -0.07890471 0.010588807 0.000106647865 -0.027431777
0002d0 fc 6a bc bd ee 25 35 bd 59 d0 45 3d 48 de 7b 3d
       -0.09200093 -0.044225626 0.0482944 0.06149128
0002e0 ab 6b e2 bd 6d 12 00 3d 0e a3 ca bd e3 5c b0 bd
       -0.11055692 0.031267572 -0.098943815 -0.08611467
0002f0 24 0a 8a 3d 7e f2 e8 bd bb 00 00 bc 4f 52 8e bd
       0.067402154 -0.11374377 -0.007812674 -0.06949293
000300 f8 c5 cf bd f1 d2 7b bd 78 19 aa 3c 07 94 c5 bd
       -0.101451814 -0.061480466 0.020764098 -0.096473746
000310 be 4d 13 bd 46 e3 2c 3d ac 0f fb bd 52 cd 7a bd
       -0.035962813 0.042208932 -0.122588485 -0.061230965
000320 b7 a3 1e 3d e3 6b f0 bd b9 58 88 bc 89 60 ae bd
       0.03873035 -0.11739328 -0.016643869 -0.08514506
000330 e5 24 ae 3d 50 e1 f8 bd cb 44 bd bd b3 df d2 bd
       0.08503131 -0.1215235 -0.09241637 -0.102965735
000340 3a 1f d6 bb bd 96 6e 3d 5a cb 41 bd f5 00 0e 3d
       -0.006534484 0.058249224 -0.04731307 0.03466888
000350 1c 9b 88 bd 88 5a fb bd 1e 09 9b bd dc aa 91 bd
       -0.0667021 -0.12273127 -0.07570098 -0.07112667
000360 dd 01 7e 3b 62 d6 45 bd f6 d2 3d bd b6 91 e4 bb
       0.0038758435 -0.048300155 -0.046343766 -0.006975378
000370 93 66 34 3d e1 f5 2d bc 33 9e 37 3d 5b c6 a3 bd
       0.044043135 -0.010617704 0.044828605 -0.07996818
000380 d7 5f 34 3c b6 32 e8 bc 9d 10 a5 bd 3e 6d b3 bc
       0.011009178 -0.028344493 -0.08059809 -0.021902677
000390 29 b5 56 3c cd 69 9b 3d c5 f5 77 bd 29 c1 18 3c
       0.013104715 0.07588539 -0.06053712 0.009323397
0003a0 65 5d ce bd 5c c1 da 3b 71 cb a9 bd 99 d8 4f bd
       -0.10076407 0.0066758823 -0.082907565 -0.050743673
0003b0 ea 91 32 bd 0b c4 d3 bc 6c c7 e1 3c b9 cb 7f bd
       -0.043596186 -0.025850317 0.027560912 -0.062450144
0003c0 ae 3b 3b bd 1c c7 0e bd 02 94 47 bd 76 16 7b bd
       -0.04571121 -0.034857854 -0.048725136 -0.061300717
0003d0 f5 81 92 3d 0e 10 d3 3d e9 62 a8 3d e4 a6 d4 3d
       0.071536936 0.103057966 0.082219906 0.10383394
0003e0 09 53 cd bc dd 70 ab 3c 48 9a b4 3d 0f 5b 78 3c
       -0.025064008 0.02092784 0.08818489 0.015158429
0003f0 83 ec a4 bc 07 e8 03 bd 0d 8a d8 3d a4 da 0e 3d
       -0.020132309 -0.0322037 0.10573206 0.03487648

layers.conv2_1.bias f4 [64]
000000 d7 5c aa 3d e2 1a 8e 3d 92 92 ba bc 3f 5d 7c 3c
       0.08318489 0.06938721 -0.022774968 0.015403091
000010 57 ed 60 3d b7 57 c3 bd 7d 14 58 3b 42 ed 60 3d
       0.054913845 -0.09538215 0.0032971196 0.054913767
000020 71 40 86 bd a5 74 0b bd c5 38 73 bd 02 cd 40 bd
       -0.0655526 -0.034046788 -0.05938031 -0.04707051
000030 dc 9e d6 bd 83 39 13 bb fc d2 a7 3d 4a 61 b3 3b
       -0.10479519 -0.00224647 0.08194539 0.0054742442
000040 5b cd 8f bc 6f 7e d0 3d 13 44 d4 3c 67 30 ad 3d
       -0.017553976 0.10180365 0.025911367 0.08456498
000050 c3 fa 5d 3d fc 07 41 3d 21 34 e3 bc 23 4f 97 bd
       0.054194223 0.047126755 -0.027734818 -0.07388141
000060 f1 4d 7c bd 29 8d 42 bd 2c 1f 08 3d 77 87 be bd
       -0.06159777 -0.047497902 0.033232853 -0.093031816
000070 72 53 c7 bd ed 33 53 3d 41 3f d9 bd 0d 4f 62 3d
       -0.09732713 0.051563192 -0.10607768 0.05525117
000080 1c b2 d4 3d 8d 17 4a 3c cd f5 86 3d f3 c8 8b bd
       0.10385534 0.0123347165 0.065898515 -0.068254374
000090 d5 ef 56 bd a5 e4 9d bd 48 09 fb bc 4a 2f 65 3b
       -0.052474815 -0.07709626 -0.030644074 0.0034970813
0000a0 a1 9a 80 bd 79 f3 09 bc 75 c6 c0 bd 6b 59 cf 39
       -0.06279493 -0.008419865 -0.09412853 0.00039548738
0000b0 ac bf 58 3d 70 65 20 bd 05 c1 a4 bd 2d 46 c5 3d
       0.052917168 -0.03915924 -0.08044628 0.096325256
0000c0 34 0c 70 3d ab aa f4 bc 6f 43 36 3d e6 a8 c9 bd
       0.058605388 -0.029866537 0.044497903 -0.09846668
0000d0 72 12 95 bd 96 5a e3 bd f5 18 e3 bd 39 de a5 bd
       -0.07278909 -0.11101262 -0.110887446 -0.08099026
0000e0 0d ae 7a 3c 02 b1 42 3d 60 96 d2 b8 43 38 ef 3c
       0.015300286 0.04753209 -0.0001004159 0.029201632
0000f0 bb 7e e1 bd 69 98 cb 3c 22 5f ef 38 09 01 5c 3c
       -0.110105 0.024852948 0.00011414128 0.013427981

layers.conv2_2.weight f4 [32, 64, 20]
000000 65 a6 56 3c bb e7 62 3c 4d 29 dc 3b e1 16 57 3c
       0.013101195 0.013849194 0.0067187906 0.013128013
000010 d3 32 71 3c 90 2a 4a 3c 6c b9 2a 3c 02 1c ac 3c
       0.01472159 0.012339249 0.010420185 0.021009449
000020 35 59 d2 3c 79 93 be 3c 3a dc eb 3c f0 ca b6 3c
       0.025677303 0.02326368 0.028791536 0.022313565
000030 85 aa 99 3c 08 86 a4 3c fa 6a 96 3c ee 6d 93 3c
       0.018758068 0.020083442 0.018361557 0.017996754
000040 00 25 33 3c 8e d2 61 3c 0d ef 60 3c c8 1e 17 3c
       0.010934114 0.01378311 0.013728869 0.009223647
000050 66 bd bb 3b 99 a0 1a 3c 05 55 1f 3c 5c cf 89 3c
       0.005729365 0.0094377035 0.00972486 0.01682251
000060 df 7c ab 3c 23 a6 9f 3c 42 6b af 3c 6b fc c6 3b
       0.020933567 0.0194884 0.02141345 0.006072571
000070 1e 68 a7 3c 83 35 7e 3c 3f e4 15 3c 3a 5e 24 3b
       0.02043539 0.015515688 0.009148656 0.0025080577
000080 80 9a f4 3a 7c 0d 7f 3c 7b 7e 22 3c 84 d5 93 3c
       0.0018661767 0.01556718 0.009917851 0.018046148
000090 09 96 3f 3c 9b 50 1d 3c 01 7a 57 3c 03 f9 7f 3c
       0.011693486 0.009601737 0.013151647 0.015623334
0000a0 75 06 82 bc bc 8d 7f bc 1e 7c 82 3b 01 a3 44 3c
       -0.01587222 -0.015597757 0.003982081 0.012001754
0000b0 8a 89 79 bc 86 d1 b7 3c 6a 2d 5a 3c 81 4a 36 3b
       -0.015230546 0.022438776 0.013316492 0.0027815404
0000c0 df e6 26 3c 0e 79 e8 bb 2e 06 5c bb b8 f8 47 bc
       0.01018688 -0.007094509 -0.003357302 -0.012205295
0000d0 b6 40 80 bb 8f 5b 54 bc 6f b9 d6 bb 9d 11 9c 39
       -0.003913964 -0.012961282 -0.006552867 0.00029767762
0000e0 43 24 b1 bc 91 59 1e bc a0 64 f7 3a a9 07 0e bc
       -0.021623736 -0.009664909 0.0018874593 -0.0086688185
0000f0 b1 01 cd bb 59 ca 4f bc be d4 2b bc b5 a1 93 bb
       -0.006256305 -0.012682521 -0.010487733 -0.004505361
000100 09 6a 5e bb 71 63 11 bc 35 bd b9 3c 44 cb 77 3c
       -0.0033937714 -0.008873806 0.022673229 0.015124146
000110 f3 19 56 3c ae 1b ac 3c 82 6f 87 3c 28 e0 34 3b
       0.01306771 0.021009292 0.016532663 0.0027599428
000120 25 77 d0 bb e7 1d c3 3b ab d0 2f 3c 97 39 a3 3a
       -0.0063618594 0.0059544924 0.010730903 0.0012453076
000130 ea 9a c3 3c ac ee c0 bb c0 27 f3 3c c8 65 0a 3c
       0.02387758 -0.005887827 0.02968204 0.008447118
000140 c9 61 53 3c 57 b0 0d 3d e4 17 ae 3c 19 08 f2 3c
       0.012901732 0.034592 0.021251626 0.029544877
000150 c7 93 e4 3c c5 ab 74 3c 4c 06 9d 3c 7c 9a 00 3c
       0.027902497 0.014933531 0.019168042 0.007849332
000160 bf 18 04 3d 94 da 94 3c da 62 0f 3d c6 20 d5 3c
       0.032250162 0.018170632 0.03500638 0.026016604
000170 b2 56 b5 3c a9 69 66 3c 3d 78 41 3c e7 a9 e3 3c
       0.022136066 0.014063277 0.011808452 0.027790977
000180 0e 08 e0 3c d4 ff f1 3c 0f 53 07 3d f6 aa c7 3c
       0.02734759 0.029540934 0.033038195 0.024373513
000190 96 60 04 3c 03 2d 4b 3c 04 5e 74 3c ec f5 3a 3c
       0.0080796685 0.012400868 0.014914993 0.011411171
0001a0 f6 9b 6e 3c cd 9d a2 3c 38 dd 41 3c 20 3e 23 3c
       0.014563551 0.019850636 0.011832528 0.009963542
0001b0 64 d5 3e 3c 80 9e 61 3c 03 96 30 3c c5 9c a2 3b
       0.011647556 0.0137706995 0.010777953 0.004962536
0001c0 7d b7 16 3c f9 ec 20 b9 7e a7 99 3b b3 3b a1 3b
       0.00919902 -0.00015347068 0.004689156 0.004920447
0001d0 d9 b9 a7 3b 9a 9f 29 3b 61 9e cf 3b 6d c8 7d bb
       0.0051185903 0.0025882483 0.006336019 -0.00387242
0001e0 b4 ed 9f 3c 22 14 29 3c 93 af 20 3c c3 3a da 3c
       0.019522525 0.010319741 0.009807485 0.026639348
0001f0 a9 4c 08 3c 4e 5a ba 3c 48 0d 85 3c 81 e4 13 3d
       0.008319058 0.022748139 0.016241685 0.03610659
000200 26 c6 dc 3c 65 a9 0a 3d 51 78 05 3d 5e 98 fe 3c
       0.026949953 0.033852953 0.032585446 0.031078514
000210 18 b5 f7 3c 28 f8 82 3c ac 3f 96 3b 85 0b 80 3c
       0.03023772 0.01598747 0.004585227 0.015630493
000220 37 88 91 3c 49 db 69 3b 99 cd 82 3c 5b cd 1d 3c
       0.017765148 0.0035683683 0.015967177 0.00963148
000230 c4 20 b1 3c ad fd c3 3b 94 b9 aa 3c c8 42 95 3c
       0.02162207 0.0059811682 0.020840444 0.01822032
000240 ae d1 e4 3b 1f 92 80 3c b2 62 26 3a 43 24 55 3b
       0.0069830036 0.015694676 0.0006347104 0.0032522834
000250 6d 84 31 3c 07 ef 08 3c b8 bb b8 3b bc 9a 54 3c
       0.010834795 0.00835777 0.005637612 0.012976345
000260 92 aa 10 3c 7c a9 4d 3c 93 3f 94 3c da 3c 61 3c
       0.00882973 0.012552615 0.01809672 0.013747418
000270 a0 5e be 3b cb 1e 24 3c 08 3d 05 3c 51 b1 4c 3c
       0.00580962 0.010017107 0.008132227 0.012493447
000280 70 b6 aa 3c 39 88 fb 3c 40 a8 53 3c 21 ab f1 3b
       0.020838946 0.030704604 0.012918532 0.0073751365
000290 02 94 af 3b 91 a0 a2 3c 09 45 91 3c 10 8b d0 3c
       0.00535822 0.019851955 0.017733114 0.025456935
0002a0 db 02 26 3c 12 14 a1 3a 28 33 24 3c e3 a7 4a 3b
       0.010132517 0.0012289307 0.010021962 0.0030922822
0002b0 87 d5 ed 3c d0 30 ad 3c 7a 27 a5 3b 09 34 0a 3d
       0.029032482 0.02114144 0.0050401064 0.03374103
0002c0 a3 cf e9 3b f6 a8 04 3d 13 be 6e 3c 86 de ef 3c
       0.007135348 0.032387696 0.014571684 0.029280912
0002d0 28 48 46 3c ed 87 cf 3c 30 d2 ce 3b 32 93 70 3a
       0.012102164 0.02533337 0.0063116774 0.0009177207
0002e0 40 63 a0 3b b5 52 70 3c de 07 7e 3b 77 ab a0 38
       0.004894644 0.014668156 0.0038762013 7.661332e-05
0002f0 31 cb b4 bb 34 59 46 bb 37 d2 51 3c 76 e1 04 bc
       -0.0055173864 -0.0030265572 0.012806467 -0.008110395
000300 ac a6 af bb d2 db 86 3b 40 94 18 3c f7 2a 9f 3c
       -0.005360445 0.00411556 0.009312689 0.019429667
000310 16 12 5d 3c d8 1d b9 3b a6 2b ea 3b 93 39 31 3c
       0.013493082 0.0056493096 0.0071463166 0.010816949
000320 ad 03 01 3d b4 73 cd 3c 87 8f 5c 3c 91 f7 06 3d
       0.031497646 0.025079586 0.013461954 0.03295094
000330 cd f3 86 3c f8 2b 3c 3c 97 19 ce 3b d0 b0 c5 3c
       0.016473675 0.011485092 0.0062896716 0.024132162
000340 4e 6e 3f 3c 8e c4 b6 3c ca 82 71 3c 0e 98 6b 3c
       0.0116840135 0.022310521 0.014740655 0.014379514
000350 59 e7 e6 3c 22 9e c6 3c 86 68 2e 3c 2f c5 43 3c
       0.028186487 0.024245325 0.0106450375 0.011948868
000360 b6 37 cb 3c a4 86 b6 3c 57 f6 01 3d e1 63 de 3c
       0.024806838 0.022280999 0.03172907 0.027147235
000370 01 95 60 3c 15 3e 1a 3c 00 ec 01 3c 19 5e 1f 3a
       0.0137074 0.009414216 0.007929802 0.00060793903
000380 81 59 a9 3c 88 36 6e bc 35 56 ca ba 3f c1 5d ba
       0.020672562 -0.014539368 -0.0015437069 -0.0008459277
000390 49 95 c9 bb 13 9c 35 bc 4b 89 06 3b 2c 22 a9 3c
       -0.0061518294 -0.011084574 0.002052861 0.020646177
0003a0 b7 dd 8a 3c 7c 4c 74 3c e0 ee 31 3c bc d2 9b 3b
       0.016951425 0.014910813 0.010860175 0.004755346
0003b0 10 e4 7d b9 54 9b 2c 3c 66 9f b3 3c 27 e3 1b 3c
       -0.0002421292 0.01053508 0.021926593 0.009514607
0003c0 d0 43 e2 bc fb 98 ac bc 70 0f 0e bd 9e 42 f6 bc
       -0.027620226 -0.02106904 -0.03468269 -0.030061062
0003d0 b3 95 2f bd 86 09 df bc 68 f0 11 bd 7a 29 1e bd
       -0.042867374 -0.02722622 -0.03562966 -0.038613774
0003e0 ed a8 2a bd e6 aa ca bc 47 0c 10 bd 4e c3 ce bc
       -0.041665006 -0.024739694 -0.03516796 -0.025239613
0003f0 91 24 92 bc 2f f7 f3 bc df 60 89 bc eb 81 f8 bc
       -0.017839702 -0.029780952 -0.016769825 -0.030335387

layers.conv2_2.bias f4 [32]
000000 c5 44 23 bc af ca 84 3a 0c 61 08 3c 15 bb db 3c
       -0.009965126 0.0010131205 0.008323919 0.026822606
000010 76 cf 11 bc e2 47 5b 3b 2a 04 d7 3c 9a ae ff 3b
       -0.00889956 0.0033459594 0.026247103 0.0078027966
000020 d9 01 69 bc 53 73 3e bc 28 26 e1 3c 17 5e 95 bc
       -0.014221632 -0.011624175 0.027484015 -0.018233342
000030 dc 64 55 3c 4c 02 27 bc 71 dc 80 bc 3f ab 73 bc
       0.013024535 -0.010193419 -0.015730115 -0.014872371
000040 c3 81 aa 3c 7c fa cd 3c e2 20 ac bc e7 37 79 3c
       0.020813828 0.025143854 -0.021011773 0.015211082
000050 59 cc 6e bc ff 4d 30 bb 30 9b 40 3c 90 d4 2b bc
       -0.014575087 -0.0026901958 0.01175575 -0.010487691
000060 02 c8 a2 bb f7 4d 73 3c bd bc 65 39 f8 6f 3f 3c
       -0.0049676904 0.014850131 0.00021909452 0.01168441
000070 0a 74 85 3c 00 24 b1 3c 2d b4 f8 b9 de ff 56 bb
       0.016290683 0.021623611 -0.00047436488 -0.0032806317
