mRNAlocalization/cnn_models/CNN_model_fold2.pth (torch, 531886 bytes, 22 tensors)

layers.bn1.weight f4 [64]
0.99955916 0.9986696 1.0014498 0.9988503 1.001908 1.0004528 1.0000681 1.000824
0.9985571 0.99983007 0.99998045 1.0012647 1.0010297 1.0010711 0.998891 1.0006413
1.0015185 1.0004575 0.9998768 0.9980313 0.9992049 0.9988564 1.0012169 0.9998724
1.0006216 0.9991386 1.0005597 0.9999554 1.0008669 1.0002908 0.9996348 0.99929684
1.0000982 0.9986548 1.0012944 0.99934363 0.99990356 0.9996554 1.0007515 1.0013605
0.9985982 0.99859357 0.9997561 0.99959415 1.000344 1.0012127 1.0011463 0.9992747
1.0010347 1.0010413 1.0000261 0.999819 0.9990928 1.0009078 0.9990256 1.0006502
1.0014995 1.0002341 0.9992975 1.0011221 0.9998942 0.9986494 1.0001166 0.99934
00000000: 1ce3 7f3f d0a8 7f3f 822f 803f a7b4 7f3f
00000010: 853e 803f d60e 803f 3b02 803f 001b 803f
00000020: 70a1 7f3f ddf4 7f3f b8fe 7f3f 7129 803f
00000030: be21 803f 1923 803f 52b7 7f3f 0415 803f
00000040: c231 803f fe0e 803f edf7 7f3f fb7e 7f3f
00000050: e4cb 7f3f 0eb5 7f3f e027 803f a3f7 7f3f
00000060: 5e14 803f 8cc7 7f3f 5712 803f 14fd 7f3f
00000070: 681c 803f 8709 803f 11e8 7f3f ebd1 7f3f
00000080: 3803 803f d7a7 7f3f 6a2a 803f fcd4 7f3f
00000090: aef9 7f3f 6be9 7f3f a018 803f 952c 803f
000000a0: 22a4 7f3f d4a3 7f3f 04f0 7f3f 67e5 7f3f
000000b0: 460b 803f bd27 803f 9025 803f 77d0 7f3f
000000c0: e821 803f 1f22 803f db00 803f 23f4 7f3f
000000d0: 8cc4 7f3f bf1d 803f 24c0 7f3f 4e15 803f
000000e0: 2331 803f ac07 803f f6d1 7f3f c524 803f
000000f0: 11f9 7f3f 7da7 7f3f d203 803f bfd4 7f3f

layers.bn1.bias f4 [64]
-0.0013910088 0.00014979507 0.001101146 -0.00090617826 0.0009667609 -0.00017946248 -0.0004887457 0.0011403275
-0.0019306013 0.00026855385 0.00021561964 0.0014689039 0.00052552373 0.0017609725 -0.00071827375 -0.00042886008
0.000693432 0.0005535197 0.00091842853 -0.0012008931 -0.001480893 -0.00043602407 0.0005284677 -0.0010811863
0.0015090522 -0.000695859 0.00087713083 -0.0004959017 -0.0006794752 -0.001548133 7.0385664e-05 -0.0013054508
0.0004669803 -0.0016395213 0.0004244402 -5.6753684e-06 0.0009895859 0.0012135942 0.00024084633 0.0012597587
-0.0016154002 -0.0014813914 -0.00093713606 -0.00026295186 -0.000191442 -0.0012361516 0.0011618328 0.000819602
0.0016297424 -0.00036855173 3.5622186e-05 -0.00012251329 -0.0013344054 0.0016803511 -0.000862213 0.00066177984
0.0012933844 -0.00022053988 -0.0010370844 -0.0004883264 -0.0013937899 -0.0004159189 -0.0008774754 -0.0008457189
00000000: 8352 b6ba 4f12 1d39 5454 903a 988c 6dba
00000010: 3a6e 7d3a 182e 3cb9 2b1f 00ba 0b77 953a
00000020: 3b0c fdba b0cc 8c39 f517 6239 3c88 c03a
00000030: 4dc3 093a 6fd0 e63a 894a 3cba a0d8 e0b9
00000040: 6fc7 353a 141a 113a b2c2 703a 4967 9dba
00000050: 861a c2ba 299a e4b9 de88 0a3a 98b6 8dba
00000060: 64cb c53a 4f6a 36ba 41ef 653a 66ff 01ba
00000070: cf1e 32ba b9ea caba 049c 9338 a91b abba
00000080: 09d5 f439 35e5 d6ba 6687 de39 0b6f beb6
00000090: feb4 813a 7711 9f3a b28b 7c39 7d1e a53a
000000a0: d6bb d3ba 3f2b c2ba 23aa 75ba cddc 89b9
000000b0: d2bd 48b9 5d06 a2ba a448 983a 8fda 563a
000000c0: 159d d53a 2d3a c1b9 0869 1538 e976 00b9
000000d0: 37e7 aeba 3a3f dc3a 2306 62ba 4b7b 2d3a
000000e0: c786 a93a b940 67b9 c7ee 87ba 0803 00ba
000000f0: d4af b6ba b10f dab9 6106 66ba 3cb3 5dba

layers.bn1.running_mean f4 [64]
-0.02393718 -0.015691346 -0.00062577816 0.07167629 0.085886374 0.04162353 0.021920776 0.11954919
0.059722807 -0.07825154 -0.050445173 0.008488271 0.0018997397 -0.013904711 0.015721869 -0.08922593
-0.06443034 0.034732956 0.042033598 -0.021698235 -0.044358402 0.087777846 0.075543314 0.08736274
0.08630251 0.011536315 -0.008692119 -0.003434336 -0.04491295 -0.13843368 0.023524765 -0.020193974
0.0134764435 -0.048501328 0.020636424 0.027128965 -0.111681074 0.013925612 -0.04784488 -0.04839781
-0.09474296 0.035462316 -0.032836054 0.02946835 0.13044041 0.058677208 -0.010469137 -0.0690121
0.08382574 0.025589691 0.11515546 -0.07493581 -0.08247374 -0.01650318 -0.06466116 0.0063058916
0.08367071 0.051640105 -0.063598745 -0.015014899 0.0019490316 0.07624231 -0.019521795 0.034806374
00000000: e817 c4bc 238b 80bc 430b 24ba 05cb 923d
00000010: 32e5 af3d 6f7d 2a3d 3393 b33c 35d6 f43d
00000020: e79f 743d 5842 a0bd 999f 4ebd 6412 0b3c
00000030: b000 f93a 96d0 63bc 26cb 803c 16bc b6bd
00000040: 0ef4 83bd 2544 0e3d 6c2b 2c3d 7fc0 b1bc
00000050: 28b1 35bd dfc4 b33d 74b6 9a3d 3ceb b23d
00000060: 5fbf b03d d002 3d3c 6469 0ebc 9912 61bb
00000070: a4f6 37bd 8fc1 0dbe 02b7 c03c d56d a5bc
00000080: 4dcc 5c3c 54a9 46bd b80d a93c 903d de3c
00000090: 0cb9 e4bd 4028 643c fef8 43bd c83c 46bd
000000a0: 9908 c2bd ef40 113d 197f 06bd 9c67 f13c
000000b0: 2c92 053e 8357 703d be86 2bbc 3756 8dbd
000000c0: d4ac ab3d 79a1 d13c a0d6 eb3d f277 99bd
000000d0: fee7 a8bd ad31 87bc 126d 84bd a7a1 ce3b
000000e0: 8d5b ab3d 9384 533d 0f40 82bd 0d01 76bc
000000f0: a676 ff3a ee24 9c3d 2cec 9fbc 2191 0e3d

layers.bn1.running_var f4 [64]
0.029420527 0.025636267 0.025298987 0.0179972 0.022289526 0.032312173 0.026888002 0.02713708
0.026428014 0.026346663 0.017552441 0.038025543 0.027927106 0.042691994 0.01963788 0.03299712
0.022561312 0.026666956 0.02403698 0.027946146 0.024843605 0.023370834 0.026556382 0.024302054
0.038479753 0.023858678 0.03088423 0.02453124 0.021025069 0.02139543 0.029972276 0.02319452
0.03486374 0.029586783 0.021303408 0.03022587 0.049325123 0.027465858 0.027792906 0.038250305
0.024302652 0.02922133 0.02566517 0.021568775 0.038264375 0.021539716 0.024922784 0.039443687
0.041259952 0.032192964 0.034994505 0.030761212 0.01765475 0.044272605 0.03418155 0.022685999
0.02213872 0.019773168 0.027575897 0.026255196 0.028229848 0.028694535 0.027105918 0.038926672
00000000: 5103 f13c 2603 d23c d23f cf3c dd6e 933c
00000010: 8698 b63c c559 043d 3a44 dc3c 954e de3c
00000020: 907f d83c f5d4 d73c 23ca 8f3c acc0 1b3d
00000030: 63c7 e43c cddd 2e3d 9fdf a03c fd27 073d
00000040: 80d2 b83c a974 da3c 33e9 c43c 51ef e43c
00000050: d184 cb3c 3174 bf3c c58c d93c 1a15 c73c
00000060: f29c 1d3d 4673 c33c ed00 fd3c bdf5 c83c
00000070: c43c ac3c 7845 af3c 6b88 f53c 6f02 be3c
00000080: 48cd 0e3d fb5f f23c 7c84 ae3c 3e9c f73c
00000090: 2409 4a3d 1400 e13c f3ad e33c 5aac 1c3d
000000a0: 5b16 c73c 9261 ef3c c33f d23c 00b1 b03c
000000b0: 1bbb 1c3d 0f74 b03c de2a cc3c b48f 213d
000000c0: 3200 293d c5dc 033d 6656 0f3d f0fe fb3c
000000d0: b2a0 903c 3157 353d f401 0c3d fdd7 b93c
000000e0: 435c b53c 57fb a13c d9e6 e13c 2315 d73c
000000f0: 4842 e73c cd10 eb3c 3b0d de3c 9371 1f3d

layers.bn2.weight f4 [32]
1.0023822 1.0023365 0.9993569 0.9988406 0.9988504 0.99878365 0.9977165 0.99796236
0.99804693 0.99797636 0.99883765 0.9980819 0.99938583 0.9990011 0.99883646 0.99772114
0.99857277 0.9980173 0.997744 0.99858385 0.9980368 0.9991043 0.99895525 0.9988149
0.999443 0.9978999 0.9981801 0.9987419 0.9979735 0.9976159 0.99877167 0.99897796
00000000: 0f4e 803f 904c 803f dbd5 7f3f 04b4 7f3f
00000010: a9b4 7f3f 49b0 7f3f 596a 7f3f 767a 7f3f
00000020: 0180 7f3f 617b 7f3f d3b3 7f3f 4c82 7f3f
00000030: c0d7 7f3f 89be 7f3f bfb3 7f3f a76a 7f3f
00000040: 77a2 7f3f 107e 7f3f 276c 7f3f 31a3 7f3f
00000050: 577f 7f3f 4dc5 7f3f 88bb 7f3f 55b2 7f3f
00000060: 7fdb 7f3f 5e76 7f3f bb88 7f3f 8dad 7f3f
00000070: 317b 7f3f c163 7f3f 80af 7f3f 05bd 7f3f

layers.bn2.bias f4 [32]
0.0023047368 0.0023482223 -0.00071748486 -0.00066686136 -0.0013881805 -0.0012217403 -0.0021684745 -0.0021216993
-0.0020926774 -0.0021021552 -0.0013445271 -0.0020482156 -0.0010272608 -0.0011133776 -0.0013975094 -0.0023800293
-0.0014904983 -0.0021011091 -0.002380772 -0.0009976233 -0.0020994744 -0.000891634 -0.0011766981 -0.0011237069
-0.0006296913 -0.002162596 -0.001786145 -0.0011148261 -0.0021392358 -0.0024232706 -0.0014607698 -0.0010554194
00000000: 110b 173b a2e4 193b 9815 3cba 4fd0 2eba
00000010: 9cf3 b5ba cd22 a0ba f71c 0ebb 350c 0bbb
00000020: 4d25 09bb 50c4 09bb d83a b0ba 5b3b 06bb
00000030: 27a5 86ba c1ee 91ba a22c b7ba 44fa 1bbb
00000040: d35c c3ba c3b2 09bb ba06 1cbb afc2 82ba
00000050: 5697 09bb 8bbc 69ba 703b 9aba 5949 93ba
00000060: de11 25ba 57ba 0dbb 151d eaba 5b1f 92ba
00000070: 6c32 0cbb bccf 1ebb 4d77 bfba 0056 8aba

layers.bn2.running_mean f4 [32]
-0.089179546 -0.1768188 -0.2906066 -0.30903026 -0.19381182 -0.24249688 -0.17890882 -0.01858184
-0.047910146 0.025931656 -0.20609778 -0.048877735 -0.21978538 -0.20241071 -0.15707484 0.18068594
-0.20039697 -0.02075107 0.2737653 -0.29138896 -0.00962163 -0.23571208 -0.2097021 -0.24861567
-0.1916289 0.062268514 -0.15799972 -0.22942175 0.025914634 0.022165425 -0.16916566 -0.24856964
00000000: c4a3 b6bd fd0f 35be 63ca 94be 3739 9ebe
00000010: 9b76 46be 1a51 78be e033 37be f138 98bc
00000020: 6e3d 44bd a06e d43c 4c0b 53be 0534 48bd
00000030: 6b0f 61be c144 4fbe 3ad8 20be bc05 393e
00000040: dd34 4dbe 26fe a9bc f72a 8c3e ef30 95be
00000050: 0ba4 1dbc 825e 71be 26bc 56be 1b95 7ebe
00000060: 5e3a 44be 450d 7f3d aeca 21be 89ed 6abe
00000070: ed4a d43c 4494 b53c c339 2dbe 0a89 7ebe

layers.bn2.running_var f4 [32]
0.30675516 0.31620425 0.4526858 0.4756427 0.39147314 0.37630352 0.41204992 0.45708287
0.3852108 0.45794466 0.29309085 0.33988127 0.38092712 0.28743792 0.30510613 0.559302
0.36130694 0.43227705 0.8557894 0.50864303 0.3747916 0.49263015 0.3110079 0.4239141
0.31957197 0.29518226 0.3172091 0.38836458 0.5740018 0.50000656 0.32922417 0.43081427
00000000: 030f 9d3e 86e5 a13e 6fc6 e73e 7187 f33e
00000010: 2b6f c83e dbaa c03e 35f8 d23e c406 ea3e
00000020: 5a3a c53e b977 ea3e 0110 963e eb04 ae3e
00000030: e108 c33e 102b 933e df36 9c3e 6a2e 0f3f
00000040: 39fd b83e 6b53 dd3e 0415 5b3f 6e36 023f
00000050: afe4 bf3e 053a fc3e 6d3c 9f3e 450b d93e
00000060: f09e a33e 2122 973e 3b69 a23e b9d7 c63e
00000070: c8f1 123f 6e00 003f 1290 a83e b093 dc3e

layers.conv1_1.weight f4 [64, 4, 9]
-0.11978726 0.11713712 0.02221093 -0.093736485 -0.13540912 -0.11706357 -0.059171755 0.024151353
-0.07520008 -0.12196312 -0.14113992 0.08053628 -0.09808826 -0.1631915 0.061708692 -0.14416407
0.031299785 -0.064335816 -0.06442498 -0.16177021 -0.12813184 0.11021561 0.08412569 0.15180548
-0.07876271 -0.08493283 0.10327296 0.13726526 0.04119211 0.020608827 -0.1512613 -0.090316236
-0.098395035 -0.021777935 -0.0052416157 0.13588887 -0.013116267 0.12074282 -0.066301875 -0.06555964
0.14076328 -0.03415028 -0.15201648 0.04767881 -0.061451863 0.054981474 0.07153973 -0.16660374
0.06792652 0.05594278 0.1549949 0.12629235 0.04103892 0.06850884 0.006966199 0.073239386
0.14026974 0.098041534 0.058853254 -0.14870884 -0.11327875 0.08450053 -0.009005811 -0.10590187
-0.13806498 -0.1416364 0.08393566 0.016127633 -0.06443192 0.04125366 0.06533902 -0.12701629
-0.015363442 0.1003689 0.031459406 -0.13890836 -0.04307365 0.08229805 0.134859 -0.16536945
0.13528596 0.06394051 -0.11047101 0.011141321 -0.15889034 0.1289777 0.14437452 0.14073493
-0.14773685 0.06842563 0.09638688 0.08786562 0.102638856 0.06492364 0.11629462 -0.07940144
-0.10088336 -0.13726787 -0.024667485 -0.100241326 -0.11022918 0.16243397 -0.07116357 -0.087008856
-0.008247071 -0.028015757 0.07246383 0.104312174 0.019104632 -0.10137708 0.006212262 -0.104195185
0.14335 0.030116964 -0.008039988 -0.11164656 -0.08090149 0.12870789 -0.105921745 0.066442996
0.010548547 -0.009488643 0.033494066 0.0641924 -0.10289655 0.019266091 0.057797924 0.05334537
0.06238873 0.010707669 0.072417326 0.08374123 -0.031359367 -0.0978346 0.049595427 -0.16603528
0.063602164 -0.15723585 0.059518773 0.12467224 -0.03339719 0.06375972 0.0019051171 -0.14703512
0.059221596 0.05010378 0.1093592 0.027263235 -0.15841828 0.09396158 0.02263152 -0.14144348
0.14874528 -0.07838671 0.06462964 -0.06576054 -0.062546596 0.13935915 -0.06714636 -0.022379182
-0.052146856 -0.049167547 0.1476844 0.10091868 -0.12829715 0.037241846 0.036822125 -0.09888321
-0.010665867 -0.16480339 -0.043520667 -0.008320464 0.054273594 0.026965346 0.028195497 -0.098360404
0.09503229 -0.016386647 -0.008062405 0.05800385 -0.12841159 0.08830119 -0.10449172 0.11517286
-0.14767955 -0.13002887 -0.16025043 -0.12850298 -0.11769428 0.043113515 -0.12963752 0.056952566
0.16505872 -0.104968935 -0.12813222 -0.16538051 0.057385307 0.080473654 0.056447987 -0.14035963
0.12875521 0.052035782 -0.10086567 -0.04263597 0.05959094 -0.032880932 -0.056681246 0.15457137
0.0708277 0.14932586 -0.11569752 0.06740315 0.15750143 0.048913095 0.03159491 -0.04726474
0.14394175 0.025568344 -0.062566824 0.124333195 0.08691376 -0.028420199 -0.15523465 0.09227907
-0.15145244 0.024181252 -0.15804195 -0.14000139 0.024341952 0.00019024484 0.022889365 0.16474964
0.055117767 0.13558158 0.006296566 -0.06778953 0.095426306 -0.016881106 -0.15548089 -0.023356076
-0.068305545 -0.047213014 0.09556364 -0.1618773 -0.10656507 0.054409347 -0.03779436 -0.032417573
0.07267441 0.0962557 0.07657087 0.08955307 0.086747825 0.11789225 -0.07164103 0.102986865
00000000: 0653 f5bd 96e5 ef3d b2f3 b53c eaf8 bfbd
00000010: b0a8 0abe 06bf efbd 155e 72bd 0fd9 c53c
00000020: 8002 9abd cdc7 f9bd fc86 10be 35f0 a43d
00000030: 7fe2 c8bd ac1b 27be 41c2 7c3d bf9f 13be
00000040: 3434 003d 7fc2 83bd 3ef1 83bd 17a7 25be
00000050: fe34 03be b9b8 e13d 174a ac3d e572 1b3e
00000060: 584e a1bd 43f1 adbd c680 d33d 448f 0c3e
00000070: 0fb9 283d d8d3 a83c 3ee4 1abe b8f7 b8bd
00000080: 5683 c9bd a467 b2bc dcc1 abbb 7426 0b3e
00000090: 9ce5 56bc 0348 f73d 47c9 87bd 2244 86bd
000000a0: 4024 103e 2ae1 0bbd 35aa 1bbe db4a 433d
000000b0: f3b4 7bbd 4134 613d 6c83 923d 2c9a 2abe
000000c0: 0f1d 8b3d 4224 653d fcb6 1e3e c852 013e
000000d0: 6d18 283d 5d4e 8c3d b644 e43b 88fe 953d
000000e0: dfa2 0f3e 00ca c83d 1c10 713d 2147 18be
000000f0: b0fe e7bd 9d0e ad3d 1c8d 13bc 14e3 d8bd
00000100: e860 0dbe 2209 11be 76e6 ab3d 191e 843c
00000110: e2f4 83bd 99f9 283d 77d0 853d 8f10 02be
00000120: f2b6 7bbc 368e cd3d 94db 003d fe3d 0ebe
00000130: ff6d 30bd e18b a83d 7a18 0a3e 9c56 29be
00000140: 6788 0a3e 3ef3 823d a03e e2bd 168a 363c
00000150: 26b4 22be bb12 043e ead6 133e d11c 103e
00000160: 5448 17be bd22 8c3d 7c66 c53d e4f2 b33d
00000170: 5234 d23d aff6 843d e02b ee3d 399d a2bd
00000180: ef9b cebd f38f 0cbe 7713 cabc 534b cdbd
00000190: d6bf e1bd 1755 263e 35be 91bd b331 b2bd
000001a0: b91e 07bc 4d81 e5bc eb67 943d 9fa1 d53d
000001b0: 5181 9c3c c99e cfbd 3b90 cb3b 4964 d5bd
000001c0: 58ca 123e dab7 f63c 27ba 03bc f4a6 e4bd
000001d0: aeaf a5bd 00cc 033e 80ed d8bd 4413 883d
000001e0: d0d3 2c3c 4176 1bbc 1331 093d 4e77 833d
000001f0: 6dbb d2bd ecd3 9d3c 84bd 6c3d ad80 5a3d
00000200: 538b 7f3d 386f 2f3c 894f 943d 8680 ab3d
00000210: ae72 00bd 825d c8bd 9324 4b3d 2705 2abe
00000220: da41 823d 6f02 21be f5c9 733d 2954 ff3d
00000230: 7ecb 08bd 7594 823d 1fb5 f93a 6090 16be
00000240: 5892 723d 9f39 4d3d b7f7 df3d 2657 df3c
00000250: 6738 22be ee6e c03d bd65 b93c 8fd6 10be
00000260: af50 183e 3689 a0bd 8b5c 843d 76ad 86bd
00000270: 6e18 80bd 2ab4 0e3e 0884 89bd 8c54 b7bc
00000280: f197 55bd e963 49bd 943a 173e 74ae ce3d
00000290: 5460 03be e88a 183d ccd2 163d 4883 cabd
000002a0: e3bf 2ebc 38c2 28be ba42 32bd 8e52 08bc
000002b0: fd4d 5e3d 6ee6 dc3c 3efa e63c 2e71 c9bd
000002c0: 4aa0 c23d 4a3d 86bc 2d18 04bc 7295 6d3d
000002d0: 547e 03be 41d7 b43d c1ff d5bd c0df eb3d
000002e0: 4f39 17be 4a26 05be b018 24be 4996 03be
000002f0: b309 f1bd cc97 303d b3bf 04be 1847 693d
00000300: 2705 293e f4f9 d6bd 1835 03be 8259 29be
00000310: db0c 6b3d 5fcf a43d 0136 673d 6fba 0fbe
00000320: 68d8 033e 7923 553d a992 cebd 0ea3 2ebd
00000330: a115 743d 28ae 06bd 982a 68bd f547 1e3e
00000340: 1d0e 913d e1e8 183e d2f2 ecbd aa0a 8a3d
00000350: 0e48 213e 1959 483d aa69 013d ac98 41bd
00000360: 7765 133e b474 d13c 0923 80bd 67a2 fe3d
00000370: d7ff b13d 7ad1 e8bc d5f5 1ebe cffc bc3d
00000380: 5916 1bbe c317 c63c c0d5 21be 865c 0fbe
00000390: c668 c73c 767c 4739 7a82 bb3c 21b4 283e
000003a0: 2bc3 613d e6d5 0a3e 6d53 ce3b 3dd5 8abd
000003b0: de6e c33d 3f4a 8abc 6236 1fbe 3e55 bfbc
000003c0: c7e3 8bbd 6f62 41bd dfb6 c33d 2ac3 25be
000003d0: ca3e dabd 56dc 5e3d 42ce 1abd 4ac8 04bd
000003e0: 52d6 943d b521 c53d 30d1 9c3d 9a67 b73d
000003f0: d8a8 b13d 7e71 f13d 88b8 92bd c7ea d23d

layers.conv1_1.bias f4 [64]
0.036096636 -0.10118811 -0.05643724 0.16620576 0.08793206 -0.007086715 -0.05322114 0.051166262
0.14225224 -0.108797505 0.004104161 -0.13393396 0.017901884 0.016510388 -0.1014869 -0.13823786
-0.119039625 0.031914067 0.040176153 -0.09277165 -0.069882415 0.11208363 0.0059074513 0.14466171
0.11080212 0.02821981 -0.013351099 -0.029269064 -0.028704852 -0.16612041 0.11933439 -0.12127645
-0.088563286 0.014691746 0.03256067 -0.086588256 -0.09583887 0.021499759 -0.043115117 -0.10817037
-0.13081647 0.07474038 -0.014297681 -0.029966328 0.16160697 0.019722246 -0.032086305 0.10596035
0.12210724 0.0047194897 0.15556437 -0.08203875 -0.11308262 0.15872914 -0.15962002 -0.09847216
0.07147043 0.09463729 -0.053235456 0.07217294 -0.008339137 -0.029841842 0.11639211 -0.050426155
00000000: 11da 133d b63b cfbd bc2a 67bd d831 2a3e
00000010: b915 b43d ad37 e8bb 69fe 59bd b793 513d
00000020: 92aa 113e 3ad1 debd 337c 863b fc25 09be
00000030: f9a6 923c cb40 873c 5dd8 cfbd 3a8e 0dbe
00000040: 0ccb f3bd 53b8 023d c08f 243d 10ff bdbd
00000050: 831e 8fbd 1a8c e53d 4b93 c13b 3322 143e
00000060: 39ec e23d 3b2d e73c 91be 5abc adc5 efbc
00000070: 7026 ebbc 781b 2abe 9765 f43d ca5f f8bd
00000080: ab60 b5bd a6b5 703c 565e 053d 2f55 b1bd
00000090: 2b47 c4bd 4320 b03c 7a99 30bd 6d88 ddbd
000000a0: c1f4 05be 7c11 993d d240 6abc f27b f5bc
000000b0: 4c7c 253e 8c90 a13c ee6c 03bd bd01 d93d
000000c0: 5c13 fa3d f3a5 9a3b 444c 1f3e ef03 a8bd
000000d0: dc97 e7bd e489 223e 6e73 23be c6ab c9bd
000000e0: 175f 923d 32d1 c13d 6c0d 5abd 68cf 933d
000000f0: e0a0 08bc e176 f4bc fd5e ee3d a88b 4ebd

layers.conv1_2.weight f4 [32, 64, 9]
-0.027109757 -0.014231911 -0.03619787 -0.009497617 0.018577863 0.0033307662 0.0070421314 0.037636608
0.038635302 0.01343873 0.034292053 0.019976946 -0.0072634937 -0.025950894 0.039547138 0.01862193
0.029429067 0.028382264 -0.037045296 0.013473162 0.015601855 -0.037578054 -0.000430476 0.027172823
0.032051314 -0.03819822 -0.03458958 -0.03777856 0.016277617 -0.0104366895 -0.00034889797 0.014950458
-0.022400998 -0.020858232 -0.0021474476 0.036089987 -0.03288638 0.011220224 -0.032368194 -0.037068214
-0.015586755 -0.0013896859 0.021949174 0.03732581 0.008107356 -0.003042819 -0.0052418597 0.034104027
0.022727191 -0.00223537 -0.0396982 0.006894684 -0.016889071 -0.039506827 -0.04069745 -0.026648967
-0.006385522 -0.026032683 0.029140111 -0.027353486 0.027443793 0.01498947 0.031278893 0.040041927
0.027783865 -0.024180148 0.03283621 0.038525023 -0.0011078111 -0.01854999 0.030915363 0.0018150338
-0.020214852 0.008217932 0.037384912 -0.03280831 -0.010480798 -0.033008 -0.03427578 -0.013488977
-0.011177941 0.03176144 0.008283119 -0.008965595 -0.030786864 -0.00383148 0.0068820966 0.010006247
0.020328438 -0.027146723 -0.027516354 0.03068702 0.01579275 -0.008091977 -0.01568475 0.025519172
0.035707463 -0.009739441 -0.042093392 0.016230432 -0.022944836 0.02366521 0.023151224 0.012241767
-0.03581095 -0.04203317 0.010114976 0.029504864 -0.038116723 0.02307723 -0.0077595105 0.019847766
0.008969836 -0.0065033142 -0.035702363 0.008931371 0.023376713 -0.031018179 -0.0027568284 0.039192025
0.020223824 -0.011600244 0.014436756 -0.025368912 -0.010822235 0.020606147 0.023117343 0.018439554
-0.0045202943 0.032348577 -0.021692619 -0.012059912 0.026694879 0.03905868 0.024065977 -0.0015797667
-0.036352303 0.010371427 0.024804352 -0.01856137 -0.037565332 -0.0053398986 -0.014862815 -0.01422156
-0.041690983 -0.041536205 0.008071829 -0.0015764984 -0.009311093 -0.017605701 -0.042558555 -0.03406112
-0.022644693 -0.029365787 0.037504125 0.022854468 -0.03291947 -0.009352306 0.009032004 0.041496076
-0.0135882 0.017544718 0.0145352995 0.00598904 -0.0029217503 -0.035271887 -0.0010323134 -0.036620967
0.009174651 -0.00086849974 -0.020884989 0.035761736 -0.013521418 -0.012302685 0.033370398 -0.03675486
-0.010420437 -0.016947098 -0.03721638 -0.03923137 -0.00048263045 0.0075285356 -0.005020796 0.018627359
-0.021995526 -0.022484588 0.028159244 -0.025358936 0.011763581 -0.00918609 0.025072118 -0.02283288
-0.016567707 0.034117747 -0.019048909 0.02611793 0.027132628 0.031777903 -0.03358218 0.015974471
0.026568934 0.013980416 -0.0327978 0.024896923 -0.041952938 0.026708618 -0.031613916 -0.032032315
0.01319188 0.041442726 0.01043823 -0.038395263 0.029111262 0.010808075 0.013926328 -0.013154109
0.013149951 -0.0028936148 -0.02208225 0.037566368 0.015577067 -0.038034733 0.002218841 0.02436583
0.02248655 0.018529126 -0.01690479 -0.023821222 -0.004755204 -0.026662674 -0.01006526 0.03387246
-0.015063182 0.040726237 0.013396254 -0.019321822 0.021186795 -0.028737107 0.03819398 0.034169707
0.0016078372 -0.00080464437 -0.014882228 -0.02547131 0.0041386024 0.02804264 0.024348097 -0.037587754
-0.004626623 -0.010550544 0.023068408 0.028756639 -0.03766897 -0.008458049 0.005455784 0.0066908346
00000000: 4815 debc f62c 69bc 3844 14bd e59b 1bbc
00000010: 9a30 983c fc48 5a3b aec1 e63b d828 1a3d
00000020: 0d40 1e3d 1e2e 5c3c d375 0c3d b1a6 a33c
00000030: 9a02 eebb f896 d4bc 2efc 213d 058d 983c
00000040: 3a15 f13c ec81 e83c cfbc 17bd 8abe 5c3c
00000050: ec9e 7f3c 72eb 19bd 83b1 e1b9 8a99 de3c
00000060: 3d48 033d bd75 1cbd cead 0dbd b1bd 1abd
00000070: a358 853c a6fe 2abc 4bec b6b9 c4f2 743c
00000080: 4c82 b7bc e2de aabc 31bc 0cbb 18d3 133d
00000090: deb3 06bd 08d5 373c 8394 04bd d7d4 17bd
000000a0: 975f 7fbc 1f26 b6ba c1ce b33c f3e2 183d
000000b0: b7d4 043c 086a 47bb e8c3 abbb aab0 0b3d
000000c0: 602e ba3c 497f 12bb 949a 22bd cdec e13b
000000d0: f35a 8abc e9d1 21bd 5fb2 26bd ef4e dabc
000000e0: a43d d1bb 7e42 d5bc 3eb7 ee3c 6b14 e0bc
000000f0: ced1 e03c 6596 753c 4c1e 003d 0103 243d
00000100: fd9a e33c 7215 c6bc 437f 063d 6acc 1d3d
00000110: f933 91ba 26f6 97bc 3742 fd3c 6ee6 ed3a
00000120: 9e99 a5bc 81a4 063c ec20 193d 0262 06bd
00000130: a7b7 2bbc 6633 07bd c364 0cbd df00 5dbc
00000140: af23 37bc 4918 023d ebb5 073c 6ee4 12bc
00000150: bc34 fcbc 9119 7bbb 3683 e13b 3ef1 233c
00000160: d387 a63c ce62 debc fa69 e1bc 5863 fb3c
00000170: cc5f 813c 3694 04bc 4e7d 80bc 950d d13c
00000180: fd41 123d 2d92 1fbc 1f6a 2cbd aff5 843c
00000190: cff6 bbbc 8bdd c13c a3a7 bd3c b191 483c
000001a0: 81ae 12bd f92a 2cbd 49b9 253c 2fb4 f13c
000001b0: 4820 1cbd 760c bd3c 7e43 febb c897 a23c
000001c0: 38f6 123c c119 d5bb a43c 12bd e354 123c
000001d0: 8580 bf3c d619 febc e8ab 34bb d187 203d
000001e0: 6fac a53c f30e 3ebc 2588 6c3c 77d2 cfbc
000001f0: be4f 31bc 39ce a83c 9560 bd3c 8c0e 973c
00000200: fa1e 94bb f17f 043d b8b4 b1bc f096 45bc
00000210: 38af da3c fffb 1f3d 0326 c53c 2d10 cfba
00000220: 27e6 14bd ebec 293c 7f32 cb3c 040e 98bc
00000230: 1bde 19bd 51fa aebb 2a83 73bc 8c01 69bc
00000240: 2ac4 2abd de21 2abd b43f 043c 82a2 ceba
00000250: 8e8d 18bc d539 90bc e151 2ebd ac83 0bbd
00000260: 5d81 b9bc 8590 f0bc ed9d 193d 4b39 bb3c
00000270: 91d6 06bd 6a3a 19bc f8fa 133c caf7 293d
00000280: 0ba1 5ebc f1b9 8f3c 7725 6e3c b53f c43b
00000290: d67a 3fbb 4179 10bd b14e 87ba deff 15bd
000002a0: 4651 163c 08ac 63ba ff16 abbc e67a 123d
000002b0: f088 5dbc 3391 49bc 66af 083d 448c 16bd
000002c0: 7bba 2abc a4d4 8abc 3470 18bd 13b1 20bd
000002d0: 9009 fdb9 efb1 f63b 7d85 a4bb 6798 983c
000002e0: f62f b4bc 9931 b8bc 37ae e63c 8bbd cfbc
000002f0: 09bc 403c 4181 16bc 0b64 cd3c 050c bbbc
00000300: 00b9 87bc 0dbf 0b3d 750c 9cbc 45f5 d53c
00000310: 3f45 de3c 8c29 023d 788d 09bd e5dc 823c
00000320: 18a7 d93c 1d0e 653c fc56 06bd a2f4 cb3c
00000330: d8d6 2bbd 08cc da3c 987d 01bd 5134 03bd
00000340: c122 583c d9bf 293d 1c05 2b3c 5a44 1dbd
00000350: be7a ee3c 5a14 313c 412b 643c 5584 57bc
00000360: e472 573c cda2 3dbb d6e5 b4bc 31df 193d
00000370: f436 7f3c 4fca 1bbd fa69 113b d99a c73c
00000380: b735 b83c 65ca 973c ea7b 8abc b924 c3bc
00000390: 8bd1 9bbb ae6b dabc c3e8 24bc d9bd 0a3d
000003a0: 91cb 76bc 8ed0 263d f67b 5b3c cc48 9ebc
000003b0: ee8f ad3c 156a ebbc 4a71 1c3d 89f5 0b3d
000003c0: 10be d23a c5ee 52ba 97d4 73bc 35a9 d0bc
000003d0: 1d9d 873b aeb9 e53c a975 c73c 9ef5 19bd
000003e0: ed9a 97bb 30dc 2cbc f5f9 bc3c 0b93 eb3c
000003f0: c74a 1abd a193 0abc 6fc6 b23b ca3e db3b

layers.conv1_2.bias f4 [32]
-0.008251235 0.006472187 -0.04162059 -0.02556496 0.014758561 -0.013988873 0.033424173 0.005663835
-0.03919591 0.026036559 0.035736278 0.015048437 -0.022705806 0.027451921 0.026096214 0.027843203
-0.021264946 -0.029228037 0.017454267 0.025200786 0.01449434 -0.013941358 0.036175918 0.028695673
-0.031762723 -0.008855051 0.0029670787 0.015204357 -0.018191537 0.033847697 -0.009120067 0.014354071
00000000: 3030 07bc a414 d43b 5a7a 2abd 9b6d d1bc
00000010: e4cd 713c 9631 65bc c9e7 083d b197 b93b
00000020: e48b 20bd 9f4a d53c 3460 123d b88d 763c
00000030: 8701 babc dae2 e03c bac7 d53c 6e17 e43c
00000040: d333 aebc a36f efbc 40fc 8e3c e171 ce3c
00000050: ab79 6d3c 4b6a 64bc 332d 143d 3013 eb3c
00000060: a119 02bd c714 11bc 5273 423b b21b 793c
00000070: 6b06 95bc e2a3 0a3d 556c 15bc 562d 6b3c

layers.conv2_1.weight f4 [64, 4, 20]
-0.09143623 -0.050919212 0.0071848556 -0.0072813113 0.00087769685 -0.10580466 -0.00024501458 0.06435714
0.032726962 0.08931361 -0.106677175 0.08910445 0.08885476 -0.058873706 0.055545304 -0.07527985
-0.04018383 0.06735392 -0.032580957 -0.07356536 -0.05758364 -0.091146536 -0.068554714 0.010706365
0.1026539 -0.07982352 0.015920838 0.110602155 0.061725657 -0.08226571 0.022315973 0.08192703
0.030455543 -0.05404026 0.07300445 0.04905959 -0.07820191 -0.07969715 0.08664234 0.110768646
0.023922829 -0.086098306 -0.03264576 -0.019345196 0.010802642 0.0037199794 0.07119692 0.10499966
0.014801769 -0.023604304 -0.09234218 0.07523438 -0.10095888 -0.001039659 -0.027578693 0.08831618
0.05322564 0.06389176 -0.013306175 -0.017056169 0.080917194 -0.008252169 0.044503905 -0.01645895
0.10612753 0.037537735 -0.06923037 -0.02728438 0.08450599 -0.06086385 -0.043574393 0.039688118
-0.043495305 -0.10444485 0.08394329 -0.045070503 -0.057447534 -0.09126269 -0.06974357 0.08528817
-0.067999035 -0.05195308 0.07030384 -0.1030265 -0.07449951 -0.10481017 0.008709971 0.08885743
-0.060354885 -0.085581325 0.082505345 0.106626615 0.0090898825 0.01611751 -0.08954037 0.08972797
-0.019992191 -0.0011105303 -0.07376193 -0.027457481 -0.09582612 0.017176779 -0.11272135 0.06398793
-0.05128412 -0.10929984 0.042646196 0.06767656 -0.06570796 -0.10622234 -0.040954806 0.0879392
0.10752703 -0.103683636 -0.02331091 -0.09237488 0.04476594 0.07458946 0.021669993 0.07412071
0.04470759 0.102120735 0.05338343 0.0302759 -0.037238166 -0.08202548 -0.038624484 0.024768462
0.038305253 -0.06732058 0.108102284 0.09686022 0.07307663 -0.03211262 -0.034197822 -0.08465293
-0.021101082 -0.06844191 0.058650434 -0.041127656 -0.045102313 0.06264146 -0.11283359 -0.029435344
-0.035818048 -0.023070542 0.05128547 -0.04343327 0.07836382 -0.027446559 -0.014502413 0.037447456
-0.07547084 -0.05789763 -0.09260989 0.057590105 -0.025984325 -0.030254822 0.013699708 -0.047753416
0.08165244 -0.036850773 -0.045240898 -0.10416022 -0.0499086 0.101557285 -0.044671495 0.017525293
-0.09550449 -0.08339724 0.081299335 0.04200043 -0.099073544 0.03935157 0.071978 -0.0067576584
-0.07298983 -0.024486858 -0.102878906 -0.0027852517 -0.046849813 -0.06942963 -0.010734339 -0.1082611
0.10913134 0.09215158 -0.0021099988 0.104084134 -0.11090512 -0.09222493 -0.019776518 0.09397163
0.00092834124 -0.079736985 0.0031718647 -0.07439495 -0.10640271 0.07572878 -0.058540363 0.013046719
-0.09992348 -0.031940263 -0.11039121 -0.031298053 -0.07131416 -0.0020287773 -0.046780046 0.0318063
-0.03358003 -0.06446453 -0.03544945 0.048193824 0.09681997 0.056900397 0.045799073 -0.01832087
-0.05285328 -0.05152471 0.0072251284 0.043425757 -0.042110424 0.11024074 -0.03995344 -0.06773773
0.098887846 -0.06070631 0.04267384 -0.013271295 -0.008120626 -0.09276667 0.053513695 0.07884831
-0.042450547 0.048044775 0.015973968 -0.057184644 0.0464789 0.075207256 -0.010068439 0.020421375
0.052120313 -0.012389785 -0.038938496 0.09354286 -0.017800763 0.08426448 -0.0192283 -0.09212516
0.031340223 0.07402037 0.09201547 0.0031075329 -0.1100282 0.0873772 -0.014581105 0.012862278
00000000: eb42 bbbd aa90 50bd f06e eb3b 1198 eebb
00000010: 3d15 663a 1db0 d8bd 4d75 80b9 adcd 833d
00000020: b50c 063d 0eea b63d 9079 dabd 657c b63d
00000030: 7cf9 b53d 8e25 71bd 7983 633d 522c 9abd
00000040: cd97 24bd daf0 893d 9c73 05bd 6fa9 96bd
00000050: d3dc 6bbd 09ab babd 6a66 8cbd c069 2f3c
00000060: 353c d23d 837a a3bd 6b6c 823c 6283 e23d
00000070: 0bd4 7c3d ed7a a8bd fdcf b63c 5cc9 a73d
00000080: e77d f93c 5259 5dbd 5b83 953d b5f2 483d
00000090: 5328 a0bd 4238 a3bd 8a71 b13d acda e23d
000000a0: cff9 c33c 4f54 b0bd 8fb7 05bd d179 9ebc
000000b0: 91fd 303c e6ca 733b b1cf 913d 100a d73d
000000c0: 1e83 723c d05d c1bc e61d bdbd 7c14 9a3d
000000d0: 87c3 cebd 2b45 88ba b6ec e1bc 1ddf b43d
000000e0: 2103 5a3d afd9 823d 2502 5abc 61b9 8bbc
000000f0: eab7 a53d 1b34 07bc ba49 363d ebd4 86bc
00000100: 6459 d93d 2bc1 193d a7c8 8dbd 7e83 dfbc
00000110: 7a11 ad3d 5f4c 79bd 107b 32bd 0290 223d
00000120: 2228 32bd 2ee7 d5bd 76ea ab3d d99b 38bd
00000130: 1b4e 6bbd efe7 babd b8d5 8ebd 90ab ae3d
00000140: 1443 8bbd c1cc 54bd 76fb 8f3d 8fff d2bd
00000150: 3393 98bd b7a6 d6bd 44b4 0e3c e2fa b53d
00000160: af36 77bd 4345 afbd 90f8 a83d 0e5f da3d
00000170: bbed 143c de08 843c f160 b7bd 4cc3 b73d
00000180: aac6 a3bc 378f 91ba 7f10 97bd 83ee e0bc
00000190: 7c40 c4bd 51b6 8c3c 73da e6bd 1b0c 833d
000001a0: 4c0f 52bd 98d8 dfbd c7ad 2e3d 029a 8a3d
000001b0: e591 86bd 198b d9bd 3ac0 27bd 7819 b43d
000001c0: 2237 dc3d 1658 d4bd 86f6 bebc 0b2f bdbd
000001d0: 7e5c 373d 5cc2 983d 4585 b13c 99cc 973d
000001e0: 4e1f 373d ad24 d13d 95a8 5a3d 2a05 f83c
000001f0: 0c87 18bd fafc a7bd b534 1ebd 3be7 ca3c
00000200: f8e5 1c3d 5fdf 89bd bb64 dd3d a75e c63d
00000210: 33a9 953d 8688 03bd 0413 0cbd 845e adbd
00000220: 2ddc acbc 462b 8cbd 703b 703d 7975 28bd
00000230: 34bd 38bd 2a4a 803d 4c15 e7bd 6422 f1bc
00000240: f2b5 12bd 6ffe bcbc b710 523d 16e7 31bd
00000250: 367d a03d 9bd7 e0bc 879b 6dbc 8162 193d
00000260: 7590 9abd 1126 6dbd 41aa bdbd 9ae3 6b3d
00000270: 14dd d4bc f6d8 f7bc bd74 603c 1699 43bd
00000280: 6539 a73d d6f0 16bd 854e 39bd f451 d5bd
00000290: f66c 4cbd 44fd cf3d 75f9 36bd 3491 8f3c
000002a0: dc97 c3bd 2ccc aabd 4480 a63d a508 2c3d
000002b0: 12e7 cabd 1d2f 213d 3469 933d 596f ddbb
000002c0: b17b 95bd aa98 c8bc 2db2 d2bd c588 36bb
000002d0: 97e5 3fbd 1f31 8ebd 15df 2fbc ffb7 ddbd
000002e0: 4180 df3d f8b9 bc3d e847 0abb 102a d53d
000002f0: 3922 e3bd 6de0 bcbd 5d02 a2bc 3374 c03d
00000300: ed5b 733a 254d a3bd 0fdf 4f3b 615c 98bd
00000310: aae9 d9bd b117 9b3d 05c8 6fbd e8c1 553c
00000320: aea4 ccbd cbd3 02bd c914 e2bd 6332 00bd
00000330: 290d 92bd 3cf5 04bb 6f9c 3fbd 5347 023d
00000340: 378b 09bd fb05 84bd 7133 11bd e366 453d
00000350: 8c49 c63d 6410 693d cf97 3b3d a615 96bc
00000360: ae7c 58bd 930b 53bd c5c0 ec3b 35df 313d
00000370: fb7b 2cbd e6c5 e13d 38a6 23bd 14ba 8abd
00000380: b685 ca3d 2ea7 78bd c4ca 2e3d d96f 59bc
00000390: 600c 05bc 74fc bdbd 2d31 5b3d 397b a13d
000003a0: a0e0 2dbd 99ca 443d d7db 823c 723a 6abd
000003b0: a960 3e3d 4306 9a3d 18f6 24bc ba4a a73c
000003c0: 1c7c 553d 86fe 4abc f97d 1fbd 6693 bf3d
000003d0: e8d2 91bc db92 ac3d ab84 9dbc 1eac bcbd
000003e0: 9b5e 003d fe97 973d 9b72 bc3d c0a7 4b3b
000003f0: 7756 e1bd d1f2 b23d 96e5 6ebc 4ebc 523c

layers.conv2_1.bias f4 [64]
0.0070451195 0.11117543 0.092684716 -0.010134555 0.024878183 0.05934272 0.032648254 0.091073915
0.03024299 0.039601047 -0.06903111 -0.021550748 -0.05446722 -0.00080950337 0.09678732 -0.04862368
-0.0011423739 -0.017683057 -0.05746078 0.10587604 0.051819526 -0.016487638 0.07729381 0.0002656189
0.018732026 -0.037600707 -0.10041645 0.02460414 -0.034084227 -0.082998194 0.059990697 0.044770658
-0.0031297 -0.019522287 -0.0015203162 -0.020982567 0.09544346 0.07640652 -0.017490596 0.06515774
-0.101142965 -0.0350453 -0.052487988 0.02361949 -0.00093124766 0.10802547 -0.010964937 -0.06143039
-0.0073011974 -0.024582528 -0.024593916 -0.02401893 -0.033392694 -0.06516603 0.10442494 0.045882523
0.05016137 -0.013128221 -0.019735392 -0.07675745 0.10246693 0.09864016 -0.097273044 0.07158833
00000000: bfda e63b f2af e33d 7cd1 bd3d 680b 26bc
00000010: 55cd cb3c 5a11 733d 2dba 053d f684 ba3d
00000020: 26c0 f73c b534 223d 2f60 8dbd 328b b0bc
00000030: 0519 5fbd da34 54ba 6e38 c63d a029 47bd
00000040: b5bb 95ba 0fdc 90bc ff5b 6bbd 8ad5 d83d
00000050: b640 543d 1511 87bc 384c 9e3d c442 8b39
00000060: e873 993c 3303 1abd 24a7 cdbd 9f8e c93c
00000070: e79b 0bbd f5fa a9bd ceb8 753d 7061 373d
00000080: a71b 4dbb 34ed 9fbc 5945 c7ba a2e3 abbc
00000090: dc77 c33d 067b 9c3d 7048 8fbc 6c71 853d
000000a0: 0b24 cfbd a98b 0fbd a5fd 56bd a97d c13c
000000b0: f91e 74ba 753c dd3d 47a6 33bc 6f9e 7bbd
000000c0: e23e efbb 4c61 c9bc 2e79 c9bc 59c3 c4bc
000000d0: c7c6 08bd c475 85bd bedc d53d 50ef 3b3d
000000e0: 0276 4d3d c017 57bc 1eac a1bc 0333 9dbd
000000f0: 2fda d13d da03 ca3d 1737 c7bd e79c 923d

layers.conv2_2.weight f4 [32, 64, 20]
-0.017636117 -0.012486735 0.009566178 -0.015227257 0.024736358 0.004900665 -0.025535973 -0.011362572
-0.0012730036 0.00057279476 0.0069725453 -0.0030630014 0.021040134 0.01968119 -0.02158072 0.025395904
-0.013091188 -0.015174807 -0.0130048515 0.02434939 -0.017380137 0.016286751 -0.0062084496 0.015768683
0.011077533 -0.011455935 -0.0031119897 0.019389674 0.005481392 -0.015868787 0.018644406 0.0041056317
0.02277984 -0.0025305408 0.02065334 0.010029014 0.018654346 0.023895787 0.021697793 -0.023421783
-0.008005395 0.02061095 0.01058929 -0.01032507 0.0070114266 0.009783324 -0.01784162 0.018795053
0.012222743 -0.021055127 0.027922811 -0.01629023 0.017539706 0.0028099113 -0.025024485 0.02446453
0.015077015 0.0044216826 -0.02262098 -0.0046601174 -0.010621378 0.0052179014 -0.0028514215 0.011141943
0.015054033 0.001617937 -0.010104941 0.00970526 -0.0054677203 0.0192929 -0.018653102 0.0074324487
0.011526298 -0.024267249 -0.028298855 0.023318801 -0.027641363 -0.020323485 0.013257275 -0.005759687
-0.017643964 -0.006102163 0.007846441 -0.020115487 -0.018936682 -0.011145 0.022281766 0.019676128
-0.022590527 0.014788857 -0.018671636 -0.013761354 -0.015394252 -0.021483516 -0.024796925 0.006654069
-0.019526068 0.010189923 -0.010998861 -0.014286277 -0.010067891 -0.0065428414 0.013375014 0.01708336
0.0220652 -0.017553715 -0.00020476317 0.021067936 0.02072511 0.00937199 0.016021285 0.0005133056
0.011135402 -0.0048840987 -0.017759776 0.015173305 -0.014522655 0.0058017606 -0.021877462 0.02613474
0.014833688 0.00956912 -0.02335798 0.0011638565 0.020301988 -0.011631939 -0.00055362773 -0.0081932945
0.022664398 -0.0039854147 0.0064573674 0.013727171 -0.010275687 0.025048265 0.013146504 0.0069555417
0.016678454 0.016522892 -0.003372628 0.008517882 0.02590397 0.015280516 0.0003987826 0.011395603
-0.0036638286 0.0060039647 0.017342733 -0.00425765 0.018067861 -0.014610418 -0.016347924 -0.02838054
-0.008150289 0.013744641 -0.010957545 -0.021057473 -0.023549048 0.02230987 0.024475055 -0.004289336
0.018501306 -0.005734415 -0.012458382 -0.024507074 0.010177415 0.024174767 0.01582632 0.026395623
-0.010940131 -0.01239492 -0.005087701 0.00436753 0.0036090403 0.017050626 0.015441194 -0.0054201633
-0.0008125252 0.00418739 -0.028607091 -0.0060880524 0.011628217 0.001749271 -0.01956074 -0.017867235
-0.023544017 0.026304524 0.023266457 0.0065237517 0.008232284 0.007661892 0.005083859 0.01627058
0.014864859 -0.0150499595 -0.01448542 0.00023190641 0.018149536 -0.017950095 0.006162322 0.006880539
0.00417962 -0.018309686 0.012901437 0.019184938 -0.004439485 -0.025356384 0.0035035666 0.0011789466
0.0078838095 -0.01862667 0.0075100106 -0.004581839 0.0054353606 0.007180684 -0.016184898 0.00625203
-0.013974799 0.007428546 -0.0033532998 0.0030381107 -0.018182281 -0.027597893 0.0073618693 -0.00797062
-0.006329519 0.015085776 -0.00914622 0.0029836602 0.0013136206 -0.017706111 0.018623762 -0.001973697
0.023912854 -0.012628252 0.009511385 -0.0024543286 0.006588071 0.023112921 0.0069233915 0.0018336779
-0.015169906 -0.015147491 0.0024874513 0.022580529 0.0048180628 0.006877169 0.02612217 -0.017483162
0.013687318 -0.013320798 0.022933854 0.0006265055 0.004151846 -0.0077724587 -0.0022776567 -0.001166107
00000000: 9e79 90bc 2a95 4cbc 75bb 1c3c bf7b 79bc
00000010: e7a3 ca3c c295 a03b d130 d1bc 152a 3abc
00000020: eada a6ba 9b27 163a f379 e43b a3bc 48bb
00000030: 5c5c ac3c 723a a13c 0dca b0bc 120b d03c
00000040: 6c7c 56bc c19f 78bc 4d12 55bc 5f78 c73c
00000050: ca60 8ebc cb6b 853c 4070 cbbb 532d 813c
00000060: 8a7e 353c adb1 3bbc 86f2 4bbb 18d7 9e3c
00000070: 409d b33b 42ff 81bc 27bc 983c 8988 863b
00000080: c99c ba3c 6ed7 25bb 3131 a93c bc50 243c
00000090: 00d1 983c 19c1 c33c 92bf b13c 0adf bfbc
000000a0: 0f29 03bc 4cd8 a83c b47e 2d3c 7b2a 29bc
000000b0: 1cc0 e53b 3c4a 203c 9728 92bc 15f8 993c
000000c0: e641 483c cd7b acbc 61be e43c 1773 85bc
000000d0: 6eaf 8f3c 7d26 383b 2600 cdbc d769 c83c
000000e0: 9605 773c c3e3 903b a24f b9bc e6b3 98bb
000000f0: 4a05 2ebc eefa aa3b eade 3abb b28c 363c
00000100: 31a5 763c f510 d43a 328f 25bc d002 1f3c
00000110: 902a b3bb 250c 9e3c 64ce 98bc e68b f33b
00000120: ccd8 3c3c 1ccc c6bc 00d3 e7bc 1207 bf3c
00000130: 2470 e2bc 707d a6bc 0b35 593c c2bb bcbb
00000140: 138a 90bc a7f4 c7bb 5c8e 003c 3cc9 a4bc
00000150: 1a21 9bbc 8599 36bc 4088 b63c d52f a13c
00000160: c50f b9bc f64c 723c 42f5 98bc 4d77 61bc
00000170: 2c38 7cbc 33fe afbc ec22 cbbc 600a da3b
00000180: 22f5 9fbc a3f3 263c 9134 34bc fd10 6abc
00000190: ccf3 24bc 5565 d6bb e022 5b3c 67f2 8b3c
000001a0: 14c2 b43c cfcc 8fbc b2b5 56b9 aa96 ac3c
000001b0: b5c7 a93c fa8c 193c 123f 833c 5b8f 063a
000001c0: 4371 363c ca0a a0bb f37c 91bc 7499 783c
000001d0: 6ef0 6dbc b21c be3b 5d38 b3bc 8618 d63c
000001e0: ff08 733c ccc7 1c3c 3c59 bfbc 8b8c 983a
000001f0: 5b50 a63c e393 3ebc 5421 11ba 2b3d 06bc
00000200: b0aa b93c 1598 82bb 5398 d33b eee7 603c
00000210: 5b5b 28bc 0532 cd3c 6f64 573c 50eb e33b
00000220: 41a1 883c 045b 873c 4f07 5dbb 968e 0b3c
00000230: 9034 d43c 215b 7a3c b213 d139 a0b4 3a3c
00000240: d81c 70bb e8bc c43b 5912 8e3c c283 8bbb
00000250: 0d03 943c 8960 6fbc 15ec 85bc 4e7e e8bc
00000260: ca88 05bc 3431 613c 4687 33bc b980 acbc
00000270: efe9 c0bc 30c3 b63c e97f c83c 8f8d 8cbb
00000280: 0d90 973c c2e7 bbbb 3e1e 4cbc 0fc3 c8bc
00000290: 2cbf 263c 290a c63c 33a6 813c a23b d83c
000002a0: 3c3e 33bc 1014 4bbc bbb6 a6bb 7f1d 8f3b
000002b0: a685 6c3b c1ad 8b3c 10fd 7c3c a09b b1bb
000002c0: a5ff 54ba 6036 893b 6b59 eabc 497e c7bb
000002d0: 4784 3e3c cb47 e53a d83d a0bc 4f5e 92bc
000002e0: 62df c0bc 967c d73c 4c99 be3c 32c5 d53b
000002f0: b4e0 063c 9c10 fb3b 8096 a63b e149 853c
00000300: bd8b 733c 1b94 76bc 4154 6dbc e72b 7339
00000310: 56ae 943c 140c 93bc 4eed c93b 2576 e13b
00000320: 32f5 883b 32fe 95bc 8c60 533c bb29 9d3c
00000330: 1979 91bb 31b8 cfbc 189c 653b e286 9a3a
00000340: 182b 013c f596 98bc 8916 f63b 4023 96bb
00000350: 1c1b b23b f14b eb3b 3196 84bc d4dd cc3b
00000360: 8ef6 64bc 296b f33b 09c3 5bbb 0a1b 473b
00000370: 02f3 94bc fa14 e2bc d63b f13b 3497 02bc
00000380: db67 cfbb 552a 773c 07da 15bc 8389 433b
00000390: cb2d ac3a 680c 91bc dc90 983c 2459 01bb
000003a0: e4e4 c33c bae6 4ebc a4d5 1b3c cdd8 20bb
000003b0: bfe0 d73b 4f57 bd3c 9edd e23b 0558 f03a
000003c0: 338b 78bc 2f2d 78bc 8204 233b cdfa b83c
000003d0: d7e0 9d3b e059 e13b 29fe d53c d938 8fbc
000003e0: c640 603c 7a3f 5abc c7df bb3c 133c 243a
000003f0: 350c 883b 1cb0 febb bd44 15bb 0fd8 98ba

layers.conv2_2.bias f4 [32]
-0.0045791874 -0.0061669005 0.021318734 0.0057936287 0.00796073 -0.020241518 -0.011888316 -0.02378275
-0.011556289 -0.0036880227 0.02551243 -0.0065005478 0.020546583 0.027344655 0.020631159 -0.015569135
-0.02112057 -0.014725077 -0.005469809 0.010087496 -0.0016358792 -0.00558454 0.015416138 -0.010503331
-0.00953512 0.019754568 0.011990654 -0.005838904 0.0051178737 -0.0019404279 -0.014664366 -0.0058544525
00000000: 020d 96bb b613 cabb a0a4 ae3c 7bd8 bd3b
00000010: b96d 023c 8ad1 a5bc 36c7 42bc 0bd4 c2bc
00000020: 9756 3dbc c1b2 71bb 72ff d03c 8c02 d5bb
00000030: 4f51 a83c e601 e03c ad02 a93c af15 7fbc
00000040: 0c05 adbc 7341 71bc 153c b3bb 0646 253c
00000050: ff6a d6ba 84fe b6bb f893 7c3c 2a16 2cbc
00000060: 3139 1cbc 55d4 a13c 7374 443c 4754 bfbb
00000070: d6b3 a73b f555 feba cf42 70bc b5d6 bfbb

layers.conv3_1.weight f4 [32, 4, 49]
-0.03284912 -0.017250262 -0.03792159 0.058381025 0.0071451296 -0.046885822 -0.040398493 -0.063141875
-0.015787221 -0.039796423 -0.03586325 0.06814706 0.0014021631 -0.06562945 0.071308725 -0.0690598
-0.019171473 -0.039469767 -0.05379805 0.020898722 0.053949483 0.028849993 0.072804786 0.06693606
0.050800033 0.0323309 -0.015824933 -0.002425085 0.030001434 -0.065588854 -0.059940536 -0.044701133
0.063189425 0.034056615 -0.001159449 0.053178888 -0.062185246 0.053379666 -0.05359094 -0.034905426
-0.02468554 0.043547254 -0.0087105995 0.060706116 0.0038901053 -0.04091426 -0.009767313 -0.06474341
-0.04509096 -0.0409664 0.027497645 0.056450434 -0.023809934 0.025355753 -0.0003264164 -0.010133656
0.05858288 0.010279831 0.004386956 -0.027578175 0.037699386 0.070717864 -0.06865282 -0.0073431437
-0.051628735 0.03490522 -0.036585134 0.010018876 0.051590532 0.05468271 0.07249693 -0.038061567
0.0020233057 -0.0015442888 0.06019376 -0.06585392 0.021302456 -0.03215467 -0.046891373 -0.059907507
0.0012067673 0.04940463 -0.03260144 0.07152547 0.06834165 0.016880158 0.06967552 -0.059341867
-0.0048314347 -0.038755648 0.03140847 0.06261852 -0.0034134027 -0.005531457 0.03348015 0.043095976
-0.05177298 0.072657056 0.012181361 -0.021069484 0.06803899 0.03005115 -0.037339274 -0.03635309
0.05529283 0.020325774 -0.055205915 -0.051382348 0.030956175 -0.042820577 0.015877914 0.04853669
0.02601358 -0.020128714 0.037769247 -0.047530096 -0.0058997613 0.038929597 -0.036413766 0.071335934
0.037574552 -0.058275077 0.027914783 0.0549572 0.0031557688 0.049491227 -0.05875578 -0.039430026
-0.02611785 -0.008175006 0.021037517 0.038552504 0.030800354 0.06842144 0.029642833 -0.022661362
0.068055615 -0.055578124 -0.06188579 0.020608854 0.04978841 0.04216478 -0.068873405 -0.05439475
-0.061869826 -0.035000745 -0.019738562 0.02560655 -0.04525653 -0.022825487 0.026813725 0.03487273
0.06919447 -0.03476607 0.06356617 -0.06650735 0.06790511 -0.006273438 -0.024978744 -0.025453461
-0.012965545 0.069795735 -0.028200205 0.06015182 -0.0577113 -0.030579546 0.0113028465 -0.065700084
0.06676523 -0.06344286 -0.03366759 -0.025206843 -0.037087426 -0.019616848 0.052556593 0.022675049
0.029421018 -0.062131796 -0.020702755 0.0140378205 -0.038131684 0.018195031 -0.009618842 -0.05484637
-0.061556432 0.0073034484 0.044467144 0.036493987 -0.0628351 0.037595656 0.016971596 0.038388886
-0.0074315914 -0.068472795 0.004261495 0.015828345 -0.06146889 0.044677757 0.013103098 0.015309039
-0.016743353 0.062124383 -0.04124526 -0.028889935 0.05604397 -0.060464073 0.01121 -0.037949536
-0.033634517 -0.015166868 0.04753449 -0.042357594 0.045247246 0.00364224 -0.037716452 -0.04658056
0.033673868 0.041205984 0.033889778 0.0129769305 0.06191183 -0.035286427 0.0035768182 -0.045139182
0.034002155 0.039716948 -0.008008275 0.0023328296 -0.06401513 0.06489027 -0.038603902 0.028490685
-0.012377839 -0.010582939 0.043443598 -0.07003089 0.046528414 -0.020351654 -0.04222659 0.04979208
-0.06848188 -0.051304128 0.042450443 -0.020390445 -0.06478553 0.0358588 -0.0045759743 0.060804844
-0.021788755 0.035423767 0.058645934 0.0020473253 0.027980398 -0.0002111974 0.05109129 0.052830987
00000000: cd8c 06bd 6c50 8dbc ab53 1bbd f120 6f3d
00000010: b121 ea3b 590b 40bd e478 25bd 8750 81bd
00000020: 3454 81bc 9301 23bd 58e5 12bd b090 8b3d
00000030: c9c8 b73a bc68 86bd 4f0a 923d 396f 8dbd
00000040: 7e0d 9dbc 0dab 21bd 585b 5cbd cc33 ab3c
00000050: 22fa 5c3d d256 ec3c ad1a 953d c615 893d
00000060: b213 503d 686d 043d 4aa3 81bc 2dee 1ebb
00000070: 91c5 f53c 7353 86bd 3584 75bd 8918 37bd
00000080: 7569 813d f37e 0b3d a7f8 97ba 1bd2 593d
00000090: f5b5 7ebd a3a4 5a3d 2c82 5bbd fef8 0ebd
000000a0: 5439 cabc 9b5e 323d e7b6 0ebc faa6 783d
000000b0: 23f1 7e3b b695 27bd 1407 20bc 3198 84bd
000000c0: 4cb1 38bd 62cc 27bd be42 e13c 9238 673d
000000d0: 0d0d c3bc deb6 cf3c de22 abb9 a207 26bc
000000e0: 9af4 6f3d bc6c 283c 74c0 8f3b a0eb e1bc
000000f0: ac6a 1a3d 87d4 903d da99 8cbd c19e f0bb
00000100: a778 53bd c7f8 0e3d 4bda 15bd 3626 243c
00000110: 9850 533d fafa 5f3d 4579 943d 72e6 1bbd
00000120: 7099 043b bc69 caba bb8d 763d 6cde 86bd
00000130: 7d82 ae3c 9eb4 03bd 2b11 40bd 9361 75bd
00000140: 642c 9e3a 825c 4a3d 1689 05bd f27b 923d
00000150: b5f6 8b3d 4248 8a3c 0ab2 8e3d 7510 73bd
00000160: 0351 9ebb 3ebe 1ebd 2ba6 003d 233e 803d
00000170: 65b3 5fbb 3941 b5bb 7b22 093d 6885 303d
00000180: e70f 54bd 39cd 943d 5594 473c e999 acbc
00000190: 0758 8b3d d42d f63c 11f1 18bd fae6 14bd
000001a0: bc7a 623d 3d82 a63c 991f 62bd 4c76 52bd
000001b0: ce97 fd3c a164 2fbd 6612 823c 69ce 463d
000001c0: 6e1a d53c f9e4 a4bc edb3 1a3d ebae 42bd
000001d0: c952 c1bb a474 1f3d 9a26 15bd 9318 923d
000001e0: c6e7 193d d9b1 6ebd 8bad e43c cd1a 613d
000001f0: 04d1 4e3b 50b7 4a3d e7a9 70bd 6181 21bd
00000200: 1af5 d5bc 76f0 05bc df56 ac3c 3be9 1d3d
00000210: 0651 fc3c 8a20 8c3d 87d5 f23c 52a4 b9bc
00000220: be60 8b3d e3a5 63bd f47b 7dbd e6d3 a83c
00000230: efee 4b3d fab4 2c3d 800d 8dbd 08cd 5ebd
00000240: 376b 7dbd f15c 0fbd c4b2 a1bc d4c4 d13c
00000250: e95e 39bd 84fc babc 75a8 db3c b5d6 0e3d
00000260: d5b5 8d3d de66 0ebd fb2e 823d 0135 88bd
00000270: d611 8b3d 6a91 cdbb 39a0 ccbc c783 d0bc
00000280: 706d 54bc 11f1 8e3d 1e04 e7bc c161 763d
00000290: af62 6cbd f581 fabc 932f 393c c48d 86bd
000002a0: 35bc 883d 55ee 81bd 07e7 09bd 957e cebc
000002b0: fce8 17bd 83b3 a0bc 9545 573d 06c1 b93c
000002c0: 5904 f13c e97d 7ebd d398 a9bc e3fe 653c
000002d0: f82f 1cbd bf0d 953c 5998 1dbc 96a6 60bd
000002e0: 9922 7cbd c451 ef3b 2e23 363d b87a 153d
000002f0: b0af 80bd e7fd 193d 0408 8b3c aa3d 1d3d
00000300: b584 f3bb 773b 8cbd 03a4 8b3b 72aa 813c
00000310: cec6 7bbd 0600 373d 60ae 563c c3d2 7a3c
00000320: 5b29 89bc 2376 7e3d caf0 28bd 96aa ecbc
00000330: 5d8e 653d 2da9 77bd 26aa 373c f970 1bbd
00000340: 59c4 09bd 757e 78bc 86b3 423d 287f 2dbd
00000350: 2d55 393d a6b2 6e3b 917c 1abd 42cb 3ebd
00000360: 9ced 093d 9bc7 283d 02d0 0a3d 319d 543c
00000370: 4297 7d3d 8088 10bd 0d69 6a3b dde3 38bd
00000380: d845 0b3d 3dae 223d 2435 03bc 63e2 183b
00000390: 5d1a 83bd 31e5 843d 201f 1ebd 4c65 e93c
000003a0: 6bcc 4abc 1064 2dbc eaf1 313d 5b6c 8fbd
000003b0: 9494 3e3d 83b8 a6bc caf5 2cbd c8f2 4b3d
000003c0: 3a40 8cbd 4724 52bd 84e0 2d3d dd09 a7bc
000003d0: 47ae 84bd ade0 123d 0ef2 95bb 800e 793d
000003e0: 557e b2bc 8318 113d b836 703d 6b2c 063b
000003f0: 2637 e53c df74 5db9 1a45 513d 4e65 583d

layers.conv3_1.bias f4 [32]
-0.022737633 -0.018318726 0.023267139 -0.030687962 -0.009358266 0.03357309 -0.040145203 0.06337217
-0.0020807998 0.030184219 -0.045653656 0.0068451073 -0.0062238597 -0.023680158 -0.02282508 0.04508848
-0.038511794 0.054857947 0.029876221 -0.048574552 -0.031267993 -0.04708979 0.016776701 -0.042275067
0.04800605 -0.049166832 -0.032858 0.039678816 -0.025174214 0.026727179 -0.03791852 -0.039508816
00000000: 4644 babc 2711 96bc ba9a be3c 5265 fbbc
00000010: 6a53 19bc f083 093d 4c6f 24bd 45c9 813d
00000020: 075e 08bb e544 f73c 54ff 3abd ec4c e03b
00000030: 85f1 cbbb e4fc c1bc aafb babc b3ae 383d
00000040: 8bbe 1dbd bab2 603d fabe f43c 1cf6 46bd
00000050: de12 00bd 39e1 40bd 4b6f 893c 9f28 2dbd
00000060: fea1 443d 2963 49bd 1c96 06bd 4186 223d
00000070: 273a cebc f5f2 da3c 7350 1bbd ffd3 21bd
