mRNAlocalization/cnn_models/CNN_model_fold8.pth (torch, 531886 bytes, 22 tensors)

layers.bn1.weight f4 [64]
0	0x3f80e50d	1.0069901
1	0x3f7c3324	0.98515534
2	0x3f803d3a	1.0018685
3	0x3f7d8690	0.9903345
4	0x3f807163	1.0034603
5	0x3f7fd972	0.9994117
6	0x3f80fa3a	1.0076363
7	0x3f7d3539	0.98909336
8	0x3f7f3df0	0.99703884
9	0x3f7edce2	0.9955579
10	0x3f7f3b10	0.996995
11	0x3f7ebc36	0.9950594
12	0x3f807a84	1.0037389
13	0x3f7a04b9	0.97663456
14	0x3f7d75fb	0.9900815
15	0x3f7fa355	0.998586
16	0x3f7df7c3	0.9920618
17	0x3f81481a	1.0100129
18	0x3f81213b	1.0088266
19	0x3f7f0417	0.99615616
20	0x3f7fd93b	0.9994084
21	0x3f80980f	1.0046405
22	0x3f7cba01	0.9872132
23	0x3f7f36ea	0.9969317
24	0x3f7f56e1	0.9974194
25	0x3f7e8da6	0.9943489
26	0x3f7d8990	0.9903803
27	0x3f80d921	1.0066262
28	0x3f805aa5	1.0027663
29	0x3f7c71a4	0.986109
30	0x3f7ecc3c	0.99530387
31	0x3f819439	1.0123359
32	0x3f7e2fe8	0.9929185
33	0x3f81e949	1.0149318
34	0x3f7fe85c	0.9996393
35	0x3f811473	1.0084366
36	0x3f803300	1.0015564
37	0x3f7dd274	0.9914925
38	0x3f8080c6	1.0039299
39	0x3f7e51c0	0.9934349
40	0x3f8267d5	1.0187937
41	0x3f80d4b7	1.0064915
42	0x3f81eceb	1.0150427
43	0x3f7d4a05	0.9894107
44	0x3f80368e	1.0016649
45	0x3f80933e	1.0044935
46	0x3f81d0f7	1.0141896
47	0x3f800060	1.0000114
48	0x3f7fc541	0.9991036
49	0x3f7fc67c	0.9991224
50	0x3f81b8bd	1.0134503
51	0x3f804924	1.0022321
52	0x3f803c15	1.0018336
53	0x3f7f3c00	0.9970093
54	0x3f8124c4	1.0089345
55	0x3f8116dd	1.0085102
56	0x3f7e612a	0.9936701
57	0x3f7b1134	0.98073125
58	0x3f805112	1.0024741
59	0x3f7f9319	0.9983383
60	0x3f7f34c0	0.99689865
61	0x3f7c62cf	0.9858827
62	0x3f81c066	1.013684
63	0x3f80cf8a	1.0063336

layers.bn1.bias f4 [64]
0	0x3cb1a125	0.021683285
1	0x3c8eed8c	0.017447256
2	0x3b8ca7e1	0.0042924737
3	0xbc276238	-0.010216288
4	0x3c8bbd1b	0.017057946
5	0x3bbc006c	0.005737355
6	0x3cd9fa0c	0.02660849
7	0x3c245c80	0.010031819
8	0x3bdc2536	0.006718303
9	0x3b80957c	0.00392407
10	0x3b0615cf	0.0020459776
11	0x3b867d64	0.004104303
12	0x3bf33fbd	0.0074233697
13	0xbc5e534c	-0.013569664
14	0xbc0170c1	-0.007900418
15	0x3c465e44	0.012107436
16	0xba2e8fc9	-0.0006658999
17	0xbbb58a70	-0.0055401847
18	0xbc765f48	-0.015037365
19	0x3c102a14	0.008799095
20	0x3c60c84d	0.01371963
21	0x3c394ee5	0.011310314
22	0x3a568fb3	0.0008184865
23	0x3bcdd5fd	0.006281613
24	0xbc00ba2a	-0.007856885
25	0x3c4e0db5	0.01257651
26	0xbbe13fbf	-0.006874054
27	0x3c18daca	0.009329507
28	0x3be1e3ac	0.0068935957
29	0xbc20407d	-0.009781
30	0x3bca123c	0.0061667245
31	0xbc12ba5d	-0.008955565
32	0xbc9885ad	-0.01861843
33	0x3c063987	0.0081924265
34	0x3bd2476e	0.0064172065
35	0x3c3473a4	0.011013899
36	0x3cb740a7	0.022369696
37	0x3ba1e862	0.0049410323
38	0xbc2fb610	-0.010724559
39	0x3bc013b4	0.005861724
40	0x3cfa3ae4	0.03054566
41	0x3c9bb540	0.019007325
42	0x3bcc5964	0.006236242
43	0xbcad758d	-0.021174217
44	0x3b2dfb4f	0.0026547497
45	0x3c907853	0.0176355
46	0xbbccad37	-0.0062462348
47	0x3c6a4d62	0.014300676
48	0x3b3762db	0.0027982506
49	0xbc27f7a7	-0.010251916
50	0x3cff6e31	0.031180473
51	0x3bb8ff5c	0.0056456756
52	0x3b2c8310	0.0026323237
53	0xbb706345	-0.0036680263
54	0x3c3fff95	0.01171865
55	0x3ced16f3	0.028941607
56	0xbb810d28	-0.003938336
57	0x3baa52b5	0.0051978477
58	0x3bff6145	0.007793578
59	0x3a6c3a80	0.0009011403
60	0xbade9345	-0.0016981146
61	0xbb3ac253	-0.0028497174
62	0x3cae2086	0.021255743
63	0x3c398bdb	0.011324848

layers.bn1.running_mean f4 [64]
0	0xbac198b4	-0.001477024
1	0xbc9e40a1	-0.019317927
2	0xbe1fb742	-0.15597251
3	0x3e54c1e7	0.20777093
4	0x3e8822fd	0.26589194
5	0x3ccb2e8f	0.024802474
6	0x3d3f3ffb	0.046691876
7	0x3dbf4e05	0.09341053
8	0x3e3c27bd	0.18374534
9	0x3d8071f3	0.06271734
10	0x3d3ff64a	0.04686574
11	0x3d6db654	0.05803521
12	0xbd84711f	-0.06466889
13	0x3e2fc200	0.17163849
14	0x3e34eb12	0.17667797
15	0x3cf87b53	0.030332243
16	0xbea2ba12	-0.31782585
17	0xbe4cafa9	-0.19988884
18	0x3d401f89	0.046905074
19	0x3d6ee790	0.058326304
20	0x3bac808b	0.005264347
21	0x3e355cd2	0.1771119
22	0xbb38dd33	-0.0028208017
23	0x3d9e505a	0.077301696
24	0x3c0faf41	0.008769811
25	0x3d1d32d5	0.038378555
26	0x3d229feb	0.03970329
27	0x3dd80a04	0.10548785
28	0x3d9d00c9	0.076661654
29	0x3e3ad7ef	0.18246435
30	0x3ce17a53	0.027524149
31	0x3dcb962c	0.099407524
32	0x3db5c0c8	0.08874661
33	0x3e1acc9d	0.15117116
34	0x3c26ee4c	0.01018865
35	0xbca26d97	-0.019827647
36	0x3dad7337	0.08469241
37	0x3bf65bbc	0.00751826
38	0xba31067c	-0.00067529804
39	0x3da15a1b	0.078785144
40	0x3d9e6df6	0.07735817
41	0x3e5fbddc	0.2184977
42	0x3dae2dc7	0.08504825
43	0xbc8c5361	-0.017129602
44	0xbdf3c52e	-0.119028434
45	0x3c94be43	0.01815713
46	0xbcf9e92d	-0.030506695
47	0x3e107d4c	0.14110297
48	0x3e5b386d	0.21408243
49	0xbd322d69	-0.043500338
50	0x3e0479f0	0.1293714
51	0x3dc6ccb1	0.097070105
52	0xbe2d8f84	-0.16949278
53	0xbeb21dfe	-0.34788507
54	0xbd570f90	-0.052505076
55	0x3e0d3ca0	0.13792658
56	0x3e12adf2	0.14324167
57	0xbcedcdf0	-0.029028863
58	0x3c9b192e	0.018932905
59	0xbe0c6cd1	-0.13713385
60	0x3e172ae6	0.14762458
61	0x3be14d07	0.0068756375
62	0xbeb15f0d	-0.3464283
63	0x3d29e80c	0.041481063

layers.bn1.running_var f4 [64]
0	0x3cf95293	0.030434882
1	0x3d3b27ee	0.045692377
2	0x3dde6505	0.10859112
3	0x3d8e2a7a	0.069416955
4	0x3d7a67de	0.06113421
5	0x3cd84d35	0.026404003
6	0x3d1f79af	0.038934406
7	0x3d25b9fc	0.04046057
8	0x3d6e2f6b	0.05815069
9	0x3d4f404e	0.050598435
10	0x3d2818e7	0.041039374
11	0x3d79cbea	0.060985483
12	0x3d032a1d	0.032022584
13	0x3d96030a	0.073247984
14	0x3d27b907	0.04094794
15	0x3d18360b	0.037160914
16	0x3e1c6281	0.15271951
17	0x3e00aba6	0.12565479
18	0x3d6d9f88	0.05801347
19	0x3d3e9a6e	0.046533994
20	0x3d06f143	0.03294493
21	0x3d2d733a	0.042346217
22	0x3cf7a77d	0.030231232
23	0x3d825067	0.06362992
24	0x3d56ade2	0.05241192
25	0x3d347096	0.044052683
26	0x3d42f35e	0.047595374
27	0x3d52cdac	0.051465675
28	0x3d1f803e	0.03894066
29	0x3d3914b7	0.04518577
30	0x3d113b6a	0.035457052
31	0x3d5d3b4c	0.054011628
32	0x3d0734a9	0.033009205
33	0x3d2bcfb6	0.041946135
34	0x3d4bfc98	0.04980144
35	0x3d175504	0.03694631
36	0x3d382cc1	0.044964556
37	0x3d7a7129	0.061143074
38	0x3d3b8f26	0.045790814
39	0x3d269ab2	0.040674873
40	0x3d816784	0.06318572
41	0x3d5e114b	0.05421571
42	0x3d4d8ce6	0.0501832
43	0x3d1eb0b2	0.03874273
44	0x3d41e528	0.04733768
45	0x3d06efac	0.032943413
46	0x3d119b16	0.035548292
47	0x3d778393	0.060428213
48	0x3d5cf9ae	0.05394905
49	0x3cf7ad12	0.030233894
50	0x3d45a0b2	0.048248954
51	0x3d489feb	0.048980635
52	0x3d6cf234	0.05784817
53	0x3de651d9	0.1124608
54	0x3d1e8a1c	0.03870593
55	0x3d1eb1da	0.03874383
56	0x3d302bbd	0.043010462
57	0x3d353aa7	0.04424539
58	0x3d193a0f	0.037408885
59	0x3d4678c9	0.048455033
60	0x3da9ecab	0.08297094
61	0x3d03ec67	0.032207873
62	0x3e0eceb5	0.1394604
63	0x3d1c9dae	0.038236313

layers.bn2.weight f4 [32]
0	0x3f82fd42	1.0233538
1	0x3f883701	1.0641786
2	0x3f59c716	0.85069406
3	0x3f5b1308	0.85575914
4	0x3f82ec96	1.022845
5	0x3f5a4d0e	0.85273826
6	0x3f82eea0	1.0229073
7	0x3f59ad75	0.850303
8	0x3f82e025	1.0224653
9	0x3f8335b8	1.0250769
10	0x3f847a46	1.0349815
11	0x3f8356b8	1.026084
12	0x3f5bd118	0.85865927
13	0x3f82c7bd	1.0217205
14	0x3f59cd89	0.85079247
15	0x3f82d164	1.0220151
16	0x3f82d99e	1.0222661
17	0x3f833436	1.0250309
18	0x3f83d98c	1.0300765
19	0x3f59a8cd	0.85023195
20	0x3f84252f	1.0323848
21	0x3f5a6842	0.85315335
22	0x3f59dbab	0.8510081
23	0x3f59cbe6	0.8507675
24	0x3f832376	1.0245197
25	0x3f82b920	1.0212746
26	0x3f756140	0.95851517
27	0x3f82f859	1.023204
28	0x3f82dedc	1.0224261
29	0x3f75711d	0.9587572
30	0x3f83036b	1.0235418
31	0x3f830342	1.0235369

layers.bn2.bias f4 [32]
0	0x3c460991	0.012087242
1	0x3d8acf33	0.06777801
2	0xbe1a0e49	-0.15044512
3	0xbe147315	-0.14497025
4	0x3e0a4307	0.13502131
5	0xbe173cce	-0.14769289
6	0x3e05ab28	0.13053572
7	0xbe1a5c1b	-0.15074198
8	0x3e0837f0	0.13302588
9	0x3e034ebf	0.12823008
10	0x3e0d53df	0.13801526
11	0x3e0597e7	0.13046227
12	0xbe10aa11	-0.14127375
13	0x3e058b7b	0.13041489
14	0xbe19a931	-0.15005948
15	0x3e0a6f14	0.13518935
16	0x3e083023	0.13299613
17	0x3e078d81	0.13237573
18	0x3e05f4fc	0.13081735
19	0xbe1a6800	-0.15078735
20	0x3e0bbc80	0.13646126
21	0xbe170c8f	-0.14750884
22	0xbe19ae6a	-0.1500794
23	0xbe19ebd3	-0.15031366
24	0x3e069d5c	0.13145965
25	0x3e03d05a	0.12872449
26	0xbc842fb8	-0.016136035
27	0x3e082946	0.13296995
28	0x3e06869e	0.1313729
29	0xbc8d75d9	-0.017268108
30	0x3e0721f7	0.1319655
31	0x3e03bf10	0.12865853

layers.bn2.running_mean f4 [32]
0	0x3f568b93	0.83806723
1	0x3f929d2d	1.1454216
2	0x3f87e0e8	1.0615511
3	0x3f9a7fd4	1.207026
4	0x3f950917	1.1643399
5	0x3f47c00f	0.78027433
6	0x3fa29673	1.2702163
7	0x3f8def96	1.1088741
8	0x3f9ec771	1.2404615
9	0x3fa42152	1.2822669
10	0x3f8bf301	1.0933534
11	0x3f980ffd	1.1879879
12	0x3f7764c1	0.96638113
13	0x3f9f57b4	1.244864
14	0x3f8cf56e	1.1012399
15	0x3f9e3641	1.2360307
16	0x3fa54035	1.291022
17	0x3f9634de	1.1734884
18	0x3fa36bbd	1.2767254
19	0x3f980c4f	1.1878756
20	0x3f883021	1.0639688
21	0x3f5b1a44	0.85586953
22	0x3fa0bfab	1.2558492
23	0x3fa14731	1.2599851
24	0x3f8ece84	1.1156774
25	0x3f9d9c2b	1.2313284
26	0x3f7054a6	0.93879163
27	0x3f9d865a	1.2306626
28	0x3f9bd819	1.2175323
29	0x3f5b9a43	0.8578226
30	0x3f9c7a9a	1.2224915
31	0x3fa11f10	1.2587605

layers.bn2.running_var f4 [32]
0	0x40915649	4.541783
1	0x40be1b1f	5.9408107
2	0x41015dbd	8.085385
3	0x41123039	9.136773
4	0x40e63d06	7.194949
5	0x40e65b45	7.1986413
6	0x40ed7f6b	7.421804
7	0x4100fac3	8.061221
8	0x40f1503c	7.541044
9	0x40f47b59	7.640057
10	0x40ed0725	7.407122
11	0x40e60230	7.187767
12	0x40fe9edb	7.9568915
13	0x40fc2326	7.8792906
14	0x40d229fd	6.5676255
15	0x40ec182c	7.3779507
16	0x40eff7e6	7.499011
17	0x40e9e78e	7.309516
18	0x40f3230b	7.5980277
19	0x410612f9	8.379632
20	0x40e14f09	7.040898
21	0x40dbfd2d	6.8746552
22	0x40ff78b2	7.9834833
23	0x40f74449	7.7270856
24	0x40df33e9	6.9750867
25	0x40ef1152	7.4708643
26	0x410d164a	8.817942
27	0x40efc116	7.49232
28	0x40ebbe6d	7.3669953
29	0x410f1435	8.942433
30	0x40dde897	6.9346423
31	0x40f1dd96	7.558299

layers.conv1_1.weight f4 [64, 4, 9]
0	0x3ca6096b	0.020268163
1	0x3d745555	0.05965169
2	0x3cfec01f	0.03109747
3	0x3dc84362	0.09778477
4	0x3e09dd79	0.13463391
5	0xbdb6c4fd	-0.08924291
6	0x3d5f43fe	0.0545082
7	0x3c5ed748	0.013601132
8	0x3e2dca8a	0.16971794
9	0xbd6465f5	-0.055761296
10	0xbd94b006	-0.07260136
11	0xbcfc901c	-0.030830435
12	0x3c6b4b15	0.014361163
13	0xbd863d73	-0.06554689
14	0x3e07a12d	0.13245077
15	0xbd4ea4d6	-0.05045017
16	0x3e19c656	0.15017065
17	0xb98fa7b6	-0.0002740004
18	0xbd4e3d67	-0.050351527
19	0x3e19d99a	0.15024415
20	0xbe1177b5	-0.14205821
21	0xbd42cb1d	-0.047556985
22	0xbdc2caf6	-0.09511368
23	0x3e071af9	0.13193883
24	0xbd123a72	-0.03570027
25	0x3dc7d76b	0.097578846
26	0x3d8d2f29	0.06893761
27	0xbe0827e3	-0.13296466
28	0xbc9d331b	-0.019189408
29	0xbbf28465	-0.0074010366
30	0x3e10a866	0.14126739
31	0x3e21d37e	0.15803334
32	0xbe2876cd	-0.16451569
33	0x3d2e8de0	0.04261577
34	0xbde87e25	-0.11352185
35	0xbdcf6eb3	-0.10128536
36	0x3da50e7e	0.08059405
37	0x3d780573	0.06055207
38	0x3db989c1	0.090594776
39	0xbdb8bc25	-0.09020261
40	0xbda1ae4d	-0.07894573
41	0xbc28003a	-0.01025396
42	0x3d7e38f9	0.062066052
43	0xbe15e9bb	-0.14639942
44	0x3d92f906	0.07176404
45	0xbd9cef1b	-0.07662793
46	0xbd43fb0c	-0.04784684
47	0xbd464598	-0.048406214
48	0x3deb0add	0.114766814
49	0x3d34e076	0.044159375
50	0xbe199522	-0.14998296
51	0x3dc68652	0.09693588
52	0xbe31d68f	-0.17367004
53	0x3d135f94	0.035979822
54	0xbc78a158	-0.015175186
55	0xb95e9984	-0.00021228759
56	0x3c2f9336	0.01071625
57	0xbdc3b627	-0.09556227
58	0xbc8a54b9	-0.016886102
59	0xbd1116be	-0.03542208
60	0x3d64176e	0.055686407
61	0x3ddaa964	0.1067684
62	0xbdcf3d63	-0.101191305
63	0xbdf0bbb8	-0.117545545
64	0xbe1d10c3	-0.15338425
65	0xbe21db24	-0.15806252
66	0xbd65a951	-0.056069676
67	0x3bd8bc92	0.006614276
68	0xbdf1f9c5	-0.11815218
69	0xbdefe9a1	-0.11714483
70	0xbe2d30ec	-0.16913193
71	0xbe27a31a	-0.16370812
72	0x3d3af64b	0.04564504
73	0xbda05db5	-0.07830373
74	0x3e22bd9a	0.1589264
75	0x3d246983	0.040139686
76	0xbc818f3f	-0.015815375
77	0xbcfb9f57	-0.030715628
78	0xbd3f1357	-0.046649303
79	0x3e10f768	0.14156878
80	0x3e2996b5	0.16561396
81	0xbd9a7172	-0.07541169
82	0xbdcc236d	-0.099676944
83	0x3cc7503e	0.024330255
84	0x3d62652e	0.055272274
85	0x3e396219	0.18103828
86	0xbddb116a	-0.10696681
87	0x3dc50a54	0.096211106
88	0x3db10a16	0.08644502
89	0xbe0dcc76	-0.13847527
90	0x3d016033	0.031585883
91	0xbd500dd8	-0.050794452
92	0x3d47d871	0.0487904
93	0xbd3df50e	-0.04637628
94	0x3d59e411	0.053196017
95	0xbddf569b	-0.109051906
96	0xbd3847da	-0.044990398
97	0xbdf42d4f	-0.119227044
98	0x3ac870f6	0.0015292454
99	0x3e0fdf6e	0.14050075
100	0x3d4cea06	0.05002787
101	0x3ccbe280	0.024888277
102	0x3d3878bb	0.045037013
103	0x3dbe26e8	0.092847645
104	0xbe04a079	-0.1295184
105	0xbd08c456	-0.033390366
106	0xbcbbd09a	-0.022926617
107	0xbe0b71f6	-0.13617691
108	0xbe18e7be	-0.14932153
109	0xbdb3871f	-0.08766007
110	0x3dad24a9	0.08454258
111	0x3e08b887	0.13351642
112	0xbe105b70	-0.1409738
113	0x3ccb8241	0.024842383
114	0xbd8bc241	-0.0682416
115	0x3dfecd63	0.12441518
116	0xbdd1f398	-0.1025154
117	0xbd920163	-0.07129171
118	0xbbe33220	-0.0069334656
119	0xbdd589fe	-0.104267105
120	0xbc04fb07	-0.00811649
121	0xbdb58cea	-0.08864768
122	0x3cb645f8	0.02225016
123	0x3a0db785	0.00054060697
124	0x3daf7da6	0.085688874
125	0x3d7fc808	0.062446624
126	0x3df7f30e	0.12106906
127	0xbe17eb2a	-0.14835802
128	0xbd9b585a	-0.07585211
129	0xbd9870fb	-0.07443424
130	0xbdabe583	-0.08393385
131	0x3d4a50f7	0.04939362
132	0x3d81fc61	0.063469656
133	0xbdec6e70	-0.11544502
134	0xbe01148f	-0.12605499
135	0x3e33faab	0.17576091
136	0x3e009f2d	0.1256072
137	0x3d216ca7	0.03941026
138	0xbdbd0b5c	-0.09230682
139	0x3df4f6f4	0.11961165
140	0xbd2a1bf8	-0.04153058
141	0x3e040321	0.12891819
142	0x3d050362	0.03247393
143	0x3d0d0bcd	0.034435082
144	0xbc17a244	-0.009254996
145	0xbd974f0b	-0.07388123
146	0x3dc445a8	0.095835984
147	0x3da073c7	0.07834583
148	0x3d20ac1e	0.039226644
149	0x3dcd6536	0.1002907
150	0xbdf512a9	-0.1196645
151	0xbc81ad81	-0.015829803
152	0xbe086f33	-0.13323669
153	0x3d2df10a	0.0424662
154	0x3dce6afb	0.10078999
155	0x3e1ce4ba	0.15321627
156	0xbe12aaab	-0.14322917
157	0x3deeeab5	0.116658606
158	0x3c1f855a	0.009736383
159	0x3d282c98	0.041058153
160	0xbdfdb8fc	-0.123887986
161	0x3cb1664f	0.02165523
162	0x3dc4c197	0.09607237
163	0x3e10685c	0.1410231
164	0x3e0a0046	0.13476667
165	0x3d81088e	0.0630046
166	0x3d32ffc5	0.043700952
167	0xbe022f74	-0.12713414
168	0x3a404369	0.00073342636
169	0x3de25094	0.11050525
170	0x3cd32cc0	0.025778174
171	0xbd3cb866	-0.046074294
172	0xbd86759e	-0.065654024
173	0x3dd7aa59	0.10530538
174	0x3ddd1dab	0.10796674
175	0x3dfad470	0.122475505
176	0x3cbb4303	0.022859102
177	0xbd535bcd	-0.05160122
178	0xbd77e724	-0.060523167
179	0x3dde0e67	0.10842591
180	0xbd35c212	-0.044374533
181	0x3de03811	0.10948194
182	0x3d5f8285	0.054567832
183	0x3d0270e1	0.03184593
184	0x3d82c1eb	0.06384643
185	0xbe101378	-0.14069927
186	0x3dd3d5eb	0.10343536
187	0xbddc623d	-0.10760925
188	0xbdd72d03	-0.10506632
189	0x3dd98dc3	0.10622742
190	0x3c8cfc5a	0.017210174
191	0xbe1acc41	-0.15116979
192	0x3d2f4315	0.042788584
193	0x3e08de65	0.13366087
194	0x3d6282ac	0.0553004
195	0xbde3dae8	-0.111257374
196	0xbdc53d7e	-0.09630869
197	0xbd0589f6	-0.032602273
198	0xbdcaf251	-0.099094994
199	0x3d04a635	0.03238507
200	0x3d800715	0.06251351
201	0x3e0dd43b	0.13850491
202	0x3cbc8821	0.02301413
203	0x3e287a8d	0.16453
204	0xbd249734	-0.04018326
205	0xbe0535e1	-0.13008834
206	0xbe1815be	-0.14852044
207	0x3e19a1c2	0.15003112
208	0xbd9fb96a	-0.07799037
209	0xbe18a243	-0.14905648
210	0x3d2023a6	0.039096497
211	0x3c2b9adb	0.010473932
212	0x3db27d98	0.08715361
213	0xbe20d336	-0.1570557
214	0x3d805fed	0.062682964
215	0xbd9e16df	-0.07719206
216	0x3c0e5411	0.008687035
217	0x3d9adccd	0.07561646
218	0x3dd75391	0.10513986
219	0xbdc00fba	-0.093779996
220	0xbdc851ff	-0.097812645
221	0x3d130ba8	0.03589979
222	0x3db39388	0.08768374
223	0x3c8997d6	0.016796034
224	0x3d4b3108	0.049607307
225	0xbd7aee15	-0.06126221
226	0x3c86b0aa	0.016441662
227	0x3ddb042e	0.106941566
228	0xbdda4607	-0.10657888
229	0xbe18947f	-0.14900397
230	0x3e237f0c	0.15966433
231	0x3d9635a6	0.073344514
232	0xbbe72cef	-0.007054917
233	0x3e04f830	0.12985301
234	0x3bca7ef4	0.006179685
235	0x3aee803b	0.0018196175
236	0x3ddf86cb	0.109143816
237	0x3dcdf3b9	0.10056252
238	0x3e2f2eda	0.17107716
239	0x3d95b105	0.073091544
240	0x3ce1e21d	0.02757364
241	0xbe03c719	-0.12868918
242	0xbb6a3c91	-0.0035741667
243	0x3dde44d7	0.10852974
244	0x3d28cf8d	0.04121356
245	0x3e074c47	0.13212691
246	0xbd6d5467	-0.05794182
247	0xbe2910c0	-0.16510296
248	0x3dfd2f18	0.12362498
249	0xbb3959c9	-0.0028282276
250	0x3dbb8400	0.091560364
251	0xbcd7f709	-0.026362913
252	0xbd1ec0fc	-0.038758263
253	0x3dd8b414	0.10581222
254	0xbbd47f5c	-0.006484909
255	0xbe14ae02	-0.14519504

layers.conv1_1.bias f4 [64]
0	0xbdef66fd	-0.11689565
1	0xbd3c6307	-0.045992877
2	0x3db3f034	0.087860495
3	0x3e27c48d	0.16383572
4	0x3e27f9e5	0.16403921
5	0x3e1883ee	0.14894077
6	0xbe049aa2	-0.12949613
7	0x3e2381bb	0.15967457
8	0x3e21a862	0.15786889
9	0xbdd3b89c	-0.10337946
10	0xbd3a6f60	-0.04551637
11	0xbdc2c152	-0.09509529
12	0xbd888bf5	-0.0666732
13	0x3dac38cf	0.08409273
14	0x3d56505b	0.052322727
15	0x3d8e2da1	0.06942297
16	0xbdcda991	-0.10042108
17	0xbdc6eca7	-0.097131066
18	0xbdeb4b60	-0.11488986
19	0xbe17f9cd	-0.14841385
20	0xbd336528	-0.043797642
21	0x3e04e3b0	0.12977481
22	0xbcbd97a3	-0.023143595
23	0xbd774b84	-0.06037475
24	0xbdcc9d55	-0.09990946
25	0xbd923ad1	-0.071401246
26	0xbe24d853	-0.16098146
27	0x3dd0b432	0.101906195
28	0x3de1f4d8	0.11033028
29	0x3e1a0729	0.15041794
30	0x3d9764ea	0.07392295
31	0xbd9b0098	-0.075684726
32	0xbc7534bd	-0.014966187
33	0x3e093f55	0.13403066
34	0xbe004fa7	-0.12530385
35	0xbd2c7da7	-0.04211202
36	0xbce8faa6	-0.028439831
37	0xbd3f5b9e	-0.046718232
38	0xbdfc9554	-0.123331696
39	0x3dc16fcc	0.09445152
40	0x3da214bd	0.07914112
41	0x3dfa0505	0.12207989
42	0x3d9bf9e4	0.07616022
43	0xbe0dc2f3	-0.13843898
44	0xbe0a9e04	-0.1353684
45	0x3d393706	0.04521849
46	0x3cfa4460	0.030550182
47	0x3e172b7d	0.14762683
48	0x3dfac839	0.12245221
49	0xbdf58672	-0.11988534
50	0xbda91544	-0.08256009
51	0x3e0ec818	0.13943517
52	0xbd809514	-0.062784344
53	0xbe1b0527	-0.15138684
54	0xbd56f9ac	-0.0524842
55	0x3e252a75	0.16129477
56	0x3da467b7	0.080275945
57	0xbdd722f8	-0.10504717
58	0xbc33a2ce	-0.010964109
59	0xbdfb8f77	-0.12283223
60	0x3e053ed1	0.13012244
61	0x3e0bb3f4	0.13642865
62	0xbe0a323a	-0.13495722
63	0xbde2e017	-0.11077898

layers.conv1_2.weight f4 [32, 64, 9]
0	0xbc39f9bc	-0.011351045
1	0x3cb82591	0.02247885
2	0x3c89547a	0.016763914
3	0x3d24be76	0.0402207
4	0xbd2ed2fb	-0.042681675
5	0x3cb2956f	0.021799771
6	0xbd0a5113	-0.033768725
7	0x3d21965c	0.039450034
8	0xbd05f3fc	-0.032703385
9	0xbd1822aa	-0.037142433
10	0x3d01fb92	0.031734057
11	0x3b5588f6	0.0032582856
12	0x3c963840	0.018337369
13	0xbc61d6f8	-0.013784163
14	0x3ce547b2	0.027988289
15	0x3bad092c	0.0052806344
16	0xbc2d189e	-0.010564951
17	0x39f3ee00	0.00046525896
18	0x39fafe54	0.00047873205
19	0x3b1ef66d	0.0024255768
20	0x3c60f0e0	0.013729304
21	0xbc7311a1	-0.014835746
22	0x3d15926f	0.036516603
23	0xbcaeb649	-0.021327155
24	0xbcf51cd0	-0.029920965
25	0x3cb14185	0.021637687
26	0xbca3f0ae	-0.020012226
27	0x3cb9d61a	0.0226851
28	0x3ce37f55	0.027770678
29	0x3b491172	0.0030680564
30	0x3c954347	0.018220557
31	0xbcada03a	-0.021194566
32	0x3ca65312	0.020303283
33	0x3b8a2a09	0.0042164368
34	0xbcfc07c2	-0.030765418
35	0x3c80a57f	0.015703915
36	0xbc391e03	-0.011298659
37	0x3ca412c5	0.020028481
38	0xbc13cc86	-0.00902093
39	0x3c5c899e	0.013460545
40	0xbd298e71	-0.04139561
41	0x3d0a29f1	0.033731405
42	0xbcac907b	-0.021064987
43	0x3ce62b7e	0.02809691
44	0x3ca74dc5	0.020422826
45	0xbcc0c9dc	-0.023533754
46	0xbc8770ef	-0.016533343
47	0xbd0b1ab1	-0.033961
48	0x3cf91797	0.030406756
49	0x3cbc1ab3	0.02296195
50	0x3cd2844f	0.025697855
51	0x3bc58167	0.006027389
52	0xbca523a9	-0.020158606
53	0xbc78f398	-0.015194796
54	0x3a590e8f	0.00082800625
55	0xbd1a4056	-0.03765901
56	0x3c7ce7d8	0.015436135
57	0xbce97801	-0.028499605
58	0x3cbe19a0	0.023205578
59	0x3d24dc32	0.040249057
60	0xbc6a7782	-0.014310719
61	0x3c165e0f	0.009177699
62	0xbd2808d8	-0.04102406
63	0x3cd6d846	0.026226174
64	0xbc33778a	-0.010953793
65	0x3beead7a	0.0072838636
66	0xbcf155c4	-0.029459842
67	0x3c8cc91d	0.017185742
68	0xbb73c1cd	-0.0037194372
69	0xbcebe350	-0.028794914
70	0x3c00ed9d	0.007869151
71	0x3cdd99e4	0.02705092
72	0xbc9547bf	-0.018222688
73	0x3d069827	0.032859948
74	0x3c2203f8	0.009888642
75	0xbcca2d87	-0.024679912
76	0xbd12707f	-0.035751816
77	0x3ce6fbd5	0.028196255
78	0x3cd477e8	0.025936082
79	0xbd0e32ba	-0.034716345
80	0xbd012a06	-0.031534217
81	0x3d3eddb9	0.04659817
82	0xbc50d2ab	-0.01274554
83	0x3cb8b830	0.022548765
84	0xbc78f5e2	-0.015195342
85	0xbcc939e3	-0.024563735
86	0x3d318e91	0.043348853
87	0x3bde752c	0.0067888703
88	0xbcb0df22	-0.021590773
89	0x3cc0e216	0.023545306
90	0x3cde6c6c	0.027151309
91	0xbbd5d3d0	-0.006525494
92	0xbd46cbca	-0.048534192
93	0x3c7e997d	0.015539524
94	0xbcea6bc7	-0.028615845
95	0x3ccac125	0.024750302
96	0x3d081af9	0.033228848
97	0xba54b815	-0.00081145886
98	0x3cb86c2b	0.022512516
99	0xbc4656ec	-0.012105685
100	0xbd1d8d8e	-0.038465075
101	0xbcb38507	-0.021914018
102	0xbcbf679c	-0.023364834
103	0xbcb7b3ee	-0.022424664
104	0x3ca6534a	0.020303387
105	0x3c0e98e0	0.00870344
106	0x3ba98eaa	0.0051744776
107	0x3b1914ac	0.0023358269
108	0x3c876d97	0.016531749
109	0xbd470d08	-0.048596412
110	0x3cf91283	0.030404335
111	0x3bc66e30	0.006055616
112	0xbc4ac4a2	-0.0123759825
113	0x3cb01e83	0.021498924
114	0x3d45ebee	0.048320703
115	0x3cb07590	0.021540433
116	0x3c393575	0.011304249
117	0xbca1b70d	-0.019740606
118	0xbcda34e3	-0.026636546
119	0x3bbb1ffc	0.0057106
120	0x3cc10427	0.02356155
121	0xbc54e6ac	-0.01299445
122	0xbc6ce1e0	-0.01445815
123	0xbd23406c	-0.03985636
124	0x3c4db892	0.012556212
125	0x3c0c2921	0.008554728
126	0x3c056d39	0.0081437165
127	0x3bd46dd0	0.006482817
128	0x3cf582d0	0.029969603
129	0xbc33c0b5	-0.010971238
130	0xba91ff87	-0.0011138775
131	0xbb73be00	-0.0037192106
132	0xbbd6b2cd	-0.0065520764
133	0x3b823032	0.0039730305
134	0x3bea9acf	0.007159568
135	0xbc345468	-0.011006452
136	0xbd07547b	-0.03303955
137	0xbc86d119	-0.016457127
138	0x3d043906	0.032280944
139	0x3cc2aaf3	0.023763156
140	0xbd12a1ac	-0.035798714
141	0x3d4c19f4	0.04982944
142	0x3d28db02	0.041224487
143	0xbd009dd3	-0.031400513
144	0xbc65398e	-0.013990773
145	0x3d0bb1a3	0.034104954
146	0xbc43334d	-0.0119140865
147	0x3ca11c35	0.01966677
148	0x3cb627d4	0.022235788
149	0x3cb36d88	0.021902815
150	0x3c9b77bb	0.01897799
151	0xbcac02cf	-0.020997433
152	0xbc821cf9	-0.015882956
153	0xbd44728b	-0.0479608
154	0xbc06ff2a	-0.008239547
155	0x3c87613b	0.016525855
156	0xbd4836e5	-0.048880477
157	0x3a032391	0.0005002553
158	0xbb593f7d	-0.0033149414
159	0xbc6fca76	-0.014635673
160	0xbcf9d160	-0.030495346
161	0x3b937e21	0.0045011197
162	0xbd023adb	-0.03179441
163	0x3cb07913	0.021542108
164	0x3d2a0852	0.04151184
165	0x3caa6a5a	0.020802666
166	0xbcb232e1	-0.021752777
167	0x3b092cb3	0.0020931184
168	0xbc8f97cb	-0.017528435
169	0xbbb7e00d	-0.0056114257
170	0xbbc1234c	-0.0058941003
171	0x3ce55ccc	0.02799835
172	0x3c70193a	0.014654452
173	0xbcb5467b	-0.022128334
174	0x3c81bc71	0.015836926
175	0x3c5c8ca6	0.013461268
176	0x3cdcea33	0.026967144
177	0xbcb4c4ff	-0.022066591
178	0xbc6f11a3	-0.014591607
179	0xbd238889	-0.039925132
180	0x3b6608d6	0.0035100481
181	0x3b653c34	0.003497851
182	0x3c6d5bda	0.014487231
183	0x3ae6c46a	0.0017606143
184	0x3c906639	0.017626869
185	0x3c429a0b	0.011877547
186	0x3c5f5580	0.013631225
187	0x3d2b93b2	0.0418889
188	0xbc3753a6	-0.011189377
189	0xbc90d57f	-0.017679928
190	0x3c9e7a68	0.019345477
191	0x3b07fda7	0.0020750554
192	0xbccc15b6	-0.024912696
193	0x3c6b061d	0.014344719
194	0xbb1cd1bc	-0.0023928722
195	0x3d08da2a	0.033411182
196	0xbc487bae	-0.012236519
197	0xbd6e27b5	-0.058143336
198	0x3d432244	0.0476401
199	0x3c0eda8e	0.0087191
200	0xbcb48270	-0.022034854
201	0x3c6661b7	0.014061383
202	0xbc89c600	-0.016818047
203	0xbcb735b9	-0.022364484
204	0x3d4a2caa	0.049359
205	0xbc6825d3	-0.014169174
206	0x3c836c30	0.016042799
207	0x3c4de421	0.012566597
208	0xbcb2f0fa	-0.021843422
209	0x3d376825	0.044777054
210	0xbcb72f59	-0.022361444
211	0x3c02777e	0.0079630595
212	0x3c888e8d	0.016669536
213	0xbc2ba9ac	-0.010477465
214	0xbbb15988	-0.0054122843
215	0x3a3a06a0	0.0007096324
216	0xbcae5fec	-0.021285973
217	0x3c37efd3	0.011226612
218	0x3ca3480d	0.019931817
219	0xbc104df7	-0.008807651
220	0x3a12b619	0.00055965927
221	0xbce824e6	-0.028337907
222	0x3d13c2a3	0.036074292
223	0x3b2e5c0a	0.0026605153
224	0x3ca72c47	0.020406855
225	0xbc15f99f	-0.009153753
226	0x3bc38472	0.0059667164
227	0x3ce0c6fb	0.027438631
228	0x3c7d8c8a	0.015475402
229	0x3cf444bf	0.029817937
230	0x3ba96489	0.0051694554
231	0xbc9241af	-0.017853586
232	0xbc78c356	-0.0151832905
233	0xbd0ae52e	-0.03390997
234	0xbc45287f	-0.012033581
235	0x3d47b525	0.048756737
236	0xbcead7d8	-0.028667375
237	0xbc850575	-0.016237954
238	0x3ccc9189	0.02497174
239	0x3af3da88	0.0018604556
240	0xbce0a392	-0.027421746
241	0x3cdb3f64	0.026763625
242	0xba35901a	-0.0006926075
243	0x3b59d524	0.0033238614
244	0x3c4c4a95	0.012468954
245	0x3d3585c2	0.044317015
246	0x3d39b21d	0.045335878
247	0xbc6d816c	-0.014496189
248	0xbc94807f	-0.018127678
249	0x3ca26208	0.019822136
250	0x3d1b3593	0.03789289
251	0x3ccf8f73	0.025336957
252	0xbc9035ad	-0.01760372
253	0x3cc13c31	0.023588272
254	0x3cc033c5	0.023462186
255	0xbc8b7a10	-0.017025977

layers.conv1_2.bias f4 [32]
0	0xbd0eda1d	-0.034875978
1	0x3bcff3c3	0.0063461973
2	0xbcc17d77	-0.023619397
3	0xbcd2176f	-0.02564594
4	0xbc37542b	-0.011189501
5	0xbc83e3c9	-0.016099827
6	0xbd14641b	-0.03622828
7	0xbcd6f443	-0.02623952
8	0xbc39cfe9	-0.011341074
9	0x3ce8773e	0.028377172
10	0x3c8b4ce5	0.01700444
11	0x3d2343f3	0.039859723
12	0x3ca6b2ce	0.020348933
13	0xbcad8697	-0.021182342
14	0x3beb0321	0.007172004
15	0xbd2758de	-0.040856235
16	0xbc05049f	-0.008118778
17	0x3d0f5e12	0.03500182
18	0x3b88d639	0.004175928
19	0xbc2ce0f7	-0.010551683
20	0x3d272814	0.040809706
21	0xbd0aec2c	-0.033916637
22	0x3d1c3657	0.03813776
23	0x3bae74e4	0.005323993
24	0xbd1325ef	-0.03592485
25	0xb9890766	-0.00026136189
26	0x3d217ed5	0.039427597
27	0xbd056c48	-0.03257397
28	0x3c4676a3	0.012113246
29	0xbd1536ca	-0.036429204
30	0xbb8c9181	-0.0042898064
31	0x3ce81bd5	0.028333584

layers.conv2_1.weight f4 [64, 4, 20]
0	0xbd91c8a2	-0.07118346
1	0xbce865c9	-0.028368847
2	0xbcdb4086	-0.026764166
3	0x3bbb9803	0.0057249083
4	0x3bf6aadc	0.0075276922
5	0xbc0f11b2	-0.008732246
6	0x3d908262	0.070561185
7	0xbd163dec	-0.036680147
8	0xbd739ad8	-0.059473842
9	0xbddddc73	-0.10833063
10	0x3dccf455	0.1000754
11	0xbbbb8cae	-0.0057235574
12	0xbd5098a7	-0.05092683
13	0x3cf52e79	0.029929386
14	0x3d425d48	0.04745224
15	0xbc867bf1	-0.016416522
16	0x3c3bfa06	0.011473184
17	0x3c8890e1	0.016670646
18	0xbe1b7fd4	-0.15185481
19	0x3e0aa9c2	0.1354132
20	0x3ccec43c	0.025240056
21	0xbd919588	-0.07108599
22	0xbd9ef745	-0.07762007
23	0x3d36f3fd	0.04466628
24	0xbd62529d	-0.055254567
25	0x3d05990d	0.032616664
26	0xbc9c0db5	-0.019049505
27	0xbd9a608d	-0.07537947
28	0xbdb732cc	-0.089452356
29	0x3ddc2273	0.10748758
30	0x3cd52185	0.02601696
31	0xbd9be512	-0.07612051
32	0x3dc9fcc0	0.09862661
33	0x3d9958cf	0.07487642
34	0xbdae7347	-0.08518081
35	0x3c93844c	0.01800742
36	0x3dac6e1c	0.08419439
37	0xbd5d5962	-0.05404032
38	0xbd79908d	-0.06092887
39	0xbd79c04c	-0.060974404
40	0xbd5a4594	-0.05328901
41	0xbca96227	-0.020676685
42	0x3d8078de	0.062730536
43	0x3dc63dd0	0.096797585
44	0x3d70a679	0.05875251
45	0xbd05eacd	-0.032694627
46	0xbc0ea30d	-0.0087058665
47	0x3ce2f4ab	0.027704557
48	0xbd8545a6	-0.06507425
49	0xbcfe7b18	-0.031064555
50	0xbced7235	-0.028985122
51	0x3b392842	0.0028252755
52	0x3d70e10f	0.058808383
53	0xbd0e3c85	-0.034725685
54	0xbddbcabb	-0.10732027
55	0x3d8f46fa	0.069959596
56	0x3dac41bd	0.08410976
57	0xbc70af89	-0.014690288
58	0xbd219c8e	-0.039455943
59	0xbd80165c	-0.06254265
60	0xbd89fcc7	-0.067376666
61	0xbd4321e2	-0.047639735
62	0x3d9fac81	0.077965744
63	0x3cd531c4	0.026024707
64	0xbccfdc93	-0.025373733
65	0xbc9dc37d	-0.019258255
66	0xbd3658aa	-0.04451815
67	0x3cc2a2bd	0.02375924
68	0xbcaed1e7	-0.021340324
69	0xbca4a0e8	-0.020096257
70	0x3d5f1839	0.05446646
71	0x3da2a7b3	0.07942142
72	0xbdb8e47b	-0.09027954
73	0xbd162dce	-0.036664777
74	0xbc4b8a53	-0.012423116
75	0x3d754cae	0.05988758
76	0x3d2bf06d	0.041977335
77	0x3d7469c5	0.059671182
78	0x3d3a10b8	0.0454261
79	0x3dc1ddea	0.09466155
80	0xbd1d5622	-0.03841222
81	0x3e056ef2	0.13030604
82	0xbca6a6de	-0.02034324
83	0x3dba6241	0.09100772
84	0xb99570de	-0.00028503587
85	0x3d301b88	0.042995006
86	0xbcd60b3d	-0.026128406
87	0xbd819e87	-0.06329065
88	0xbda6e640	-0.081493855
89	0x3dae3c16	0.08507554
90	0xbceb7889	-0.028744
91	0x3da6c299	0.08142585
92	0x3c1eb19f	0.009685903
93	0xbd8077f4	-0.06272879
94	0x3d63a0d3	0.055573296
95	0xbd5e93fe	-0.054340355
96	0xbce4ea5a	-0.027943779
97	0xbcc9e55c	-0.0246455
98	0x3bfebeeb	0.007774224
99	0xbce750d8	-0.028236791
100	0x3da96f30	0.082731605
101	0x3df42e95	0.11922947
102	0x3d8dd28b	0.069249235
103	0x3c708dfb	0.014682288
104	0x3deb5dca	0.11492498
105	0x3dbbd01e	0.091705546
106	0xbdc5527d	-0.09634874
107	0x3cef0992	0.029179368
108	0xbbbd1825	-0.0057707005
109	0x3d2bda1b	0.04195605
110	0x3dcb7e96	0.09936254
111	0x3d2a9adb	0.041651588
112	0xbdcfa42c	-0.10138735
113	0x3d29961e	0.04140293
114	0x3dac629c	0.08417246
115	0xbd8b4ea8	-0.06802112
116	0x3d9ec332	0.07752074
117	0x3da9593d	0.08268974
118	0xbd93ebb7	-0.072226934
119	0xbda956fc	-0.08268544
120	0x3d9956b3	0.0748724
121	0xbc1540b2	-0.009109663
122	0xbdc3cfe3	-0.095611356
123	0xbde46722	-0.111524835
124	0x3d963e5c	0.07336113
125	0x3bbc1bbd	0.0057406113
126	0xbd4f5f17	-0.050627794
127	0x3c860316	0.016358893
128	0xbd8d5a08	-0.06901938
129	0x3d2e4002	0.04254151
130	0x3d5ec4d3	0.054386925
131	0xbdaf35f7	-0.08555215
132	0xbd50443c	-0.050846323
133	0x3c8ff209	0.017571466
134	0xbaa4a91d	-0.0012562607
135	0xbd59b470	-0.053150594
136	0x3c3d0fdf	0.0115394285
137	0x3c7d159f	0.015447049
138	0xbccf864a	-0.025332589
139	0xbd76af3b	-0.060225707
140	0x3ddc7182	0.107638374
141	0xbc229079	-0.00992214
142	0xbd9e952e	-0.077432975
143	0x3df0b92c	0.11754069
144	0xbd8569f5	-0.0651435
145	0x3dde67e4	0.10859659
146	0xbc385404	-0.0112505
147	0x3d66ecd4	0.0563782
148	0xbdadb8d4	-0.08482519
149	0x3e005059	0.1253065
150	0xbd5ebaa8	-0.054377228
151	0xbb8869ee	-0.0041630184
152	0xbd66ba81	-0.056330208
153	0x3dcf7694	0.10130039
154	0xbd71a8be	-0.058998816
155	0x3ddd3fa3	0.10803153
156	0x3c81105a	0.015754867
157	0xbda2ce6e	-0.079495296
158	0x3d48b700	0.049002647
159	0x3c8ea7fe	0.01741409
160	0xbc56240a	-0.013070116
161	0xbdfff1a5	-0.12497262
162	0xbba55eea	-0.005046715
163	0xbdd7bb48	-0.10533768
164	0x3cc55323	0.024087494
165	0xbd9cd223	-0.07657268
166	0xbd884f43	-0.06655743
167	0xbd45268a	-0.048132457
168	0x3c8602ac	0.016358696
169	0xbdb903df	-0.090339415
170	0xbceaebfd	-0.028676981
171	0x3c2bfaa5	0.01049677
172	0xbca2f883	-0.01989389
173	0xbd2d60e7	-0.04232874
174	0xba91c98c	-0.0011122688
175	0xbd45bcf1	-0.04827589
176	0xbd582a3e	-0.05277466
177	0x3c1dcd73	0.009631502
178	0xbb18b1d9	-0.0023299365
179	0xbcca941f	-0.024728833
180	0xbe12e31a	-0.14344445
181	0xbdcf5cfc	-0.10125157
182	0x3b0448d9	0.0020185022
183	0x3c5f7f67	0.013641215
184	0xbdc6198e	-0.09672843
185	0x3bcdc543	0.006279619
186	0xbdc142d7	-0.09436577
187	0xbda090c4	-0.07840112
188	0x3d817f3b	0.063230954
189	0xbd9ffd9d	-0.07812045
190	0xbc970ae5	-0.018437812
191	0xbd1bc7d7	-0.03803238
192	0xbdb57c8a	-0.088616446
193	0xbd82bd96	-0.06383817
194	0x3b9cb99e	0.0047828695
195	0xbdb07ea3	-0.08617904
196	0xbd4cc34a	-0.04999093
197	0x3cc87c5d	0.024473364
198	0xbdd61e3c	-0.104549855
199	0xbd924aee	-0.07143198
200	0xbcddae8b	-0.027060768
201	0xbe2feb5a	-0.17179623
202	0xbd614727	-0.054999497
203	0xbde9357a	-0.11387153
204	0x3d3499fe	0.04409217
205	0xbdebe9e8	-0.115192235
206	0xbdd15715	-0.10221688
207	0xbdca2f82	-0.09872343
208	0xbbe8b2f0	-0.007101409
209	0x3cb8ee9f	0.02257472
210	0xbd4a573b	-0.049399596
211	0x3cbcda3c	0.023053281
212	0xbd9d175a	-0.076704696
213	0xbdd6168b	-0.104535185
214	0xbd7d1448	-0.06178692
215	0xbdb065cd	-0.08613167
216	0xbcbe95be	-0.023264762
217	0xbd4bf9eb	-0.049798887
218	0xbd8fbb17	-0.070181064
219	0xbd388dcf	-0.045057114
220	0xbc51df50	-0.0128095895
221	0xbd8ba552	-0.06818642
222	0x3b215129	0.0024615026
223	0xbdcbfda8	-0.099604905
224	0x3ba5c331	0.005058669
225	0xbd405335	-0.046954352
226	0xbd919262	-0.071079984
227	0xbd018617	-0.03162202
228	0x3cc2c456	0.02377526
229	0x3d23e59f	0.040013906
230	0xbd437380	-0.04771757
231	0x3c152d59	0.00910505
232	0xbd9a262a	-0.075268105
233	0x3a8e8618	0.0010873703
234	0xbd67b111	-0.056565348
235	0xbd4a2330	-0.049349964
236	0xbd03040e	-0.03198629
237	0xbc7bc823	-0.0153675405
238	0x3c7e1d74	0.015509952
239	0xbd527263	-0.05137862
240	0xbcc1eb33	-0.023671722
241	0xbca0e2de	-0.019639429
242	0xbd0bdd17	-0.034146395
243	0xbd1fb07d	-0.03898667
244	0x3da76ae8	0.081746876
245	0x3ddcfac8	0.1079002
246	0x3dcf072a	0.10108788
247	0x3df32022	0.11871363
248	0xbb6d2ccd	-0.0036190033
249	0x3d0a3890	0.03374535
250	0x3dd454bf	0.103677265
251	0x3d1e54ef	0.038655218
252	0xbb67a11c	-0.0035343831
253	0xbc7510e8	-0.014957644
254	0x3df77893	0.120835446
255	0x3d440d66	0.04786434

layers.conv2_1.bias f4 [64]
0	0x3daa564c	0.08317241
1	0x3d8e060b	0.06934746
2	0xbcbaf85d	-0.022823507
3	0x3c7c607d	0.015403864
4	0x3d60ac86	0.05485203
5	0xbdc3643f	-0.09540605
6	0x3b5ab356	0.0033371053
7	0x3d60d19d	0.054887403
8	0xbd864028	-0.065552056
9	0xbd0b6d68	-0.034039885
10	0xbd734ce5	-0.059399504
11	0xbd40dc3e	-0.04708504
12	0xbdd6949b	-0.10477563
13	0xbb15bd2e	-0.0022848356
14	0x3da7c488	0.08191782
15	0x3bb26fc2	0.0054454515
16	0xbc900228	-0.017579153
17	0x3dd06915	0.10176293
18	0x3cd3ec6d	0.025869573
19	0x3dad12c3	0.08450844
20	0x3d5de830	0.05417651
21	0x3d410dd0	0.047132313
22	0xbce346e2	-0.02774376
23	0xbd975634	-0.07389489
24	0xbd7c7d9a	-0.06164322
25	0xbd42893b	-0.047494154
26	0x3d080401	0.033206943
27	0xbdbea223	-0.09308269
28	0xbdc747aa	-0.09730466
29	0x3d531c73	0.051540803
30	0xbdd94583	-0.106089614
31	0x3d6247f8	0.055244416
32	0x3dd4db3c	0.10393378
33	0x3c48cfdf	0.012256592
34	0x3d86e0db	0.065858565
35	0xbd8bb852	-0.06822266
36	0xbd56f46b	-0.05247919
37	0xbd9debde	-0.07711004
38	0xbcfb0bfc	-0.030645363
39	0x3b663016	0.0035123876
40	0xbd8097f5	-0.062789835
41	0xbc0a9778	-0.0084589645
42	0xbdc0d7cf	-0.09416162
43	0x39d1518b	0.0003992434
44	0x3d58bb96	0.05291327
45	0xbd207d19	-0.039181802
46	0xbda4ce4d	-0.08047161
47	0x3dc54532	0.096323386
48	0x3d6ffa50	0.058588326
49	0xbcf4c922	-0.029881064
50	0x3d3645e9	0.044500265
51	0xbdc9a4bf	-0.09845876
52	0xbd952d9e	-0.072840914
53	0xbde37d3c	-0.11107871
54	0xbde3089c	-0.110856265
55	0xbda5e6a3	-0.08100631
56	0x3c7ad521	0.015309603
57	0x3d42bcbd	0.047543276
58	0xb8e2722a	-0.000107977845
59	0x3ceeff51	0.029174479
60	0xbde1833e	-0.110113606
61	0x3ccb6d2d	0.024832333
62	0x3917342c	0.00014419918
63	0x3c5bb792	0.013410466

layers.conv2_2.weight f4 [32, 64, 20]
0	0x3c45e706	0.012079006
1	0x3c72363c	0.014783438
2	0x3c4d17c3	0.012517872
3	0x3c7798f4	0.01511215
4	0x3c77cff1	0.015125261
5	0x3c69e7f7	0.014276496
6	0x3c87ddbb	0.016585222
7	0x3cace77a	0.02110647
8	0x3cc269c4	0.023732074
9	0x3cba379b	0.022731593
10	0x3ccb4044	0.024810918
11	0x3cb37635	0.021906951
12	0x3cab7412	0.02092937
13	0x3ca9c547	0.020723952
14	0x3c94352b	0.018091759
15	0x3c8bff45	0.017089495
16	0x3c6fb8fe	0.014631508
17	0x3c52cdde	0.012866465
18	0x3c55853d	0.013032255
19	0x3c1afb5d	0.009459344
20	0x3c9aad7d	0.018881554
21	0x3cbd9617	0.023142857
22	0x3cb31e60	0.02186507
23	0x3ce268e7	0.027637912
24	0x3cf8f8e4	0.030392118
25	0x3cea121b	0.028573086
26	0x3ce1e78f	0.027576236
27	0x3caafa43	0.020871287
28	0x3cb08627	0.021548344
29	0x3ca40fb8	0.020027027
30	0x3c778ef1	0.0151097635
31	0x3c150a69	0.00909672
32	0x3c03c284	0.008041982
33	0x3c3b9b0b	0.011450539
34	0x3c19d3f8	0.009388916
35	0x3c29ff69	0.010375836
36	0x3becdd65	0.0072285407
37	0x3c095506	0.008382088
38	0x3c00e33a	0.007866675
39	0x3c246bd3	0.010035473
40	0xbc806cfc	-0.015676968
41	0xbc71695b	-0.014734591
42	0x3bde14c8	0.0067773797
43	0x3c431174	0.011906017
44	0xbc4e525a	-0.012592876
45	0x3ccf0e32	0.025275324
46	0x3c87a97e	0.016560312
47	0x3bad1f80	0.005283296
48	0x3c5debbd	0.013544974
49	0xbb58a2bc	-0.0033055982
50	0xb9836b92	-0.00025066413
51	0xbc019372	-0.007908689
52	0x3a0ef3cc	0.00054531987
53	0xbc0da032	-0.008644151
54	0xbab8237a	-0.0014048659
55	0x3ba64929	0.0050746393
56	0xbc882f91	-0.016624244
57	0xbbb534fe	-0.005529999
58	0x3bd3f59e	0.006468489
59	0xbbdaa88a	-0.0066729235
60	0xbc0fd878	-0.0087796375
61	0xbbc7078d	-0.006073898
62	0xbc226453	-0.0099116145
63	0xbbbe49b1	-0.0058071245
64	0xbc2741d8	-0.0102085695
65	0xbc916dd3	-0.017752564
66	0x3b0b0667	0.0021213533
67	0xbbb26cff	-0.0054451223
68	0xbb8ff475	-0.004393155
69	0x3b89fe54	0.0042112265
70	0xba3ff4cc	-0.00073225494
71	0xbc20c830	-0.009813353
72	0xbc9359c6	-0.017987143
73	0xbbedf7da	-0.007262212
74	0xbb8b830a	-0.0042575644
75	0xbc2af06b	-0.010433297
76	0x3c1e48c4	0.009660903
77	0xbc5ffaa2	-0.013670595
78	0x3c622c9b	0.01380458
79	0x3b22c2f9	0.002483545
80	0x3cb1e96d	0.021717751
81	0x3d077272	0.033068128
82	0x3c5dd00f	0.013538375
83	0x3c5dce96	0.013538023
84	0x3c69c529	0.014268198
85	0x3bf03765	0.0073308223
86	0x3c260a7c	0.010134336
87	0x3b5f2fc2	0.0034055565
88	0x3c978892	0.018497739
89	0x3c0b9232	0.008518742
90	0x3c89faa6	0.016843151
91	0x3c0508de	0.00811979
92	0x3bc92e24	0.0061395336
93	0xbb53ce73	-0.0032319098
94	0xba946893	-0.001132267
95	0x3c717ac6	0.014738744
96	0x3c4e12ee	0.012577755
97	0x3cab3e6e	0.020903792
98	0x3cc03763	0.02346391
99	0x3ca688da	0.020328928
100	0x3c669596	0.01407375
101	0x3c8a4de4	0.016882844
102	0x3c7faf04	0.015605692
103	0x3c801f8a	0.015640039
104	0x3c965a2b	0.018353542
105	0x3ca527d8	0.0201606
106	0x3c82ed08	0.015982166
107	0x3c6fad7d	0.014628765
108	0x3c579a99	0.013159418
109	0x3c7196f5	0.014745464
110	0x3c58ce7b	0.0132328225
111	0x3c27f740	0.01025182
112	0x3c2bad9d	0.010478404
113	0x3bcddf27	0.0062827053
114	0x3b9c1274	0.004762942
115	0x3b13a34f	0.002252776
116	0x3ac14115	0.0014744127
117	0xbb0a9b7f	-0.0021149812
118	0xbb332e54	-0.0027340846
119	0xbbe6ca4e	-0.0070431596
120	0x3c9ef86a	0.019405562
121	0x3c97f6fa	0.018550385
122	0x3c86f7c7	0.016475571
123	0x3cb0b13b	0.021568885
124	0x3c77afee	0.0151176285
125	0x3ca42d17	0.020041032
126	0x3cb3d662	0.021952812
127	0x3cf6b70f	0.030116586
128	0x3cc907c8	0.024539843
129	0x3cd45ec3	0.025924092
130	0x3cb224c6	0.02174605
131	0x3cade433	0.021226978
132	0x3c9426e9	0.01808496
133	0x3c0eff50	0.008727863
134	0x3aff4853	0.001947651
135	0x3b4e5103	0.0031481392
136	0x3bbe612d	0.005809924
137	0xba4b97c0	-0.0007766448
138	0x3b86f901	0.004119039
139	0x3a6d5d00	0.00090546906
140	0x3c85543d	0.01627552
141	0x3c1b51c4	0.009479944
142	0x3c87e440	0.01658833
143	0x3c6d7e7e	0.01449549
144	0x3c19b653	0.009381848
145	0x3c0a15ef	0.008428081
146	0x3b194618	0.0023387726
147	0x3bacc1ce	0.0052721268
148	0x3bc8c325	0.0061267787
149	0x3b6f2845	0.0036492508
150	0x3b85851f	0.004074707
151	0x3be6a253	0.0070383935
152	0x3b915392	0.004435011
153	0x3bd76e9d	0.0065744654
154	0x3be14b64	0.0068754423
155	0x3ba4df19	0.005031478
156	0x3a968556	0.0011483829
157	0x3b09ffef	0.002105709
158	0x3ab9fe9e	0.0014190262
159	0x3b0de1ac	0.0021649403
160	0x3cd60f07	0.026130212
161	0x3ce41a8b	0.027844688
162	0x3c381a4f	0.011236741
163	0x3b932b2b	0.00449123
164	0x3b98ba31	0.0046608676
165	0x3c6b8f13	0.014377373
166	0x3c5c3a25	0.013441597
167	0x3c2b814c	0.0104678385
168	0xba99130d	-0.0011678651
169	0xbc14179a	-0.00903883
170	0xbb8ff1c2	-0.0043928334
171	0xbbf3cf10	-0.0074404553
172	0x3c186fd8	0.009304009
173	0x3c241672	0.010015117
174	0xbab8e9aa	-0.0014107723
175	0x3c9e83b8	0.019349918
176	0x3beb0793	0.007172534
177	0x3cab1ecc	0.020888709
178	0x3c619093	0.013767379
179	0x3ca3cabc	0.019994132
180	0x3cd5c0ad	0.026092852
181	0x3d0ccdd0	0.034375966
182	0x3c88daa1	0.016705813
183	0x3c165511	0.009175555
184	0x3c0e93a2	0.008702191
185	0x3c0da294	0.008644719
186	0x3b101ec3	0.0021990992
187	0xbb1c0e1e	-0.0023812125
188	0xbbde1719	-0.006777656
189	0xbbf782d6	-0.0075534387
190	0xbb5604b0	-0.0032656603
191	0xbc612bdc	-0.013743367
192	0xbc22ea48	-0.009943552
193	0x38e61fa7	0.0001097315
194	0xba45eb02	-0.00075499725
195	0x3c0bb725	0.008527552
196	0x3bf3b60f	0.0074374746
197	0x3bf6a079	0.007526454
198	0x3b855b24	0.0040697027
199	0x3c35c718	0.011094831
200	0x3c8c4783	0.017123943
201	0x3cce6894	0.025196351
202	0x3c981a6f	0.018567292
203	0x3ce7ef01	0.028312208
204	0x3ca503f9	0.020143496
205	0x3c71fc97	0.014769695
206	0x3c073848	0.008253165
207	0x3c578071	0.013153181
208	0x3b344cfc	0.0027511707
209	0x3c0af734	0.008481789
210	0x3b8fb4f8	0.004385587
211	0x3bb1690e	0.005414135
212	0x3c4a3339	0.012341314
213	0x3c0f12cd	0.00873251
214	0x3adee5e4	0.0017005769
215	0x39e08f8d	0.00042831563
216	0x3bbb8c95	0.005723546
217	0x3bfdc751	0.0077447076
218	0x3c6043b7	0.0136880195
219	0x3c255dec	0.0100931935
220	0x3c91f414	0.01781658
221	0x3cc02f35	0.02346001
222	0x3c66b58f	0.014081373
223	0x3be5a651	0.007008352
224	0x3c854c90	0.01627186
225	0xbc1883ac	-0.009308737
226	0xbbae0656	-0.005310814
227	0xbbdac23c	-0.0066759866
228	0xbc3a6bc2	-0.0113782305
229	0xbc89d734	-0.01682625
230	0xbb9c7839	-0.004775074
231	0x3ba989cb	0.005173897
232	0x3bbc0643	0.005738051
233	0x3bbcb1e5	0.0057585114
234	0x3ae034ea	0.0017105613
235	0x393a434b	0.00017763411
236	0xba829747	-0.0009963297
237	0x3c0238ad	0.007948083
238	0x3c6fc141	0.014633478
239	0x3c3924d3	0.0113002835
240	0xbcb1fad1	-0.021726044
241	0xbce2a800	-0.027668
242	0xbd28a489	-0.041172538
243	0xbd2049e2	-0.03913296
244	0xbd4555f6	-0.048177682
245	0xbd386fa8	-0.04502836
246	0xbd42af8e	-0.047530703
247	0xbd4d8571	-0.050176088
248	0xbd5291ac	-0.051408455
249	0xbd520774	-0.05127664
250	0xbd621059	-0.05519137
251	0xbd580fe0	-0.052749515
252	0xbd4288d1	-0.04749376
253	0xbd440579	-0.04785678
254	0xbd400d44	-0.04688765
255	0xbd441545	-0.047871847

layers.conv2_2.bias f4 [32]
0	0xbc14ff52	-0.009094076
1	0x3a7ca4be	0.00096375856
2	0x3c07a7de	0.008279769
3	0x3cdb5e56	0.026778381
4	0xbc127795	-0.008939643
5	0x3b79bc23	0.0038106523
6	0x3cd6a8a6	0.026203465
7	0x3bfe4a41	0.0077603166
8	0xbc69b87a	-0.014265174
9	0xbc3f29fd	-0.011667726
10	0x3ce0cf3a	0.027442563
11	0xbc95b408	-0.018274322
12	0x3c5bc8a0	0.013414532
13	0xbc27ae25	-0.01023439
14	0xbc7ad739	-0.015310102
15	0xbc7452cd	-0.014912319
16	0x3caa23e8	0.020769075
17	0x3ccda55a	0.02510326
18	0xbcac7c9b	-0.02105551
19	0x3c788706	0.015168911
20	0xbc6f7a10	-0.014616504
21	0xbb180b4a	-0.0023200088
22	0x3c3fe007	0.011711127
23	0xbc2c8a12	-0.010530965
24	0xbba402a9	-0.0050052
25	0x3c728951	0.014803247
26	0x39361223	0.00017363629
27	0x3c3eb8ad	0.01164071
28	0x3c8515b5	0.016245702
29	0x3cb0c354	0.021577515
30	0xba075a14	-0.0005163264
31	0xbb59c091	-0.003322635

layers.conv3_1.weight f4 [32, 4, 49]
0	0xbdf74877	-0.120743684
1	0xbdd25095	-0.10269276
2	0xbd9eca1a	-0.077533916
3	0xbda20df4	-0.079128176
4	0xbd3d734d	-0.046252538
5	0x3c3b66ee	0.011438115
6	0xbc8a2bc3	-0.01686657
7	0xbd1150b1	-0.035477344
8	0xbcf96ba7	-0.03044684
9	0x3cd3ce7b	0.025855293
10	0x3c97d6fe	0.018535133
11	0x3b759d9f	0.0037477983
12	0x3c628c62	0.013827415
13	0xbb95de36	-0.0045736087
14	0xbc3ee657	-0.011651597
15	0x3d4ef7b0	0.050529182
16	0x3ce5c218	0.028046653
17	0x3d0337e6	0.03203573
18	0x3c335a5a	0.010946834
19	0x3ce42939	0.027851688
20	0xbc95ded8	-0.018294737
21	0xbc88a3ee	-0.01667973
22	0x3cf84829	0.030307846
23	0xbc3582f4	-0.011078585
24	0xbcbfe01a	-0.02342229
25	0x3ca9296f	0.02064964
26	0x3ce561be	0.028000709
27	0x3ce3b71c	0.027797274
28	0x39f9e95c	0.00047666847
29	0xbba39087	-0.0049915942
30	0x3d0dc269	0.034609232
31	0xb93fde0f	-0.00018297903
32	0x3ce307f6	0.027713757
33	0xbcd130a5	-0.02553589
34	0x3ca4974f	0.02009168
35	0x3b2bafc0	0.0026197284
36	0x3ce3fd37	0.027830703
37	0x3c3406d8	0.01098796
38	0x3c0d0267	0.00860653
39	0xbd240030	-0.04003924
40	0x3ba31d60	0.004977867
41	0xbbc01def	-0.0058629434
42	0xbcf541c0	-0.029938579
43	0xbcd78ba6	-0.026311707
44	0xbd4d486b	-0.05011789
45	0xbd93bf0d	-0.072141744
46	0xbd70d131	-0.05879325
47	0xbcbc40fb	-0.022980204
48	0xbd43ebaa	-0.04783217
49	0xbdfec558	-0.12439984
50	0xbd4e32ed	-0.050341535
51	0xbd9f62e3	-0.07782533
52	0xbd9defd5	-0.0771176
53	0xbdb49db7	-0.08819144
54	0xbd6c4bc3	-0.05768944
55	0xbc6bde8e	-0.014396323
56	0xbc925128	-0.017860964
57	0x3c99f984	0.018795736
58	0xbc4ae297	-0.012383125
59	0x3d08dc31	0.033413116
60	0x3c6997dd	0.014257398
61	0xbb19f45c	-0.0023491597
62	0xbca978da	-0.02068751
63	0x3d0ed832	0.03487415
64	0xbcb24e81	-0.02176595
65	0x3d22a13a	0.03970454
66	0xbca5dac0	-0.02024591
67	0x3d29c993	0.041452
68	0x3cd08b0a	0.025456924
69	0x3d1dd093	0.03852899
70	0xbcac12b1	-0.021005007
71	0xbc8a4e32	-0.01688299
72	0xbd3dd9fa	-0.046350457
73	0xbd3061a2	-0.04306186
74	0x3d0a14ef	0.03371137
75	0x3cd9b393	0.026574885
76	0xbc3e2d19	-0.011607432
77	0x3cd27687	0.025691284
78	0x3c7be148	0.015373535
79	0xbb9eb836	-0.004843737
80	0xbc9173e7	-0.017755462
81	0xbd274103	-0.040833484
82	0xbcf37aa1	-0.02972156
83	0xbc93f775	-0.018062333
84	0x3bce73e3	0.006300436
85	0xbd0ed40d	-0.034870196
86	0xbc3dc1d7	-0.01158186
87	0x3cc813b8	0.024423465
88	0xbd681bcc	-0.056667134
89	0xbc92edc9	-0.01793565
90	0xbcdcc060	-0.0269472
91	0xbd7c6b25	-0.06162562
92	0xbcf93702	-0.030421738
93	0xbdd25cdb	-0.10271617
94	0xbd7865f7	-0.060644116
95	0xbd7f254d	-0.062291432
96	0xbbfde495	-0.0077481964
97	0xbddd825b	-0.10815879
98	0xbd8544ac	-0.06507239
99	0xbd5efd27	-0.054440644
100	0xbcc48e33	-0.023993587
101	0xbdec394c	-0.11534366
102	0xbd2ef062	-0.042709716
103	0xbb0de3b4	-0.0021650614
104	0x3c4c304e	0.012462689
105	0xbd2ad892	-0.041710444
106	0xbcb6b2cd	-0.022302056
107	0x3c0096b6	0.007848432
108	0xbd02fef4	-0.031981423
109	0x3d550ebb	0.052016
110	0xbcb7a982	-0.022419695
111	0xbc5d6d02	-0.013514759
112	0xbcabae35	-0.020957092
113	0xbc3667cb	-0.011133145
114	0xbc55a86d	-0.013040644
115	0x39cc7e78	0.0003900414
116	0xbc63c51b	-0.013901974
117	0x3d0e408a	0.034729518
118	0xbb35591b	-0.002767152
119	0x3b939f8d	0.004505104
120	0x3bfaf9c9	0.0076591712
121	0xbcd60def	-0.02612969
122	0xbd4b5c7c	-0.049648747
123	0xbbd0bf5e	-0.006370469
124	0x3d4f048d	0.05054145
125	0xbcd8e4b9	-0.026476251
126	0xba988959	-0.0011637612
127	0xbcaa0f44	-0.020759232
128	0x3d3cbf15	0.046080668
129	0xbcb0e63d	-0.021594161
130	0xbc8b1767	-0.016978933
131	0xbc6e5d5c	-0.014548626
132	0xbc2fe040	-0.010734618
133	0xbd65fcd1	-0.056149308
134	0xbba58272	-0.0050509507
135	0xbd8bcb16	-0.06825845
136	0xbce72f28	-0.028220728
137	0xbbc04a26	-0.005868214
138	0xbd575325	-0.052569527
139	0xbd9b82f6	-0.07593338
140	0xbc7973ab	-0.015225331
141	0xbd3d47ba	-0.046210982
142	0xbdd6d678	-0.104901254
143	0xbd94e291	-0.072697766
144	0xbd66a9e8	-0.05631438
145	0xbdde6dcd	-0.108607866
146	0xbd66b8db	-0.056328636
147	0xbd8127b6	-0.063064024
148	0xbd2f36e1	-0.042776946
149	0xbda1432b	-0.078741394
150	0xbdaf7d8b	-0.08568867
151	0xbd808575	-0.06275455
152	0xbd23e2c6	-0.04001119
153	0x3c9677f7	0.01836775
154	0xbc350707	-0.011049039
155	0xbc8ea194	-0.01741103
156	0x3d202c8a	0.039104976
157	0x3c9e3d3c	0.019316308
158	0x3cdedec9	0.027205842
159	0xbaebf024	-0.0018000645
160	0x3d0e89b3	0.03479929
161	0x3b3ad32d	0.0028507218
162	0x3c8c1935	0.017101863
163	0x3cda90d1	0.026680382
164	0xbc8fbb72	-0.017545436
165	0xbc13efe9	-0.009029367
166	0xbc022bd2	-0.007945018
167	0xbc56868c	-0.013093602
168	0x37ad14f9	2.0632973e-05
169	0x3bbacd5f	0.0057007517
170	0x3ac2c497	0.0014859614
171	0x3cac7211	0.021050485
172	0x3d10a820	0.035316586
173	0x3be8b269	0.0071013463
174	0x3c535b70	0.012900218
175	0x3cf2bdca	0.029631514
176	0xbcfd0e33	-0.03089056
177	0x3d19ce33	0.037550163
178	0x3cb2004e	0.02172866
179	0xbccbd50d	-0.024881864
180	0x3d05235a	0.032504417
181	0x3cab577d	0.020915741
182	0x3c4846ab	0.01222388
183	0xbc0f36a8	-0.008741058
184	0x3bc18d4f	0.005906738
185	0xbcae94b1	-0.021311136
186	0xbc44b12b	-0.012005131
187	0xbc886be8	-0.016653016
188	0xbd0c56a3	-0.03426231
189	0xbd25ccb7	-0.040478434
190	0xbd4128dc	-0.047158107
191	0xbd1d2f06	-0.038374923
192	0xbd2cf34d	-0.042224217
193	0xbd1e6524	-0.038670674
194	0xbd0ea73e	-0.034827463
195	0xbc44b957	-0.012007079
196	0x3c5081f8	0.012726299
197	0x3aa484db	0.0012551801
198	0x3d8465fd	0.06464765
199	0x3d8b8b24	0.06813648
200	0x3d710dd5	0.058851082
201	0x3d97fad1	0.07420886
202	0x3d8864be	0.0665984
203	0x3cb568dd	0.02214473
204	0x3d9c9ffb	0.07647701
205	0x3d45e881	0.048317436
206	0x3d508220	0.050905347
207	0xbc8446b7	-0.016147
208	0x3d1515b0	0.036397636
209	0x3dbb7e9d	0.09155009
210	0xbcafa3f6	-0.021440487
211	0x3da21358	0.07913846
212	0x3be7147d	0.007052003
213	0x3d9d7563	0.07688405
214	0xbc4608ca	-0.012087056
215	0x3d627f57	0.055297222
216	0xbbc519ed	-0.0060150535
217	0x3db0819f	0.08618473
218	0xbc134176	-0.008987775
219	0x3d48db26	0.04903712
220	0x3d92170d	0.07133303
221	0x3be9c25e	0.007133766
222	0xbc0a85bf	-0.008454739
223	0x3dbbf0d3	0.09176793
224	0x3c57e558	0.013177238
225	0x3d0cbb63	0.034358393
226	0x3bf36197	0.007427405
227	0xbc9359e2	-0.017987195
228	0x3da3aff7	0.07992547
229	0xbc4de1cd	-0.012566042
230	0x3d0bac9b	0.034100156
231	0x3d1cb82a	0.03826157
232	0x3c77a94c	0.015116047
233	0x3d5f74e7	0.054554846
234	0x39785a35	0.00023684728
235	0xbca8b7a1	-0.020595374
236	0x3d48da0d	0.049036074
237	0x3c2d4d30	0.010577485
238	0x3c8c51b6	0.017128807
239	0x3d4d82b4	0.050173476
240	0x3d6c91e3	0.057756316
241	0x3d5ca142	0.053864725
242	0xbc9a5b84	-0.018842466
243	0xbc6e9bfc	-0.014563557
244	0x3d8c75f0	0.06858432
245	0xbd0d6e8b	-0.03452925
246	0xbcb7a873	-0.02241919
247	0x3ca36aa6	0.019948315
248	0x3cd51171	0.026009293
249	0x3c5ab284	0.0133482255
250	0x3d980e19	0.07424564
251	0x3d22f1e9	0.039781485
252	0x3cf9866e	0.030459609
253	0x3d8559a5	0.06511239
254	0xbbfb4bd3	-0.007668951
255	0xbd0f8bcd	-0.035045434

layers.conv3_1.bias f4 [32]
0	0xbd3ccca6	-0.046093605
1	0x3d59eb11	0.053202692
2	0xbd2019e4	-0.03908719
3	0xbd4abd21	-0.049496774
4	0xbd8f165e	-0.06986688
5	0xbbcb3270	-0.006201081
6	0x3cc69e55	0.02424542
7	0x3ca643d8	0.020296022
8	0x3d774252	0.060365982
9	0x3d4a3e34	0.049375728
10	0x3cfa150c	0.030527614
11	0xbcb01eeb	-0.021499118
12	0x3c8fd91e	0.017559584
13	0xbcc051e5	-0.02347655
14	0x3d4573ce	0.048206143
15	0x3ce6812f	0.028137771
16	0x3cf155db	0.029459884
17	0xbd8aba81	-0.06773854
18	0x3d4b34c0	0.049610853
19	0xbd8018ea	-0.06254752
20	0xbd1b14fd	-0.037861813
21	0x3d0db680	0.034597874
22	0x3ce63f21	0.028106274
23	0x3d6006ab	0.05469386
24	0xbd1ce4b9	-0.038304064
25	0x3d39e032	0.045379825
26	0x3d79e30a	0.061007537
27	0xbce6da36	-0.028180223
28	0x3cc49699	0.023997592
29	0xbd59ff1e	-0.053221814
30	0xbd7f45a4	-0.062322274
31	0x3d791c66	0.0608181
