mRNAlocalization/cnn_models/CNN_model_fold8.pth (torch, 531886 bytes, 22 tensors)

layers.bn1.weight f4 [64]
000000 01 c0 7f 3f 0a 8e 7f 3f 9b 3f 80 3f f1 8e 7f 3f
       0.9990235 0.9982611 1.0019411 0.99827486
000010 b5 54 80 3f ba 06 80 3f 79 13 80 3f 9e 32 80 3f
       1.002585 1.0002053 1.0005943 1.0015447
000020 26 70 7f 3f 7b dd 7f 3f 0c 02 80 3f 24 3d 80 3f
       0.997805 0.9994733 1.0000625 1.0018659
000030 ad 37 80 3f b4 34 80 3f dc b2 7f 3f e6 1c 80 3f
       1.0016991 1.0016084 0.9988229 1.0008819
000040 80 43 80 3f 86 11 80 3f d6 03 80 3f b4 50 7f 3f
       1.0020599 1.0005348 1.0001171 0.9973252
000050 bf b6 7f 3f 40 b2 7f 3f a0 3c 80 3f 4b ea 7f 3f
       0.99888223 0.9988136 1.0018501 0.9996688
000060 26 13 80 3f a5 ac 7f 3f be 23 80 3f cf 0f 80 3f
       1.0005844 0.9987281 1.0010908 1.0004824
000070 8b 0f 80 3f 65 15 80 3f be cb 7f 3f c7 df 7f 3f
       1.0004743 1.0006529 0.9992026 0.9995083
000080 a5 06 80 3f dd 79 7f 3f 2c 42 80 3f 92 c9 7f 3f
       1.0002028 0.99795324 1.0020194 0.99916947
000090 c1 05 80 3f 1b c8 7f 3f 6f 2e 80 3f 85 42 80 3f
       1.0001756 0.9991471 1.001417 1.00203
0000a0 5c 72 7f 3f b3 77 7f 3f 08 db 7f 3f 93 03 80 3f
       0.99783874 0.9979202 0.9994359 1.0001091
0000b0 a1 1f 80 3f 31 2e 80 3f d0 2e 80 3f 7d de 7f 3f
       1.0009652 1.0014096 1.0014286 0.99948865
0000c0 6b 29 80 3f 38 3d 80 3f 36 05 80 3f 8a c6 7f 3f
       1.001264 1.0018682 1.000159 0.9991232
0000d0 17 b8 7f 3f 4f 1e 80 3f 38 ca 7f 3f 9c 0a 80 3f
       0.99890274 1.000925 0.99917936 1.0003238
0000e0 7a 3f 80 3f fa 08 80 3f c4 c4 7f 3f 3d 30 80 3f
       1.0019372 1.000274 0.99909616 1.0014721
0000f0 02 ef 7f 3f 11 8c 7f 3f 70 03 80 3f f8 bc 7f 3f
       0.9997407 0.998231 1.0001049 0.9989772

layers.bn1.bias f4 [64]
000000 2c 30 c5 ba ce 96 7f b8 44 52 c5 3a f9 ca c3 ba
       -0.0015044264 -6.0937185e-05 0.0015054424 -0.001493781
000010 ec f8 cc 3a 84 9f 8e 38 11 db 71 b9 49 85 02 3b
       0.0015638149 6.8008e-05 -0.0002306516 0.001991587
000020 a7 6a 2f bb 02 ca cb 38 b8 b9 db b8 8b 59 11 3b
       -0.002676645 9.717421e-05 -0.000104773266 0.0022178616
000030 8a 08 94 3a ee 30 23 3b df 43 5f ba f4 b4 1d ba
       0.0011294049 0.002490099 -0.00085168885 -0.0006016039
000040 ce 5a 9d 3a fa 6f c6 39 ae 83 d5 3a 94 d1 d1 ba
       0.0012005211 0.00037848932 0.0016289854 -0.0016007894
000050 0b ff fd ba 03 c5 1f ba 84 80 83 3a 10 cb b4 ba
       -0.0019378377 -0.00060947257 0.0010032807 -0.0013793427
000060 f6 4a bc 3a a5 6c 6e ba ce de c6 3a 9f 31 1c b9
       0.0014365602 -0.0009095169 0.0015172602 -0.00014895805
000070 d5 cd 99 ba d6 f8 10 bb b1 b3 12 b7 25 96 c7 ba
       -0.0011734316 -0.0022120974 -8.744116e-06 -0.0015227242
000080 81 19 3d 3a 24 ad 16 bb 63 e5 7b 3a d4 a9 37 3a
       0.0007213578 -0.0022991383 0.00096090714 0.00070062024
000090 08 ea e1 3a 2b a5 c1 3a 43 f4 85 3a 92 f7 00 3b
       0.0017235884 0.0014773955 0.001021989 0.0019678813
0000a0 c6 81 19 bb dc 74 11 bb ee 03 a1 ba 0e 4e 1b 39
       -0.0023423298 -0.0022194898 -0.0012284496 0.0001481103
0000b0 ec c6 04 3a d2 4d f6 ba af a6 ee 3a 54 0b 81 3a
       0.0005065042 -0.0018791503 0.0018207635 0.0009845295
0000c0 ad a1 0e 3b 83 cd a6 39 a2 5a 8a 39 22 0d 30 ba
       0.0021763847 0.00031815105 0.00026388938 -0.0006715824
0000d0 bf 94 fc ba ab 41 13 3b ee 81 21 ba e8 94 34 3a
       -0.0019270404 0.002246956 -0.00061610236 0.0006888644
0000e0 3d 92 ed 3a bf 1a 08 b9 0d ef 9f ba 5b e3 df b8
       0.0018125247 -0.00012979934 -0.001220198 -0.00010675817
0000f0 76 8e fc ba c6 1c 69 ba 60 f4 3d ba 8f fa d9 b9
       -0.0019268531 -0.0008892532 -0.00072461925 -0.00041576146

layers.bn1.running_mean f4 [64]
000000 5d b3 a6 bc fe 8e 67 bc 1d b7 c5 ba 16 cb 98 3d
       -0.020349199 -0.014133213 -0.0015084479 0.074606106
000010 c1 12 b1 3d e1 24 32 3d 7c e7 b5 3c 24 0a f3 3d
       0.08646155 0.0434922 0.022205107 0.118671685
000020 26 04 76 3d 65 06 9e bd d3 85 3f bd 67 4b c6 3b
       0.06006255 -0.077160634 -0.046758484 0.006051469
000030 b7 73 6e 3b 71 ab 78 bc 7d fa 8d 3c c5 51 b2 bd
       0.003638489 -0.015177594 0.017331356 -0.087070026
000040 71 03 80 bd ff 7e 0f 3d 37 25 29 3d e4 b0 b6 bc
       -0.062506564 0.035033222 0.041295256 -0.022301145
000050 c3 e0 22 bd fe fa b3 3d a5 1f 9b 3d 4e cb b4 3d
       -0.03976513 0.08788107 0.07574395 0.0882784
000060 29 95 b0 3d 75 51 51 3c 74 91 24 bc 6a e6 b1 b9
       0.086222 0.0127757685 -0.010044444 -0.00033931743
000070 84 f9 26 bd c7 f2 0c be 85 15 c7 3c 5d a6 97 bc
       -0.0407653 -0.13764487 0.024302253 -0.018511945
000080 fb 52 4e 3c cd e4 37 bd 92 09 bd 3c 93 31 d1 3c
       0.012593026 -0.044895936 0.023075853 0.025536334
000090 66 5b df bd 62 75 91 3c d8 99 3b bd ae 16 4c bd
       -0.10906105 0.017756168 -0.045801014 -0.049826317
0000a0 40 91 be bd e7 1e 0f 3d b6 bc fe bc 55 85 f7 3c
       -0.09305048 0.03494158 -0.031095844 0.030214945
0000b0 bc de 04 3e cf fe 7a 3d 98 05 2d bc e1 e8 88 bd
       0.12975591 0.06127816 -0.010560416 -0.06685043
0000c0 28 f4 a6 3d e6 af d3 3c a5 eb eb 3d f8 44 9b bd
       0.08152038 0.02584071 0.11519555 -0.07581514
0000d0 24 2f a3 bd c8 22 6d bc 14 2a 84 bd 82 0e f9 3b
       -0.07967976 -0.0144736245 -0.06453338 0.0076006064
0000e0 d5 36 ad 3d 46 6c 5a 3d 58 13 76 bd 6d b3 3d bc
       0.08457724 0.053325914 -0.06007704 -0.011578423
0000f0 63 e3 03 3b 12 35 9e 3d 60 bd 85 bc 81 4b 0f 3d
       0.0020124547 0.07724966 -0.016325653 0.034984116

layers.bn1.running_var f4 [64]
000000 fc c6 e7 3c 79 96 c8 3c b0 e3 cb 3c f1 6c 8c 3c
       0.028293125 0.024485813 0.024888843 0.017141791
000010 3e ab b0 3c fd 08 ff 3c 52 39 d4 3c 0a 2d d4 3c
       0.02156603 0.031132216 0.025906239 0.025900383
000020 ab 00 ce 3c da 05 d2 3c 61 83 87 3c 8a 6d 16 3d
       0.025146803 0.025637556 0.016542139 0.03672556
000030 f1 77 d9 3c fd 6c 2b 3d 8f ec 99 3c 15 7e 01 3d
       0.02654645 0.041851986 0.018789558 0.03161438
000040 e6 5c ae 3c 4a 73 d3 3c f8 0e c0 3c 8e 99 dd 3c
       0.021284532 0.02581181 0.023444638 0.02705076
000050 cf 05 bf 3c f4 13 bb 3c 2b a3 d0 3c bc d6 bc 3c
       0.0233182 0.022836663 0.02546843 0.023051612
000060 4e 6d 19 3d 52 8e ba 3c c6 bc f5 3c 15 e0 bd 3c
       0.037457757 0.022772942 0.02999724 0.02317814
000070 31 b3 a0 3c 2c c8 a6 3c ab 81 f0 3c a9 83 b5 3c
       0.019616695 0.020359121 0.029358706 0.022157507
000080 13 bb 0b 3d 96 6f e4 3c 56 c7 a4 3c 8f 7e f1 3c
       0.034113955 0.02788524 0.020114582 0.029479293
000090 1f af 47 3d 78 1e d5 3c 77 ab de 3c f2 75 1a 3d
       0.048750993 0.026015505 0.02718137 0.037710138
0000a0 40 8c bd 3c 33 d5 e4 3c 51 e2 c5 3c 4f cd a9 3c
       0.023138165 0.027933693 0.024155768 0.020727782
0000b0 b6 c3 14 3d af ac a7 3c d6 2c c1 3c 02 ed 1f 3d
       0.036319457 0.020468084 0.02358095 0.039044388
0000c0 d4 50 21 3d 36 92 f9 3c be cd 0b 3d e1 fe f2 3c
       0.039383724 0.030465227 0.034131758 0.029662551
0000d0 34 b2 89 3c d1 c7 32 3d ca ad 0a 3d d4 6d b4 3c
       0.016808607 0.04364759 0.033857144 0.022025026
0000e0 c3 6d ae 3c 34 91 9b 3c ca b8 d8 3c a9 bd c9 3c
       0.021292573 0.018990137 0.026455302 0.02462657
0000f0 5c 27 e0 3c 6e a3 e5 3c fb dc d4 3c 9f 87 1d 3d
       0.027362518 0.02803203 0.025984278 0.038459416

layers.bn2.weight f4 [32]
000000 bf 6c 80 3f 2d 6a 80 3f 4a e4 7f 3f 7e b8 7f 3f
       1.0033187 1.0032402 0.99957716 0.9989089
000010 15 b4 7f 3f f0 a5 7f 3f 3f 2b 7f 3f 07 3e 7f 3f
       0.9988416 0.99862576 0.99675363 0.9970402
000020 ad 43 7f 3f cd 40 7f 3f 74 a8 7f 3f fe 42 7f 3f
       0.9971264 0.99708253 0.99866414 0.99711597
000030 c4 eb 7f 3f 48 bb 7f 3f 36 b1 7f 3f b1 2c 7f 3f
       0.99969125 0.99895144 0.9987978 0.9967757
000040 6e 8e 7f 3f a7 41 7f 3f 65 2e 7f 3f 42 93 7f 3f
       0.99826705 0.9970955 0.9968017 0.9983407
000050 40 48 7f 3f 41 d2 7f 3f a9 b5 7f 3f 4c aa 7f 3f
       0.9971962 0.99930197 0.99886566 0.9986923
000060 d5 ec 7f 3f f8 3b 7f 3f e4 70 7f 3f 53 a5 7f 3f
       0.9997075 0.9970088 0.9978163 0.9986164
000070 c0 41 7f 3f af 25 7f 3f e3 a3 7f 3f 96 be 7f 3f
       0.997097 0.99666876 0.99859446 0.99900186

layers.bn2.bias f4 [32]
000000 53 d2 53 3b 2e 35 55 3b d5 14 bc b8 83 28 96 b8
       0.0032321408 0.0032532918 -8.968419e-05 -7.160103e-05
000010 39 71 b6 ba c2 0f 8f ba 2c 1b 4f bb 70 02 49 bb
       -0.0013919241 -0.001091473 -0.003160189 -0.003067162
000020 d8 c1 47 bb 6f 92 46 bb 83 9f cb ba 98 8d 46 bb
       -0.003048053 -0.0030299684 -0.0015535209 -0.0030296799
000030 af fa 1d ba a5 78 8f ba b0 56 c6 ba 1d 7e 5b bb
       -0.00060264295 -0.0010945989 -0.0015132036 -0.0033491917
000040 f2 57 f6 ba 4e 13 48 bb 72 60 5b bb 80 1d 24 ba
       -0.001879452 -0.0030529085 -0.0033474234 -0.00062604994
000050 0c ca 44 bb 0f ea ab b9 07 41 88 ba 33 9d 3f ba
       -0.0030027656 -0.0003279005 -0.0010395356 -0.0007309496
000060 eb b4 bf b8 e5 d8 4a bb 08 b6 13 bb 2e cf 8a ba
       -9.141288e-05 -0.0030952033 -0.002253892 -0.0010590309
000070 3e c9 48 bb 97 87 5e bb 74 55 d7 ba cc 54 3a ba
       -0.0030637528 -0.003395533 -0.0016428665 -0.00071079726

layers.bn2.running_mean f4 [32]
000000 7b 58 e2 bd 49 28 48 be 64 73 a1 be 0d de ad be
       -0.110520326 -0.19546618 -0.3153335 -0.33958474
000010 13 e2 60 be 8a 54 8a be 17 2e 40 be bb b1 7e bc
       -0.2196124 -0.27017623 -0.18767582 -0.015545304
000020 8b bc 32 bd 04 86 d2 3c 73 cb 70 be be 54 68 bd
       -0.04363684 0.02569867 -0.2351511 -0.05672144
000030 1d 1a 7e be 7a 28 6b be a4 4c 3b be e3 5f 62 3e
       -0.24814649 -0.2296466 -0.18290955 0.2210689
000040 7b 8a 67 be 12 e8 89 bc dc a6 a2 3e a4 49 a3 be
       -0.2261142 -0.016834293 0.3176793 -0.3189212
000050 9a 64 1b bc 35 e6 86 be 6e ad 72 be 47 f6 8f be
       -0.0094844345 -0.2634751 -0.2369897 -0.28117582
000060 9f 62 5e be 39 06 51 3d 24 3a 41 be 79 c9 84 be
       -0.21717308 0.051031325 -0.18869835 -0.2593496
000070 c7 dd 2d 3d 9c b0 3d 3d c1 d8 46 be 67 3c 8f be
       0.04244783 0.046311006 -0.19418623 -0.2797577

layers.bn2.running_var f4 [32]
000000 54 7a de 3e 99 4f ed 3e d6 6e 25 3f a6 35 30 3f
       0.43452704 0.4634979 0.6462225 0.6883186
000010 4c 68 11 3f b2 bf 0c 3f 55 08 20 3f 11 89 39 3f
       0.5679977 0.54980004 0.62512714 0.7247477
000020 82 da 20 3f 42 2f 3b 3f c8 b0 de 3e 60 aa ff 3e
       0.62833416 0.73118985 0.43494248 0.49934673
000030 10 e7 0e 3f 77 58 db 3e 04 ad e3 3e 36 83 7c 3f
       0.55821323 0.4284093 0.44467938 0.9863771
000040 31 fd 03 3f c5 34 33 3f c5 ce bb 3f 2a cd 39 3f
       0.51558214 0.70002395 1.4672476 0.7257868
000050 03 66 1d 3f a6 0d 31 3f ff d5 e6 3e d2 60 1b 3f
       0.6148378 0.6916145 0.4508514 0.6069461
000060 24 37 f1 3e 2f 17 df 3e 2e 58 ed 3e 57 51 12 3f
       0.4711238 0.43572375 0.46356338 0.57155365
000070 e1 b7 7e 3f fb 91 47 3f 16 c0 f2 3e c8 c6 20 3f
       0.99499327 0.77957124 0.47412175 0.62803316

layers.conv1_1.weight f4 [64, 4, 9]
000000 c4 af f5 bd 4a 16 f0 3d a8 02 b2 3c 58 80 c0 bd
       -0.11996415 0.11723001 0.021729782 -0.0939948
000010 23 45 0b be d3 99 ef bd ef 17 75 bd ed 5e c1 3c
       -0.13600592 -0.116992615 -0.059837278 0.023604834
000020 73 d9 99 bd 58 41 fa bd 3b 07 11 be 74 d0 a3 3d
       -0.07512178 -0.122194946 -0.14162914 0.07998744
000030 09 ac c9 bd fd c3 27 be eb 1a 7a 3d c4 6a 13 be
       -0.09847266 -0.16383357 0.061060827 -0.14396197
000040 70 49 ff 3c e1 4c 84 bd 0e 3a 84 bd 70 4a 26 be
       0.031162947 -0.06459976 -0.064563856 -0.16239333
000050 df 7c 03 be cf 8a e0 3d ab 86 ac 3d 85 fc 1a 3e
       -0.12840603 0.10963976 0.084241234 0.15135391
000060 57 77 a1 bd 90 33 ae bd 88 76 d2 3d 7f 0c 0c 3e
       -0.078840904 -0.085059285 0.10276514 0.13676642
000070 38 7c 27 3d c9 70 ab 3c 60 f0 1a be 11 ea b9 bd
       0.04088995 0.020927804 -0.15130758 -0.09077848
000080 85 b6 c9 bd ea 5d b6 bc 0f 7e b9 bb b9 a5 0a 3e
       -0.09849266 -0.022261579 -0.0056607793 0.1353978
000090 7e 28 58 bc 74 18 f8 3d d6 3b 86 bd 39 cd 85 bd
       -0.013193248 0.12114039 -0.065543815 -0.06533284
0000a0 d7 bb 10 3e a8 1f 09 bd 28 2d 1b be 30 95 45 3d
       0.14134155 -0.033477455 -0.15153944 0.04823798
0000b0 f9 f1 78 bd 7f 1f 60 3d 3d 62 91 3d c1 41 2b be
       -0.060777638 0.054717537 0.070988156 -0.16724302
0000c0 32 49 8b 3d dd 0d 65 3d c8 39 1e 3e 02 b7 00 3e
       0.0680107 0.055921424 0.1545173 0.12569812
0000d0 10 f6 26 3d 52 08 8b 3d d8 00 f8 3b 07 24 97 3d
       0.040762007 0.06788696 0.00756846 0.073799185
0000e0 f2 0e 10 3e 1b 01 c9 3d 77 b6 6f 3d 56 8b 18 be
       0.14068201 0.09814664 0.05852362 -0.14896902
0000f0 67 ee e6 bd ff 8e ad 3d ba 08 15 bc 74 b2 d9 bd
       -0.112759404 0.0847454 -0.009096319 -0.1062974
000100 49 d7 0d be be a1 11 be e5 40 ab 3d b3 b3 80 3c
       -0.13851656 -0.14221856 0.08361987 0.015710687
000110 2a 3e 84 bd a9 64 28 3d ba ef 84 3d e1 f9 01 be
       -0.06457169 0.041111622 0.06491037 -0.12692977
000120 97 6b 7e bc d3 ed ce 3d ce 01 04 3d 3b 12 0e be
       -0.015528581 0.10103955 0.032228284 -0.13874142
000130 16 3a 2f bd fe 66 a7 3d 08 b2 09 3e df f3 29 be
       -0.042780004 0.08173941 0.1344682 -0.16596936
000140 d0 cf 0a 3e 5e 8c 84 3d da 5c e1 bd 40 18 37 3c
       0.13555837 0.064720854 -0.11004038 0.011175215
000150 92 35 22 be c7 c0 04 3e 68 4a 14 3e 48 76 10 3e
       -0.15840748 0.12964164 0.14481509 0.1410762
000160 a7 94 16 be 21 72 8d 3d 03 46 c4 3d 7b fc b2 3d
       -0.14705144 0.06906534 0.09583666 0.08739563
000170 35 e9 d2 3d fe 3b 86 3d 42 69 ed 3d 0e 5d a1 bd
       0.10298387 0.06554411 0.11592342 -0.07879077
000180 a9 4c cd bd 5f 63 0c be be 6d cd bc a9 d9 cb bd
       -0.100243874 -0.13709782 -0.025076743 -0.09953625
000190 dc 72 e0 bd dc 39 26 3e b0 99 91 bd 34 1a b1 bd
       -0.10959408 0.16233009 -0.07109392 -0.08647576
0001a0 f6 4f f5 bb 70 92 e0 bc 2c d9 95 3d 32 c4 d6 3d
       -0.0074863387 -0.027413577 0.07316813 0.1048664
0001b0 06 44 9b 3c 8d fd d0 bd 5d 73 b9 3b ab 40 d5 bd
       0.018953335 -0.10204611 0.0056595043 -0.10412725
0001c0 6d 15 12 3e e8 0b f5 3c 0f a8 fa bb 83 53 e6 bd
       0.14265986 0.029912904 -0.0076494287 -0.11246397
0001d0 d0 06 a6 bd 2c 17 03 3e 24 db d8 bd 63 e7 88 3d
       -0.08106768 0.12801808 -0.10588673 0.066847585
0001e0 d6 73 29 3c 5b 29 1e bc 14 bf 08 3d af f2 82 3d
       0.010342559 -0.009653415 0.03338535 0.063939445
0001f0 eb d3 d2 bd 79 5c 9a 3c df 06 6f 3d 07 bb 5b 3d
       -0.102943264 0.018842923 0.058356162 0.05364516
000200 0a 87 7d 3d 1c 6f 25 3c 9f bd 93 3d b0 a2 aa 3d
       0.06189636 0.010097291 0.07213902 0.083318114
000210 53 58 01 bd dd 04 c7 bd b7 7e 4c 3d e8 3c 2a be
       -0.031578373 -0.097177245 0.049925532 -0.16624796
000220 ca fd 81 3d 76 c2 20 be ab 21 75 3d 48 43 00 3e
       0.063472345 -0.15699181 0.05984656 0.12525666
000230 c6 ec 07 bd 4b ac 81 3d 7b 87 03 3b de f9 16 be
       -0.03318479 0.063316904 0.0020069766 -0.14743754
000240 13 bb 74 3d 2d 61 4f 3d 88 13 e0 3d 42 da e2 3c
       0.05974872 0.050629783 0.10941225 0.027691964
000250 47 93 21 be d8 9e c0 3d 2b 7a be 3c aa 79 10 be
       -0.15778838 0.09405297 0.023251614 -0.14108911
000260 ad 11 19 3e 32 8b 9f bd 69 be 84 3d a9 bf 86 bd
       0.14948149 -0.07790221 0.0648163 -0.06579525
000270 f9 83 7e bd a7 1f 0f 3e 0a 21 88 bd 58 f6 b1 bc
       -0.062137578 0.13976918 -0.06646927 -0.021723911
000280 ee 70 52 bd df 6c 47 bd 76 8d 17 3e 80 de cf 3d
       -0.05137723 -0.048687812 0.14800057 0.101498604
000290 f4 a9 02 be 9f 75 1b 3d fc 1a 18 3d 5a 28 c9 bd
       -0.12760144 0.03795397 0.03713511 -0.098221496
0002a0 03 d9 2b bc 8b 7a 28 be e2 7b 31 bd 78 a2 fc bb
       -0.010488751 -0.16452996 -0.043331034 -0.0077097975
0002b0 a8 68 60 3d e8 dc e2 3c 22 1e e9 3c 99 4c c8 bd
       0.054787308 0.027693227 0.028456751 -0.09780235
0002c0 34 6e c3 3d 23 1e 84 bc 5f 8f 05 bc e9 7f 6e 3d
       0.09542504 -0.016127652 -0.008151858 0.058227453
0002d0 3a 3f 04 be ca 58 b5 3d 7a 7e d6 bd a3 89 ea 3d
       -0.12914744 0.08854826 -0.10473342 0.11452033
0002e0 3a 09 17 be dd 9d 04 be 6a 73 24 be 0b 20 04 be
       -0.14749613 -0.12950845 -0.16059652 -0.12902848
0002f0 b0 dd f1 bd de 62 33 3d e6 6c 04 be 7b a7 6a 3d
       -0.11809862 0.04379546 -0.12932166 0.057288628
000300 61 a4 29 3e 2e fc d5 bd ec ad 02 be c4 0c 29 be
       0.16566612 -0.1044849 -0.12761658 -0.16508776
000310 b5 f7 6c 3d 70 e0 a5 3d 3a 9f 67 3d c4 6a 0f be
       0.05785342 0.08099449 0.056548335 -0.14005572
000320 40 44 04 3e 9d 77 57 3d 67 c8 cd bd 63 cf 2c bd
       0.1291666 0.052604306 -0.10047989 -0.042189967
000330 4a 27 74 3d f2 b2 05 bd aa 8e 67 bd e1 41 1e 3e
       0.05960778 -0.03264136 -0.05653254 0.15454818
000340 0b 56 90 3d 35 ae 18 3e 09 f3 ed bd a8 d8 88 3d
       0.070476614 0.14910205 -0.11618621 0.06681949
000350 28 90 20 3e f6 ad 49 3d 94 64 01 3d 66 74 42 bd
       0.15679991 0.049238168 0.03159006 -0.047474287
000360 60 f0 13 3e 98 86 d7 3c 7e 3e 7f bd 2f dc fe 3d
       0.14447165 0.026309296 -0.062315457 0.124443404
000370 b6 38 b1 3d 0c a9 e3 bc 49 e5 1e be 33 26 bd 3d
       0.08653395 -0.027790569 -0.15517153 0.092358015
000380 25 46 1a be b4 ed c8 3c 8a 41 22 be cb 6a 0f be
       -0.1506582 0.024527408 -0.15845314 -0.14005582
000390 0e cd c5 3c 6b 0a 44 3a 0f a1 be 3c 2c 11 29 3e
       0.02414563 0.0007478359 0.023270158 0.16510457
0003a0 e3 dd 62 3d 83 08 0b 3e b8 61 d6 3b c1 1c 8a bd
       0.05538739 0.13577466 0.0065424107 -0.067437656
0003b0 1c c1 c3 3d 6d a3 85 bc 4c b0 1e be 22 57 c2 bc
       0.09558317 -0.016313279 -0.1549694 -0.023723189
0003c0 06 80 8a bd 72 28 40 bd 04 7a c4 3d f8 52 25 be
       -0.067627 -0.04691357 0.09593585 -0.16144931
0003d0 33 56 da bd 15 f1 61 3d 19 5b 18 bd e3 1d 03 bd
       -0.106609724 0.055161554 -0.037196252 -0.032010924
0003e0 3a 67 95 3d 8a 5e c5 3d 2c e3 9d 3d b7 73 b6 3d
       0.072950795 0.096371725 0.07709345 0.089087896
0003f0 3d 27 b3 3d 04 85 f2 3d 3c 85 91 bd c4 6e d4 3d
       0.087477185 0.11841777 -0.071054906 0.10372689

layers.conv1_1.bias f4 [64]
000000 49 cf 13 3d 78 25 cf bd 75 ad 66 bd a1 39 2a 3e
       0.036086354 -0.101145685 -0.056317765 0.16623546
000010 fd 2e b4 3d e0 c1 e5 bb 3e 37 5a bd 32 cc 51 3d
       0.08798025 -0.007011637 -0.05327534 0.051220126
000020 83 99 11 3e 70 c1 de bd e5 70 86 3b 49 30 09 be
       0.14218716 -0.10876739 0.0041028135 -0.13397326
000030 eb eb 92 3c 43 1d 87 3c 42 ea cf bd 58 96 0d be
       0.01793476 0.016493445 -0.10152103 -0.13826883
000040 dc ed f3 bd 30 a0 02 3d 30 d2 24 3d 93 0f be bd
       -0.119106025 0.031891048 0.040239513 -0.09280314
000050 2b 13 8f bd 02 7f e5 3d d1 41 c2 3b 3a 26 14 3e
       -0.06986078 0.112058654 0.005928256 0.14467707
000060 27 e7 e2 3d 8c 54 e7 3c 3a 5e 5b bc 5d fb ef bc
       0.11079245 0.028238557 -0.013389165 -0.029294664
000070 1c b3 ea bc 83 20 2a be b7 32 f4 3d a5 61 f8 bd
       -0.02864986 -0.16613965 0.119237356 -0.12127999
000080 a3 8e b5 bd 5c f9 70 3c 50 16 05 3d 85 5e b1 bd
       -0.088650964 0.014707889 0.032491982 -0.08660606
000090 ac 51 c4 bd d2 61 b0 3c d3 e5 30 bd 38 a7 dd bd
       -0.0958589 0.02153102 -0.043187927 -0.1082291
0000a0 26 e8 05 be fc 12 99 3d c9 1a 6b bc e5 5f f5 bc
       -0.13076839 0.07474324 -0.014349648 -0.029952953
0000b0 1f 75 25 3e b2 df a1 3c 57 a1 03 bd e6 0d d9 3d
       0.1615796 0.019759987 -0.032136288 0.10598354
0000c0 23 03 fa 3d b6 35 9a 3b 85 4f 1f 3e ff 37 a8 bd
       0.122076295 0.00470611 0.15557678 -0.082138054
0000d0 1c 66 e7 bd 7f 89 22 3e 6c 8c 23 be 5e c3 c9 bd
       -0.11298773 0.15872763 -0.15971535 -0.098517165
0000e0 eb 7a 92 3d 4f de c1 3d 2a bf 59 bd 2a d1 93 3d
       0.07152351 0.0946623 -0.053160824 0.07217629
0000f0 33 72 07 bc 3f 12 f5 bc e5 59 ee 3d 87 d8 4e bd
       -0.008266973 -0.029915927 0.1163824 -0.050499465

layers.conv1_2.weight f4 [32, 64, 9]
000000 6e 66 df bc 1e 32 72 bc aa dd 15 bd e3 54 1f bc
       -0.027270522 -0.014782457 -0.03658835 -0.009724828
000010 b7 5f 99 3c d5 83 5d 3b 08 24 d9 3b 40 b8 18 3d
       0.018722398 0.0033800502 0.0066266097 0.03728509
000020 3f 47 1c 3d 11 73 62 3c e5 be 09 3d dd ae 9d 3c
       0.038153883 0.013821379 0.033629317 0.01924842
000030 7c c5 f8 bb 94 a6 da bc b9 6d 21 3d c5 83 9e 3c
       -0.0075919013 -0.026690759 0.03941128 0.019349942
000040 c6 d6 ec 3c 2f 76 e3 3c b9 43 18 bd 78 77 5e 3c
       0.028911006 0.027766315 -0.03717396 0.013578288
000050 0c 16 74 3c 4d a5 19 bd d5 50 5a ba c0 7c dd 3c
       0.0148978345 -0.03751116 -0.0008328085 0.027037024
000060 ed 29 06 3d b7 a1 1c bd 33 8e 0d bd 12 d7 19 bd
       0.032754827 -0.03824016 -0.03455944 -0.037558623
000070 8e 43 83 3c a1 fc 2b bc 60 cd 84 b9 d4 01 6d 3c
       0.016023424 -0.010497243 -0.00025330018 0.014465768
000080 3c 39 b8 bc 10 81 ae bc 93 77 22 bb 48 69 14 3d
       -0.022488229 -0.021301776 -0.002479051 0.036233217
000090 ff 36 08 bd 51 c8 3c 3c e2 74 02 bd 95 f7 17 bd
       -0.033255573 0.0115223685 -0.03184975 -0.037101347
0000a0 2c 6a 7b bc be 9e 38 ba 9b 53 b3 3c 31 6c 1a 3d
       -0.015345138 -0.00070426974 0.021890452 0.037700836
0000b0 55 94 0d 3c f6 5f 7b bb 97 67 be bb 00 cd 08 3d
       0.008641322 -0.0038356758 -0.0058106887 0.03339863
0000c0 3b 0f b7 3c 10 ea 2a bb 6e 1c 22 bd 82 33 ee 3b
       0.02234613 -0.0026079454 -0.039577894 0.007269324
0000d0 3c 28 90 bc 2b 19 24 bd 51 78 24 bd 67 cd df bc
       -0.01759731 -0.040063065 -0.040153805 -0.027319623
0000e0 35 d6 e4 bb c4 0f d3 bc 6a d0 ec 3c b0 a8 e1 bc
       -0.0069835433 -0.025764354 0.028907973 -0.027546257
0000f0 a0 4b e6 3c 1e 8f 7c 3c d3 8e fd 3c d7 7f 21 3d
       0.028112233 0.015414981 0.030951893 0.03942856
000100 29 0e e9 3c a6 7a c4 bc 59 75 06 3d be 6d 1d 3d
       0.028449135 -0.023984265 0.032826755 0.038434736
000110 d7 05 e8 ba 14 6c 95 bc a7 cb ff 3c f3 06 cd 3a
       -0.0017701936 -0.018240012 0.031225039 0.001564233
000120 57 46 a3 bc 01 6a 11 3c 16 73 1a 3d 6e 81 05 bd
       -0.019931002 0.008875371 0.03770741 -0.032594137
000130 7a e8 1e bc c0 2d 04 bd 2d 14 0a bd ef 0b 53 bc
       -0.009698981 -0.032270193 -0.033710647 -0.012881263
000140 50 fb 29 bc 18 b7 00 3d 32 7a 12 3c 17 bd 1c bc
       -0.010374859 0.03142461 0.008940266 -0.009566567
000150 79 c1 fd bc 77 37 65 bb 0d e6 cd 3b f8 a1 18 3c
       -0.030976044 -0.0034975687 0.0062835277 0.00931596
000160 4a 53 a3 3c 59 c2 e2 bc 5f 74 dc bc 63 97 f6 3c
       0.019937176 -0.027680563 -0.026910959 0.030101484
000170 aa bd 7c 3c 19 ae f2 bb ae 09 7e bc c8 a8 ce 3c
       0.015426079 -0.007406008 -0.0155052375 0.025226966
000180 c6 19 14 3d 67 bd 19 bc 38 26 2d bd 0d 71 83 3c
       0.036157392 -0.009383536 -0.042272776 0.016045118
000190 a0 91 ba bc fc 1c bd 3c 5a 66 ba 3c 8f 7a 47 3c
       -0.022774518 0.02308511 0.022753883 0.012175216
0001a0 f2 2e 15 bd 92 ae 2d bd 69 9d 2d 3c 5d 66 ef 3c
       -0.036421724 -0.04240281 0.010596612 0.029223615
0001b0 60 ce 19 bd d7 7b bd 3c 08 b4 e6 bb 1b be a7 3c
       -0.03755033 0.02313034 -0.0070405044 0.020476392
0001c0 a8 a4 06 3c 13 f6 d0 bb 63 d2 12 bd a4 46 0d 3c
       0.008217968 -0.0063769906 -0.03584517 0.008622799
0001d0 c6 63 c3 3c 4d 3b fd bc 04 43 46 bb d6 00 22 3d
       0.023851287 -0.030912066 -0.0030252347 0.03955158
0001e0 78 5d ab 3c 86 69 34 bc 02 f1 77 3c 66 f8 ca bc
       0.020918593 -0.011011487 0.015133144 -0.024776649
0001f0 c1 43 2b bc 50 e2 ac 3c ff 8b b7 3c 30 98 93 3c
       -0.0104531655 0.021104008 0.022405623 0.018016905
000200 f3 66 a2 bb d9 67 06 3d 18 ad b7 bc 58 c0 49 bc
       -0.00495612 0.03281388 -0.022421405 -0.012313925
000210 e0 f4 d6 3c de d1 1d 3d 84 d2 c8 3c 2c aa 1a bb
       0.026239812 0.038530223 0.024514444 -0.0023599965
000220 1b 56 14 bd 2e 75 26 3c 93 10 c6 3c 93 44 9c bc
       -0.03621493 0.010159774 0.024177825 -0.019075667
000230 d2 b5 1b bd 37 c2 bb bb 81 c6 77 bc c1 91 68 bc
       -0.038015194 -0.0057299393 -0.015123011 -0.014194907
000240 1c 12 29 bd dc cb 29 bd 4e df 0a 3c 72 5f 59 ba
       -0.041277036 -0.04145418 0.008476092 -0.00082921155
000250 7c 56 13 bc 78 47 8e bc e4 37 31 bd f0 9e 0e bd
       -0.008992787 -0.017368063 -0.043266192 -0.034819543
000260 95 14 bd bc 62 43 ef bc a7 c3 16 3d bc bc b6 3c
       -0.023081103 -0.029206935 0.036807682 0.022306792
000270 0a ec 06 bd 72 ce 1e bc db 4b 13 3c de 3b 2d 3d
       -0.03293995 -0.009692775 0.008990253 0.042293422
000280 ba 44 68 bc 6d fe 8b 3c 7a aa 71 3c 33 af b2 3b
       -0.014176542 0.017089093 0.014750117 0.0054530143
000290 e8 30 5f bb 88 cf 0f bd 30 b4 c8 ba fe 47 16 bd
       -0.003405625 -0.035110027 -0.0015312489 -0.03668975
0002a0 d0 9b 14 3c 52 fe 64 ba 72 9f a7 bc c3 f4 13 3d
       0.009070352 -0.00087354064 -0.020461772 0.036122095
0002b0 59 52 58 bc d0 ad 3d bc a9 c5 0a 3d e3 d2 14 bd
       -0.013203227 -0.011577085 0.03387991 -0.03633393
0002c0 32 ff 20 bc 68 49 86 bc 93 8c 15 bd b3 a3 1e bd
       -0.009826468 -0.016392425 -0.036511015 -0.038730334
0002d0 d6 3c 2f ba 42 cf 01 3c 0c 9e b9 bb 32 e1 99 3c
       -0.00066847855 0.007922949 -0.0056645926 0.01878414
0002e0 61 81 b1 bc 69 b9 bc bc 73 eb e2 3c 29 0a d1 bc
       -0.021668138 -0.02303763 0.027700162 -0.02551754
0002f0 da d4 39 3c 5a 27 21 bc fc ff d3 3c c2 21 c0 bc
       0.011342252 -0.009836042 0.025878899 -0.023453597
000300 66 a1 83 bc 65 b3 08 3d 54 93 a1 bc c6 43 d0 3c
       -0.016068172 0.03337421 -0.019723572 0.025422942
000310 cd a7 db 3c 5b 27 01 3d 02 e5 0b bd c6 ee 83 3c
       0.026813412 0.031531673 -0.034153946 0.016105067
000320 2c e7 d3 3c 80 d6 59 3c 7c 11 08 bd 49 12 cb 3c
       0.025867067 0.01329577 -0.0332198 0.024788992
000330 e9 6e 2e bd 75 62 d8 3c ae 06 04 bd a2 1e 04 bd
       -0.04258624 0.026414135 -0.032232933 -0.032255776
000340 e2 62 59 3c 8e 27 2a 3d 6d bb 2a 3c 30 a1 1f bd
       0.013268204 0.04154163 0.010420662 -0.03897208
000350 bd 5c e8 3c 16 41 38 3c 12 a3 6b 3c 26 cd 51 bc
       0.028364534 0.011245986 0.014382141 -0.012805259
000360 ed af 56 3c 9b 47 47 bb b9 e8 b1 bc ff 24 1c 3d
       0.013103467 -0.003040767 -0.021717416 0.03812122
000370 d7 b3 79 3c aa 5c 1a bd 74 00 36 3b 77 05 c6 3c
       0.015240631 -0.037686028 0.0027771266 0.024172528
000380 9d 1d b8 3c 0c 0e 99 3c a1 f7 8c bc d6 17 bd bc
       0.022475058 0.018683456 -0.017207922 -0.023082655
000390 d8 69 8c bb 2e 10 d6 bc 86 a2 18 bc 38 0f 0d 3d
       -0.0042850785 -0.026130762 -0.009316092 0.03443834
0003a0 6f dd 6e bc 9c 4d 28 3d 4a 49 65 3c aa 31 99 bc
       -0.014579161 0.04108964 0.013994524 -0.01870044
0003b0 c7 a5 b0 3c 25 1c e7 bc cc e1 1e 3d 24 2d 0e 3d
       0.021563424 -0.028211663 0.038789555 0.03471102
0003c0 7c c8 d7 3a 74 18 28 b9 77 ad 6a bc a5 20 d1 bc
       0.0016462947 -0.00016030838 -0.014323584 -0.025528261
0003d0 c2 7d 93 3b a4 cc e3 3c 4c 87 cc 3c 63 17 1a bd
       0.0045010755 0.027807541 0.024966858 -0.03761996
0003e0 e7 64 8c bb dc 5c 35 bc c5 e9 bc 3c 74 32 eb 3c
       -0.0042844894 -0.011069503 0.023060689 0.028710581
0003f0 33 ce 1a bd a9 6a 0d bc a5 af a1 3b 76 fd eb 3b
       -0.037794303 -0.008631387 0.0049342685 0.0072018458

layers.conv1_2.bias f4 [32]
000000 3e 34 09 bc 3c 80 d5 3b 16 7d 2a bd 32 59 d1 bc
       -0.008374272 0.006515531 -0.041623197 -0.025555227
000010 61 c8 71 3c c2 16 65 bc da 04 09 3d 38 08 ba 3b
       0.014757247 -0.013982477 0.033451892 0.0056772493
000020 42 85 20 bd 78 6e d5 3c 99 6b 12 3d ee f0 76 3c
       -0.039189585 0.026053652 0.035747144 0.015072091
000030 4a fb b9 bc 18 e8 e0 3c 8e d6 d5 3c c0 98 e3 3c
       -0.022702832 0.02745442 0.026103284 0.027782798
000040 e5 15 ae bc 36 75 ef bc 1e fe 8e 3c 45 6a ce 3c
       -0.021250675 -0.029230695 0.017455157 0.025197158
000050 54 41 6e 3c 6c 76 64 bc fe 2f 14 3d 55 ff ea 3c
       0.014541943 -0.01394425 0.03617858 0.028686205
000060 fb 1b 02 bd 55 67 11 bc 08 7d 44 3b 3f 4c 79 3c
       -0.031764966 -0.008874734 0.002998175 0.015215932
000070 aa db 94 bc 1b 9a 0a 3d 21 33 15 bc a8 2a 6b 3c
       -0.01817115 0.033838373 -0.009106428 0.014353432

layers.conv2_1.weight f4 [64, 4, 20]
000000 bc 24 ba bd c8 61 4e bd 63 03 00 3c ba e0 f4 bb
       -0.09089038 -0.05038622 0.007813307 -0.0074730786
000010 e7 3e b8 3a dd aa d7 bd b5 21 30 b9 5b e8 84 3d
       0.0014056832 -0.105306365 -0.00016797225 0.06489631
000020 55 d6 07 3d 81 03 b8 3d 9c 93 d9 bd 72 8a b7 3d
       0.033163387 0.08985043 -0.106238574 0.08961953
000030 c8 d3 b6 3d e6 a8 6f bd 9a da 65 3d 77 25 99 bd
       0.08927113 -0.058510683 0.056116678 -0.07477849
000040 5c c6 22 bd 78 57 8a 3d 35 3e 04 bd c9 a2 95 bd
       -0.03973995 0.067549646 -0.032285888 -0.073064394
000050 83 19 6a bd 24 55 ba bd 4a 0f 8c bd b8 2c 36 3c
       -0.057153236 -0.090982705 -0.06838854 0.01111906
000060 51 6f d3 3d b7 3d a3 bd f8 f0 86 3c ff a1 e3 3d
       0.10323966 -0.079707555 0.016472325 0.11114883
000070 e9 b3 7d 3d 07 7a a9 bd f8 b8 b9 3c 04 d8 a8 3d
       0.061939154 -0.08275228 0.022671208 0.08244327
000080 4b ed fd 3c a3 e1 5b bd 80 b5 96 3d 8b 0a 4b 3d
       0.03099694 -0.05368198 0.07358837 0.0495706
000090 8a 43 9f bd 57 c5 a2 bd 6d 80 b1 3d 86 06 e4 3d
       -0.07776554 -0.07947796 0.086670734 0.11134057
0000a0 31 00 c8 3c 14 47 af bd 5f 8b 03 bd d1 66 9a bc
       0.024414154 -0.08558479 -0.032115337 -0.018847855
0000b0 72 d0 30 3c b0 24 87 3b a8 9f 92 3d 2e d5 d6 3d
       0.010791885 0.0041242465 0.07159358 0.104898795
0000c0 b2 c0 7a 3c e3 4a bc bc 8f f0 bb bd e7 5d 9a 3d
       0.015304731 -0.022984928 -0.09176742 0.07537442
0000d0 b2 d2 cd bd 4a 4f 62 ba 34 39 e0 bc a1 3e b5 3d
       -0.100499526 -0.0008633031 -0.027371027 0.08849836
0000e0 81 9e 5b 3d a2 23 84 3d b0 66 4f bc 7b 6e 87 bc
       0.053617958 0.06452109 -0.01265876 -0.016532173
0000f0 51 39 a6 3d 8e 65 00 bc b7 d9 36 3d bf a2 81 bc
       0.08116401 -0.0078367125 0.044641223 -0.015824674
000100 f8 fb d9 3d b2 0c 1c 3d 31 c5 8c bd c5 b4 db bc
       0.10643762 0.038098045 -0.06873549 -0.026819596
000110 ff 05 ae 3d 5f 55 77 bd 0e dc 31 bd c2 3e 24 3d
       0.084972374 -0.06038415 -0.04342275 0.040098913
000120 01 42 31 bd e3 9e d4 bd f2 f2 ab 3d c3 d2 36 bd
       -0.043275837 -0.10381868 0.083959475 -0.04463459
000130 47 9c 69 bd 5d 05 ba bd 43 dd 8d bd 3c 6f ae 3d
       -0.057033803 -0.09083054 -0.06926968 0.0851731
000140 ea 2c 8b bd 5d cc 55 bd 6c 7d 8f 3d 19 74 d3 bd
       -0.06795676 -0.05219685 0.07006344 -0.10324878
000150 61 2c 99 bd 12 19 d7 bd db 7a 0f 3c 8c 60 b5 3d
       -0.07479168 -0.10502829 0.008757318 0.088563055
000160 7a 29 77 bd dc ca af bd 2d 93 a8 3d b9 e9 d9 3d
       -0.06034229 -0.08583614 0.082311966 0.10640282
000170 5f 42 14 3c 63 ac 83 3c b3 2f b8 bd 87 48 b8 3d
       0.009049027 0.016073411 -0.08993473 0.089982085
000180 e6 57 a5 bc a0 af af ba c4 95 97 bd 1d 5c e2 bc
       -0.020183515 -0.0013403781 -0.074016124 -0.027631814
000190 3c da c4 bd 51 69 8a 3c 1c 39 e7 bd 6e 87 82 3d
       -0.096119374 0.016895922 -0.112901896 0.063734874
0001a0 6e 27 52 bd d5 c1 df bd 09 4f 2d 3d 45 14 8a 3d
       -0.051307134 -0.109256424 0.042311702 0.06742147
0001b0 be db 86 bd 77 4c da bd 7c 85 27 bd 35 c8 b3 3d
       -0.06584881 -0.10659116 -0.040898785 0.08778421
0001c0 bc f5 db 3d 3a ea d4 bd 09 e0 bd bc e7 db bd bd
       0.107402295 -0.10396238 -0.023178117 -0.09270459
0001d0 b7 bd 36 3d c3 f8 97 3d 13 61 ad 3c a5 21 97 3d
       0.04461452 0.074204944 0.021164453 0.07379464
0001e0 70 b7 35 3d 1a b9 d0 3d 30 96 59 3d 16 df f6 3c
       0.044364393 0.10191555 0.053121746 0.030135673
0001f0 ad 61 19 bd 0d bb a8 bd 70 80 1f bd f9 27 cb 3c
       -0.037446667 -0.08238802 -0.038940847 0.024799334
000200 b5 9f 1b 3d ce ec 89 bd 4d b8 dc 3d b8 c8 c5 3d
       0.037994105 -0.0673462 0.1077734 0.09657425
000210 90 13 95 3d dd 12 05 bd 16 80 0c bd 3b 4f ae bd
       0.07279122 -0.032488693 -0.03430184 -0.08511206
000220 b8 45 af bc dc 43 8c bd 90 bf 6f 3d d0 67 28 bd
       -0.02139555 -0.06848881 0.058532298 -0.04111463
000230 03 f1 38 bd f9 3b 80 3d fa f6 e6 bd 48 4b f2 bc
       -0.04515172 0.06261439 -0.11277576 -0.029576913
000240 99 b4 13 bd 80 4f be bc 7b c4 51 3d 96 92 32 bd
       -0.036060903 -0.023231268 0.05121277 -0.043596826
000250 3c fc 9f 3d c7 10 e2 bc e3 0b 71 bc 15 06 19 3d
       0.07811782 -0.02759589 -0.014712307 0.037359316
000260 3e 4c 9b bd 29 50 6d bd ef 75 be bd 5c dc 6a 3d
       -0.075829014 -0.057937775 -0.09299838 0.057339057
000270 b3 0c d6 bc 00 6f f7 bc df e4 64 3c db 8c 44 bd
       -0.026129102 -0.030204296 0.013970583 -0.047985893
000280 93 9d a5 3d d6 8e 19 bd a0 72 3c bd 79 d2 d6 bd
       0.080866955 -0.037489735 -0.046007752 -0.10489363
000290 ef b9 4e bd 9d 65 ce 3d 65 02 3a bd d6 39 89 3c
       -0.05047029 0.10077975 -0.04541244 0.016751211
0002a0 1b c7 c4 bd eb ed ab bd 3e 25 a5 3d 1b 65 29 3d
       -0.09608289 -0.083949886 0.08063744 0.041356187
0002b0 0b 6c cc bd 49 ec 1d 3d a1 da 91 3d 24 db f0 bb
       -0.09981545 0.038555417 0.07121778 -0.0073503423
0002c0 35 f3 96 bd 7f 89 ce bc 86 24 d4 bd bb e2 63 bb
       -0.07370607 -0.025212048 -0.10358529 -0.0034772593
0002d0 f1 92 42 bd fc 86 8f bd 61 80 3b bc dc 46 df bd
       -0.047503415 -0.07008168 -0.011444182 -0.10902187
0002e0 a1 22 de 3d 50 44 bb 3d 16 be 3a bb c1 de d3 3d
       0.10846449 0.09143889 -0.0028494648 0.10345221
0002f0 bd 85 e4 bd df 59 be bd af be a6 bc 32 f5 be 3d
       -0.11158321 -0.09294485 -0.020354597 0.09324111
000300 43 47 29 39 48 ab a4 bd 14 1c 28 3b 00 f6 99 bd
       0.00016143643 -0.08040482 0.0025651501 -0.07517624
000310 10 8f da bd 1d a7 99 3d 40 e9 72 bd be 7b 4a 3c
       -0.10671818 0.075025775 -0.059304476 0.012358604
000320 57 ef cd bd 81 d6 05 bd 28 80 e3 bd 11 b5 02 bd
       -0.10055416 -0.03267527 -0.11108428 -0.03191096
000330 2a 58 93 bd 83 05 30 bb 53 11 42 bd 5c 55 ff 3c
       -0.0719455 -0.0026858754 -0.047379803 0.031168632
000340 cf 98 0c bd 90 42 85 bd 19 e9 13 bd df 29 42 3d
       -0.034325417 -0.065068364 -0.03611097 0.047403213
000350 89 0a c5 3d 92 53 66 3d 95 d7 38 3d 53 c8 9b bc
       0.0962115 0.056232043 0.04512747 -0.01901642
000360 62 50 5b bd 64 2d 56 bd 71 29 d5 3b 67 08 2f 3d
       -0.053543456 -0.05228938 0.0065051843 0.042732622
000370 76 ab 2e bd 17 2d e0 3d e6 8a 26 bd e1 35 8c bd
       -0.042643987 0.109461 -0.040659808 -0.06846214
000380 10 d9 c8 3d f2 69 7b bd f0 bc 2b 3d 50 66 65 bc
       0.098070264 -0.061380334 0.04192823 -0.014001444
000390 b9 3e 11 bc 45 aa bf bd 44 d0 57 3d 30 28 a0 3d
       -0.008865052 -0.09358648 0.052688852 0.07820165
0003a0 d6 e6 30 bd a6 02 42 3d ab 39 79 3c 5c 46 6d bd
       -0.043188892 0.047365807 0.015211503 -0.057928428
0003b0 da 1d 3b 3d 07 a9 98 3d 0b ad 2f bc 9e c2 a0 3c
       0.045682766 0.074541144 -0.010722409 0.01962405
0003c0 fe f7 58 3d cc 4d 3f bc 9a 2c 1c bd 6a 49 c1 3d
       0.05297088 -0.011676263 -0.038128473 0.09437831
0003d0 bf 4e 8b bc 5b 12 ae 3d 46 cd 97 bc a5 e4 ba bd
       -0.017005323 0.08499595 -0.0185305 -0.09125642
0003e0 f9 64 03 3d ec 3b 99 3d 97 05 be 3d 3b 4c 70 3b
       0.032078717 0.07482132 0.0927841 0.003666653
0003f0 0d 1f e0 bd 89 8e b4 3d 80 4e 61 bc 01 c8 60 3c
       -0.109434225 0.08816249 -0.013751626 0.01371956

layers.conv2_1.bias f4 [64]
000000 0f 6b e7 3b 82 a4 e3 3d 08 ca bd 3d 3d cc 25 bc
       0.007062323 0.11115362 0.0926705 -0.010119495
000010 c2 bc cb 3c 67 20 73 3d 87 ba 05 3d 31 86 ba 3d
       0.02487028 0.059357073 0.03264859 0.09107626
000020 1c e5 f7 3c 1a 22 22 3d f8 52 8d bd 71 88 b0 bc
       0.030260615 0.039583303 -0.06900591 -0.021549435
000030 c0 15 5f bd 53 b6 5e ba e0 38 c6 3d 38 32 47 bd
       -0.0544641 -0.00084957964 0.09678817 -0.048631877
000040 7d c6 92 ba 5b 02 91 bc 6a 7a 6b bd 7a ce d8 3d
       -0.001119807 -0.017701318 -0.05748979 0.10586257
000050 ea 48 54 3d 53 1e 87 bc f6 55 9e 3d 51 4c 95 39
       0.05182735 -0.016493952 0.077312395 0.00028476355
000060 da 48 99 3c 05 15 1a bd 1f aa cd bd 72 b2 c9 3c
       0.018711496 -0.037617702 -0.10042214 0.024621222
000070 b0 83 0b bd 2b eb a9 bd 3c a8 75 3d 47 84 37 3d
       -0.034061134 -0.08296808 0.059974894 0.044803884
000080 3f 04 4e bb 1e cf 9f bc 72 00 c5 ba d4 04 ac bc
       -0.0031435636 -0.01950794 -0.001503004 -0.020998396
000090 f5 64 c3 3d 3c 81 9c 3d 7b 53 8f bc 5b 68 85 3d
       0.095407404 0.07641837 -0.017495861 0.06514045
0000a0 94 22 cf bd c1 8d 0f bd 5d fe 56 bd 6b 8c c1 3c
       -0.10114017 -0.035047296 -0.052488673 0.023626527
0000b0 9c b3 71 ba 6c 43 dd 3d 22 cc 33 bc d7 b5 7b bd
       -0.00092201843 0.10803875 -0.010973962 -0.061452713
0000c0 ae de ee bb fb 5f c9 bc 08 93 c9 bc e1 a4 c4 bc
       -0.007289729 -0.0245819 -0.024606243 -0.024004402
0000d0 7d bb 08 bd 50 8d 85 bd 1b d0 d5 3d 64 f2 3b 3d
       -0.033381928 -0.06521094 0.104400836 0.04588546
0000e0 d5 68 4d 3d dc 30 57 bc d4 a8 a1 bc 18 38 9d bd
       0.050148804 -0.013134208 -0.019733824 -0.07676715
0000f0 ed da d1 3d b2 0b ca 3d 25 3b c7 bd 1b 94 92 3d
       0.10246835 0.09865512 -0.09728078 0.07157155

layers.conv2_2.weight f4 [32, 64, 20]
000000 29 e0 92 bc 0e 12 52 bc ff c0 17 3c d0 37 7c bc
       -0.017929154 -0.012821687 0.009262322 -0.015394166
000010 68 26 c8 3c 05 cd 97 3b 67 51 d3 bc 00 d8 3e bc
       0.024432376 0.0046325945 -0.025795652 -0.011648178
000020 4e cb c5 ba 50 da 9f 39 49 39 dc 3b e0 d8 57 bb
       -0.0015090497 0.000304895 0.006720696 -0.0032935664
000030 54 bc a9 3c e4 2b 9f 3c a8 f4 b1 bc 60 75 cd 3c
       0.020719685 0.019430108 -0.021723107 0.025080383
000040 e6 6a 58 bc d9 79 7d bc 57 85 59 bc 3f 1b c5 3c
       -0.01320908 -0.015470945 -0.01327642 0.024060844
000050 45 af 8c bc 4c a9 88 3c 25 c5 bf bb 84 aa 81 3c
       -0.017173419 0.01668229 -0.005852359 0.015828378
000060 d4 04 3b 3c a7 90 3e bc 88 a7 43 bb c9 c5 9e 3c
       0.011414725 -0.0116311675 -0.0029854495 0.01938142
000070 0a 03 c3 3b ea a5 80 bc bd 2b 9c 3c c8 77 8f 3b
       0.00595129 -0.015704114 0.019063825 0.0043782927
000080 2f 63 bc 3c f9 d0 11 bb 6b b4 a9 3c 02 ca 26 3c
       0.022996513 -0.0022249802 0.020715913 0.010179998
000090 0c ce 97 3c 89 48 c3 3c f8 74 b1 3c 3d dd bd bc
       0.018530868 0.023838298 0.02166222 -0.023176784
0000a0 91 23 fa bb 52 19 ac 3c be 1b 32 3c 60 85 27 bc
       -0.0076336344 0.021008167 0.010870872 -0.01022467
0000b0 45 e7 ed 3b 3b 88 1e 3c 42 33 8f bc 3e e7 9b 3c
       0.0072602355 0.009676035 -0.017480496 0.019031163
0000c0 d2 f4 4d 3c 19 59 aa bc af 8e e6 3c 5d cf 82 bc
       0.012570577 -0.020794438 0.028144209 -0.01596802
0000d0 55 dd 92 3c a2 41 50 3b 6d c8 c9 bc b9 a8 cb 3c
       0.017927805 0.0031777401 -0.024631703 0.024860727
0000e0 ed 3d 7c 3c 70 d8 9a 3b 8a e0 b5 bc 03 c7 92 bb
       0.015395624 0.0047255084 -0.022201795 -0.0044792905
0000f0 62 06 32 bc e7 1f a5 3b 95 12 4c bb 1c 2d 32 3c
       -0.01086578 0.0050392034 -0.0031139005 0.010875013
000100 30 b0 73 3c a5 7a a9 3a bc 30 28 bc a1 bb 19 3c
       0.014873549 0.0012930228 -0.010265525 0.009383113
000110 09 6e bc bb fe c4 9b 3c f9 02 9a bc f6 1f eb 3b
       -0.005750422 0.019014832 -0.018800246 0.007175441
000120 b5 d7 37 3c 1a 8a c8 bc 43 65 e9 bc 79 a8 bc 3c
       0.011220862 -0.024479914 -0.028490668 0.023029553
000130 11 b5 e4 bc 10 c0 a8 bc e4 f4 54 3c 10 7d c7 bb
       -0.02791837 -0.020599395 0.01299784 -0.0060879067
000140 18 71 92 bc 12 8b d1 bb 21 be f6 3b 92 40 a7 bc
       -0.017876193 -0.0063947523 0.0075299894 -0.020416532
000150 54 42 9d bc da 71 3b bc 80 dd b3 3c 05 78 9e 3c
       -0.019196667 -0.011440719 0.021956205 0.01934434
000160 86 4f bb bc bc bb 6c 3c 27 82 9b bc 12 5f 65 bc
       -0.022865068 0.014449056 -0.01898296 -0.013999717
000170 d1 43 80 bc 52 2a b2 bc f4 17 cd bc 2c 60 d0 3b
       -0.015657337 -0.021748696 -0.025035836 0.006359121
000180 16 4b a1 bc 9e 4f 22 3c d5 75 38 bc 86 03 6e bc
       -0.019689124 0.0099066775 -0.011258562 -0.014527207
000190 19 85 27 bc 80 5d dd bb 4e 44 57 3c f3 91 89 3c
       -0.010224604 -0.006755531 0.013138844 0.016793227
0001a0 1f 7e b2 3c c1 65 91 bc 7c 61 d5 b9 b9 bb aa 3c
       0.021788655 -0.017748715 -0.00040699157 0.020841466
0001b0 2d 78 a7 3c b1 46 15 3c 37 21 81 3c ca 10 81 39
       0.020443046 0.009111092 0.015762908 0.00024617306
0001c0 04 f0 31 3c 5c c7 a4 bb fc 16 94 bc 81 25 74 3c
       0.010860447 -0.0050286483 -0.018077366 0.01490152
0001d0 ea d3 71 bc 5e 28 b5 3b bb 6f b5 bc c5 75 d4 3c
       -0.014759997 0.005528494 -0.022148004 0.025935063
0001e0 b5 61 6e 3c d2 d2 17 3c 18 aa c1 bc 59 94 54 3a
       0.014549662 0.009266572 -0.023640677 0.0008109264
0001f0 13 d8 a3 3c 8d fe 43 bc fa 76 52 ba 59 d7 07 bc
       0.020000493 -0.011962545 -0.0008028593 -0.008291089
000200 33 8c b7 3c bd 91 8a bb 54 57 cd 3b 24 70 5d 3c
       0.02240572 -0.004228799 0.006266514 0.013515506
000210 61 6d 2b bc 6b e0 ca 3c 33 98 53 3c 45 f3 db 3b
       -0.01046309 0.024765214 0.012914705 0.0067123496
000220 71 78 86 3c aa 0a 85 3c df 7b 70 bb 6e 65 07 3c
       0.016414853 0.016240437 -0.0036694927 0.008263929
000230 ce 54 d1 3c 54 a1 74 3c 50 6f 78 39 1f 9f 35 3c
       0.025553133 0.014931042 0.0002369259 0.011085301
000240 03 5a 81 bb e0 c7 b8 3b ac b2 8a 3c dc 49 94 bb
       -0.003947498 0.0056390613 0.0169309 -0.0045254063
000250 c6 9a 90 3c 62 14 73 bc af f6 88 bc 92 34 eb bc
       0.017651927 -0.014836403 -0.01671919 -0.02871159
000260 f6 f4 09 bc e5 30 5b 3c 54 a7 38 bc 61 2c ae bc
       -0.00842022 0.013378357 -0.011270363 -0.021261396
000270 01 68 c3 bc 61 fb b3 3c c3 b4 c5 3c 0e f1 96 bb
       -0.023853304 0.021970453 0.024134045 -0.0046063727
000280 6e c2 96 3c 8d 11 bf bb 8c cc 4f bc c5 11 c9 bc
       0.018403258 -0.0058309496 -0.012683045 -0.024544606
000290 24 85 22 3c 09 83 c4 3c 79 00 7f 3c fa 08 d6 3c
       0.0099194385 0.023988264 0.0155640775 0.026127327
0002a0 c7 b5 36 bc ef 0e 50 bc e5 88 ab bb 48 3b 88 3b
       -0.0111517375 -0.012698873 -0.005234825 0.0041574575
0002b0 5c 49 66 3b a8 d5 8a 3c 88 68 7b 3c d1 fb b1 bb
       0.003513894 0.016947582 0.015344746 -0.00543163
0002c0 97 37 6c ba b6 ab 80 3b 96 84 eb bc 3e 71 cc bb
       -0.0009010969 0.0039267195 -0.028749745 -0.0062390855
0002d0 ab 50 42 3c ef 1e ca 3a 0a b6 9d bc c2 fc 90 bc
       0.011860053 0.0015420596 -0.019251842 -0.01769865
0002e0 41 30 bf bc 2f 8f da 3c f4 63 bf 3c 27 65 e1 3b
       -0.023338439 0.026679603 0.023363091 0.0068785134
0002f0 83 75 0d 3c dd b4 01 3c ce c5 aa 3b 57 85 88 3c
       0.008633974 0.007916656 0.0052115684 0.016665144
000300 bb 1d 75 3c 0b a4 78 bc 35 28 66 bc 17 0f ba 39
       0.014960702 -0.01517583 -0.014047672 0.00035487927
000310 5a 01 95 3c 0a 66 90 bc 57 84 d5 3b 94 cb ed 3b
       0.018189121 -0.017626781 0.0065160203 0.0072569344
000320 8c b6 7e 3b 15 d3 97 bc d2 78 4e 3c 4e 69 9a 3c
       0.003886613 -0.018533269 0.012602048 0.018849041
000330 c6 12 98 bb 2f 45 d0 bc 0c c2 51 3b 8c bd 88 3a
       -0.00464091 -0.025423614 0.003200653 0.0010432466
000340 a7 9d f9 3b 14 db 99 bc 47 80 ee 3b 85 dd 9f bb
       0.0076176706 -0.018781222 0.0072784754 -0.004878702
000350 67 b8 a8 3b c5 20 e5 3b 24 27 87 bc 2a fa c3 3b
       0.0051489356 0.006992432 -0.016498156 0.0059807496
000360 20 a5 68 bc 4f 8d e9 3b 37 92 6a bb 40 b7 34 3b
       -0.014199525 0.007127441 -0.0035792717 0.0027575046
000370 50 f7 96 bc 5a 1c e3 bc 7e 21 e7 3b b8 d9 06 bc
       -0.018428475 -0.02772348 0.007053553 -0.008230619
000380 d4 5b d7 bb 86 bc 71 3c 0e 62 19 bc 18 47 30 3b
       -0.006572226 0.01475442 -0.009361757 0.0026897844
000390 26 4a 84 3a 5a c0 92 bc b1 17 96 3c 81 60 0f bb
       0.0010092899 -0.017913986 0.018321844 -0.002187759
0003a0 7f 30 c2 3c 15 f5 53 bc bb d7 17 3c bc 2d 30 bb
       0.023704765 -0.01293685 0.009267743 -0.0026882729
0003b0 f5 84 cd 3b f5 02 bb 3c e5 6a d8 3b 06 3f ce 3a
       0.006271953 0.022828558 0.0066045397 0.0015735335
0003c0 b0 7e 7c bc bf 2d 7c bc 38 17 0c 3b 71 37 b6 3c
       -0.015411064 -0.015391766 0.0021376144 0.022243233
0003d0 e2 ce 92 3b 85 1f d8 3b 3b 18 d3 3c 9d 7d 91 bc
       0.0044802288 0.0065955543 0.02576839 -0.017760092
0003e0 88 50 5a 3c b2 e5 5f bc 29 90 b9 3c 96 57 aa 39
       0.013324864 -0.0136656035 0.022651749 0.00032490183
0003f0 ab 0d 79 3b e7 be 04 bc 96 09 29 bb 03 f5 cb ba
       0.0038002532 -0.008102155 -0.0025793067 -0.001556069

layers.conv2_2.bias f4 [32]
000000 b9 3b 96 bb 7b 0c ca bb 61 aa ae 3c 3f cc bd 3b
       -0.004584756 -0.0061660386 0.021321477 0.0057921703
000010 38 65 02 3c bb d9 a5 bc cf c2 42 bc 23 e4 c2 bc
       0.007958703 -0.020245424 -0.011887266 -0.023790425
000020 89 66 3d bc 63 d9 70 bb d1 f0 d0 3c 94 14 d5 bb
       -0.011560091 -0.0036750666 0.025505455 -0.0065026972
000030 f6 4f a8 3c 41 f1 df 3c b0 fc a8 3c 53 18 7f bc
       0.02054594 0.027336719 0.020628303 -0.015569764
000040 c1 07 ad bc 22 18 71 bc e0 d6 b2 bb d0 34 25 3c
       -0.021121861 -0.014715226 -0.005457744 0.010083392
000050 63 b2 d6 ba e5 fc b6 bb dc a5 7c 3c 50 20 2c bc
       -0.0016380068 -0.0055843466 0.015420403 -0.010505751
000060 be 33 1c bc d7 d3 a1 3c 6c 5b 44 3c 30 7d bf bb
       -0.009533821 0.019754333 0.011984687 -0.005843781
000070 2c ad a7 3b 17 f9 f9 ba ba 30 70 bc dd e5 bf bb
       0.0051170792 -0.0019071427 -0.014660055 -0.0058562593
