mRNAlocalization/cnn_models/CNN_model_fold5.pth (torch, 531886 bytes, 22 tensors)

layers.bn1.weight f4 [64]
00000000: e50f 813f 6a3f 7e3f a7dc 803f de22 7e3f
00000010: 5333 813f 9c36 7f3f ba0d 813f 3dcf 7d3f
00000020: 82b5 7e3f c93d 7e3f 4563 803f 3240 7f3f
00000030: 15fd 803f 26f7 7a3f e0d0 7d3f fee5 7f3f
00000040: f161 7e3f 8055 813f f97b 813f ef30 7f3f
00000050: 9afa 7f3f f0ea 7f3f 4c00 7e3f d824 7f3f
00000060: 5864 803f 7dd5 7d3f cf61 7f3f fc24 813f
00000070: efec 7f3f 90de 7c3f 894c 7f3f a25d 813f
00000080: 6beb 7f3f d61f 813f 800b 803f 3b1d 813f
00000090: 939a 803f c4ac 7e3f f5a4 803f e2ce 7d3f
000000a0: 6322 813f 72e7 803f 94c5 813f 8542 7e3f
000000b0: 7376 803f 41b4 7f3f 0c48 813f 004c 7f3f
000000c0: 1e69 7f3f 5a44 7f3f 5cb0 803f ea37 803f
000000d0: ea73 803f e3e4 7e3f af12 813f 3f5e 803f
000000e0: f217 7e3f 0254 7d3f af46 7f3f 572a 803f
000000f0: c9ef 7e3f 6570 7c3f c4b8 803f a3a7 803f
1.0082976 0.9931551 1.0067338 0.99271953 1.0093788 0.996927 1.0082314 0.99144346
0.9949571 0.99313027 1.0030295 0.9970733 1.0077235 0.9803337 0.9914684 0.99960315
0.99368197 1.0104218 1.0115958 0.9968404 0.9999176 0.9996786 0.99219203 0.99665594
1.0030622 0.9915388 0.9975862 1.0089412 0.99970907 0.98777103 0.9972616 1.01067
0.99968594 1.008784 1.000351 1.0087045 1.0047172 0.9948237 1.0050341 0.99143803
1.0088619 1.0070632 1.0138421 0.9932025 1.0036148 0.9988442 1.0100112 0.9972534
0.9976977 0.9971367 1.0053821 1.0017064 1.0035374 0.99568003 1.0083827 1.0028762
0.9925529 0.9895631 0.9971723 1.0012921 0.99584633 0.98609 1.0056386 1.0051159

layers.bn1.bias f4 [64]
00000000: 5af0 903c b3ed 843c 99db ea3b 784c c0bb
00000010: d6b6 a03c e18a 44bb 8f92 a83c 69ad ef3b
00000020: 490b 1f3b 2bae 39ba d948 cb3b 4804 4d3b
00000030: 48fd 413c 536d 31bc 8e90 b0bb 3d77 463c
00000040: 0d85 72bb 49ce 1d3a 5e23 b1bb 26bb ab3b
00000050: 6de3 083c b1ee 0a3c 0e59 1aba ac2b f73b
00000060: 2399 59bb 0e98 493b 43e8 943a e4bb d23b
00000070: b9dd 6b38 9018 b4bb 323b 943b 4c21 abbb
00000080: 7637 6dbb d552 143c ccd4 433b 1422 a53b
00000090: 0ee5 8e3c 7d55 d33b a8f5 5ebb 4e9f ae3b
000000a0: 6ad9 c33c b7f4 823c cbfa c83b a68f 8dbc
000000b0: 67ad 003c fa50 193c 1164 88ba a4c0 4d3c
000000c0: 152c 093b 39ad f7bb be9f 863c 52cc bb3b
000000d0: f226 a33b a8bd 43bb ad14 573c 4d77 953c
000000e0: 6763 15bb eae3 333c b3e0 5aba 5762 003b
000000f0: 52f8 6fba 8673 9fb9 29ae 8a3c 5c5e 3b3c
0.017692734 0.016226625 0.0071672914 -0.005868491 0.019618433 -0.0029990005 0.020577697 0.0073143733
0.00242682 -0.0007083143 0.0062037525 0.003128307 0.011840172 -0.010829288 -0.005388326 0.01211339
-0.0037005574 0.00060198136 -0.0054058274 0.0052408157 0.008355004 0.00847976 -0.0005887904 0.007543048
-0.003320285 0.0030760798 0.0011360723 0.0064310897 5.623486e-05 -0.005496092 0.004523658 -0.005222475
-0.0036196387 0.009052952 0.0029881475 0.005039463 0.017443206 0.0064494 -0.0034020934 0.005329049
0.023907382 0.01598583 0.0061334125 -0.017280411 0.007853842 0.009357685 -0.0010405799 0.012558136
0.0020930816 -0.0075584915 0.016433593 0.005731144 0.004979008 -0.0029867683 0.013127488 0.018245364
-0.0022794844 0.010979632 -0.0008349523 0.0019589865 -0.0009154129 -0.00030412915 0.01692875 0.011436071

layers.bn1.running_mean f4 [64]
00000000: fdf2 6e3c 7a30 2ebc 50c1 1bbe 8b14 533e
00000010: f936 863e f941 fd3c 7053 563d 1024 cc3d
00000020: a107 3b3e 6d73 673d fba1 3d3d 83ac 513d
00000030: e066 82bd 2a32 1c3e f414 2e3e cf91 073d
00000040: d61c a1be 39c3 42be 7b8a 323d 502d 753d
00000050: 17c6 7b3c 6d58 233e 5408 c3ba 6888 893d
00000060: 652a fa3b ea83 073d dbe1 183d 833b c63d
00000070: d947 813d aa72 323e d923 1d3d 3472 b53d
00000080: 69a9 003e 3d4d 193e f8e5 5b3b 0c23 92bc
00000090: dd24 a33d bdf4 08bc 3d05 cdba a99d 9a3d
000000a0: 0796 873d f237 643e cf74 933d f8ea 92bc
000000b0: 7f4c debd a1b2 8f3c f2c9 a0bc 56cf 0b3e
000000c0: 8a27 553e f3cc 0fbd f71f ed3d 7fc8 af3d
000000d0: 2e3f 59be f6c2 b7be c59c 66bd 53f4 f43d
000000e0: 70b4 1f3e 8865 05bd 18b8 773c ebaa 21be
000000f0: 2d9d 103e d32c 73bb 16fb b0be 457b 4d3d
0.0145843 -0.010631675 -0.15210462 0.20613305 0.26213816 0.030915247 0.052325666 0.09967816
0.18264629 0.056506563 0.046297055 0.05118991 -0.06367278 0.15253511 0.1700018 0.03309804
-0.31467313 -0.19019784 0.043589097 0.059857666 0.0153670525 0.159517 -0.0014879801 0.067154706
0.0076344484 0.033084787 0.037324768 0.0967932 0.06312532 0.17426553 0.038364265 0.08859673
0.12564625 0.1497087 0.003355382 -0.017838977 0.079660155 -0.008359131 -0.001564182 0.075496025
0.06620412 0.22286966 0.07200014 -0.017934307 -0.10854434 0.017541232 -0.019627545 0.13653311
0.20815864 -0.035107564 0.115783624 0.085831635 -0.21215507 -0.3589093 -0.05630185 0.11960664
0.15596175 -0.03256753 0.015119575 -0.15787856 0.14122458 -0.0037105575 -0.34566563 0.050166387

layers.bn1.running_var f4 [64]
00000000: 4efc 023d f2dc 453d 40a5 c93d d5ed 813d
00000010: 0829 703d fa87 ec3c a380 293d 73bc 313d
00000020: dfb1 683d 4476 473d 2112 273d 77a5 653d
00000030: 617b 083d 98bb 7c3d 0b1c 1d3d 2bd1 1e3d
00000040: ea3d 0e3e 572a e83d a174 623d 1240 473d
00000050: aa0b 0f3d a809 1d3d a2de 013d 5633 693d
00000060: f01f 513d 8d19 373d 7ae8 413d add6 413d
00000070: 81fd 163d c363 2e3d f96a 213d 25d8 423d
00000080: 1be3 193d cebc 2f3d 9b75 4e3d 27d3 283d
00000090: a8d4 343d c829 583d 1676 393d 54d5 2f3d
000000a0: 721f 793d 8b4c 603d 7653 3e3d 8446 223d
000000b0: edf6 493d 6f0a 0e3d 9930 1d3d be3b 653d
000000c0: a29f 4e3d ac4d ff3c 28da 2e3d 1742 413d
000000d0: 84bd 9b3d 38e2 e33d 9477 1a3d 0e74 143d
000000e0: ac7d 3e3d 211b 3f3d ddbf 233d 7d00 5b3d
000000f0: 47cf 983d 7e6d 0f3d 41ef 033e e312 263d
0.031978898 0.048306413 0.09845972 0.06344191 0.05863288 0.028873432 0.041382443 0.04339261
0.056810256 0.04869677 0.040788773 0.056066003 0.03332079 0.06170234 0.038356822 0.038773697
0.13890806 0.11336201 0.055287007 0.048645087 0.034923233 0.038339287 0.03170646 0.056933723
0.05105585 0.0447021 0.047340848 0.04732387 0.036862854 0.04257561 0.039408658 0.047569413
0.0375701 0.042904668 0.050405126 0.041216996 0.044148117 0.05277422 0.04527863 0.042928055
0.060821004 0.054760497 0.046466313 0.03961803 0.049307752 0.03467792 0.038376424 0.055965178
0.050445206 0.031164967 0.04268852 0.04718217 0.076045066 0.11127132 0.037711695 0.03624349
0.04650657 0.04665673 0.039977897 0.053467263 0.0746141 0.03501653 0.12884237 0.040545356

layers.bn2.weight f4 [32]
00000000: 1115 833f 409e 853f 63a6 683f f5b3 693f
00000010: 8142 793f b60c 693f 8163 793f cf8d 683f
00000020: 542d 793f fdf8 793f 31da 7c3f 535b 7a3f
00000030: 9243 6a3f 8707 793f 23b3 683f 6e22 793f
00000040: d91b 793f e0c0 793f 1910 7b3f 2083 683f
00000050: 78fa 7b3f f725 693f 67b8 683f e9a9 683f
00000060: 85d6 793f e8fe 783f 6780 6d3f 9ede 783f
00000070: b01e 793f 1853 6d3f ba6f 793f 846b 793f
1.0240804 1.0438919 0.90878886 0.9129022 0.973671 0.9103502 0.97417456 0.9084138
0.9733479 0.9764555 0.98770434 0.977956 0.91509354 0.9727711 0.9089834 0.9731816
0.9730812 0.9755993 0.9807144 0.9082508 0.9842906 0.91073555 0.90906376 0.9088426
0.97592956 0.97263956 0.9277405 0.97214687 0.9731245 0.92704916 0.97436106 0.9742968

layers.bn2.bias f4 [32]
00000000: e74d af3c 69f4 3e3d 3b2f bcbd b3ca b2bd
00000010: 68ef 973d c3e0 b6bd 06d9 8e3d 23cc bcbd
00000020: 0eec 933d d562 8a3d 409e 9f3d c107 8f3d
00000030: 6565 acbd ef7e 8e3d 87f5 babd 6d34 983d
00000040: dfe8 933d 71c0 923d 8ae5 8f3d 710f bdbd
00000050: df39 9c3d 8287 b6bd 0187 bbbd 5d03 bcbd
00000060: cfdc 903d 691f 8b3d a7bb 8abd 67ab 933d
00000070: 5299 903d cda1 8cbd 18cc 913d 9f1c 8b3d
0.021399451 0.046619806 -0.09188696 -0.08730068 0.0741871 -0.08929589 0.06974988 -0.092186235
0.07222758 0.06757132 0.07793856 0.06983901 -0.08417777 0.069578044 -0.09128862 0.074318744
0.07222151 0.071656115 0.07026203 -0.09231461 0.076282255 -0.08912565 -0.09156609 -0.09180329
0.07073366 0.067931004 -0.06774073 0.07210427 0.070604935 -0.068667985 0.07119006 0.067925684

layers.bn2.running_mean f4 [32]
00000000: 58dd 903f e2c1 853f f159 783f ce98 5b3f
00000010: f1d8 553f 659f 723f 29bd 743f daac 8d3f
00000020: f132 633f 930f 803f 83b4 3f3f 87ea 603f
00000030: 933e 563f 3eae 633f c591 b03f 2b92 683f
00000040: 5973 783f 97d2 5b3f 435a 753f 67aa 963f
00000050: 6cd6 373f 68da 863f 8340 993f 3971 993f
00000060: e697 493f 22ea 623f 64d4 9a3e df3c 6a3f
00000070: f9e8 5f3f b711 843e 9504 6d3f 3ee5 763f
1.1317549 1.0449793 0.9701224 0.85780036 0.8353415 0.94774467 0.95601135 1.1068375
0.88749605 1.0004753 0.74884814 0.8785786 0.8368923 0.8893775 1.3794485 0.90848035
0.97051007 0.8586821 0.95840853 1.1770753 0.71811557 1.0535402 1.1972812 1.1987678
0.78747404 0.8863851 0.30240166 0.9149913 0.87464863 0.25794765 0.92585117 0.96443546

layers.bn2.running_var f4 [32]
00000000: 273b 2841 4d06 1f41 bec7 4241 a936 2741
00000010: c5b7 2041 1b0e 5c41 e279 3341 695b 3e41
00000020: a464 2641 5df1 3941 c67c 2d41 3b03 2341
00000030: 1f13 3d41 dd57 2e41 886d 5141 dd89 2b41
00000040: cc45 2d41 218f 2541 82af 2f41 cfb5 3e41
00000050: 5ce2 2e41 b120 5641 d828 3f41 2452 3c41
00000060: bbbf 2441 5d71 2c41 8957 3341 f1dc 2f41
00000070: 63e1 2841 0eb8 2941 c3d9 2941 1790 3041
10.5144415 9.939038 12.173765 10.450845 10.044866 13.753444 11.217257 11.897317
10.39957 11.621427 10.842962 10.188289 11.817168 10.896451 13.089241 10.721158
10.82954 10.347444 10.980349 11.919387 10.9302635 13.382981 11.947472 11.770054
10.296809 10.777677 11.208871 10.991441 10.555026 10.607435 10.6156645 11.035178

layers.conv1_1.weight f4 [64, 4, 9]
00000000: 4dfd b03c fb08 823d a788 0d3d 477e c43d
00000010: cafb 073e e3bb c0bd 0ce6 743d ad34 be3b
00000020: 3ac1 2b3e 5e62 65bd 8996 98bd ef75 e7bc
00000030: 012e 293c dc48 88bd 5958 063e eb8a 5fbd
00000040: 31f4 183e 7d8d 2abb 44bc 5fbd a474 193e
00000050: 40a1 14be 747d 3dbd 5d11 c5bd 8b77 013e
00000060: c7e0 27bd ee6f d33d ba4b 8e3d 35e6 05be
00000070: 50d2 bebc ed83 65bc 3b06 123e ff4d 203e
00000080: 72ff 20be d578 273d 272a eebd eb59 cebd
00000090: 5d45 ab3d 61e3 843d 45fd c63d 12fd c8bd
000000a0: fcef 9abd 1e42 85bc c797 6d3d 1947 1cbe
000000b0: 058c 823d 309f 99bd c8c1 41bd 034f 45bd
000000c0: 0f07 f63d 98e1 2e3d ff77 16be 6127 c93d
000000d0: 6bee 2dbe 359d 2a3d e957 50bc 9399 91bb
000000e0: 57f3 0b3c ba18 c3bd d3bf 89bc 3ce5 09bd
000000f0: 867e 603d b50e d63d ecbb dfbd de20 f2bd
00000100: c716 13be 8042 27be 5941 6ebd 583c a53b
00000110: 553b f1bd 6a7b e6bd 2808 27be b0fa 1bbe
00000120: 0db0 403d 09d6 a9bd 6aa3 213e 0102 173d
00000130: 27db 8cbc 1694 fdbc eaac 3ebd ba69 0f3e
00000140: 4f94 293e f8a8 9fbd 2312 c5bd 8c25 b53c
00000150: bbcb 613d a50d 373e bd89 e6bd 57ca b43d
00000160: 9d2e b13d 0f94 13be 6a66 ec3c f275 41bd
00000170: b946 343d be24 4bbd 1368 5d3d f0f0 d8bd
00000180: 582f 22bd d50a eebd 4f5c e13a a821 163e
00000190: f3af 4a3d 6703 0c3d 53b9 503d ce5a c23d
000001a0: dea7 04be a1fc 01bd acf2 d7bc 39ae 0cbe
000001b0: f239 13be ecd4 d7bd 5eca 9c3d f4a7 fe3d
000001c0: a8d0 15be db4c 103c 6362 a3bd 0591 fe3d
000001d0: eef8 c7bd 8f26 80bd 321e 80bb 7ad1 c2bd
000001e0: 84b0 9cbb d387 a9bd 35db ef3c 3eeb d73b
000001f0: 67ef c03d 9802 893d 6334 003e cab9 12be
00000200: c9bd 93bd 7dba 90bd 1ac1 a0bd 6591 6d3d
00000210: f925 883d d8b5 e4bd be47 04be e953 2b3e
00000220: ad36 0f3e b46c 233d aaa5 abbd 20ae f73d
00000230: 97f6 0abd 40ff 0c3e f781 e53c 46f0 0f3d
00000240: 0fc4 86bc 3552 a0bd 4fef b53d 2c7d 933d
00000250: 70a4 233d 96e8 c03d 7fb1 fbbd 1d57 aabc
00000260: 48d0 08be 3bef 233d 22a3 c53d b269 203e
00000270: c497 12be 6ff0 ee3d aceb 573c 901b 3a3d
00000280: d936 fbbd 6a08 b63c 106b c83d 0724 103e
00000290: 6f11 073e 7248 8b3d 23d0 2e3d 4492 00be
000002a0: 2a81 003b 4dbd f03d 5cfb da3c 7763 49bd
000002b0: bdf8 7ebd 4e49 e03d 0652 d93d c4c2 f63d
000002c0: 7aae b13c 045d 66bd f3ec 84bd ad76 da3d
000002d0: a104 29bd b6aa e93d b8e7 5c3d a4db 043d
000002e0: 335f 893d 5ba1 0bbe dd26 cf3d 7a42 d7bd
000002f0: 1141 cdbd 5613 d53d e163 5c3c d8e5 20be
00000300: 049c 303d dc77 063e a288 623d c2a4 debd
00000310: 2c07 c9bd 645e 10bd efd1 d9bd 58a0 f73c
00000320: ab9c 863d 15cc 0c3e 8f35 dd3c 9825 293e
00000330: 76d2 24bd 61d3 03be eaf8 1abe bb8f 1a3e
00000340: ffeb a3bd 6176 18be 6c72 233d d18b 003c
00000350: ee26 af3d f561 1cbe 087c 843d b5f5 8ebd
00000360: 4a8c f13b fae5 953d 0be2 c63d 97c4 c5bd
00000370: 3a4b cebd b4f8 eb3c 7cfb a73d 946e 6f3c
00000380: 9624 4d3d f1b0 85bd 67be 513c a919 d23d
00000390: 5cb1 dfbd bc9f 1bbe 89fb 223e ef5f 943d
000003a0: 1209 0ebc bf56 033e 64ea 003b 32e2 1b3b
000003b0: 7a93 e43d d66b ca3d dae2 2e3e 5f9f 953d
000003c0: c47e df3c 07a3 09be 1a18 08bc b25d d93d
000003d0: af71 0f3d 8ae0 083e 39b0 7cbd 3806 2bbe
000003e0: 82f8 ff3d 205f 65ba ac59 c53d 1061 dcbc
000003f0: f995 02bd 3f3d f13d 232c 8dbb 27bb 0bbe
0.021605158 0.06349369 0.03455415 0.09594398 0.13279644 -0.094108365 0.059789702 0.0058046193
0.16772929 -0.056002013 -0.07450587 -0.028254477 0.01032591 -0.06654522 0.1311964 -0.054575842
0.14936902 -0.0026024275 -0.054622903 0.14985901 -0.14514637 -0.04626222 -0.096224524 0.12643258
-0.04098585 0.10324083 0.069480374 -0.13076098 -0.023293644 -0.014008504 0.14260189 0.15654753
-0.15722445 0.04088672 -0.11629134 -0.10075744 0.08362839 0.064886816 0.09716276 -0.09813894
-0.07565305 -0.016266879 0.058006074 -0.15261497 0.06374363 -0.07501066 -0.047303945 -0.048171055
0.12013065 0.04269561 -0.14694212 0.09821964 -0.1698548 0.04165383 -0.012716272 -0.0044433563
0.008541903 -0.095262006 -0.016815102 -0.03366588 0.054808162 0.10452024 -0.10924515 -0.11822675
-0.14364158 -0.16333961 -0.05816779 0.005042594 -0.11778895 -0.11254008 -0.16311705 -0.15232348
0.047042895 -0.08292777 0.15784994 0.036867145 -0.017194344 -0.030954402 -0.046551622 0.14005175
0.16560481 -0.077959 -0.096226 0.02211263 0.055125933 0.17876299 -0.1125674 0.08827656
0.08651469 -0.14411949 0.028857429 -0.047231622 0.04401276 -0.049595587 0.05405433 -0.1059283
-0.03959593 -0.1162316 0.0017193648 0.14661276 0.049484205 0.034182932 0.05095799 0.09489976
-0.12954661 -0.031735066 -0.026360832 -0.13738336 -0.14377573 -0.105386585 0.07655786 0.12434378
-0.14630377 0.008807386 -0.0797775 0.12430004 -0.097642764 -0.062573545 -0.0039098496 -0.09512611
-0.0047817845 -0.082778595 0.02927933 0.0065893224 0.094206624 0.06689948 0.12519984 -0.14328685
-0.07213933 -0.0706682 -0.07849331 0.057999987 0.06647868 -0.111674964 -0.12917992 0.16731228
0.13985701 0.03989859 -0.08381207 0.120937586 -0.033926573 0.13769245 0.028016074 0.035141252
-0.01645091 -0.0782818 0.08883535 0.07201609 0.03995174 0.09419362 -0.12289714 -0.020793492
-0.13360703 0.04002307 0.09650256 0.1566532 -0.14315706 0.11666953 0.013178747 0.045436442
-0.12266321 0.022220809 0.097860456 0.14076243 0.13190244 0.06800927 0.042678963 -0.12555796
0.0019608238 0.11754856 0.026731186 -0.049167123 -0.062248934 0.10951482 0.10611348 0.12048867
0.021689642 -0.05624105 -0.06490507 0.10667167 -0.04126418 0.11409514 0.05393192 0.032436028
0.06707611 -0.13635771 0.101148345 -0.10510726 -0.10022176 0.10404079 0.013451547 -0.15712678
0.043117538 0.1313166 0.055306084 -0.10871269 -0.09815821 -0.035246268 -0.10635745 0.030227825
0.06572851 0.13749726 0.027003078 0.16518247 -0.040239774 -0.12873603 -0.15134016 0.15093891
-0.08003997 -0.14888908 0.039904043 0.007845835 0.08552347 -0.15271743 0.064689696 -0.06980459
0.00737146 0.07319255 0.09711083 -0.09656637 -0.10072942 0.028805114 0.08202264 0.014613766
0.05008372 -0.065278895 0.012801743 0.102588005 -0.109225005 -0.15197653 0.15916266 0.072448604
-0.008669155 0.1282606 0.0019670958 0.0023785946 0.111609414 0.09883849 0.17078725 0.07305788
0.027282126 -0.13441096 -0.0083065275 0.10613574 0.035020526 0.13366905 -0.061691497 -0.16701591
0.12498571 -0.00087498315 0.09636244 -0.026901752 -0.031881306 0.1177926 -0.00430824 -0.13645612

layers.conv1_1.bias f4 [64]
00000000: bb0b f0bd d757 3dbd 17df b43d 2938 273e
00000010: 8075 283e 4d3f 183e 3463 05be c69f 233e
00000020: 178f 223e 8be2 d2bd 17fb 38bd 8342 c0bd
00000030: 01ac 87bd ef33 ad3d 606c 573d 5139 8f3d
00000040: 2421 cebd cab6 c7bd d738 ecbd 5c94 18be
00000050: 945e 34bd 8621 053e fc06 c0bc eb3a 76bd
00000060: c70d cebd 6acb 90bd 2a51 24be a8bd d03d
00000070: 0b2d e43d 1e85 1a3e 9806 983d 8089 9abd
00000080: 69a3 6dbc d782 093e 102b febd 9090 27bd
00000090: c1f9 e8bc 10c6 3ebd a303 fdbd fc02 c03d
000000a0: f6e6 a13d 3d68 fa3d 18cd 9b3d 3b10 0dbe
000000b0: cf81 0abe a176 3a3d 5c05 f73c acd2 163e
000000c0: 2086 f93d e4fa f4bd a61a a5bd a405 0f3e
000000d0: 3aed 80bd fa6e 1abe fc52 55bd 5c4b 253e
000000e0: 64e4 a33d 17d2 d6bd af4e 2dbc 1fc7 fdbd
000000f0: 8366 053e 72f6 0b3e 1409 0abe fd87 e2bd
-0.117209874 -0.04622635 0.088316135 0.16330017 0.16451073 0.14867897 -0.13026124 0.15978917
0.15874897 -0.10297116 -0.045161333 -0.09387686 -0.06624604 0.08457171 0.05259359 0.06993354
-0.10064915 -0.09751661 -0.11534279 -0.14900345 -0.04403551 0.1300107 -0.02344083 -0.060114782
-0.100612216 -0.07070048 -0.16046587 0.10192424 0.11141404 0.15089843 0.07423133 -0.07545757
-0.014504292 0.13428818 -0.12410557 -0.04090935 -0.028439404 -0.046575606 -0.12354209 0.09375569
0.079053804 0.12226913 0.07607478 -0.13775723 -0.1352608 0.04552329 0.030153923 0.14728802
0.121837854 -0.11961916 -0.080617234 0.13966995 -0.062952474 -0.15081397 -0.052081093 0.16142029
0.080025464 -0.1048929 -0.010577842 -0.12391495 0.13027386 0.1366823 -0.13480026 -0.11061094

layers.conv1_2.weight f4 [32, 64, 9]
00000000: fa4a 57bc d694 d43c fb35 933c 72e1 2c3d
00000010: f410 17bd 6b14 bb3c 6d82 11bd 04ae 283d
00000020: 4949 09bd 6fc0 13bd 8454 133d 5557 9f3b
00000030: d173 b53c aca7 44bc fb0a ea3c 81db b83b
00000040: 9635 45bc 63f0 3abb bfdb 023a e219 f63a
00000050: 9e7a 2f3c 73c0 87bc f627 193d 1254 8bbc
00000060: 52f8 debc 5f93 fb3c 6368 46bc a633 ae3c
00000070: 4efa e63c 1fbb 933a 55bd 9c3c a387 a2bc
00000080: 9e44 b03c a4ee 3c3b bfed fabc 05ab 963c
00000090: 83b2 9fbc 9362 963c 5253 34bc f0ce 343c
000000a0: b339 21bd 6b9d 153d 69bb adbc ea26 f33c
000000b0: 6987 b33c fd9d f2bc 6734 a6bc ba55 06bd
000000c0: f0c5 cb3c cf04 b33c e542 db3c f859 b53b
000000d0: 4406 cfbc e467 99bc 13f7 9cbb 6fcb 2abd
000000e0: 6b20 923c 33d4 01bd 8989 f83c fb2c 333d
000000f0: cd49 42bc 6570 3a3c 45ec 27bd 43d0 e73c
00000100: 9d3e 63bc c14b 043c 4f32 1abd 0858 8f3c
00000110: 1ff0 30bc fe94 fdbc e931 233c 6180 b93c
00000120: faa1 98bc 8a7f 093d ae0d 633c 78c2 bbbc
00000130: cc2b 01bd b36c 003d 78e6 ee3c c9bd 0ebd
00000140: 2b65 e4bc 3e5a 303d 3333 a6bc 617e 973c
00000150: a601 78bc f276 debc 00f3 273d e5fe cf3b
00000160: 6d37 96bc 204f b73c af11 ed3c f372 e7bb
00000170: b64d 3ebd 0e31 5a3c 5fbc 0abd 82af ce3c
00000180: 17e2 073d 89cb b9bb 7cef c93c 5c82 44bc
00000190: a75a 29bd d5bd b8bc 02c9 e1bc 3886 b4bc
000001a0: 4397 a53c 82f0 d43b a26b d6ba b531 a93b
000001b0: 9177 933c 68b5 4cbd 7c1f d53c 485f 013c
000001c0: 034a 3abc ffe9 c43c a821 4e3d 4a65 d23c
000001d0: 9c8d fe3b b4bf 9fbc 40bd d0bc 46e3 c73b
000001e0: f53c 8b3c b6f4 53bc 03a0 86bc 05d5 23bd
000001f0: f3d7 6d3c 35bc 013c 48c2 1e3c 9362 743b
00000200: b657 ea3c ed75 23bc 6c72 f0ba bcaf 2bbb
00000210: 8ddd 6ebb 07a2 9f3b ef3b 9a3b a6e5 86bc
00000220: 8047 0abd ec73 aebc 833e 033d 8044 c73c
00000230: 9062 06bd 5be7 463d 8248 2b3d cfd7 f8bc
00000240: 3743 c4bc 9ae8 f33c 12a3 6abc 55a5 a63c
00000250: 3cbf ce3c 2b45 ac3c ca60 2f3c 5296 b7bc
00000260: 2cb1 65bc 6918 37bd 4499 cabb 4bf3 793c
00000270: b3ad 3ebd 6c69 113a 3e0a 5dbb 46ef 5dbc
00000280: e79c dfbc 309e c63b dca7 10bd e06b 623c
00000290: a218 273d 5b50 9e3c 4dbe bebc 038e 7a3b
000002a0: ae81 74bc f2d9 85bb c42e 84bb 277a dd3c
000002b0: a1b0 903c 4037 ccbc 0db0 3a3c 8873 593c
000002c0: d4f8 003d 1207 c6bc df97 4ebc daeb 1dbd
000002d0: 0295 663b b907 a33b a7d2 9c3c b588 f53b
000002e0: 5812 b93c 7204 293c d045 873c 4282 2f3d
000002f0: e407 13bc dc39 89bc bf6a dc3c 717a 2f3a
00000300: d4ea aebc dd92 8b3c 3e1c 6c37 62b9 0c3d
00000310: e274 20bc 4cc7 4bbd e488 4a3d 147a 6f3c
00000320: 4c9c c1bc 1126 853c a64e 94bc 5630 e3bc
00000330: 8275 513d 112c a5bc 0eae 553c 38a1 e83b
00000340: 257f 02bd 2d52 313d 80a2 c5bc bac4 d73b
00000350: 68f7 853c 0783 81bc 82ec 0fbc ae86 00bc
00000360: 8a7b abbc 5d1e 433c a4eb bc3c 4096 02bc
00000370: f8b1 883b 45f9 e1bc 92aa 243d ac34 943b
00000380: 66bc b33c 48a8 ffbb 76ec 6d3b 8bc3 b53c
00000390: 3c64 783c ce1c 043d 4d15 e43b 43a9 7dbc
000003a0: 11ab 4cbc 062d 05bd a3fa 50bc f759 463d
000003b0: a74a 08bd 7130 a0bc 14a4 d03c da03 42bb
000003c0: 3294 dabc 1a6b cf3c 9d50 88bb 964b 803b
000003d0: 1c4b 293c 8a22 2a3d 7d7b 423d 75da 2bbc
000003e0: f547 8cbc 1ff3 ba3c b06b 223d 6647 e03c
000003f0: 3de6 63bc 14a3 f23c cbf1 e53c feb0 84bc
-0.013140434 0.025949877 0.017970076 0.04220719 -0.036881402 0.022836884 -0.035524774 0.04118158
-0.033517156 -0.03607219 0.035969272 0.0048627057 0.022149952 -0.012002867 0.028569689 0.0056414013
-0.012036702 -0.002852463 0.0004991851 0.0018776024 0.010710387 -0.01657126 0.037391625 -0.017007861
-0.027218018 0.03070992 -0.012109849 0.021264862 0.028195526 0.0011270976 0.01913325 -0.019840067
0.021517094 0.0028828764 -0.030630944 0.018392095 -0.0194943 0.01835755 -0.011006193 0.011035666
-0.039361667 0.03652708 -0.021207528 0.029681642 0.021915155 -0.02961635 -0.02028866 -0.0327966
0.024874657 0.021852879 0.026765296 0.0055344068 -0.025271542 -0.018726297 -0.0047901957 -0.041697916
0.017837724 -0.03169651 0.03033902 0.04374407 -0.011858416 0.011379336 -0.04099681 0.02829755
-0.013869909 0.008074702 -0.037645634 0.017498031 -0.010799437 -0.030954834 0.00996063 0.022644224
-0.018631924 0.033568896 0.013858242 -0.022919878 -0.03153591 0.031353664 0.02916263 -0.034848962
-0.027880272 0.04305481 -0.020288086 0.01849288 -0.015137112 -0.027156327 0.041003227 0.0063475245
-0.018336976 0.022376597 0.028939096 -0.0070632636 -0.04646083 0.01331736 -0.03387105 0.025230173
0.0331746 -0.0056700152 0.024650328 -0.011993971 -0.04134622 -0.022551456 -0.027561668 -0.022036657
0.020213729 0.0064983973 -0.0016358981 0.0051633962 0.01800135 -0.04997769 0.02601599 0.007896252
-0.011370185 0.02403736 0.050325066 0.025683064 0.007768346 -0.01950059 -0.025480866 0.006100091
0.01699684 -0.012936762 -0.016433721 -0.039998073 0.014516818 0.007918407 0.009689875 0.00372902
0.028606277 -0.009976846 -0.0018344647 -0.0026197275 -0.0036447973 0.00487161 0.0047068517 -0.016466927
-0.033759594 -0.02129551 0.032042038 0.024324656 -0.03280884 0.04856048 0.041817196 -0.030376343
-0.023957832 0.029773999 -0.014321106 0.020342508 0.025237672 0.021029076 0.010704229 -0.022410545
-0.014019292 -0.044701014 -0.0061828215 0.0152557595 -0.04655237 0.000554702 -0.0033728029 -0.013545817
-0.027296497 0.006061338 -0.035316333 0.013819665 0.040794976 0.019325426 -0.023284102 0.0038231618
-0.014923496 -0.004084819 -0.004033895 0.027035786 0.017662348 -0.024928689 0.011394513 0.013272174
0.0314873 -0.024173293 -0.012609451 -0.038555004 0.003518403 0.004975286 0.019143416 0.0074931034
0.022591755 0.010316001 0.016512781 0.042848833 -0.008974049 -0.016751222 0.02690637 0.00066939654
-0.02135221 0.017037803 1.4073272e-05 0.034356482 -0.009793492 -0.04975061 0.049446955 0.014616508
-0.023634098 0.016253503 -0.018103909 -0.02773301 0.051137455 -0.020162614 0.013041986 0.007099297
-0.031859536 0.04329126 -0.024125338 0.006584731 0.016353324 -0.015809549 -0.008784415 -0.00784461
-0.020932931 0.011909095 0.023061581 -0.007970393 0.004171606 -0.027584681 0.04020173 0.0045228805
0.021940421 -0.007802043 0.0036304272 0.022187969 0.0151606165 0.032254033 0.006960547 -0.01548225
-0.012491957 -0.03251364 -0.012755069 0.04842564 -0.03327432 -0.019554349 0.025468864 -0.0029604346
-0.026681993 0.025319625 -0.0041600005 0.0039152605 0.010332849 0.041536845 0.04748105 -0.010489096
-0.017124156 0.022821007 0.03965348 0.027377795 -0.013909874 0.029618777 0.028069397 -0.016197678

layers.conv1_2.bias f4 [32]
00000000: b88f 0abd 17a2 0b3c 10ca c7bc 2bc7 d9bc
00000010: 2974 36bc cf7c 83bc 0a2d 14bd 8ca2 debc
00000020: 30fb 38bc d2e5 e83c 07ba 8b3c c878 233d
00000030: 2e21 a73c 2219 adbc 6454 ce3b 9a23 27bd
00000040: 4327 04bc 4d94 0f3d e483 8a3b 807d 3bbc
00000050: b75d 273d 4ab7 0abd 7115 193d db54 943b
00000060: fef1 12bd 0ca8 5db9 36b4 213d b439 05bd
00000070: 5548 473c 5900 15bd d3fa 8abb 2486 e83c
-0.033828467 0.008522532 -0.024388343 -0.026584229 -0.011136093 -0.016050724 -0.036175765 -0.027177118
-0.0112903565 0.0284299 0.017056478 0.039910108 0.020401563 -0.021130148 0.0062966812 -0.040805437
-0.008066001 0.03505354 0.0042271484 -0.011443496 0.040860858 -0.033866204 0.037373964 0.004526717
-0.035875313 -0.00021138805 0.039478503 -0.032525733 0.012163241 -0.036377285 -0.0042413264 0.028384276

layers.conv2_1.weight f4 [64, 4, 20]
00000000: fe8a 48bd 197e 0dbd c66d e0bc 252a f23c
00000010: 0cc9 a53c 2e6c d439 e273 bb3d a009 c0bc
00000020: f581 5ebd 4650 b0bd e337 d83d 9b4c b8bb
00000030: f18d 0ebd 12b2 093d 3f43 573d 7038 55ba
00000040: 9447 763c 949f a23c d2e9 f6bd c76d 033e
00000050: 8e05 6c3c 84c1 96bd db8e 95bd 69fd 3c3d
00000060: 5e11 88bd ecf4 083d bb23 acbc 7e8f a1bd
00000070: 693a b6bd eff3 d53d ae37 da3c 7a77 98bd
00000080: 636c cb3d 9990 933d dca1 abbd 7f66 3a3c
00000090: ac0c b33d 3d17 6bbd 3aa5 9fbd c1ce 6fbd
000000a0: 7ff6 92bd df16 c7bc aa16 663d 0f49 9c3d
000000b0: bc59 633d 4c88 06bd 7c95 a6bc d9b6 a93c
000000c0: 37a5 8bbd 85af 1cbd 6003 f8bc 7151 7d3b
000000d0: ab6a 613d 123f d1bc 0bfc ddbd 21a9 883d
000000e0: 797a a43d d2a2 9cbc ed63 47bd bb30 8abd
000000f0: 3212 6dbd 990a 2dbd 5b93 a93d b709 2a3d
00000100: 28f7 27bc 71f1 8fbc a366 0fbd ff15 233d
00000110: e27c cfbb e1ff fdbb 6ff7 873d ed5b bf3d
00000120: f0e9 a8bd a6ec efbc 9fee 3abb df6c 953d
00000130: 5f4e 4d3d d81c 983d 7a51 7a3d f46f da3d
00000140: fe18 21bd 2352 0c3e 8d59 9abc b960 ad3d
00000150: b9f6 0d3c 6fc0 4c3d 0cf5 cdbc a47c 50bd
00000160: 8f94 8fbd a19b b03d d9c2 9cbc 4975 ba3d
00000170: eeed 373c 69d0 5abd a519 653d 7af8 61bd
00000180: 5d96 97bc cf84 d4bc 75f1 463c 86a3 67bc
00000190: b23a 893d 1976 d13d 7c24 6c3d e79c 1d3c
000001a0: 0af5 df3d c511 b03d e5fe c8bd 1cec da3c
000001b0: 4b9a 2bbb e3de 2e3d 34d1 c83d c3bd 303d
000001c0: 24f6 c9bd acd3 193d c380 ba3d b5cc 8fbd
000001d0: e22b 9f3d f3fd af3d 01ba 97bd ff53 b3bd
000001e0: 1eea 803d cb89 dabc 6e2a dfbd a054 dcbd
000001f0: 0cde 813d 8a90 a6bb 4e58 5abd 0216 0b3c
00000200: be56 a8bd e88f 3b3d 4c3c 5f3d 3941 b7bd
00000210: 24da 3dbd b847 7b3c 7966 78bb f7e1 49bd
00000220: bbc1 f13b a82a af3c 0ef1 a9bc af5a 8bbd
00000230: 4345 e73d 3c95 983b eddf 7ebd bf03 ff3d
00000240: c6e0 5fbd 81cb f73d faad 18bb 0d65 853d
00000250: 5e06 9cbd 1552 073e 2389 47bd 33b7 b73a
00000260: cb8f 49bd f752 e83d 0090 51bd 577f f63d
00000270: 3d10 d83c 9b22 98bd ea63 653d 79d2 f13c
00000280: 8549 cf3c c75c dcbd 8f57 b73c 9011 c8bd
00000290: 3b0b 423d 654c b3bd 33a7 7dbd c51e 79bd
000002a0: a9e5 9a3c c265 dbbd 0856 0dbd 86ce b539
000002b0: 6236 dcbc 5106 70bd eca3 16bb a7c9 83bd
000002c0: 4ed9 93bd b565 6d3b 3d17 f0bb 6c66 03bd
000002d0: fcb5 e5bd 237b 85bd db64 ed3c c6fc 2a3d
000002e0: f90b dcbd 3de0 903c 7934 d4bd 14c5 b8bd
000002f0: 1b37 6f3d b631 cdbd 2bd9 79bc 4da3 75bd
00000300: d973 c8bd 5fd0 86bd c45a 363c 93fc c1bd
00000310: 6fe1 35bd 2c65 003d 06e2 f3bd c10f 93bd
00000320: ed64 793c c85a 0cbe aff1 02bd d61a c9bd
00000330: 848b 8b3d cf7f f4bd ba2d ccbd 1cf9 d4bd
00000340: fbde 94bb 2a44 373d 3e66 44bd f841 e73c
00000350: 041f 93bd 6f8d ecbd df8b 8abd e6c6 a1bd
00000360: 3f83 debb e0c0 44bd 4c0e 69bd bbea a5bc
00000370: 02f8 b43c 4401 02bd 0b1b df3c a6a8 bcbd
00000380: bd32 143b ae7c 1dbd 40a8 abbd 8d6d fbbc
00000390: 613d 363c 0b82 833d dbfe 71bd 6945 ec3b
000003a0: ef1d c1bd 7bc0 083a a12c 9bbd f252 64bd
000003b0: 8673 31bd 5a6b d2bc 834f 933c 22dc 82bd
000003c0: 97f8 2dbd 879b 0cbd 6867 45bd f448 75bd
000003d0: c0bf 903d c8a0 cf3d eee9 ab3d 24d2 d73d
000003e0: 05d3 bcbc 3051 b53c 7f2a b93d f5bf a23c
000003f0: b6bf 88bc 5d64 e9bc cdc8 dd3d 1e29 173d
-0.04896068 -0.034544084 -0.027396094 0.029561112 0.020237468 0.0004051639 0.09152962 -0.02344209
-0.054323155 -0.08609061 0.105575345 -0.0056243665 -0.034803335 0.033617087 0.052554365 -0.0008133715
0.015031714 0.019851483 -0.120563164 0.12834845 0.014405621 -0.07361129 -0.07302638 0.04614011
-0.066439375 0.0334367 -0.021013131 -0.07888697 -0.088978596 0.10446917 0.026637878 -0.07444663
0.099327825 0.07205314 -0.083804816 0.011376976 0.08742651 -0.05739521 -0.07795186 -0.058546785
-0.07175922 -0.024302898 0.056173958 0.07631122 0.0555055 -0.032844827 -0.020334952 0.020717071
-0.068186216 -0.038253326 -0.030275047 0.003865328 0.055033367 -0.02554277 -0.10839089 0.06672884
0.08031172 -0.019120608 -0.04867928 -0.06747576 -0.05787868 -0.042246435 0.08280059 0.04151317
-0.010251798 -0.017571183 -0.03500999 0.0398159 -0.006332026 -0.0077514504 0.06638991 0.09343705
-0.08247745 -0.029287647 -0.0028523577 0.07296156 0.05012357 0.074273765 0.06111286 0.106658846
-0.039330475 0.13703208 -0.01884153 0.08465714 0.00866478 0.049988206 -0.025141262 -0.050900117
-0.07010757 0.08623434 -0.01913588 0.091044016 0.01122616 -0.05342141 0.05593266 -0.055168606
-0.018504316 -0.025942234 0.012142529 -0.014138108 0.06700648 0.102276035 0.05765198 0.009619928
0.10935409 0.08597139 -0.09814242 0.026723914 -0.0026184495 0.04269303 0.09805527 0.04314972
-0.09861401 0.03755538 0.091065906 -0.07021467 0.07772042 0.08593359 -0.07408524 -0.08756255
0.06294654 -0.026677033 -0.10896765 -0.107583284 0.0634118 -0.0050831484 -0.05330687 0.008489134
-0.0821967 0.045791537 0.054500863 -0.08947987 -0.046350613 0.015336923 -0.0037902875 -0.049287762
0.007377831 0.021382645 -0.020744827 -0.06804406 0.112925075 0.004656462 -0.06222527 0.124518864
-0.05465772 0.12099362 -0.0023297057 0.065134145 -0.07618402 0.13214906 -0.04871477 0.001401639
-0.049209397 0.11343949 -0.05116272 0.12036007 0.02637493 -0.074284755 0.05600349 0.029519306
0.025303612 -0.107598834 0.022380618 -0.09768975 0.04737399 -0.087548055 -0.06192703 -0.06082036
0.018908339 -0.10712768 -0.034505874 0.00034676882 -0.0268814 -0.058599774 -0.0022985889 -0.064349465
-0.07219182 0.0036223952 -0.007326989 -0.0320801 -0.112163514 -0.06517627 0.028978756 0.04174497
-0.10744471 0.01768505 -0.10361571 -0.09021965 0.058402162 -0.10019247 -0.015249531 -0.05997019
-0.09787721 -0.065827124 0.011130039 -0.09472003 -0.044404443 0.031346485 -0.11908345 -0.07180739
0.0152218165 -0.13706505 -0.03196877 -0.09819572 0.0681372 -0.1193844 -0.09969659 -0.10399076
-0.004543183 0.04474274 -0.04794907 0.028229699 -0.0718365 -0.11550414 -0.067649595 -0.07899265
-0.006790548 -0.048035502 -0.0568984 -0.02025353 0.022090916 -0.03173949 0.027234575 -0.09211855
0.002261325 -0.038448982 -0.083817005 -0.030691886 0.011123032 0.06421288 -0.05908094 0.007210423
-0.094295375 0.000521667 -0.07576872 -0.055743165 -0.043323062 -0.025685955 0.01798225 -0.06389643
-0.042473402 -0.03432801 -0.04819432 -0.059884027 0.070678234 0.101380885 0.08394228 0.10538128
-0.02304984 0.02213344 0.090413086 0.019866923 -0.016692977 -0.02849024 0.10829315 0.036904447

layers.conv2_1.bias f4 [64]
00000000: 645b aa3d 9b0e 8e3d 0134 babc 3146 7c3c
00000010: 16d1 603d 2258 c3bd 991f 593b 6fe8 603d
00000020: 2837 86bd 2276 0bbd be46 73bd a5d4 40bd
00000030: 98bb d6bd f31c 14bb ded5 a73d 8a18 b33b
00000040: 6cec 8fbc c870 d03d 9340 d43c 7020 ad3d
00000050: 4ce5 5d3d eb0f 413d 343c e3bc 8552 97bd
00000060: a466 7cbd a093 42bd 5812 083d da8d bebd
00000070: 6453 c7bd 702d 533d 4b44 d9bd 7149 623d
00000080: 12c2 d43d 18e9 493c 59eb 863d 29bc 8bbd
00000090: 26f5 56bd cbde 9dbd 6411 fbbc 192e 653b
000000a0: 1996 80bd ee56 0abc 69c4 c0bd 4734 cf39
000000b0: e3b8 583d db71 20bd a4cb a4bd 6c41 c53d
000000c0: c404 703d 36ab f4bc a645 363d b69e c9bd
000000d0: e40f 95bd 126d e3bd 8710 e3bd b6e1 a5bd
000000e0: 07b1 7a3c 6091 423d 08e0 ebb8 6e04 ef3c
000000f0: 1b80 e1bd c894 cb3c 6024 1139 9ab8 5b3c
0.08318213 0.069363795 -0.022729876 0.015397594 0.0548869 -0.095382944 0.0033130406 0.054909166
-0.06553489 -0.034048207 -0.059393637 -0.047077794 -0.104849994 -0.0022600263 0.08195089 0.005465572
-0.01756879 0.10177761 0.025909698 0.084534526 0.054173753 0.04713432 -0.027738668 -0.07388786
-0.061621323 -0.047504067 0.03322062 -0.093044 -0.097327024 0.051557004 -0.10608729 0.05524582
0.103885785 0.01232364 0.06587858 -0.06822998 -0.052479886 -0.0770851 -0.030647941 0.0034970103
-0.06278629 -0.008443577 -0.09412462 0.00039521066 0.052910697 -0.03917108 -0.08046654 0.09631619
0.058598295 -0.029866796 0.044500016 -0.09844725 -0.072784215 -0.11104788 -0.11087137 -0.080996916
0.015300996 0.04750192 -0.00011247402 0.029176917 -0.11010762 0.024851218 0.00013841828 0.013410712

layers.conv2_2.weight f4 [32, 64, 20]
00000000: 1aec 3d3c 822d 583c 18ac d03b 30c7 3e3c
00000010: 81cc 533c b811 313c 31ea 443c 5f1b 9d3c
00000020: 00c5 c23c ad77 b83c 15d5 d63c 1dd3 ae3c
00000030: 1ad3 a33c 0054 ac3c ab94 943c b36a 903c
00000040: e5d1 5a3c db1b 6d3c 70a0 7a3c 6137 413c
00000050: 3a66 603c 5899 803c 2cc6 573c ae1e a73c
00000060: 8a2c c23c a883 bd3c 17c4 c43c e480 3e3c
00000070: 1980 aa3c e1be 883c 3315 423c 1b64 883b
00000080: b113 883b 2763 5f3c cebe 213c 9b27 743c
00000090: e66e 213c a2b6 203c 89de 3b3c 2844 7c3c
000000a0: 8862 40bc c491 36bc 1266 193c dd03 873c
000000b0: 96fe 1cbc 35bf e33c 4e23 993c 71cc 013c
000000c0: 51c7 7c3c 9da1 dfba 1b03 dd3a f2b8 d1bb
000000d0: baf8 063b 94a2 f1bb b6f1 c1b9 58ae ca3b
000000e0: ee8c 7ebc d3f7 88bb b766 f83b 3792 89bb
000000f0: 53f8 b3bb d851 1fbc d5c1 28bc 7840 b6bb
00000100: 1253 dcbb 1fad 4cbc 70a6 6e3c 6d83 d83b
00000110: fd2a 9b3b ed0a 5b3c 9f7f 013c ddfd 89bb
00000120: 6194 5dbc e00b 10bb 57e9 ea3a 9bdc b7bb
00000130: 05c5 813c 421f 30bc a327 b53c eeb7 993b
00000140: dc3f a13c 6882 193d 11cd a53c 1fd6 cc3c
00000150: 4ff0 c23c 3add 543c 56ea 813c f9b4 e53b
00000160: 9552 e03c fb8e 813c c1ef f73c 907f b33c
00000170: 650a 983c 5190 1f3c 602a 1b3c 7384 cd3c
00000180: 7ca3 ba3c 661f e83c 7a95 fa3c bab6 cc3c
00000190: d542 193c 7a35 553c e84f 673c e484 493c
000001a0: a00e 743c f41b 9b3c 7fd4 4b3c e318 363c
000001b0: bf5b 343c a0e1 5b3c 74fb 2c3c 7479 a43b
000001c0: 15aa fa3b 271b a33a 9930 3b3b 0f28 483b
000001d0: 9a41 4a3b 070a 1fb9 dfe9 ea3a 1557 d3bb
000001e0: 17eb aa3c dad1 723c 24f7 533c ec3d c83c
000001f0: 9405 343c 6b33 ac3c 02f1 a13c 18d9 0f3d
00000200: f555 dd3c 4633 053d 39b6 f03c 4d6e eb3c
00000210: 8068 d13c f066 4d3c c250 5a3b 5fad 1d3c
00000220: 46fb 3d3c f023 ce39 0bef 1b3c d831 933b
00000230: d1eb ab3c 00db 1e3c 2e2d a63c 4bae 8f3c
00000240: f5b5 143c 5631 623c 5a8a fd3a 4437 8b3b
00000250: 825e 123c 754f dd3b 70f0 d63b 4bcb 393c
00000260: 3d8a 013c cfed 503c ba2a 7f3c 0093 413c
00000270: 6f72 bc3b d265 0b3c 4e40 ed3b 9998 393c
00000280: 9e8b c33c 741f 023d 9995 593c 1a1f f33b
00000290: 26ea e73b befe 9b3c aff1 923c b2e4 a83c
000002a0: 319d d93b cc6e 9dba 5918 ce3b 7743 a0b8
000002b0: 54a6 b33c deac 8a3c 4198 e73a 8a9d e33c
000002c0: 2ad9 e93b b904 e23c d849 6e3c 3ddb d83c
000002d0: 2177 913c b44d ef3c 39e6 243c 6498 7d3b
000002e0: 9e1e b83b 2417 423c c164 3d3b 354c c4ba
000002f0: e011 e0bb b9c9 aebb 6aa7 ab3b 740a 2abc
00000300: 2458 02bc 5f5b 193b 39c4 903b 9807 783c
00000310: 5c57 3e3c 28fe 0a3c 15ec dc3b 350f 5b3c
00000320: 3b67 dd3c 6fb5 d83c 77c3 893c e63b 003d
00000330: 2342 8d3c b485 453c 7987 bf3b 12a9 993c
00000340: 1cfe e33b 1d6a 863c 1a8b 223c f610 2b3c
00000350: 14dd b23c e40e 963c 7c1b 063c a355 063c
00000360: 9a80 8c3c 0db2 8a3c fbfb cb3c b1b3 9a3c
00000370: 789f 513c ceec 6c3c 11da 083c 45be 903a
00000380: 45cc 853c 1023 71bc a9e0 b6bb 00e4 c0bb
00000390: 9311 36bc e489 85bc a243 47bb d124 493c
000003a0: 3b0e 2f3c 5b9c 203c 8537 963b ae7e d73a
000003b0: 4f82 24bb fb48 0d3c 8dac 923c d701 2c3c
000003c0: 98e8 d7bc fff9 e8bc 49a7 2ebd 6e5d 20bd
000003d0: 01fd 48bd d47a 29bd 986c 3ebd b63f 47bd
000003e0: 569d 4fbd e9f2 2fbd 62a5 4bbd 63d9 34bd
000003f0: e5b5 17bd 6151 2ebd 0b1a 19bd 9608 34bd
0.0115919355 0.013194444 0.0063681714 0.01164417 0.0129271755 0.010807447 0.012018726 0.01917809
0.023775578 0.022518003 0.026224652 0.021340901 0.019998122 0.021036148 0.018137297 0.017629003
0.013355707 0.014471973 0.01529704 0.0117929885 0.013696248 0.01569812 0.013169806 0.020400371
0.023702879 0.023134068 0.024019284 0.01162741 0.020813035 0.01669258 0.011845875 0.004162324
0.004152738 0.01363448 0.009872152 0.014902021 0.0098531 0.009809168 0.011466631 0.015397109
-0.011742242 -0.011143152 0.009362714 0.016481334 -0.009582182 0.027801136 0.018693592 0.007922278
0.01542838 -0.0017061714 0.0016861887 -0.006400221 0.002059503 -0.007374117 -0.00036991917 0.006185334
-0.01553653 -0.0041799336 0.007580604 -0.0041983384 -0.005492249 -0.009724103 -0.010300119 -0.0055618845
-0.00672377 -0.012492447 0.014566049 0.006607464 0.004735349 0.013369304 0.007903962 -0.004211171
-0.013524146 -0.0021979734 0.0017922324 -0.005611015 0.015841017 -0.01074964 0.022113627 0.0046911156
0.01968377 0.03747788 0.020239385 0.025004445 0.023796229 0.012992198 0.01585881 0.007010099
0.027383128 0.015815249 0.03026569 0.021911412 0.018559644 0.009738998 0.009470552 0.02508757
0.022783034 0.028335284 0.030588854 0.024989475 0.009354313 0.013013238 0.014118172 0.01229975
0.014896065 0.018934228 0.0124408 0.011114332 0.011008202 0.013420492 0.010557998 0.005019361
0.00764967 0.0012444005 0.0028562902 0.0030541455 0.0030861855 -0.00015167157 0.0017922482 -0.00644959
0.020864053 0.01482054 0.012937341 0.02444359 0.010987658 0.021020612 0.019768242 0.035119146
0.027018527 0.0325196 0.029383766 0.028739119 0.025562525 0.012536749 0.0033312296 0.009623854
0.011595553 0.00039318157 0.0095174415 0.004492026 0.02098647 0.009695768 0.020285215 0.017539164
0.009076585 0.013805708 0.00193436 0.0042485315 0.008933665 0.006753857 0.006559424 0.011339973
0.007906494 0.0127520105 0.015574152 0.011814833 0.0057509462 0.008508163 0.0072403317 0.011327886
0.023870286 0.031768277 0.013280296 0.007419479 0.007077473 0.019042369 0.01793751 0.020616863
0.006641053 -0.001201117 0.0062895236 -7.641961e-05 0.021929897 0.016928133 0.0017669277 0.027785081
0.0071364837 0.027590143 0.014543973 0.026471728 0.017757 0.029211856 0.010064655 0.0038695568
0.005618884 0.0118463375 0.0028899165 -0.0014976325 -0.0068380684 -0.005334106 0.005238463 -0.010378469
-0.007955585 0.0023400409 0.004417923 0.015138529 0.011617508 0.008483447 0.0067420104 0.013370325
0.027026763 0.026453702 0.016816838 0.031307124 0.01724345 0.012055803 0.005845007 0.018757377
0.0069577824 0.01640802 0.00992086 0.0104410555 0.021833934 0.018317647 0.008185264 0.008199128
0.017151166 0.016930604 0.024900427 0.018884512 0.012794368 0.0144607555 0.008352772 0.0011043033
0.016332755 -0.014717832 -0.005580981 -0.0058865547 -0.011112588 -0.016301103 -0.0030405303 0.012276844
0.010684545 0.009802903 0.004584255 0.0016440952 -0.0025102084 0.008623357 0.017904544 0.0104984855
-0.026356027 -0.02843952 -0.042640004 -0.0391516 -0.04906941 -0.041376904 -0.04649028 -0.048644744
-0.050687157 -0.042956267 -0.04971827 -0.04415263 -0.037038703 -0.042558078 -0.037378352 -0.0439535

layers.conv2_2.bias f4 [32]
00000000: bed4 1fbc 7e8b 823a 6e21 083c 6a9a db3c
00000010: d703 12bc 4955 653b 42e4 d63c 4c37 ff3b
00000020: f144 69bc 17b2 3ebc 6907 e13c 157c 95bc
00000030: 0b5c 573c 553b 27bc 776e 7fbc 67e1 73bc
00000040: 1a62 aa3c 94dc cd3c a83d acbc 26f3 783c
00000050: 9d0d 6fbc c9c8 28bb 8d58 403c ca1b 2cbc
00000060: dd38 a3bb d803 733c 9ed8 5539 1b31 3f3c
00000070: d253 853c f701 b13c 521f 00ba 05fc 57bb
-0.0097553115 0.0009959785 0.0083087515 0.026807029 -0.008912048 0.003499346 0.026231889 0.0077885743
-0.014237628 -0.01163914 0.027469354 -0.018247643 0.013144503 -0.010207017 -0.015590302 -0.014885283
0.020798732 0.025129594 -0.021025494 0.01519469 -0.014590648 -0.0025754443 0.011739862 -0.010504672
-0.004981144 0.014832459 0.00020393959 0.0116694225 0.01627532 0.021607382 -0.00048874796 -0.0032956612

layers.conv3_1.weight f4 [32, 4, 49]
00000000: 9f89 d3bd 1448 cabd b781 a7bd 2d0f b7bd
00000010: 8e5e 72bd c311 a2ba a014 4ebd b47a 87bd
00000020: 0abd 7ebd 3fda 12bb 3f6b 14bc ea36 c0bc
00000030: f3ea 72bc 8413 fdbc 4ea8 19bd d843 143d
00000040: 3a1f ca3b 3665 933c bc61 2dbc 50a7 053c
00000050: 0e6c 24bd 30c4 06bd ff8a 7c3c f3f4 d3bc
00000060: 9303 16bd 8148 413c 0b31 873c 8981 913c
00000070: 578d 50bc b395 73bc 5d49 b83c 7a52 46bc
00000080: fd84 bd3c 0a72 1bbd 7692 583c 4931 1ebb
00000090: 7d6e e23c f673 0a3c 7617 553c a634 36bd
000000a0: d486 fd3b 545c c23b 0d08 a8bc 5a54 a2bc
000000b0: 5535 1cbd b93b 85bd f6d3 44bd c04a dfbb
000000c0: 8ac9 fabc f89b e1bd 8d7c 29bd e392 9ebd
000000d0: 0812 adbd 0216 ddbd a1a8 adbd 7e5f 15bd
000000e0: 11d3 23bd 7ce0 513a 4407 29bd ebc4 413b
000000f0: 521b 89bc 53c4 edbc aed8 52bd 1886 903c
00000100: ebf5 41bd b784 e63c bb92 2bbd f75d 223d
00000110: b2cc b73c 1f7b 1e3d 6f5a e9bc bc1d d1bc
00000120: 8305 5dbd a1b5 44bd 593a f93c 312d bd3c
00000130: 75cf 81bc 40b0 bc3c f744 613c c9d8 76bc
00000140: b986 bfbc 5deb 59bd 699b 2bbd 78d7 e3bc
00000150: 34f3 dc3a aed5 30bd 01d8 3ebc 438e bc3c
00000160: 86b9 73bd a897 4fbc a99c c2bc bd43 80bd
00000170: 46cd afbc 6ff4 d0bd 35c1 48bd e9d9 48bd
00000180: a6c9 1f3c 8447 d2bd ca0d 1dbd 11f6 16bd
00000190: 4fbf 43bc 7712 edbd d7d1 2ebd af90 bfbb
000001a0: 33d1 033c 48b0 6cbd 1c38 3fbd 549f a4bc
000001b0: ad1f 5cbd 24a7 0b3d ef09 29bd 1857 01bd
000001c0: 0645 37bd a495 0fbd 99e1 06bd ae06 7cbc
000001d0: 229d e8bc 316b cd3c 79a4 73bc 45c1 2ebb
000001e0: 2155 063c 3334 d8bc bc9b 59bd 1aee 4ebc
000001f0: 4868 4b3d a37e 01bd b0c2 8bbb 6327 ddbc
00000200: d097 3d3d cf88 cdbc 3598 87bc 63f5 57bc
00000210: 700e 23bc f092 79bd 1d51 3cbb ac6b 92bd
00000220: e543 f3bc a5db 92ba 3290 5abd f46c a2bd
00000230: 7589 cdbb 6662 08bd a801 c4bd d85f 6bbd
00000240: 89dc 28bd a09f cbbd 6a1f 1bbd b65b 24bd
00000250: 8b9d d7bc afb9 9abd fb54 afbd 2e80 9bbd
00000260: 2012 7bbd 0e31 073a 2287 06bd f4dc 26bd
00000270: 80f3 823c 767a ffbb 1f9a b93a 86b4 f1bc
00000280: 78e8 513c 0001 98bc 6da3 6ebb 25d1 fb3b
00000290: b605 0ebd 1f07 e7bc 0861 d2bc 1a3d d1bc
000002a0: d84c 31bc ac5a dabb 4e22 dabb 7b07 8a3c
000002b0: 75ce e53c b299 1bba 300e f03b 2499 cb3c
000002c0: a931 1abd a83a 0c3d 9ff7 9f3c cb38 00bd
000002d0: cea4 0f3d b9ec 923c 98f1 2e3c 3f43 83bc
000002e0: fa12 453b 574d d1bc 35f2 05bc a560 77bc
000002f0: 26b1 02bd be95 1cbd 9bf8 37bd cf5b c3bc
00000300: 102c 02bd a97c d6bc 4a1a bebc 8e2a bd3b
00000310: 6685 313c 537b 57bb 7997 743d 4b71 823d
00000320: e40d 633d 7aeb 8f3d 3b7a 813d e55c 903c
00000330: b49f 943d 84b0 3a3d 09d1 4b3d 55b0 a1bc
00000340: 35d8 0b3d acea b83d 249c f6bc a184 9b3d
00000350: 3cbe c23a 01ce 973d 3529 aebc 8252 4d3d
00000360: 5f1a 60bc 6aa2 a33d 8a60 8fbc 56ba 273d
00000370: 5525 823d bc8d 83ba ec31 94bc a39f b23d
00000380: 0a60 dc3b f6a3 e03c 5446 6cba f95b dbbc
00000390: 48de 943d 3bfc b0bc b684 f23c 1275 053d
000003a0: 2750 f43b 7cda 4a3d 2361 c4bb f424 ddbc
000003b0: e9dc 3a3d f4e5 613b 4870 503c fe5e 3d3d
000003c0: eba9 5d3d d6cc 513d 1b31 e2bc c30d a1bc
000003d0: 3702 883d 3c1a 11bd 7de1 c8bc 6fcf a13c
000003e0: 3676 d73c f764 633c 54ba a03d 46aa 2d3d
000003f0: e25c 063d 581f 893d 9627 07bc 4f5b 13bd
-0.103289835 -0.09877029 -0.08179038 -0.089384414 -0.059172206 -0.0012364913 -0.05031264 -0.06615201
-0.062192 -0.0022407917 -0.009058773 -0.023463685 -0.014826524 -0.030893095 -0.037514023 0.036197513
0.0061682733 0.017992597 -0.010582384 0.008157566 -0.04014211 -0.032901943 0.015413999 -0.025873637
-0.036624502 0.011797071 0.016502878 0.017761962 -0.012729011 -0.014867234 0.02249592 -0.012104625
0.023134703 -0.037950553 0.013218513 -0.0024138263 0.027640576 0.008450499 0.013006082 -0.044483803
0.00773702 0.0059314165 -0.020511651 -0.019815613 -0.0381368 -0.06505532 -0.048053704 -0.006814331
-0.03061368 -0.11016077 -0.041378547 -0.0774286 -0.08450705 -0.10795213 -0.08479429 -0.03646802
-0.03999621 0.0008006168 -0.041266695 0.0029566835 -0.01673666 -0.029024279 -0.051476173 0.017642066
-0.047353666 0.028139455 -0.04188798 0.039640393 0.022436474 0.038691636 -0.028485505 -0.025526874
-0.053960335 -0.048024777 0.03042333 0.023092838 -0.015845994 0.023033261 0.013749353 -0.015066334
-0.02337967 -0.053202976 -0.041896258 -0.027812704 0.0016857148 -0.04317253 -0.011648179 0.023017054
-0.0595031 -0.012670435 -0.023756342 -0.0626292 -0.021460187 -0.10202872 -0.04901238 -0.04903594
0.009752667 -0.10267547 -0.03834323 -0.03685576 -0.011947467 -0.115757875 -0.042680588 -0.005846105
0.008045482 -0.057785302 -0.04668437 -0.020095505 -0.053741146 0.034094945 -0.04126924 -0.0315772
-0.04474356 -0.035054818 -0.03292999 -0.015382452 -0.02839524 0.025075527 -0.014870756 -0.002666549
0.008199007 -0.026392078 -0.053127035 -0.01263001 0.049659997 -0.03161491 -0.004265152 -0.02699632
0.046287358 -0.02508965 -0.01655207 -0.013181063 -0.009952173 -0.060931146 -0.002873487 -0.07149443
-0.02969546 -0.0011204375 -0.05336017 -0.079309374 -0.0062724897 -0.033296965 -0.095706284 -0.05746445
-0.041225944 -0.099425554 -0.037871756 -0.040126525 -0.02632024 -0.075549476 -0.085611306 -0.07592808
-0.061296582 0.0005157151 -0.032843716 -0.04073806 0.01598525 -0.007796581 0.0014160312 -0.029505026
0.0128117725 -0.018555164 -0.0036413327 0.007684844 -0.034673415 -0.028201638 -0.025681034 -0.02554183
-0.010821544 -0.006663641 -0.0066569215 0.01684927 0.028052548 -0.0005935683 0.00732591 0.024853297
-0.037645016 0.034235626 0.019527255 -0.031304162 0.03506928 0.017935144 0.010677718 -0.016023276
0.0030071125 -0.025549574 -0.008175422 -0.015098725 -0.031907223 -0.038228743 -0.044914823 -0.023847489
-0.031780303 -0.02618249 -0.023205895 0.005772895 0.010835027 -0.0032879903 0.059714768 0.06369265
0.05543317 0.070273355 0.06322142 0.01762242 0.072570235 0.045578495 0.0497599 -0.019737402
0.034141738 0.09029135 -0.03010375 0.07593656 0.001485772 0.07412339 -0.021259883 0.050127514
-0.013678162 0.079899624 -0.017502088 0.04094919 0.06354777 -0.0010036747 -0.01809021 0.087218545
0.006725316 0.027421933 -0.0009013165 -0.026777254 0.07268959 -0.021604648 0.029604297 0.03258235
0.007455844 0.04952477 -0.005993025 -0.02699516 0.045620833 0.0034469338 0.012722082 0.04623317
0.054117125 0.051220737 -0.027611306 -0.019659882 0.066410474 -0.03542541 -0.024521584 0.019752232
0.026301485 0.013879052 0.07848039 0.042398714 0.032803424 0.066954315 -0.008249184 -0.03597575

layers.conv3_1.bias f4 [32]
00000000: 11e9 3cbd 34ec 593d de64 20bd 1bbc 4abd
00000010: 2715 8fbd a4f6 c9bb 53a6 c63c f85e a63c
00000020: b043 773d 3440 4a3d 233b f93c b31a b0bc
00000030: 27d5 8f3c 254b c0bc c17e 453d b686 e63c
00000040: 3a5c f13c 5cb8 8abd ab37 4b3d c319 80bd
00000050: d71c 1bbd 470f 0e3d a24a e63c 6008 603d
00000060: 36e3 1cbd 0fe2 393d d9f3 793d 6bcc e6bc
00000070: c89d c43c f801 5abd ad42 7fbd f31e 793d
-0.046120707 0.053203776 -0.039158694 -0.049495798 -0.06986456 -0.006163435 0.024249231 0.020308957
0.060367286 0.049377635 0.030423706 -0.021497106 0.017557694 -0.023473332 0.048216585 0.028140407
0.029462922 -0.06773445 0.049613636 -0.06254914 -0.0378693 0.03468254 0.02811176 0.054695487
-0.038302623 0.045381602 0.061023567 -0.028173646 0.024001017 -0.053224534 -0.062319446 0.06082053
