mRNAlocalization/cnn_models/CNN_model_fold7.pth (torch, 531886 bytes, 22 tensors)

layers.bn1.weight f4 [64]
000000 9e d0 80 3f 41 d1 7c 3f cf 64 80 3f 79 9d 7d 3f
       1.0063665 0.98756796 1.0030764 0.9906841
000010 0c 94 80 3f 1d ba 7f 3f ea ef 80 3f 0c 53 7d 3f
       1.004518 0.9989336 1.0073216 0.98954844
000020 95 0d 7f 3f e6 b7 7e 3f e7 7d 7f 3f 81 e4 7e 3f
       0.996301 0.99499357 0.99801487 0.9956742
000030 f0 95 80 3f a5 06 7a 3f 2f 7b 7d 3f c9 85 7f 3f
       1.0045757 0.9766639 0.9901609 0.99813515
000040 37 fd 7d 3f d2 5a 81 3f a4 3d 81 3f 9b da 7e 3f
       0.992145 1.0105841 1.0096936 0.99552315
000050 d7 da 7f 3f 62 78 80 3f de 1f 7d 3f 7a 14 7f 3f
       0.999433 1.0036738 0.9887675 0.9964062
000060 a9 af 7f 3f 07 5f 7e 3f ec b2 7d 3f 38 e9 80 3f
       0.9987741 0.9936375 0.9910114 1.0071173
000070 30 44 80 3f 3c 71 7c 3f 1c c7 7e 3f 22 9e 81 3f
       1.0020809 0.9861028 0.99522567 1.0126383
000080 7f bc 7e 3f 6e c5 81 3f a3 01 80 3f d1 25 81 3f
       0.9950637 1.0138376 1.00005 1.0089666
000090 36 3c 80 3f 5d f9 7d 3f 36 a3 80 3f b4 35 7e 3f
       1.0018375 0.99208623 1.0049808 0.99300694
0000a0 c9 39 82 3f c9 d4 80 3f 98 e8 81 3f 19 7a 7d 3f
       1.0173885 1.0064937 1.0149107 0.9901443
0000b0 c7 28 80 3f 4c 5e 80 3f fd cc 81 3f 92 c5 7f 3f
       1.0012444 1.0028777 1.0140682 0.99910843
0000c0 b2 a0 7f 3f f5 ae 7f 3f 71 6a 81 3f c4 45 80 3f
       0.99854577 0.9987634 1.0110608 1.0021291
0000d0 d4 3c 80 3f d8 3b 7f 3f a7 1e 81 3f eb dd 80 3f
       1.0018563 0.9970069 1.0087479 1.0067724
0000e0 da 5c 7e 3f ed 83 7b 3f a4 25 80 3f 73 d3 7f 3f
       0.9936043 0.9824818 1.0011487 0.9993202
0000f0 48 37 7f 3f 42 71 7c 3f 76 93 81 3f 94 bb 80 3f
       0.9969373 0.9861032 1.0123127 1.0057244

layers.bn1.bias f4 [64]
000000 12 bd a5 3c b1 f6 90 3c 2b 20 b4 3b 80 cb 1c bc
       0.020231757 0.017695757 0.005496999 -0.009570003
000010 9b 64 90 3c a8 d8 3d 3b 0b 40 cd 3c 29 f7 16 3c
       0.017626097 0.0028968249 0.025054952 0.009214201
000020 99 93 b7 3b a6 8e 31 3b a0 36 5c 3b 52 70 6d 3b
       0.005602312 0.0027093082 0.0033601895 0.0036230278
000030 25 37 00 3c d8 13 54 bc 9b 89 f4 bb 89 e3 33 3c
       0.0078256475 -0.012944184 -0.007462693 0.010979542
000040 b4 21 02 bb d5 cd 82 bb 35 f7 4d bc b8 b3 f3 3b
       -0.0019856514 -0.0039918222 -0.012571146 0.0074371956
000050 2f ec 48 3c 8b 80 2c 3c 44 8c c5 39 a1 87 bb 3b
       0.012263342 0.010528694 0.00037679274 0.0057229553
000060 68 b1 cd bb 66 3c 28 3c b8 b7 b0 bb 65 2c 0a 3c
       -0.006277252 0.010268306 -0.0053929947 0.008433436
000070 ec 67 9e 3b ac 31 15 bc a1 f3 ad 3b 6d 72 08 bc
       0.004834166 -0.009106081 0.005308584 -0.0083280625
000080 66 06 78 bc a3 46 05 3c 2e 95 c4 3b 36 7e 24 3c
       -0.015138244 0.008134517 0.005999229 0.010039857
000090 c6 a7 aa 3c 4d 07 b2 3b ad 9e 0e bc c9 e6 b9 3b
       0.020831954 0.005432999 -0.008704823 0.0056732637
0000a0 29 b1 f4 3c 9e 22 97 3c f3 5a c4 3b ab d6 a3 bc
       0.029869633 0.018449124 0.0059922873 -0.019999823
0000b0 c5 dc 5a 3b 8c aa 79 3c 94 d6 a4 bb 2b 43 65 3c
       0.003339575 0.015238415 -0.0050304625 0.013993065
0000c0 56 c8 17 3b 31 c3 1e bc 0a e2 db 3c 57 a9 c1 3b
       0.002316018 -0.009690092 0.026841182 0.0059100795
0000d0 c9 fb 40 3b 89 24 52 bb b7 d5 3c 3c 18 11 d5 3c
       0.002944695 -0.0032065234 0.011525563 0.026009127
0000e0 4e 50 76 bb e3 45 d1 3b 05 21 b3 3b 64 f1 e7 3a
       -0.0037584486 0.006386505 0.0054665827 0.0017695841
0000f0 a3 a4 a1 ba 32 eb 16 bb 9e ab a7 3c 68 9f 2c 3c
       -0.0012332391 -0.002302837 0.020467576 0.010536052

layers.bn1.running_mean f4 [64]
000000 4c 45 88 3a ae 1a 88 bc 9c a1 1b be 0d 8c 54 3e
       0.0010396629 -0.016614284 -0.15198368 0.2075655
000010 82 d3 86 3e 46 7c d6 3c 39 9f 3d 3d 22 9b c6 3d
       0.26333243 0.026182305 0.046294425 0.09697558
000020 6d 60 39 3e 7b 14 70 3d 99 0c 3f 3d 9e 68 58 3d
       0.1810319 0.05861328 0.046642873 0.052834146
000030 38 39 86 bd d2 92 29 3e ef a7 31 3e 13 27 ff 3c
       -0.06553882 0.16559914 0.17349218 0.031146562
000040 d2 9c a0 be 36 31 46 be 74 9e 3d 3d 96 27 69 3d
       -0.31369644 -0.1935471 0.04629369 0.056922518
000050 03 ec e5 3b 1d 13 2f 3e 69 d6 5e bb e3 40 94 3d
       0.00701666 0.17097135 -0.003400231 0.07238939
000060 8f f4 e8 3b f3 66 15 3d 82 88 22 3d 91 40 cd 3d
       0.007109232 0.036475133 0.039680965 0.10022081
000070 d7 29 92 3d 6c d4 37 3e f4 a6 f1 3c 04 0e c8 3d
       0.071368866 0.17952126 0.029498555 0.09768298
000080 03 57 b9 3d e1 dc 19 3e 99 4e fd 3b 83 cc a8 bc
       0.09049799 0.15025665 0.007730317 -0.020605331
000090 dd 62 a8 3d d5 90 8d 3b c6 2b 57 ba 3e 30 97 3d
       0.08221982 0.004320244 -0.0008208122 0.07382248
0000a0 13 29 9b 3d 66 ad 5d 3e f8 f4 a7 3d 24 0c 86 bc
       0.07576194 0.21648178 0.08201021 -0.016363211
0000b0 25 7d ea bd b8 1d 91 3c c6 ff d2 bc b8 67 10 3e
       -0.11449651 0.017714366 -0.025756728 0.14102066
0000c0 bb 23 56 3e a5 b3 27 bd e6 cf fb 3d df a0 c1 3d
       0.20912068 -0.040942807 0.12295513 0.09454512
0000d0 7c 6e 2d be af 42 b1 be 04 81 5b bd cf 38 05 3e
       -0.16936678 -0.34621188 -0.053589836 0.13009952
0000e0 8e 04 14 3e 31 5a e3 bc 04 ad 96 3c a4 2c 0d be
       0.14454862 -0.027752968 0.018393047 -0.1378656
0000f0 0c ff 13 3e 9b a3 f4 3b 6a 34 af be ad 53 26 3d
       0.14452761 0.0074657924 -0.34219676 0.040607143

layers.bn1.running_var f4 [64]
000000 ad ca f4 3c 52 a3 3b 3d c3 14 dc 3d 3b b5 8b 3d
       0.0298818 0.04581005 0.107461475 0.06821676
000010 fc 06 79 3d 0b a1 d8 3c 4c 5a 1f 3d 47 70 25 3d
       0.060797676 0.026443979 0.038904473 0.04039028
000020 c1 09 6c 3d 4e 1a 4b 3d 3b 5f 27 3d 44 32 70 3d
       0.05762649 0.049585633 0.040862303 0.058641687
000030 8a c3 01 3d 73 a2 90 3d 3d 5d 23 3d 71 3c 17 3d
       0.03168062 0.07062235 0.03988384 0.036922876
000040 e5 33 1a 3e 1c 32 fe 3d 2b bc 69 3d bb b7 3e 3d
       0.15058859 0.12411901 0.057064217 0.046561938
000050 fc 3d 05 3d 4e 8a 25 3d c3 41 f5 3c f8 57 7d 3d
       0.032529816 0.0404151 0.029938584 0.06185147
000060 da 1e 55 3d 5e 40 33 3d 22 05 43 3d 87 4a 4d 3d
       0.052031375 0.043762557 0.047612317 0.050119903
000070 cc 36 1b 3d 36 0c 35 3d 9f 08 12 3d ac a6 56 3d
       0.037894055 0.0442011 0.035652753 0.052405044
000080 e6 17 06 3d 04 2b 2b 3d 3e e1 4a 3d dd 00 1a 3d
       0.032737635 0.04178907 0.049531214 0.03759848
000090 45 39 36 3d 68 31 71 3d 64 f1 38 3d 7e 7f 25 3d
       0.04448821 0.058885008 0.045152083 0.04040479
0000a0 ba 7d 7f 3d 5d 33 5e 3d e6 79 49 3d 88 29 1e 3d
       0.06237576 0.054248203 0.049188517 0.038613826
0000b0 ff 31 40 3d 37 0f 07 3d 9a e0 0f 3d 5f c4 71 3d
       0.04692268 0.032973494 0.035126306 0.059025165
0000c0 e8 03 57 3d b1 97 f0 3c cb 94 3c 3d bf 04 45 3d
       0.05249396 0.029369207 0.046040338 0.04810023
0000d0 c0 80 6b 3d 6c c3 e7 3d 7d 35 1c 3d d4 69 18 3d
       0.057495832 0.11316571 0.038136948 0.0372103
0000e0 05 a9 30 3d 72 93 32 3d 17 fa 18 3d 8b ce 45 3d
       0.04312994 0.043597646 0.03734788 0.048292678
0000f0 f5 51 a5 3d a3 79 03 3d 51 6a 0e 3e a1 b5 1b 3d
       0.08072273 0.032098424 0.13907744 0.03801501

layers.bn2.weight f4 [32]
000000 3b 03 83 3f 72 b8 87 3f b0 87 5d 3f c0 d0 5e 3f
       1.0235361 1.0603163 0.8653517 0.8703728
000010 77 49 81 3f 6d 07 5e 3f 50 4e 81 3f e4 6f 5d 3f
       1.0100545 0.8673008 1.0102024 0.86498857
000020 2e 3d 81 3f 03 96 81 3f 86 e3 82 3f cb ba 81 3f
       1.0096796 1.0123905 1.0225685 1.013513
000030 96 8d 5f 3f ff 23 81 3f 01 90 5d 3f 50 2f 81 3f
       0.8732542 1.008911 0.8654786 1.0092564
000040 b5 35 81 3f 11 8f 81 3f a9 32 82 3f 72 67 5d 3f
       1.0094515 1.0121785 1.017171 0.8648597
000050 ce 87 82 3f 59 1f 5e 3f 50 99 5d 3f f8 8c 5d 3f
       1.0197694 0.8676658 0.8656206 0.86543226
000060 78 83 81 3f d7 18 81 3f 37 1c 72 3f 90 45 81 3f
       1.0118246 1.0085706 0.945743 1.0099354
000070 c0 39 81 3f 53 11 72 3f f0 5f 81 3f e8 5e 81 3f
       1.0095749 0.94557685 1.0107403 1.0107088

layers.bn2.bias f4 [32]
000000 96 df 69 3c bf 66 82 3d df d8 0a be 79 47 05 be
       0.014274498 0.063672535 -0.13559292 -0.13015546
000010 99 ef f5 3d 61 1f 08 be e1 ba ec 3d 21 22 0b be
       0.1200859 -0.1329322 0.11559082 -0.13587238
000020 24 ce f1 3d fc 08 e8 3d ad 1f fc 3d d4 8f ec 3d
       0.11806896 0.11329839 0.12310729 0.115508705
000030 58 85 01 be ef 73 ec 3d d3 70 0a be 8c 42 f6 3d
       -0.12648523 0.1154555 -0.13519602 0.120244116
000040 06 c2 f1 3d dd 7c f0 3d 80 54 ed 3d 29 3a 0b be
       0.11804585 0.11742566 0.11588383 -0.13596405
000050 94 ec f8 3d 2d 00 08 be 98 87 0a be b3 b6 0a be
       0.12154499 -0.13281317 -0.13528287 -0.13546257
000060 1b 9d ee 3d f8 04 e9 3d e9 a2 fe bc 3e bd f1 3d
       0.11651059 0.11377901 -0.031083541 0.11803673
000070 f2 71 ee 3d c6 10 04 bd 5f a5 ef 3d 36 df e8 3d
       0.11642827 -0.03224256 0.11701464 0.11370699

layers.bn2.running_mean f4 [32]
000000 11 b7 61 3f 24 30 8a 3f 1c f8 7f 3f c1 e0 68 3f
       0.8816996 1.0795941 0.9998796 0.9096795
000010 f2 b7 84 3f f0 b8 4d 3f 96 88 93 3f 32 7a 87 3f
       1.0368636 0.8036032 1.1526058 1.0584166
000020 58 38 8e 3f 25 72 96 3f 8f 71 7b 3f b6 f6 88 3f
       1.1110945 1.1753584 0.9822015 1.070029
000030 92 b8 43 3f ed 15 8f 3f a8 46 92 3f 57 a3 8e 3f
       0.76453507 1.1178566 1.1427813 1.1143597
000040 5b 1c 95 3f 38 0e 86 3f 8f 60 94 3f 26 9a 90 3f
       1.1649278 1.0473089 1.1591967 1.1297042
000050 61 0c 75 3f 0e f7 61 3f b6 74 98 3f f4 c4 98 3f
       0.95722014 0.882676 1.1910617 1.1935105
000060 66 be 7e 3f e0 73 8d 3f 54 bb 21 3f 1e 85 8f 3f
       0.99509275 1.1050987 0.63176465 1.1212499
000070 de cd 8b 3f 55 13 0a 3f 03 6a 8e 3f 69 7f 92 3f
       1.0922201 0.5393575 1.1126102 1.1445132

layers.bn2.running_var f4 [32]
000000 4d b7 ad 40 9b 25 e6 40 27 13 17 41 a3 17 3d 41
       5.4286256 7.1920905 9.442176 11.818271
000010 5b e9 01 41 67 8c 02 41 ee 7d 06 41 15 ee 16 41
       8.119472 8.159278 8.405745 9.4331255
000020 5e 13 08 41 06 18 0b 41 9c e1 06 41 bd 18 02 41
       8.504728 8.693365 8.43008 8.13104
000030 13 92 21 41 2e 18 0d 41 74 5b f0 40 94 ad 05 41
       10.098163 8.818403 7.5111637 8.354877
000040 ce 32 07 41 5e 50 04 41 f7 ce 08 41 3d 04 1a 41
       8.4499035 8.269621 8.550529 9.626035
000050 6e e4 01 41 28 34 fc 40 df 84 16 41 d5 78 11 41
       8.118269 7.8813667 9.407439 9.092
000060 83 8e ff 40 af e8 07 41 66 7c 34 41 fc 5c 08 41
       7.9861465 8.4943075 11.280371 8.522701
000070 2c 95 05 41 9d d2 36 41 96 b3 fd 40 36 5f 08 41
       8.348919 11.426419 7.928172 8.523245

layers.conv1_1.weight f4 [64, 4, 9]
000000 31 85 aa 3c a5 0b 7a 3d 78 76 01 3d 9e 45 c8 3d
       0.020815464 0.06104626 0.03160712 0.097789034
000010 11 29 09 3e a6 a1 b8 bd 3e ea 63 3d 15 aa 4c 3c
       0.13394572 -0.09015207 0.055643313 0.012491723
000020 81 9b 2d 3e 45 c8 64 bd 0f 3b 96 bd 35 70 f9 bc
       0.16953851 -0.055855054 -0.07335483 -0.030449012
000030 7e 42 5a 3c db 22 86 bd 5c 5f 07 3e cc 74 51 bd
       0.013321517 -0.06549617 0.1321997 -0.051136777
000040 55 81 19 3e b5 21 19 ba 36 54 4f bd aa a4 19 3e
       0.14990743 -0.00058415096 -0.05061742 0.1500422
000050 04 d4 11 be 52 5e 43 bd 34 81 c3 bd 6b da 05 3e
       -0.14241034 -0.047697373 -0.09546128 0.13071601
000060 e7 8c 17 bd 4d 66 c9 3d b8 b7 8c 3d e8 90 07 be
       -0.03699961 0.098339655 0.06870979 -0.13238871
000070 ce 14 9f bc d3 5c 09 bc a8 57 11 3e 41 80 21 3e
       -0.0194191 -0.008383947 0.14193594 0.15771581
000080 56 0a 27 be 98 5f 2c 3d 5d 85 ea bd fd b8 cf bd
       -0.16312537 0.042083353 -0.11451218 -0.101427056
000090 a2 08 a9 3d c3 ea 7f 3d 4f 73 bc 3d 1e 49 bb bd
       0.082536 0.062479746 0.09201681 -0.09144805
0000a0 b3 a7 9d bd 45 6e 30 bc 37 b3 7b 3d 92 d4 16 be
       -0.07698002 -0.010768478 0.06145021 -0.14729527
0000b0 f1 4d 90 3d c6 17 9c bd 1f cc 41 bd 58 a7 45 bd
       0.07046116 -0.07621722 -0.047313806 -0.048255295
0000c0 4d a5 ed 3d 26 91 33 3d 10 9f 18 be c3 24 c8 3d
       0.11603794 0.043839596 -0.14904428 0.09772637
0000d0 37 f8 30 be 77 fc 18 3d 6c 41 6a bc 2a 16 67 ba
       -0.17282186 0.037350144 -0.014297824 -0.00088152534
0000e0 e0 83 33 3c 37 6a c3 bd c9 96 88 bc 94 9d 0f bd
       0.010956734 -0.09541743 -0.016673462 -0.035062388
0000f0 09 c0 64 3d 4e 59 da 3d 9b b4 d2 bd 5a 83 f2 bd
       0.0558472 0.10661565 -0.10288354 -0.118414596
000100 a7 ab 1b be 83 35 22 be 23 ee 63 bd 7a 86 cc 3b
       -0.15202199 -0.15840726 -0.055647027 0.006241617
000110 74 58 f1 bd 54 24 ee bd 49 64 2b be fc 56 24 be
       -0.11784449 -0.11628023 -0.16737475 -0.16048807
000120 92 20 3f 3d 09 98 a1 bd 16 bd 22 3e 05 6a 23 3d
       0.04666192 -0.078903265 0.15892443 0.03989603
000130 64 58 7d bc 8e f1 f6 bc 04 82 3b bd b5 8d 10 3e
       -0.0154629685 -0.03014448 -0.04577829 0.14116557
000140 67 76 2a 3e 4f 6e 9c bd b6 5a cb bd c2 5a c8 3c
       0.1664673 -0.07638227 -0.09929411 0.02445734
000150 cb b7 60 3d ca 7e 38 3e f5 87 de bd 61 7f c1 3d
       0.05486278 0.18017116 -0.108657755 0.09448124
000160 f7 dd af 3d b4 05 0f be ae dc fc 3c 09 8b 4b bd
       0.08587258 -0.1396702 0.030866947 -0.04969314
000170 a0 91 42 3d b0 a9 41 bd 08 f0 58 3d f5 88 dd bd
       0.04750216 -0.047280967 0.052963287 -0.10817138
000180 f5 f5 36 bd ae 46 f1 bd 7d 43 99 3a d7 74 11 3e
       -0.044668157 -0.11781059 0.0011693087 0.14204727
000190 e7 9c 4b 3d 19 5d da 3c cd 82 40 3d 35 7c c0 3d
       0.04971018 0.02665572 0.04699974 0.093986906
0001a0 02 bd 04 be 0f 4b 06 bd d2 85 bc bc e9 d8 0b be
       -0.12962726 -0.032786425 -0.02301303 -0.13656963
0001b0 57 d4 17 be 0a d6 b9 bd e4 54 a9 3d ef 03 07 3e
       -0.14827095 -0.09074028 0.08268145 0.13185094
0001c0 35 38 11 be 5e 1d b4 3c 60 9b 8f bd 0e 9a fe 3d
       -0.14181598 0.02198666 -0.07012057 0.12431727
0001d0 8c 14 d0 bd 2a f4 8f bd 67 86 de bb e5 25 d2 bd
       -0.10160169 -0.070289925 -0.0067909244 -0.10261134
0001e0 36 23 f7 bb 12 cd b2 bd 45 f5 be 3c 5d 02 0b 3b
       -0.0075420393 -0.0873052 0.023310313 0.0021211125
0001f0 ad 21 b3 3d 69 73 81 3d e5 35 f9 3d 1c 18 17 be
       0.087466575 0.06320841 0.12168483 -0.14755291
000200 91 6d 99 bd 8e b4 96 bd 5b cd ab bd 7e 7f 51 3d
       -0.07491601 -0.07358657 -0.08388778 0.051146977
000210 89 cc 82 3d ce e5 ea bd fb 7d 02 be 7c b9 32 3e
       0.06386668 -0.11469613 -0.1274337 0.17453569
000220 44 59 03 3e 21 12 21 3d 49 b2 ba bd e8 2e f6 3d
       0.12827021 0.03932393 -0.091160364 0.120206654
000230 19 cd 24 bd 52 2a 05 3e de e8 00 3d bd 42 10 3d
       -0.04023466 0.13004425 0.03147208 0.035219897
000240 5e 2d 32 bc 25 ab 97 bd af e5 c2 3d f5 3f 9e 3d
       -0.010875074 -0.0740569 0.09516465 0.077270426
000250 b4 5e 21 3d 84 5d cb 3d a8 c8 f5 bd fd 38 86 bc
       0.039396957 0.09929946 -0.12001163 -0.016384596
000260 76 aa 08 be 11 1a 2c 3d 3a 40 cd 3d 7e 1a 1e 3e
       -0.13346276 0.042017046 0.10022016 0.15439793
000270 d7 d7 12 be cf a4 ee 3d b1 72 23 3c b8 c5 2b 3d
       -0.14340149 0.116525285 0.009976075 0.041936606
000280 c6 f2 fc bd ae d9 b1 3c bd 35 c5 3d 60 27 0f 3e
       -0.12350993 0.021710243 0.096293904 0.13979864
000290 e1 20 09 3e 81 1a 83 3d 6b 1d 34 3d 0f 39 02 be
       0.13391449 0.064015396 0.043973368 -0.12717079
0002a0 c3 73 a3 3a bc 43 e5 3d d9 bc d5 3c 1c 9a 43 bd
       0.0012470413 0.1119456 0.026091026 -0.047754392
0002b0 81 32 86 bd 88 15 d7 3d 04 7a dc 3d 5e e7 f9 3d
       -0.065526016 0.10502154 0.1076546 0.12202333
0002c0 b9 02 bf 3c 7c f7 58 bd dd 10 7d bd 5a d1 dd 3d
       0.023316728 -0.052970394 -0.06178366 0.10830946
0002d0 a3 42 33 bd 5e ff e1 3d 0e c8 5e 3d f3 8c 02 3d
       -0.04376472 0.110350356 0.054390006 0.0318727
0002e0 b2 50 84 3d c2 d5 0f be 31 96 d3 3d b6 d8 db bd
       0.06460704 -0.14046386 0.10331381 -0.10734694
0002f0 3c 6e d5 bd 25 d9 d7 3d 2b 65 85 3c 30 be 1b be
       -0.10421416 0.10539464 0.016283592 -0.1520927
000300 f9 1a 2f 3d 04 7e 08 3e f4 ca 62 3d 64 70 e3 bd
       0.042750333 0.13329321 0.055369332 -0.11105421
000310 06 e7 c5 bd 40 bd 07 bd c0 f5 cc bd 7a c7 02 3d
       -0.09663205 -0.033139467 -0.100078106 0.031928517
000320 55 b1 80 3d 36 94 0d 3e f0 94 bf 3c f9 84 28 3e
       0.062838234 0.13826069 0.023386449 0.16456975
000330 04 cf 24 bd ad 12 05 be 89 5b 18 be ce be 19 3e
       -0.040236488 -0.12995405 -0.14878668 0.15014192
000340 b9 5d a0 bd f2 bf 18 be b0 94 20 3d 58 f8 22 3c
       -0.07830376 -0.14916971 0.0392043 0.009946905
000350 34 3b b2 3d 6b 78 20 be 12 29 81 3d 22 f1 9b bd
       0.08702698 -0.15670936 0.06306662 -0.07614352
000360 dd 2f 0a 3c f3 4f 99 3d d1 1e d3 3d 5c 01 c2 bd
       0.008434263 0.07485952 0.10308612 -0.094729155
000370 57 f7 c8 bd 70 41 0e 3d 51 47 b1 3d 93 1d 87 3c
       -0.09812801 0.034730375 0.08656181 0.016493594
000380 ec 00 4d 3d 85 e3 7f bd a5 7c 75 3c e7 45 d9 3d
       0.050049707 -0.06247284 0.014983331 0.10609036
000390 2d dd db bd 1f 55 19 be 30 86 23 3e 8a 0d 96 3d
       -0.10735545 -0.14973877 0.15969157 0.07326801
0003a0 22 c3 fc bb b7 86 04 3e 0a b3 b2 3b 5a 5f 14 3b
       -0.0077136913 0.12942015 0.005453472 0.0022639842
0003b0 16 52 e0 3d fb 7d cc 3d 55 13 2f 3e d5 77 95 3d
       0.10953157 0.09984966 0.17097218 0.07298247
0003c0 07 00 e2 3c f0 ee 04 be 77 2b 9d bb 36 d5 dd 3d
       0.027587904 -0.12981772 -0.004796441 0.108316824
0003d0 25 9f 24 3d 35 d7 07 3e fe a8 6e bd 3e cd 29 be
       0.040190835 0.13265689 -0.058266632 -0.165822
0003e0 30 12 fd 3d b2 0b 33 bb 0e cc bd 3d ca 3e d9 bc
       0.123569846 -0.0027320203 0.09267436 -0.026519198
0003f0 2c ec 18 bd 7b c5 de 3d 40 39 c3 bb 12 1b 13 be
       -0.037334606 0.1087751 -0.0059577525 -0.14365795

layers.conv1_1.bias f4 [64]
000000 a2 53 ef bd 2f a0 3e bd db b1 b3 3d 65 8a 27 3e
       -0.116858736 -0.04653948 0.087741576 0.16361387
000010 1c 33 28 3e 4e 63 18 3e da 04 05 be 24 80 23 3e
       0.16425747 0.14881632 -0.12990132 0.1596685
000020 12 ce 21 3e 8b 33 d3 bd 37 f5 39 bd b7 62 c2 bd
       0.15801266 -0.103125654 -0.04539987 -0.094914846
000030 cf 05 88 bd 8f e7 ab 3d 72 69 56 3d d2 70 8e 3d
       -0.06641733 0.08393776 0.052346654 0.069551125
000040 e8 38 ce bd d7 d0 c6 bd e2 5e eb bd cb 31 18 be
       -0.10069448 -0.09707802 -0.11492707 -0.14862745
000050 1a f1 31 bd 7c 0e 05 3e ef 70 bf bc b8 17 78 bd
       -0.043442823 0.12993807 -0.02336928 -0.060569495
000060 b5 d8 cd bd 03 29 91 bd 6c 7c 24 be 00 1e d0 3d
       -0.10051099 -0.070879005 -0.16063088 0.10161972
000070 60 b6 e2 3d bc 2d 1a 3e 4a 2f 98 3d b0 8a 9b bd
       0.110699415 0.15056509 0.07430895 -0.07594812
000080 ce aa 70 bc d2 52 09 3e 3f 86 ff bd d8 80 2b bd
       -0.0146891605 0.134105 -0.12476777 -0.04187092
000090 59 e0 e6 bc 96 27 40 bd 15 5c fd bd fd 45 c1 3d
       -0.02818315 -0.046912752 -0.12371079 0.09437177
0000a0 58 4f a2 3d ef 26 fa 3d 6d 61 9b 3d 5b 85 0d be
       0.0792529 0.12214457 0.07586942 -0.13820402
0000b0 5d 94 0a be 89 c2 39 3d 6e 8e f8 3c 4b 1d 17 3e
       -0.13533159 0.04535154 0.030341353 0.14757268
0000c0 47 8f f9 3d 11 b8 f5 bd 06 23 a7 bd a2 87 0e 3e
       0.12185531 -0.119979985 -0.08160977 0.13918927
0000d0 15 1e 81 bd c3 03 1b be c7 f1 56 bd da d1 24 3e
       -0.06304566 -0.15138154 -0.05247667 0.16095677
0000e0 f4 94 a3 3d 81 ee d6 bd 92 0d 34 bc d7 40 fb bd
       0.07987395 -0.1049471 -0.010989564 -0.122682266
0000f0 e0 79 05 3e 18 fe 0b 3e 83 78 0a be 1a 58 e2 bd
       0.13034773 0.13671148 -0.13522534 -0.1105196

layers.conv1_2.weight f4 [32, 64, 9]
000000 89 fe 32 bc 0f 86 bf 3c db 55 91 3c ae a2 25 3d
       -0.010924944 0.023379354 0.017741134 0.040438347
000010 8a 67 28 bd 86 ab b3 3c 33 cd 09 bd a7 45 25 3d
       -0.041114368 0.021932375 -0.03364296 0.04034963
000020 b9 af 06 bd fc 03 18 bd 18 80 09 3d 4b 62 7a 3b
       -0.032882426 -0.037113175 0.033569425 0.003820556
000030 e2 2c 9b 3c b5 c6 56 bc 5d ea e5 3c 85 6c a0 3b
       0.0189423 -0.013108899 0.028065855 0.004895749
000040 bf 9a 30 bc 50 6e 2f 39 e7 08 eb 39 bc a0 19 3b
       -0.010779082 0.00016730395 0.00044829326 0.0023441752
000050 d8 2c 55 3c a8 e9 79 bc 52 db 15 3d e3 4a a7 bc
       0.01301118 -0.015253462 0.036586113 -0.020421451
000060 cd ed f2 bc f5 64 c0 3c a2 08 98 bc 12 06 b6 3c
       -0.029654408 0.02348564 -0.018558804 0.022219691
000070 14 d2 e1 3c ce 33 27 3b d3 9c 91 3c 37 63 aa bc
       0.027565993 0.0025513056 0.017774975 -0.020799262
000080 42 43 a5 3c 26 a5 84 3b 66 e8 fb bc e4 c5 82 3c
       0.020173673 0.0040480075 -0.030750465 0.015963502
000090 d1 cd 56 bc e1 94 9f 3c 59 5a 1b bc 10 4b 55 3c
       -0.013110594 0.01948017 -0.00948199 0.013018385
0000a0 92 f4 27 bd 84 63 0c 3d a8 95 ac bc 8c 3d ec 3c
       -0.041004725 0.034274593 -0.021067455 0.028837942
0000b0 2d 08 a8 3c 39 af cb bc 8d 9f 8c bc a3 93 0a bd
       0.020511711 -0.024863826 -0.017165923 -0.033832204
0000c0 fa d1 f5 3c 0f 74 bc 3c 4a 4e d2 3c 60 6d c0 3b
       0.030007351 0.02300456 0.025672097 0.0058724135
0000d0 bd 4d af bc 15 6d 7d bc b1 38 2e ba 8b a8 1c bd
       -0.021399373 -0.015467902 -0.0006646021 -0.038246673
0000e0 5e 9c 80 3c 84 32 eb bc ed 5e c6 3c 37 1f 27 3d
       0.015699562 -0.028710611 0.024215186 0.040801253
0000f0 ff 20 63 bc 38 fa 19 3c 6e 33 26 bd 02 f9 d7 3c
       -0.013862847 0.009398036 -0.04057639 0.026363853
000100 22 c6 3a bc 28 70 e5 3b 76 2d 00 bd f3 18 8b 3c
       -0.011399778 0.0070018955 -0.031293355 0.01697967
000110 88 d9 ab bb fa e3 ef bc 61 76 fc 3b b6 93 d5 3c
       -0.0052444376 -0.029283512 0.0077045416 0.02607141
000120 05 72 96 bc 6a a8 07 3d 81 bf 29 3c 40 0e c7 bc
       -0.018364916 0.033119597 0.0103605995 -0.024298787
000130 e7 8c 0f bd 8e 5e ea 3c 5d 26 dc 3c 26 84 0d bd
       -0.035046484 0.02860954 0.026873762 -0.034549855
000140 ba ba fc bc 44 f8 39 3d 18 a4 64 bc 80 59 af 3c
       -0.030850757 0.04540278 -0.013955139 0.021404982
000150 49 96 79 bc 32 27 cc bc d9 67 30 3d 7f a1 e2 3b
       -0.015233585 -0.024921034 0.043067787 0.0069162245
000160 26 41 aa bc c9 27 c2 3c 37 66 e1 3c db 52 cf bb
       -0.020783018 0.023700612 0.02751456 -0.006327016
000170 11 e2 45 bd 43 2e 82 3c fe 3c f3 bc e8 66 c9 3c
       -0.048311297 0.0158912 -0.02969217 0.024585202
000180 be e0 09 3d 90 7b e5 ba b3 94 b8 3c 57 84 4b bc
       0.033661596 -0.0017508138 0.022531843 -0.012421689
000190 e6 d8 1f bd 65 d9 b1 bc 5d 0d c0 bc 2c 70 b9 bc
       -0.03902521 -0.021710107 -0.023443872 -0.022636496
0001a0 10 91 a6 3c 59 d9 1a 3c 0c e8 6c 3b b5 02 48 3b
       0.020332843 0.009451234 0.0036149053 0.0030519192
0001b0 95 24 8c 3c 86 93 49 bd 15 92 f8 3c 89 c6 d6 3b
       0.017107287 -0.049212955 0.030343095 0.006554429
0001c0 97 52 48 bc c0 0b b5 3c 89 6d 46 3d ee 92 b6 3c
       -0.012226722 0.02210033 0.048444305 0.022286858
0001d0 46 06 2d 3c 58 56 9f bc cb 1e d2 bc 78 fb c3 3b
       0.010560578 -0.019450352 -0.025649449 0.005980905
0001e0 b5 3c b7 3c 0c ef 50 bc 74 22 6e bc 25 e5 23 bd
       0.022367815 -0.012752306 -0.014534581 -0.04001345
0001f0 41 c0 63 3c 24 9e 14 3c f2 c0 05 3c 03 71 b4 3b
       0.013900817 0.009070907 0.0081636775 0.005506636
000200 f1 ff f2 3c fa a4 2f bc 55 75 ef ba ec bf 55 bb
       0.029663058 -0.010720486 -0.0018269221 -0.0032615615
000210 75 a5 ce bb 53 dd 77 3b 85 f8 e5 3b e3 d1 40 bc
       -0.006306345 0.0037821128 0.007018151 -0.011768791
000220 f3 e9 08 bd f0 e8 8b bc f5 5c 05 3d 45 ab c5 3c
       -0.033426236 -0.017078847 0.032559354 0.02412952
000230 2d 77 0e bd 55 38 4e 3d b3 ee 28 3d 0b fb ff bc
       -0.034781624 0.05034669 0.041243266 -0.031247636
000240 b2 eb 82 bc 3d a7 06 3d 9d 60 4b bc ad 3c a2 3c
       -0.015981529 0.032874335 -0.012413171 0.019804323
000250 8d e6 b6 3c 47 2b b8 3c c8 55 8d 3c f7 41 ae bc
       0.022326732 0.022481574 0.017252818 -0.021271689
000260 5d 52 7c bc 5a 1e 44 bd fc ac 06 bc a7 cb 81 3c
       -0.015400496 -0.047880508 -0.008219954 0.01584418
000270 28 0a 48 bd 1f 13 4e b8 04 39 55 bb 0a 9d 72 bc
       -0.04883781 -4.9132035e-05 -0.0032535205 -0.014807949
000280 4d 01 f8 bc 6c 06 93 3b 70 a7 05 bd 3b 60 a2 3c
       -0.030274058 0.0044868495 -0.032630384 0.019821277
000290 b2 5f 2a 3d 19 e9 aa 3c 45 be b6 bc e7 95 0d 3b
       0.04159517 0.020863103 -0.022307524 0.0021604241
0002a0 37 8f 8a bc e7 9e ae bb 0b 82 b9 bb c5 15 e2 3c
       -0.016913993 -0.005329001 -0.0056612543 0.027598271
0002b0 0f 87 75 3c 2b 2e ba bc 21 23 73 3c 3d d4 5e 3c
       0.014985814 -0.022727093 0.014839918 0.013600406
0002c0 85 52 df 3c 8c ce b6 bc 87 ef 69 bc 7d 94 23 bd
       0.027261028 -0.022315286 -0.014278299 -0.03993653
0002d0 1a 65 72 3b 8d 67 97 3b 8d 6b 7e 3c 7a 8e 24 3b
       0.003698653 0.0046204985 0.015528572 0.0025109337
0002e0 0e a9 a0 3c d3 cc 45 3c 73 8e 78 3c 57 50 2d 3d
       0.019611862 0.01207276 0.015170681 0.042312946
0002f0 0b 26 2c bc 35 47 8f bc 24 ef af 3c d5 62 13 3b
       -0.010507117 -0.017490009 0.021476336 0.0022489328
000300 af 60 c1 bc d0 bd 73 3c 98 c0 f1 ba 7d ec 0c 3d
       -0.023605673 0.014876798 -0.0018444238 0.03440522
000310 fb 2c 34 bc 6f 60 64 bd 69 0b 46 3d 90 d9 27 3c
       -0.010997052 -0.05575603 0.048350725 0.010244742
000320 5f e0 b5 bc ca b2 7c 3c 92 c4 88 bc 29 54 bf bc
       -0.022201715 0.015423486 -0.016695295 -0.02335556
000330 2b d5 4e 3d a4 d3 71 bc 6f 76 7b 3c 2f d4 3b 3c
       0.05049626 -0.014759932 0.015348061 0.011464163
000340 9e 2c c6 bc c2 b3 36 3d a2 d0 b5 bc 4e 72 e7 3b
       -0.024191197 0.044605024 -0.02219421 0.0070631867
000350 97 27 91 3c 0c 13 3c bc 4a a7 b6 bb 86 dd bc ba
       0.017719073 -0.0114791505 -0.0055741416 -0.0014409281
000360 19 b8 af bc 4c ab 3d 3c 12 5d a8 3c 51 34 0f bc
       -0.02145009 0.011576485 0.020552192 -0.008740501
000370 cb bc e7 3a 86 54 e3 bc 73 56 15 3d be 13 33 3b
       0.0017680166 -0.027750265 0.036459398 0.0027325
000380 11 74 ac 3c e9 e8 18 bc 36 78 bc 3b 4a f3 d9 3c
       0.021051439 -0.009332874 0.005751635 0.026605267
000390 28 8b 80 3c cb 9b fc 3c 7c ad a5 3b c4 f5 8d bc
       0.015691355 0.030836007 0.0050560813 -0.017329104
0003a0 08 69 69 bc b8 2d 09 bd 11 30 49 bc 3d 1c 46 3d
       -0.014246233 -0.033490866 -0.012279526 0.048366774
0003b0 e7 41 f9 bc fe 8c 89 bc f6 a4 d1 3c 6b 4a 37 3a
       -0.030426932 -0.016790863 0.025591355 0.0006991985
0003c0 93 c1 de bc 95 22 d8 3c 06 bf 8a ba 78 c0 56 3b
       -0.027191913 0.026383677 -0.0010585494 0.003276853
0003d0 ca 3d 46 3c 28 64 36 3d d7 3b 3a 3d 5c ec 62 bc
       0.012099693 0.04452911 0.045467224 -0.013850298
0003e0 13 52 8e bc c7 21 a6 3c 69 52 1c 3d 87 46 d6 3c
       -0.01737312 0.020279778 0.03816453 0.026156677
0003f0 e6 e4 89 bc 35 0a cb 3c e8 73 ca 3c 05 77 88 bc
       -0.01683278 0.02478514 0.024713472 -0.016658315

layers.conv1_2.bias f4 [32]
000000 fa 88 0b bd 1f bf e9 3b b1 09 c3 bc 19 f3 d3 bc
       -0.034066178 0.007133379 -0.023808332 -0.025872754
000010 92 1c 37 bc d7 c4 83 bc 43 55 14 bd df d2 d8 bc
       -0.011176245 -0.016085071 -0.036214124 -0.026467739
000020 dc 98 39 bc 62 92 e8 3c 36 6b 8b 3c 78 53 23 3d
       -0.011327948 0.028390113 0.017018896 0.039874524
000030 69 cf a6 3c 43 6b ad bc ce 9d e3 3b 02 49 27 bd
       0.020362573 -0.02116931 0.006946302 -0.04084111
000040 fa c9 04 bc a0 6a 0f 3d d1 3e 89 3b 0c 26 30 bc
       -0.008104796 0.035013795 0.0041883965 -0.010751259
000050 aa 35 27 3d 52 de 0a bd e3 76 1b 3d ae fd a7 3b
       0.040822662 -0.033903427 0.037955176 0.0051266765
000060 e6 17 13 bd 2b f8 82 b9 5e 8e 21 3d 31 61 05 bd
       -0.035911463 -0.00024980432 0.039442413 -0.032563392
000070 84 a4 46 3c 33 28 15 bd fb 1d 8c bb 61 3b e8 3c
       0.0121241845 -0.03641529 -0.004276035 0.028348627

layers.conv2_1.weight f4 [64, 4, 20]
000000 61 b9 88 bd 0e 73 fd bc 9f b8 ee bc 50 eb 31 3c
       -0.06675983 -0.030938651 -0.029140769 0.0108593255
000010 f2 4e 22 3c 83 8b 06 bc 52 31 9b 3d f8 4c 0f bd
       0.009906517 -0.008211973 0.075777665 -0.034985512
000020 32 a9 74 bd aa 06 d5 bd c4 50 cf 3d 01 06 e6 bb
       -0.05973167 -0.10401662 0.10122827 -0.0070197587
000030 11 c4 45 bd 4f f2 f7 3c 5f 7f 46 3d ef 7e 5c bc
       -0.048282687 0.030266909 0.048461314 -0.013457998
000040 1d 84 29 3c b1 c3 87 3c 0a de 14 be 04 98 08 3e
       0.01034644 0.016572805 -0.14537826 0.1333924
000050 b3 7f be 3c 09 a4 91 bd cf 67 9b bd ab 1b 39 3d
       0.023254251 -0.07111365 -0.07588159 0.0451924
000060 e3 d7 6b bd cf e3 08 3d f7 19 a2 bc 68 43 9b bd
       -0.057578932 0.03342038 -0.019787772 -0.07581216
000070 40 82 b6 bd 6d ab db 3d e2 75 d6 3c 8c bb 9a bd
       -0.08911562 0.10726056 0.026179258 -0.07555303
000080 dd 08 cb 3d 98 44 99 3d ed 78 ad bd c2 84 85 3c
       0.099138 0.07483786 -0.084703304 0.016298655
000090 8b 5e af 3d 5c a5 5e bd 51 4f 84 bd 3d b3 77 bd
       0.085629545 -0.054356918 -0.06460441 -0.06047367
0000a0 10 30 6a bd 5f fe ae bc e6 21 7d 3d 4d 21 bd 3d
       -0.057174742 -0.021361528 0.061799906 0.09234867
0000b0 63 b4 6d 3d 41 07 05 bd bb df 3b bc 3f a1 d7 3c
       0.05803336 -0.03247762 -0.011466916 0.026322005
0000c0 c3 7d 86 bd 6a 67 06 bd 1c 50 f3 bc bb b9 45 3b
       -0.06566956 -0.032813467 -0.029701285 0.0030170518
0000d0 35 f2 6d 3d 15 67 07 bd 83 b7 dc bd 3c 47 8e 3d
       0.058092315 -0.03305729 -0.107771896 0.06947181
0000e0 da 40 ab 3d 3a 5b 80 bc 0d da 28 bd 46 3a 82 bd
       0.08361979 -0.0156685 -0.041223574 -0.06358771
0000f0 a6 d1 86 bd c2 ae 40 bd 30 4f a0 3d be 0b ee 3c
       -0.06582956 -0.047041662 0.07827604 0.029058333
000100 d1 07 b8 bc a5 e7 a1 bc 09 04 2f bd 0c 0d db 3c
       -0.022464665 -0.019763777 -0.042728458 0.02673962
000110 85 ad 96 bc 6e 6f 92 bc 36 d8 67 3d 8d 4c a8 3d
       -0.018393287 -0.0178754 0.05660268 0.08217726
000120 53 9e b6 bd 42 fe 13 bd 19 3b 36 bc df fc 7f 3d
       -0.08916917 -0.03613115 -0.011122488 0.062497016
000130 c0 9e 2f 3d f8 d0 7e 3d ba 39 48 3d dd 56 c6 3d
       0.042876005 0.062211007 0.048883177 0.096845366
000140 18 3b 1f bd ac 83 07 3e 79 96 a5 bc 46 ac b7 3d
       -0.038874716 0.13233823 -0.020213353 0.089684054
000150 02 d2 e3 3a 5f 91 38 3d f9 f9 d3 bc 34 dd 76 bd
       0.0017381313 0.04506051 -0.025876032 -0.06026955
000160 e8 37 a0 bd 72 94 af 3d c5 de d8 bc 70 57 ad 3d
       -0.07823163 0.085732356 -0.026473412 0.08463943
000170 80 73 2a 3c 55 9a 76 bd 49 f3 65 3d d0 74 5f bd
       0.010403514 -0.060205776 0.056140218 -0.05455476
000180 1a 05 d1 bc ed fa ca bc c9 78 12 3c 83 81 c8 bc
       -0.025515128 -0.024777854 0.00893993 -0.024475818
000190 1d 11 a4 3d 64 02 ed 3d 11 c6 89 3d 6c 6f 66 3c
       0.080110766 0.115727216 0.06727231 0.014064651
0001a0 c2 b6 e9 3d 9c cf b9 3d db b7 c5 bd 0d 78 eb 3c
       0.114118114 0.090728015 -0.09654208 0.028743768
0001b0 64 c8 9b bb 05 e8 2c 3d 9e 2c cb 3d 8e af 2b 3d
       -0.004754113 0.04221346 0.099206194 0.04191547
0001c0 41 7f ce bd fb 5a 26 3d e1 8d af 3d 55 05 8c bd
       -0.100828655 0.04061411 0.08571983 -0.068369545
0001d0 8b c2 9e 3d 09 04 ab 3d e1 4f 94 bd 78 ec ab bd
       0.0775195 0.08350379 -0.07241798 -0.08394712
0001e0 4f 21 95 3d 6a ac 50 bc 06 cf c8 bd 38 ee e1 bd
       0.07281744 -0.012736419 -0.098051116 -0.11031765
0001f0 e3 67 92 3d b0 42 67 3b 36 b8 50 bd 6f 62 73 3c
       0.07148721 0.0035287552 -0.050956927 0.014855011
000200 3c bf 93 bd 1a f8 2f 3d 8b 05 5f 3d 1b 91 b1 bd
       -0.072142094 0.042961217 0.054448646 -0.08670255
000210 65 d9 4c bd 84 54 8b 3c 5b 85 de ba 22 99 56 bd
       -0.05001201 0.017008074 -0.0016976999 -0.052392133
000220 f9 47 2d 3c 55 0b 8b 3c 7e 18 c7 bc b7 84 7d bd
       0.010576242 0.016973177 -0.024303671 -0.061894145
000230 48 60 dd 3d 57 44 e0 bb 86 20 98 bd 73 24 f3 3d
       0.1080938 -0.0068440842 -0.07428078 0.118721865
000240 0d 2d 81 bd 0e 12 e3 3d a5 9c 1c bc c5 9d 6d 3d
       -0.06307421 0.11087428 -0.009558831 0.05801179
000250 af 98 aa bd 45 be 01 3e 96 3d 5a bd 60 2d 69 bb
       -0.08329903 0.12670238 -0.05328139 -0.0035580024
000260 37 7a 61 bd 36 43 d4 3d fb 63 6c bd 40 53 e2 3d
       -0.055048194 0.10364382 -0.057712536 0.11051035
000270 eb b6 93 3c 8d 2c a1 bd 67 76 4d 3d 12 17 a2 3c
       0.018031558 -0.078698255 0.050161745 0.019786391
000280 1b 92 87 bb 2b fc f9 bd d3 f1 1c b9 4b bd d6 bd
       -0.00413729 -0.122063 -0.00014967406 -0.104853235
000290 c6 39 e3 3c 1a d8 a3 bd 97 1d 89 bd f3 10 53 bd
       0.02773751 -0.080002025 -0.06695097 -0.051529836
0002a0 6e de 82 3c f4 18 c0 bd 86 3d fb bc 22 f7 06 3c
       0.015975203 -0.093797594 -0.030668985 0.008237632
0002b0 68 1d ac bc 8d bb 38 bd 52 6f 6f ba 3f ee 4d bd
       -0.021010116 -0.045100737 -0.00091337145 -0.050276037
0002c0 fc 3e 64 bd d0 c8 11 3c 03 4d 5c bb 50 92 d1 bc
       -0.05572413 0.008897975 -0.0033615238 -0.025582463
0002d0 17 bc 0c be ec 6c c0 bd 33 76 c8 3b 07 06 96 3c
       -0.13743626 -0.09395775 0.006117606 0.018313421
0002e0 88 45 cf bd 03 a5 c3 3b 62 eb c9 bd b0 9a aa bd
       -0.10120684 0.0059705987 -0.09859349 -0.083302855
0002f0 da 2f 74 3d 12 98 ab bd 90 37 9c bc 28 46 33 bd
       0.059615947 -0.083786145 -0.019069463 -0.043768078
000300 7c 73 bb bd 54 98 87 bd e1 f2 97 3b fa 58 b6 bd
       -0.09152886 -0.06620851 0.0046371077 -0.0890369
000310 f5 c5 4d bd 76 bd c7 3c bd 37 df bd 0d 27 96 bd
       -0.050237615 0.024382334 -0.10899303 -0.07331667
000320 6f 2d 8e bc b8 56 28 be 50 ee 50 bd e8 57 e5 bd
       -0.017355649 -0.1643933 -0.051008523 -0.111984074
000330 75 dd 43 3d d5 ba ee bd 0a 41 d3 bd 75 28 cd bd
       0.04781862 -0.11656729 -0.103151396 -0.10017482
000340 a7 a8 d3 bb f9 e0 d3 3c 49 cc 48 bd 1b 48 c4 3c
       -0.006459314 0.025864111 -0.049022947 0.023960164
000350 b9 5c 9b bd 95 bc d8 bd 65 2d 7d bd bd 13 ad bd
       -0.07586045 -0.10582844 -0.06181087 -0.084510304
000360 57 3e a2 bc 62 2f 45 bd f7 66 88 bd 0b b9 1f bd
       -0.019805117 -0.04814089 -0.06660264 -0.03899483
000370 ed c9 ae bb 22 e3 75 bd 2d 43 f4 3b 3b 95 cb bd
       -0.00533413 -0.060031064 0.007454297 -0.09940573
000380 d3 05 44 3b 40 7d 3e bd 3c 0d 98 bd f4 82 05 bd
       0.0029910698 -0.046506166 -0.07424399 -0.03259559
000390 2d c4 a7 3c 92 cc 37 3d f8 6b 4d bd ab 12 0a 3c
       0.020479286 0.044872828 -0.050151795 0.008427302
0003a0 29 3b a2 bd 2d 00 01 3a 44 c4 78 bd be 5d 52 bd
       -0.0792144 0.00049209857 -0.06073405 -0.05135893
0003b0 71 4d 0c bd a8 61 91 bc 93 6a 83 3c 38 24 5d bd
       -0.03425354 -0.017746761 0.01604203 -0.05398962
0003c0 a7 2d e6 bc 78 bf c0 bc 98 92 1b bd 9e c7 36 bd
       -0.02809794 -0.0235288 -0.0379816 -0.044623964
0003d0 d8 18 a1 3d 3c 0e d9 3d df 2f c7 3d b5 31 ed 3d
       0.07866067 0.10598418 0.097259276 0.115817465
0003e0 60 92 05 bc 8f 60 ff 3c e4 24 cf 3d 5f 01 0f 3d
       -0.008152574 0.031173972 0.10114458 0.034913417
0003f0 97 67 b9 bb 2f fa 8a bc 4f 5a f3 3d 66 01 3d 3d
       -0.005658101 -0.016965 0.11882459 0.04614391

layers.conv2_1.bias f4 [64]
000000 1b 57 aa 3d cb 04 8e 3d 9c c9 ba bc b8 44 7c 3c
       0.08317395 0.06934508 -0.022801213 0.015397243
000010 96 b6 60 3d 09 62 c3 bd ec 7d 5a 3b c9 d6 60 3d
       0.054861628 -0.09540183 0.0033339215 0.054892335
000020 4c 3d 86 bd fc 6f 0b bd d6 48 73 bd 34 df 40 bd
       -0.0655466 -0.034042343 -0.059395634 -0.047087863
000030 01 b2 d6 bd 34 17 15 bb b0 cb a7 3d 77 bb b2 3b
       -0.1048317 -0.0022749426 0.08193147 0.0054544765
000040 ac 01 90 bc b4 66 d0 3d 63 e4 d3 3c d2 1a ad 3d
       -0.017578922 0.10175839 0.02586574 0.08452381
000050 be f3 5d 3d 0b 09 41 3d 01 38 e3 bc 96 54 97 bd
       0.05418753 0.047127765 -0.027736666 -0.0738918
000060 bd 88 7c bd 48 88 42 bd 3c 14 08 3d 27 9c be bd
       -0.06165384 -0.04749325 0.033222422 -0.093071274
000070 7c 4d c7 bd 71 1c 53 3d f0 3f d9 bd 6c 4a 62 3d
       -0.09731576 0.051540796 -0.10607898 0.055246755
000080 7b db d4 3d 34 de 48 3c c7 de 86 3d 39 bc 8b bd
       0.10393425 0.012260009 0.0658546 -0.0682301
000090 ca ef 56 bd 4b ec 9d bd b4 1b fb bc e3 ea 65 3b
       -0.052474774 -0.07711085 -0.030652858 0.003508263
0000a0 2f 94 80 bd 74 a1 0a bc 55 d2 c0 bd 56 5f cf 39
       -0.06278264 -0.008461345 -0.09415118 0.00039553148
0000b0 ac bb 58 3d 1f 86 20 bd 7e cd a4 bd bf 44 c5 3d
       0.052913353 -0.039190408 -0.08047007 0.09632253
0000c0 db f9 6f 3d ab b7 f4 bc f2 45 36 3d 06 a3 c9 bd
       0.05858789 -0.029872736 0.0445003 -0.098455474
0000d0 8b 1a 95 bd 56 75 e3 bd 55 0b e3 bd 5c e5 a5 bd
       -0.07280453 -0.111063644 -0.11086146 -0.081003875
0000e0 33 bd 7a 3c 06 a5 42 3d ef a4 de b8 14 f8 ee 3c
       0.015303898 0.04752066 -0.00010616506 0.029171027
0000f0 cc 82 e1 bd e5 88 cb 3c 9c 23 11 39 9a b0 5b 3c
       -0.11011276 0.02484555 0.00013841543 0.013408804

layers.conv2_2.weight f4 [32, 64, 20]
000000 84 a3 4e 3c 98 76 72 3c 54 b7 32 3c 05 c7 69 3c
       0.012612227 0.014798783 0.010907967 0.014268641
000010 95 9e 67 3c 3f 1d 4e 3c 38 00 71 3c a7 65 a1 3c
       0.01413693 0.012580215 0.014709525 0.019701792
000020 57 0a bb 3c b5 c5 b3 3c 08 ff c8 3c 6f f4 ae 3c
       0.022832079 0.02194486 0.02453567 0.02135679
000030 ac 2e a8 3c 0e d3 a4 3c a7 ac 8d 3c 9f b6 86 3c
       0.020530067 0.02012017 0.017294241 0.016444502
000040 c6 5e 68 3c c8 d3 56 3c 79 f8 5a 3c e1 70 21 3c
       0.014182752 0.013112016 0.013364905 0.009853573
000050 ad 60 99 3c 71 9a b8 3c a4 93 a5 3c ce 85 d7 3c
       0.018722856 0.02253458 0.020212002 0.02630892
000060 57 a6 ed 3c b0 b7 e2 3c ae 2c de 3c 13 18 9a 3c
       0.029009981 0.02767548 0.027120914 0.018810308
000070 43 1e b2 3c 5e 6d 9f 3c 0d e9 6e 3c ae 36 03 3c
       0.021742946 0.01946133 0.014581931 0.008008642
000080 8b 90 ed 3b 0f ab 42 3c e7 07 1a 3c d2 f1 36 3c
       0.007249897 0.011881604 0.009401298 0.011166053
000090 fc ab 00 3c 38 6a 0d 3c 1a 68 0b 3c 50 39 37 3c
       0.007853504 0.008631282 0.008508706 0.011183098
0000a0 bc 31 79 bc 9e af 6b bc 9b cb e5 3b ce 95 4f 3c
       -0.0152096115 -0.014385132 0.007012797 0.012669994
0000b0 54 a6 47 bc 89 8b d1 3c 59 5a 89 3c 82 ba b7 3b
       -0.012185652 0.02557923 0.016766714 0.0056069503
0000c0 a2 b4 5e 3c f2 96 58 bb 6e 32 3d b9 6b f6 02 bc
       0.013592871 -0.0033048955 -0.00018043231 -0.007993321
0000d0 b7 b3 07 3a 26 65 0f bc 39 c1 cb ba 52 93 a5 3b
       0.0005176621 -0.008752143 -0.0015545256 0.0050529623
0000e0 8e b9 88 bc 60 f2 b6 bb 78 d1 d0 3b f2 91 d4 bb
       -0.016690042 -0.0055830926 0.006372627 -0.0064871246
0000f0 b9 69 e7 bb 74 68 c0 bb d6 b1 13 bc b2 98 9e bb
       -0.0070621637 -0.005871827 -0.009014567 -0.00483998
000100 ec d0 0e bc 3b 70 82 bc 22 c1 b4 3b bc cb 18 bb
       -0.008716803 -0.015922656 0.0055161873 -0.0023314795
000110 8f 15 08 bb f9 68 db 3b 44 4c ab 3a 1c 88 0a bc
       -0.0020764803 0.0066958633 0.0013068994 -0.008455303
000120 4e eb 8b bc f2 e2 ce bb a6 c1 54 bb 65 3d 1e bc
       -0.017079975 -0.006313675 -0.0032464056 -0.009658192
000130 66 86 2f 3c ba 15 5a bc 79 73 80 3c 26 17 5a 3b
       0.010713195 -0.013310844 0.015680062 0.0033277958
000140 8d 7b ab 3c a7 6f 0b 3d 58 8a 6a 3c 06 d2 81 3c
       0.020932937 0.034042027 0.01431521 0.015847217
000150 c5 23 83 3c ff 48 06 3c 32 c0 35 3c 8e 82 79 3b
       0.016008267 0.008196115 0.011093186 0.0038072201
000160 c6 5f a4 3c 61 a2 20 3c ee b7 a1 3c 48 4e 2e 3c
       0.0200652 0.009804339 0.019741025 0.010638781
000170 0b a0 03 3c 2c 26 d7 ba 23 37 0f b9 ef a9 81 3c
       0.008033763 -0.0016414574 -0.00013658083 0.015828101
000180 0d 0a 57 3c 71 ed ab 3c bd d3 c4 3c 44 5a a6 3c
       0.013124955 0.020987244 0.024026746 0.020306714
000190 04 20 5a 3c fc 16 82 3c fb a6 7a 3c 0a a2 6e 3c
       0.013313297 0.0158801 0.0152986 0.014565
0001a0 94 81 8e 3c 3c ec 9f 3c 43 3c 75 3c f3 43 5a 3c
       0.017395772 0.019521825 0.014967981 0.013321864
0001b0 81 e8 47 3c 05 38 6a 3c ca d4 51 3c a9 3d 16 3c
       0.012201429 0.014295583 0.0128070805 0.009169974
0001c0 d0 2f 28 3c a7 26 bb 3b c9 38 99 3b bf 8a 36 3b
       0.010265306 0.005711395 0.004675959 0.0027853695
0001d0 03 b2 1b 3b 81 c5 e8 ba 05 04 2d bb fb 2d 01 bc
       0.0023757226 -0.0017759056 -0.00264001 -0.007884498
0001e0 04 a5 a3 3c fe 2d 94 3c 98 86 82 3c 23 ea b4 3c
       0.019976147 0.018088337 0.01593332 0.022084301
0001f0 80 4a 62 3c 54 02 a2 3c 52 1f ae 3c 2f 54 00 3d
       0.0138117075 0.0197765 0.021255169 0.031330284
000200 a8 fa cc 3c 1b 9d de 3c 6e ef ba 3c 63 25 bb 3c
       0.025021866 0.027174523 0.022819247 0.022844976
000210 f0 03 9f 3c d9 83 15 3c 0e 58 0f 3b 5d 0f 7f 3b
       0.019411057 0.009125673 0.0021872553 0.003891907
000220 3d dd d5 3b 33 1c bd ba fe bf 9a 3b 35 73 ac 3a
       0.006526618 -0.001442796 0.0047225943 0.0013156893
000230 ef c2 8c 3c dd e9 1a 3c a4 51 8f 3c 53 82 73 3c
       0.017182795 0.009455171 0.017494984 0.014862615
000240 90 94 12 3c c4 86 19 3c 54 9c e0 3a b4 12 96 3b
       0.008946553 0.00937051 0.0017136433 0.0045798663
000250 b8 a3 c1 3b be 7e 70 3b 0d 6c 83 3b 58 49 f3 3b
       0.0059094094 0.0036696638 0.0040106834 0.0074245147
000260 c1 09 91 3b 29 23 f7 3b 5b 6d 09 3c 85 b5 c3 3b
       0.0044262116 0.007542033 0.008387889 0.0059725665
000270 75 c5 b9 3a 1b b9 22 3b 61 2b ef 3a 23 04 57 3b
       0.0014173227 0.002482957 0.0018247181 0.0032808862
000280 6f 1a d1 3c 76 a7 ee 3c ff c7 3b 3c a6 df a2 3b
       0.0255253 0.029132586 0.011461257 0.0049705086
000290 95 95 ac 3b a0 77 7d 3c 48 49 70 3c c3 e6 4f 3c
       0.005266855 0.015470415 0.014665909 0.012689295
0002a0 46 2b ff 39 51 42 f3 bb dc cd 12 bb 75 1f d3 bb
       0.0004866963 -0.007423677 -0.0022400534 -0.006442959
0002b0 6f 04 39 3c 49 5c 2f 3c 3a 23 dc ba d1 89 a7 3c
       0.011292561 0.010703155 -0.0016795166 0.020451458
0002c0 e9 b0 ca 3b 57 da b0 3c 11 af 5b 3c 27 ab a7 3c
       0.00618564 0.021588488 0.013408438 0.020467354
0002d0 e7 55 ce 3c fc 12 0a 3d 6a ea 7e 3c c0 23 09 3c
       0.025187446 0.03370951 0.015558818 0.00837034
0002e0 40 f0 08 3c 69 e4 1a 3c d4 0a 2b 3b ff e7 00 bb
       0.008358061 0.009453871 0.0026098983 -0.001966953
0002f0 86 dc d3 bb 30 63 e0 bb 4c 4a b1 ba 95 1a 58 bc
       -0.0064654974 -0.0068477616 -0.001352617 -0.013189931
000300 2c 9f 20 bc 90 f3 2d 3a 27 9f 62 39 e5 f8 1e 3c
       -0.0098035745 0.000663572 0.00021612328 0.009702896
000310 db c4 00 3c 93 ab e8 3b 03 cd 86 3b 08 d5 36 3c
       0.007859434 0.0071005314 0.004113795 0.011159189
000320 4c 7d 9d 3c 0c 80 d1 3c 76 ad 95 3c b2 a1 f0 3c
       0.019224785 0.025573753 0.01827119 0.029373977
000330 05 3e a2 3c ab 97 6e 3c ff ff 05 3c 61 31 6d 3c
       0.019804964 0.014562528 0.00817871 0.014477105
000340 c1 ab 70 3b cc 7a 29 3c 31 a8 b4 3b 48 4b d0 3b
       0.0036723467 0.010344218 0.005513214 0.0063566305
000350 e4 e9 6a 3c 00 fb 2f 3c 77 3a 2d 3b 0a 3c bd 3a
       0.01433799 0.010740995 0.0026432553 0.0014437449
000360 52 95 f8 3b a4 85 14 3c c9 89 7a 3c df db 3c 3c
       0.0075861597 0.0090650655 0.01529164 0.011527031
000370 66 e1 8b 3c ca 38 b6 3c 79 e2 5b 3c 62 5a c9 3b
       0.017075252 0.022243876 0.0134206945 0.0061448077
000380 1c f8 89 3c e7 36 27 bc 00 9f a4 bb 1a 29 c4 bb
       0.01684194 -0.010205961 -0.005023837 -0.005986345
000390 51 09 37 bc 6f 4e 89 bc 02 c9 92 bb cb 96 d3 3b
       -0.011171655 -0.016761033 -0.0044795284 0.006457185
0003a0 9e 1d d6 3b ba 7d cb 3b 8e e7 fb 3a 3e 52 19 39
       0.0065342924 0.006210056 0.0019218789 0.00014621855
0003b0 24 4b f3 ba d7 98 fc 3b b2 34 75 3c 22 36 34 3c
       -0.0018561822 0.0077086496 0.014966177 0.010999234
0003c0 51 76 bf bc 93 f8 ea bc 4e 2b 2f bd ae 6a 26 bd
       -0.023371847 -0.028682983 -0.042765908 -0.04062908
0003d0 4b 96 4b bd da 92 3a bd bd 19 47 bd 1f e9 51 bd
       -0.049703877 -0.045550205 -0.04860853 -0.051247712
0003e0 ce 65 56 bd ec a0 4f bd ea 23 62 bd 7c d8 55 bd
       -0.052343182 -0.050690576 -0.05521003 -0.05220841
0003f0 b7 00 3e bd 55 d2 42 bd 95 4a 3e bd 97 c6 45 bd
       -0.0463874 -0.04756387 -0.046457846 -0.048285093

layers.conv2_2.bias f4 [32]
000000 4a 40 18 bc c1 cb 7e 3a c1 c9 07 3c 3a 6f db 3c
       -0.009292671 0.0009719693 0.008287848 0.026786435
000010 cf 59 12 bc af 13 74 3b 7e b7 d6 3c 82 8b fe 3b
       -0.008932545 0.0037243178 0.026210543 0.0077680955
000020 ca 9e 69 bc 64 0d 3f bc a8 de e0 3c 1c a6 95 bc
       -0.01425905 -0.011660907 0.02744992 -0.018267684
000030 a7 70 5a 3c 3e 8d 27 bc be 15 7c bc 95 37 74 bc
       0.0133325225 -0.010226546 -0.015386043 -0.01490583
000040 24 34 aa 3c 8e b2 cd 3c d7 6a ac bc d2 a7 78 3c
       0.020776816 0.025109556 -0.021047039 0.01517673
000050 01 58 6f bc 7f 5a 1c bb 84 01 40 3c 3a 65 2c bc
       -0.014608384 -0.002385765 0.011719111 -0.010522181
000060 68 d9 a3 bb 5f a9 72 3c d5 c9 3e 39 73 da 3e 3c
       -0.005000282 0.014810889 0.00018195 0.011648762
000070 dc 25 85 3c 23 d2 b0 3c eb 7e 05 ba ba 59 59 bb
       0.016253404 0.021584576 -0.00050924596 -0.0033165053
