model/14_single_classification/rna_type_checkpoint.pt (torch, 157397 bytes, 20 tensors)

layers.0.weight f4 [32, 1, 3]
000000 74 01 93 3e e4 73 85 3e 2e 78 12 bf 73 23 b2 3e
       0.28712046 0.2606498 -0.5721463 0.3479267
000010 3c 58 cd 3e 06 c1 c0 3e b8 37 e7 be 6c 38 09 bf
       0.4010638 0.37647265 -0.45159698 -0.5360172
000020 7f 0e cb be 66 8e e4 3e c0 54 05 3f a1 8b 7e 3d
       -0.39659497 0.4463989 0.52082443 0.06214488
000030 ba 42 84 be 67 d7 c5 3e 9a cf db be 73 7c 9e be
       -0.25832158 0.386409 -0.42931825 -0.30954322
000040 64 e3 f8 be 59 06 d7 be ff 7a 2e bf 73 39 97 3e
       -0.48610985 -0.4199703 -0.6815643 0.29536018
000050 bf f1 ed 3d 7f 8c 11 3f 1c d0 54 be 15 83 1a 3f
       0.11618375 0.56855005 -0.20782512 0.60356265
000060 45 d1 05 3f 27 cb 29 be b4 2b 10 3f 94 2b d2 be
       0.52272445 -0.16581403 0.56316686 -0.41048872
000070 a9 83 19 3f 51 a9 9b be 71 b0 25 bf 10 5c 94 3e
       0.5996652 -0.30402616 -0.64722353 0.28976488
000080 d9 3a 05 3e 29 6b 13 bf fc 19 72 be 61 db d3 3e
       0.1301073 -0.5758539 -0.23642725 0.4137831
000090 a0 40 ba be 07 e2 86 be 72 14 86 3e 25 26 e6 3e
       -0.3637743 -0.2634432 0.26187474 0.44950977
0000a0 04 77 f8 3e 6c ce 14 bf 02 7b d9 be 20 9a b1 3e
       0.48528302 -0.58127475 -0.4247666 0.346879
0000b0 6d 42 cb be 10 29 aa be 98 03 fb 3e 16 2e b9 be
       -0.39699116 -0.33234453 0.4902618 -0.36167973
0000c0 84 f3 74 be 92 34 56 3e 4b 61 a3 be 0f 3a 53 be
       -0.23921019 0.20918491 -0.31910166 -0.20627616
0000d0 81 f4 b6 3e 6b fd db be af e2 09 bf c4 ee c9 be
       0.35733417 -0.4296678 -0.53861517 -0.39439976
0000e0 d0 1c e5 3e 5d 40 87 3e 52 2e 87 be 3c 24 9b be
       0.44748545 0.26416293 -0.26402527 -0.30301082
0000f0 d9 dc 57 3e 62 b6 9c be 37 43 bf be 35 28 e4 bd
       0.2108034 -0.30607897 -0.37355968 -0.111404814
000100 0e 19 a2 be 75 88 aa be 61 7e 60 be ba 79 be be
       -0.3165974 -0.33307233 -0.2192321 -0.37202245
000110 bc 78 af be 06 2a 84 3e c3 f2 52 bf cf cc 9d 3e
       -0.342718 0.2581331 -0.82401675 0.3082032
000120 b6 74 bc be f3 de 26 be 09 89 83 3e 72 4a b0 be
       -0.36807793 -0.16295986 0.25690487 -0.34431797
000130 e0 ca 9f be c7 cd 06 3e 28 ff 3e 3e 53 ae 2e bf
       -0.3120947 0.13164435 0.18652022 -0.6823475
000140 6a 83 47 3e ed 96 c1 3e 8b df ec 3e 2f 55 b5 3e
       0.19483724 0.3781046 0.462643 0.35416552
000150 72 e3 43 3e 94 61 15 bf b7 9f a3 3e 05 aa 0b 3f
       0.19129732 -0.5835202 0.3195779 0.54556304
000160 d1 bb 0d 3f 2d c5 dc be 59 58 aa 3e 33 f7 df 3e
       0.5536471 -0.43119183 0.3327053 0.43743286
000170 d3 d0 c5 3e 13 69 ce 3e 90 44 ba be 84 da c8 be
       0.38635883 0.4031454 -0.36380434 -0.39229214

layers.0.bias f4 [32]
000000 0b 55 78 3e 5a e6 4c 3d 3f 7f df be 9d 3d 3a 3f
       0.24251191 0.050024368 -0.4365177 0.72750264
000010 be e5 d7 be 8c c6 d6 bd cc 20 06 3e bf 93 91 be
       -0.42167467 -0.104870886 0.13098449 -0.28433034
000020 b8 bd e7 3e ee 0f f5 bd c3 39 a6 be 79 b0 03 bf
       0.4526193 -0.11965929 -0.32465944 -0.5144115
000030 e0 cf 95 be be f0 e4 3e 5d 5d 08 be c4 5b 01 3c
       -0.2926016 0.44714922 -0.13316865 0.007895414
000040 c1 a4 20 be 23 e3 f5 3e b5 c3 54 be 6a 41 0e be
       -0.15687849 0.48024854 -0.20777781 -0.13892141
000050 d5 da 82 be a6 77 79 bd d7 8b 4b bf 5b 08 dc be
       -0.2555758 -0.06090512 -0.79510254 -0.42975125
000060 db f5 82 3e 1b 9d 50 bf a3 ec a8 3e bc 07 9a be
       0.25578198 -0.81489724 0.3299304 -0.30084026
000070 89 34 c8 3e 66 51 bd bd ca 6e 42 3d 75 1f e0 3d
       0.3910258 -0.09244041 0.047468938 0.109435

layers.1.weight f4 [32]
000000 3e ba 85 3f 5b ec ab 3f cb b7 a3 3f a7 cb 94 3f
       1.0447462 1.3431505 1.2790464 1.162465
000010 b2 af 79 3f 2e 4c ab 3f 8a db 9a 3f 9e 3a 8a 3f
       0.97533715 1.3382623 1.2098248 1.0799139
000020 ec ee 83 3f cf 91 81 3f 9e fa 95 3f 90 ec 71 3f
       1.0307288 1.0122622 1.1717107 0.9450159
000030 09 36 92 3f 22 ef 85 3f a8 e6 87 3f ce 27 80 3f
       1.142274 1.0463603 1.0617266 1.0012147
000040 d3 31 7d 3f 9a c8 7b 3f 1d d9 95 3f e8 5f 8f 3f
       0.9890415 0.9835297 1.1706883 1.1201143
000050 e1 27 8b 3f 9c 99 ba 3f 9b 3f a9 3f 36 97 9a 3f
       1.0871545 1.4578128 1.3222536 1.2077396
000060 cf b6 85 3f 65 bd 99 3f 4e 22 98 3f d4 82 c5 3f
       1.0446414 1.2010924 1.1885469 1.543055
000070 a8 68 92 3f 8b 7d 97 3f f0 6f b2 3f e4 5e 8e 3f
       1.1438189 1.1835188 1.3940411 1.1122708

layers.1.bias f4 [32]
000000 38 70 ae 3c 76 8c 20 3e c6 32 aa 3d 1d a7 02 3e
       0.021293744 0.15678582 0.083104655 0.12759061
000010 8c 33 d2 bb 28 fd 8a 3d b6 62 b6 3c b6 a8 27 3b
       -0.0064148363 0.06786567 0.022263866 0.0025582737
000020 8b e7 99 ba 68 86 36 bd ba fb bc 3c f7 36 45 3d
       -0.0011741979 -0.044561774 0.023069251 0.04814812
000030 b3 b6 f9 bb 5b de 54 3d 8b 7c 02 bd 58 ff dc bc
       -0.0076206564 0.051969867 -0.031857055 -0.026977226
000040 23 a4 90 bc 84 d8 09 bd 9d 92 a8 bc 12 56 8a 3d
       -0.017656391 -0.03365375 -0.020577723 0.06754698
000050 8b d1 5a 3d 4c 14 c1 3d 0f 94 86 3d 70 65 2e bd
       0.053422492 0.094276994 0.06571209 -0.042577207
000060 6a ae ed 3c 95 65 35 b9 af 63 40 bd 76 aa ec 3d
       0.029013831 -0.00017299347 -0.046970066 0.1155595
000070 62 39 65 bc 5f dc 66 3d 6e 2e 0c 3e ce 00 09 3d
       -0.013990732 0.056362506 0.13689587 0.033448033

layers.1.running_mean f4 [32]
000000 9c 02 7a 3e 25 ab 57 3d e3 a8 e1 be 6a 17 3b 3f
       0.24415058 0.05265345 -0.44074163 0.730826
000010 3e 7d d9 be 78 2d d9 bd 25 ef 05 3e c2 d3 8f be
       -0.42478365 -0.106043756 0.13079508 -0.28091246
000020 b3 70 e6 3e 94 68 f3 bd a3 a8 a7 be 0d bc 03 bf
       0.45007858 -0.11885181 -0.32745847 -0.5145882
000030 f9 28 96 be 27 a0 e4 3e 28 60 08 be c9 7e 0d 3c
       -0.29328135 0.44653437 -0.1331793 0.008636185
000040 89 45 23 be 2f 39 f6 3e 42 a3 57 be c6 19 0d be
       -0.15944494 0.48090503 -0.21058372 -0.13779363
000050 07 f8 83 be 9d 0f 80 bd 08 ec 4b bf 5b 79 dc be
       -0.25775167 -0.06252978 -0.7965703 -0.43061337
000060 19 60 84 3e 5c 2e 51 bf 17 5a a8 3e ac 9c 99 be
       0.25854567 -0.81711364 0.32881233 -0.30002344
000070 3f f4 c8 3e f8 15 b4 bd 51 0e 4b 3d 54 04 e1 3d
       0.39248845 -0.08793253 0.0495742 0.10987154

layers.1.running_var f4 [32]
000000 fd 54 94 3c 9f 5f 89 3c 16 2f d2 3c 03 6a 98 3c
       0.018106932 0.016769229 0.025657218 0.018605238
000010 0c 5e 79 3c 62 b1 a4 3c e5 80 af 3c e8 68 e7 3c
       0.015220176 0.020104114 0.021423766 0.028248265
000020 b4 fc c3 3c fb c6 c0 3c 8b 87 a1 3c a4 0d ae 3c
       0.02392421 0.023532381 0.019717952 0.021246739
000030 f6 f9 28 3c 3e 2f f1 3c c6 6f 8f 3c 9b c3 95 3c
       0.010313502 0.029441472 0.017509352 0.018281749
000040 c3 e2 fd 3b 3a d0 5c 3c fa a3 c9 3c 1e 8c 10 3c
       0.0077479794 0.013477379 0.024614323 0.008822469
000050 00 3f 2e 3c 86 3c 10 3c c1 eb 44 3c fb 6d 02 3d
       0.010635138 0.008803492 0.012019099 0.031843167
000060 5e 12 0e 3c 59 a0 13 3c a7 ad a6 3c d2 69 9c 3c
       0.008671371 0.009010398 0.020346476 0.019093428
000070 40 af 94 3c 47 43 f7 3c de 54 92 3c 45 e4 8b 3c
       0.018149972 0.030183448 0.017862733 0.01707662

layers.5.weight f4 [64, 32, 3]
000000 6e 5f 0f be 75 de 54 3e 8d 93 07 3d 00 85 03 bd
       -0.14001247 0.20787986 0.0330997 -0.03210926
000010 35 d0 1d 3e 0a 78 77 be 97 cb b6 3e a2 e9 e1 be
       0.15411456 -0.24166885 0.35702202 -0.4412356
000020 19 10 cf 3d 4c 5f 19 be c6 1e f6 3d dd 37 0c be
       0.10110492 -0.14977759 0.12017588 -0.13693185
000030 58 23 41 3d fc 58 82 3d 76 5b 51 bf 55 26 8c 3e
       0.047152847 0.06364629 -0.81780183 0.27372995
000040 7b 57 60 bf d5 ec 15 3e eb 1c 68 be 59 21 a5 3c
       -0.87633485 0.14641126 -0.22667281 0.020157503
000050 21 1c 0c 3e 37 32 75 bd 30 bb 35 be 54 48 08 be
       0.13682605 -0.05986234 -0.17747188 -0.13308841
000060 1e 48 b4 bc 55 6e 27 be 4e 92 fa bd c0 cd 9e be
       -0.022007044 -0.16350682 -0.12234937 -0.3101635
000070 fd 1f 0b 3d 40 5c 40 bf d8 fd 9a be 16 2e cb 3d
       0.033966053 -0.7514076 -0.30271792 0.099208996
000080 29 12 45 bc e3 bc 7c be d7 cf 33 3e 81 a0 f5 3d
       -0.0120282555 -0.2468143 0.17559753 0.11993504
000090 b1 26 05 be 9c bd 7e 3e 10 32 8a 3d cb ea 4d be
       -0.13003041 0.24877018 0.0674783 -0.20109098
0000a0 20 a5 43 3e 35 aa 9c 3d 26 17 03 3e cb b6 a5 bd
       0.19105959 0.07649652 0.12801799 -0.080915056
0000b0 3f 7b 41 bf 3a c6 e5 bd f6 75 fc 3c 86 f0 4d bf
       -0.75578684 -0.11219449 0.030817967 -0.80445135
0000c0 5d 66 11 3d b5 f6 55 be 0a 74 4c bf 01 83 52 bd
       0.03549801 -0.20894893 -0.7986456 -0.051394466
0000d0 8c bb 7c 3c be b4 19 bf 45 46 0c be a0 94 3d 3e
       0.015425574 -0.60041416 -0.1369868 0.18513727
0000e0 2f 46 27 3c 36 31 13 be 58 59 8a be b1 24 5b 3d
       0.010209604 -0.14374241 -0.2702129 0.05350179
0000f0 a2 16 11 be 79 a8 93 be e4 bf bb 3d c0 31 a5 3e
       -0.1416879 -0.28839472 0.091674596 0.3226452
000100 0e 9b 8e bf e0 3a c3 3d 49 3e a3 3e df f7 61 bf
       -1.1141069 0.09532714 0.31883457 -0.88268846
000110 8e dd af 3c 1a 8c 55 be c3 55 93 be 86 65 16 be
       0.02146795 -0.20854226 -0.28776368 -0.14687166
000120 68 57 42 be cc bb 78 3e f0 1e e1 3d d9 a2 57 bd
       -0.18978655 0.24290389 0.10992229 -0.052645538
000130 ba 24 83 3e d3 eb 29 3d a5 cd 6f be b7 9a 3e be
       0.25613958 0.041484665 -0.23418291 -0.18613707
000140 1a 57 c1 bd 3c 47 fd bd cb 48 b2 3d 43 3c 80 be
       -0.094404414 -0.123671025 0.087052904 -0.25045976
000150 00 65 8c be 6b 5f 04 be f9 d4 9d bd ae 51 64 be
       -0.27420807 -0.12927024 -0.07706637 -0.22296783
000160 b2 af fe 3d 32 6a 69 bc 91 75 7e bd ac 8d 20 3e
       0.12435855 -0.01424651 -0.06212384 0.15679044
000170 7b 35 93 be 78 82 86 be 0c 29 47 be 2e 0d a4 3d
       -0.2875174 -0.26271415 -0.19449252 0.08010326
000180 b1 08 4c be b5 9e 8b bc 7a ff e0 3d 38 4a 25 be
       -0.1992519 -0.01704345 0.10986228 -0.16141593
000190 2d ae a6 be b8 54 83 bd 10 15 9c bd b7 50 fa bd
       -0.3255476 -0.06412643 -0.07621205 -0.122224264
0001a0 c2 ef 9e 3d 1b 64 0e bf d4 c4 02 3e 2d 98 67 be
       0.07760574 -0.556215 0.12770396 -0.22616644
0001b0 ec 9b 97 bf 5e 3e e7 3c 8d d8 01 3e 48 e4 f9 bc
       -1.1844459 0.028227981 0.12680264 -0.03050436
0001c0 01 18 8e 3c 4e 9c 22 bc a9 ec 1c 3d 17 ff 76 3e
       0.01734543 -0.009924961 0.038311634 0.24120747
0001d0 94 c6 87 bc 21 cf c8 bc 38 a5 10 bf ee 74 83 bd
       -0.016574182 -0.02451283 -0.56502104 -0.06418787
0001e0 0d 0c 14 be 9e 54 11 bf 28 40 11 bd 5c 89 7a bf
       -0.14457722 -0.5676974 -0.035461575 -0.97865844
0001f0 dd 37 96 3d 63 dd 48 3e 69 10 c2 3d b8 5e 17 3e
       0.07334874 0.19615702 0.09475786 0.14782226
000200 73 02 6d ba 6f fa 1c 3e 06 4e 38 bf 90 fa 1e 3d
       -0.00090411975 0.15329908 -0.71994054 0.038813174
000210 cf 7a ff 3d 35 ad 6f bf 54 70 b6 3d 45 10 96 be
       0.12474596 -0.9362367 0.08908144 -0.29309288
000220 d8 f9 1c 3d 66 72 dd bc 2d 9b 2f bf 08 e0 5a bd
       0.038324207 -0.027032088 -0.68596154 -0.05343631
000230 7c 7d 4b 3d 9c ee 94 bf 82 d5 26 3d 85 36 05 3e
       0.049680218 -1.1635318 0.04073096 0.13009079
000240 0f 37 40 bf 16 97 a5 bd 58 ae 68 bc 0f fd 95 bf
       -0.7508401 -0.08085458 -0.014201723 -1.1717852
000250 d7 cf b5 bb a0 22 2d 3e c1 59 c0 3d f2 40 5a bf
       -0.005548458 0.1690774 0.09392119 -0.8525535
000260 3d cd 93 3d 79 ba 37 3e 14 1e 4d 3e 5d 7a 1d bf
       0.072168805 0.17942227 0.20031005 -0.61514837
000270 70 53 20 3e ab 6a 3c 3e 80 39 f7 be d7 9c ca bd
       0.15656829 0.18400066 -0.48286057 -0.09893196
000280 25 13 32 3d 26 7d 59 bd 52 39 32 3c 9d 6e 7e bd
       0.04347529 -0.053097866 0.010877924 -0.062117208
000290 03 fe 16 3d 29 c5 8d bc 5d 56 b1 bc dd c2 bb bd
       0.03686334 -0.017305927 -0.021647627 -0.091680266
0002a0 77 b4 0e 3e f5 a8 85 bf e3 17 7f b8 a3 18 f9 3d
       0.1393603 -1.0442187 -6.0818984e-05 0.12162902
0002b0 c1 cd 54 bf 83 a6 2a 3d f7 87 28 3d 9d 4d 5f 3e
       -0.83126456 0.041662704 0.04114529 0.21806951
0002c0 f0 37 a4 b9 61 8e 30 be 0a b1 88 be 08 b0 be bd
       -0.00031322194 -0.17241813 -0.2669757 -0.09310919
0002d0 f2 d8 8e bd 43 73 55 bd 3e 38 7b bd f6 19 06 bf
       -0.06974973 -0.052111875 -0.061332934 -0.52383363
0002e0 b4 b2 95 3b ad 9d 26 be 9a dc df bd 2c 77 87 be
       0.004568422 -0.16271086 -0.10930748 -0.26458108
0002f0 c5 4f 95 bd 23 7b 3e 3d de 9f 1f 3e 0d 60 2e bf
       -0.072906055 0.04650415 0.15588328 -0.6811531
000300 22 ee 4f 3e 34 e0 0f be e5 54 9f bf 65 fe 0d be
       0.20305684 -0.1405037 -1.2447783 -0.13866575
000310 77 8c ab be db 8f 62 3d 8c 30 e7 be 0d 3e 96 3d
       -0.33505604 0.055312973 -0.45154226 0.07336054
000320 ff 9a 90 bc 93 b2 0d bd 62 8c c8 be 20 23 d9 3d
       -0.017652033 -0.03459413 -0.39169604 0.10602403
000330 05 72 b6 3d fa 74 a9 3e f2 91 d4 be 25 f8 c4 be
       0.08908466 0.3309706 -0.41517597 -0.3847057
000340 0e 82 bd 3d 18 a7 bf bd 61 4f 89 be 53 fe 31 3e
       0.092533216 -0.093580425 -0.26818374 0.17382173
000350 66 98 a9 3b d1 7d 2b 3d 1c 96 b5 3d 33 2f 1c be
       0.005175638 0.041868035 0.08866522 -0.1525238
000360 cf 02 68 bd 0b d7 e0 3d c3 e5 20 be f7 4a 05 be
       -0.056643303 0.10978516 -0.15712647 -0.13016878
000370 bd ac 96 3e 78 4e 88 bd f5 33 8b be 54 95 42 3e
       0.29428664 -0.06655592 -0.27188078 0.19002277
000380 ca 20 6d 3d 28 29 c6 be 1d 41 6f be 42 98 db 3d
       0.0578926 -0.38703275 -0.23364682 0.107224
000390 78 47 75 be 19 96 3f bf 99 ae a5 3d e5 6d 57 3e
       -0.23953044 -0.74838406 0.080899425 0.21038015
0003a0 92 44 0b be be 1d 2c bf 55 40 b1 bc 8e 01 a3 3e
       -0.13600376 -0.6723288 -0.021637121 0.31837124
0003b0 9e dc d1 be cf 18 ba 3d d5 a8 8a 3e 41 82 14 be
       -0.4098863 0.09086763 0.27081934 -0.14502813
0003c0 cb ea 71 3c d9 65 92 3e 34 25 14 bf bd ee 9b 3d
       0.014765452 0.2859333 -0.5786927 0.07613895
0003d0 bd a6 4f 3e a8 06 02 bf 7f 80 93 be f1 cf 67 bf
       0.2027845 -0.50791407 -0.28808972 -0.9055167
0003e0 a2 7d 17 3d 0a df 66 3d 87 fc f1 3c b3 2b 56 bf
       0.036985047 0.05636505 0.02953936 -0.8366043
0003f0 bc 9d 88 bd 75 37 8e 3a 4a f7 44 bf 70 c2 91 be
       -0.066707104 0.0010850268 -0.76939833 -0.28468657

layers.5.bias f4 [64]
000000 1e dd 93 bd 86 30 44 3d 67 72 25 be 7f 73 01 3e
       -0.07219909 0.047897838 -0.16156922 0.12641715
000010 14 1f 0c be b9 37 87 bd 5a 81 46 3e de 6c bc bc
       -0.1368373 -0.06602425 0.19385281 -0.02300113
000020 0c 93 50 3c 11 bf 26 be 0d 58 b0 bc 1b 2c db bd
       0.012730371 -0.16283824 -0.02152636 -0.10701772
000030 3c cb 23 bd 70 dc 23 be 8d 3f c1 bd 9e 96 f2 bd
       -0.03998874 -0.16002059 -0.094359495 -0.11845134
000040 38 c4 ab 3d 16 cb 03 be 9a ca c6 bd 34 85 d8 bd
       0.08387035 -0.1287044 -0.09706612 -0.105722815
000050 7c b8 38 bd 3c b6 91 3c dc e7 c0 bd be 43 3e bd
       -0.045097813 0.017787091 -0.09419224 -0.046451323
000060 cd 10 71 bd fb 1c f6 bc 04 48 72 3e af bb 1f bd
       -0.058853913 -0.030043116 0.23660284 -0.03899735
000070 24 e7 6f bc 8c 75 31 bd b6 75 cf 3d 01 53 6a 3c
       -0.014642511 -0.043324992 0.101298735 0.014302016
000080 b7 f7 25 3d 2b fa 1d bd 11 0a 9e 3c 9a 02 3b 3d
       0.040519442 -0.038568657 0.01929191 0.045656778
000090 f7 3a f5 bd 05 44 ad 3d 0c 29 61 3d f3 42 b2 bd
       -0.11974137 0.08460239 0.054970786 -0.08704176
0000a0 88 6a 94 bd e3 17 e0 ba 83 75 c1 3c 45 fb 4b bc
       -0.07246882 -0.0017096963 0.023615604 -0.012450044
0000b0 d2 28 4d bd ce 63 e0 bd e2 53 b9 bd cc 80 17 3e
       -0.050087757 -0.10956536 -0.090492025 0.14795226
0000c0 e7 69 9d bd 55 f4 4a bd d4 ad a8 bd cf 43 d5 bd
       -0.07686215 -0.04954942 -0.0823628 -0.10413324
0000d0 05 2e 03 be e8 8b 94 bd f1 73 1d be 2f 49 88 3d
       -0.12810524 -0.072532475 -0.1537626 0.06654584
0000e0 24 05 d6 bb 55 cf 96 bd 4a 24 f6 bd ef 4d 45 bd
       -0.0065313745 -0.07363764 -0.1201864 -0.048170026
0000f0 01 40 b9 ba a6 f0 93 3d b3 f2 39 be 1d b4 2c be
       -0.0014133455 0.072236344 -0.18158989 -0.16865583

layers.6.weight f4 [64]
000000 56 d0 8e 3f 68 01 9c 3f 43 44 97 3f 2a 6e 96 3f
       1.1157329 1.2187929 1.1817707 1.1752369
000010 ef a8 8e 3f 24 12 8a 3f e1 56 3b 3f 01 e1 8c 3f
       1.1145304 1.0786786 0.7317944 1.1006166
000020 82 9f 74 3f b1 11 92 3f f3 b1 67 3f 6a f0 65 3f
       0.9555589 1.1411649 0.90505904 0.8981997
000030 72 aa 9d 3f 12 83 81 3f 85 e6 94 3f 02 f3 9f 3f
       1.2317641 1.0118124 1.1632849 1.2496035
000040 12 cf 7c 3f d9 cc 81 3f 28 53 7c 3f b7 5f 7d 3f
       0.98753464 1.014064 0.98564386 0.98974174
000050 dc 6a 93 3f 61 e9 81 3f 86 ea 83 3f 78 e2 4e 3f
       1.1516986 1.0149347 1.0305946 0.80814314
000060 19 89 68 3f cb 49 83 3f 64 83 74 3f 96 42 92 3f
       0.90834194 1.0256895 0.95512986 1.142657
000070 69 d4 92 3f 2d 90 66 3f 8b fe d0 3d 1c 06 85 3f
       1.1471072 0.90063745 0.102048 1.039249
000080 46 2d 8c 3f 6a ec 7d 3f 33 f4 fe 3d 7b bc 96 3f
       1.0951316 0.99188864 0.12448921 1.177627
000090 e5 7a 51 3f eb 78 79 3f 53 77 92 3f e2 f4 73 3f
       0.8182815 0.9745013 1.1442665 0.95295537
0000a0 96 18 88 3f bc 4d 84 3f 21 9a 71 3f b5 47 5b 3f
       1.0632503 1.0336223 0.9437581 0.8565629
0000b0 af 0a 96 3f c7 9c 86 3f 08 83 7d 3f c5 2a a2 3f
       1.172201 1.0516595 0.9902806 1.2669302
0000c0 49 a2 89 3f cb 88 84 3f 34 51 87 3f 32 af 87 3f
       1.075265 1.0354246 1.0571656 1.060034
0000d0 41 06 9a 3f 02 70 92 3f 45 a4 80 3f 92 0d f7 3e
       1.2033159 1.1440432 1.0050131 0.4825254
0000e0 d4 38 87 3f 83 73 53 3f 22 1c 96 3f 6c f1 91 3f
       1.0564218 0.8259813 1.1727335 1.1401801
0000f0 38 c2 7d 3f ca 4a 91 3f a1 05 96 3f 06 03 91 3f
       0.9912448 1.1350949 1.1720468 1.1329048

layers.6.bias f4 [64]
000000 37 23 e2 be 0b d4 b5 be 80 30 a5 be 0e 81 a1 be
       -0.44167492 -0.35513338 -0.32263565 -0.31543773
000010 14 f1 b8 be 2b 11 a7 be 0b 94 b5 be 5a a3 99 be
       -0.36121428 -0.32630286 -0.3546451 -0.3000744
000020 df 27 56 be 81 77 b3 be 0c 77 89 be c1 bd a3 be
       -0.20913647 -0.35052112 -0.26848638 -0.31980708
000030 4b fd b0 be f3 bf 96 be 3e f1 cb be a4 ba a9 be
       -0.34568247 -0.2944332 -0.3983249 -0.33150208
000040 d3 81 8f be 39 d9 72 be 78 84 8b be 75 42 c1 be
       -0.28028736 -0.23715676 -0.27249503 -0.37746015
000050 29 b5 c5 be e0 da a0 be 5a 23 c3 be 2e 8d 87 be
       -0.38614777 -0.31416988 -0.3811291 -0.264749
000060 0b ea 99 be 1f 8d 8f be 3c c7 ac be 73 81 7d be
       -0.30061373 -0.28037354 -0.33745754 -0.24756412
000070 56 87 94 be 6d 76 92 be 9d 7b 75 bd df 8a b1 be
       -0.29009503 -0.28605977 -0.05993234 -0.34676263
000080 49 eb 89 be b2 5e b2 be 4e 4c e6 bc 28 b3 92 be
       -0.2693732 -0.34837872 -0.028112557 -0.2865231
000090 a4 83 7a be 96 9d c1 be 18 9a ca be 04 6b c6 be
       -0.2446428 -0.3781554 -0.3957069 -0.3875352
0000a0 21 2e 36 be 10 04 8b be 92 10 de be 5a f7 32 be
       -0.17791034 -0.27151537 -0.43372017 -0.1747717
0000b0 25 cf 96 be 12 4a 8f be 99 58 c3 be df c6 bc be
       -0.29454914 -0.279862 -0.38153532 -0.36870477
0000c0 8c 31 9d be 2e 90 90 be 5f ee d4 be fb 8b d0 be
       -0.30701864 -0.28235 -0.41588113 -0.40731797
0000d0 72 55 c2 be bb bb d6 be 53 61 5d be ec 55 11 be
       -0.37955815 -0.41940102 -0.21619157 -0.14192933
0000e0 e8 e2 e5 be 4b 34 b6 be 68 59 a4 be 39 63 e4 be
       -0.44899678 -0.3558677 -0.32099462 -0.4460695
0000f0 0a fd de be e2 4c b4 be 5b 86 bb be 8f 78 b7 be
       -0.43552428 -0.35214907 -0.36625943 -0.35834166

layers.6.running_mean f4 [64]
000000 27 74 45 c0 58 20 81 c0 0c 98 81 c0 45 7c 60 c0
       -3.0852144 -4.035198 -4.0498104 -3.5075848
000010 89 56 6b c0 3a a1 92 c0 88 82 9d c0 42 30 98 c0
       -3.6771567 -4.582181 -4.922184 -4.755891
000020 d2 97 5b c0 8e 0f 70 c0 fe fe 58 c0 97 7f 3e c0
       -3.4311414 -3.7509494 -3.3905635 -2.9765375
000030 7c 91 67 c0 09 75 84 c0 d6 de 7e c0 cb 0a 7f c0
       -3.6182547 -4.1392865 -3.9823508 -3.9850338
000040 12 3e 20 c0 66 77 84 c0 1a 12 94 c0 10 ba 33 c0
       -2.5037885 -4.139575 -4.6272097 -2.8082314
000050 80 2f 76 c0 6e f6 4a c0 d2 63 67 c0 66 9e 84 c0
       -3.8466492 -3.1712909 -3.6154675 -4.1443357
000060 32 eb 5a c0 30 fb 8d c0 cc c4 a7 c0 84 b4 3a c0
       -3.4206052 -4.4369125 -5.242773 -2.9172678
000070 3c d5 74 c0 18 5e 9b c0 63 ff 34 3e d2 dc 8c c0
       -3.8255148 -4.855236 0.17675547 -4.4019556
000080 60 f6 84 c0 5e b9 3c c0 01 ce 8d 40 10 80 7f c0
       -4.155075 -2.948814 4.431397 -3.9921913
000090 6f 6b 7c c0 19 33 72 c0 3d 5d 65 c0 bf 49 b3 c0
       -3.9440572 -3.7843688 -3.5838158 -5.602752
0000a0 2c 6d 92 c0 1e f7 50 c0 21 12 91 c0 32 a0 68 c0
       -4.5758266 -3.2650828 -4.533463 -3.6347775
0000b0 49 16 77 c0 c2 78 84 c0 07 80 54 c0 d7 86 75 c0
       -3.8607352 -4.139741 -3.3203142 -3.836355
0000c0 d2 51 46 c0 c9 67 76 c0 46 3e 5f c0 db 2a 87 c0
       -3.098744 -3.8500845 -3.4881759 -4.2239814
0000d0 3b 4d 7e c0 1d 81 7a c0 1d ab 79 c0 6f 24 0f c0
       -3.9734638 -3.9141304 -3.901069 -2.2365987
0000e0 0e 92 63 c0 6c 9d 6c c0 44 d4 a5 c0 3e f2 89 c0
       -3.5557895 -3.6971083 -5.1821613 -4.3108206
0000f0 96 6a 7f c0 67 ff 95 c0 78 85 62 c0 e2 85 97 c0
       -3.9908805 -4.687427 -3.5393963 -4.735093

layers.6.running_var f4 [64]
000000 f5 4d 22 42 96 b2 df 42 cb b7 a9 42 09 3f e0 42
       40.57613 111.8488 84.85897 112.123116
000010 57 8d 87 42 bc e8 ed 42 38 94 43 42 9b 88 09 43
       67.776054 118.95456 48.894745 137.53362
000020 5e 65 d9 42 d0 15 87 42 cc f8 46 42 50 79 48 42
       108.69798 67.5426 49.742966 50.11847
000030 0e d4 ab 42 8d 82 aa 42 13 7e 84 42 d7 5e b8 42
       85.91417 85.25498 66.24624 92.185234
000040 46 da 5e 42 8d de f6 42 69 d2 c7 42 99 87 0d 42
       55.713158 123.43467 99.91096 35.38242
000050 f2 62 71 42 02 8c 3e 42 bd 0e 6c 42 f7 d1 8a 42
       60.346626 47.636726 59.014393 69.41009
000060 14 92 11 42 1e d9 18 43 51 21 08 43 4a 3e b5 42
       36.392654 152.84811 136.13014 90.62166
000070 95 82 da 42 49 7e c3 42 2e 9d 7e 42 d1 b1 8a 42
       109.25504 97.74665 63.653496 69.3473
000080 f7 a1 f3 42 26 0b 10 42 b4 26 68 42 c5 be 01 43
       121.81634 36.010887 58.037796 129.7452
000090 b0 81 14 42 39 ab 4c 42 33 ee 59 42 53 66 89 42
       37.126648 51.16721 54.482616 68.69985
0000a0 e3 e4 84 43 5f 2a a3 42 72 39 5d 42 a2 ba 3e 43
       265.78818 81.582756 55.3061 190.72903
0000b0 6e 51 05 43 5c f9 d0 42 cf 1b 60 42 66 a6 bf 42
       133.31808 104.48703 56.027157 95.825
0000c0 77 3d 56 42 63 e7 b3 42 f4 ae 50 42 5b 0a 82 42
       53.560024 89.95193 52.170853 65.020226
0000d0 b6 b2 c2 42 27 81 7b 42 46 1b 30 43 13 19 bb 41
       97.349045 62.876125 176.10654 23.387243
0000e0 2e 8c 2e 42 51 bf d4 41 24 d4 3d 43 de f0 8c 42
       43.636894 26.593416 189.82867 70.47044
0000f0 8c bd 35 42 70 b7 08 43 0e 80 89 42 f8 67 cf 42
       45.435104 136.71655 68.75011 103.703064

layers.10.weight f4 [128, 64, 3]
000000 20 9f 8a 3e 90 b1 19 be 2b dd 70 3e 42 8a 52 bf
       0.27074528 -0.15009141 0.23521869 -0.82242215
000010 25 90 8d bd ca f1 df 3e 19 69 f4 bc 87 dd fa 3d
       -0.06912259 0.43739158 -0.02983527 0.12249284
000020 fb 49 e7 3d ed d2 23 bf ec c3 5d 3e 9b 7b e2 3e
       0.112934075 -0.6399372 0.2165677 0.44234928
000030 fd 7c f0 3b 59 68 b9 3d d1 1c 68 bf 43 1d d9 3e
       0.0073391185 0.09053106 -0.9066897 0.42405137
000040 3f 4d 8c 3c 83 20 6e be 19 41 18 3e fe c6 f2 3e
       0.017126678 -0.2325459 0.14868583 0.47417444
000050 c3 4a a9 3d e7 18 e9 3d 50 91 59 ba d7 dc c1 3e
       0.08266213 0.11381703 -0.00082995463 0.378638
000060 fa 04 d8 be 66 d1 05 3e c9 19 f0 3e cd 00 0a 3f
       -0.42191297 0.1306816 0.46894673 0.5390747
000070 ea cb 4d 3d 45 48 32 3e bf 25 36 bc c6 1f d2 bd
       0.050243296 0.17410381 -0.011117398 -0.102599666
000080 3d 68 99 bc 60 dd 57 3c 16 ba 87 3e d4 87 84 3e
       -0.018726462 0.0131753385 0.2650916 0.2588488
000090 bd 8a 2a 3e 4d 96 79 bc 50 80 d2 3e 82 5e 05 3e
       0.16654487 -0.015233588 0.4111352 0.13024333
0000a0 f3 48 cd 3e 57 f9 da be eb 58 e6 bd 94 2d ee bd
       0.40094718 -0.42768356 -0.112474285 -0.11629787
0000b0 fe 07 ca 3e 2b 5f 79 3d 42 cc 4c be 35 d1 ae be
       0.39459223 0.060881775 -0.19999793 -0.34143987
0000c0 df 83 08 be 47 99 e0 3c b3 92 2c bd 5a 45 93 3d
       -0.13331555 0.027416838 -0.04213209 0.07190962
0000d0 69 c4 ae be 16 2a 91 be 84 c2 b8 bd a2 17 9c be
       -0.34134224 -0.28352422 -0.09021476 -0.3048678
0000e0 96 cf 1a bd fd 3b bb 3d aa 4a 9d be e9 ff e7 3c
       -0.037795626 0.09142301 -0.30721027 0.02832027
0000f0 46 8b bd bd aa 8e 55 3e 34 51 ce 3b 24 c2 98 be
       -0.0925508 0.20855203 0.0062963013 -0.29835618
000100 15 76 1f bf b1 96 ad be 9c c3 7e be 17 57 c8 bd
       -0.62289554 -0.3390403 -0.24879307 -0.09782236
000110 f4 24 8f be 3f 58 98 3d 24 94 28 3e ce 8f e9 bc
       -0.2795788 0.074387066 0.16462761 -0.028510954
000120 78 76 39 be 1e 57 82 3d 4a 35 a5 3e c6 fb 36 3d
       -0.18111598 0.063642725 0.3226722 0.044673704
000130 a7 e3 1f bc f0 6b fa 3e e9 8c e2 3c c8 d1 df 3d
       -0.009758866 0.48910475 0.027655082 0.109286845
000140 0d 22 ab bd 98 62 c6 be af 6a e9 3d c9 68 15 3d
       -0.08356104 -0.38747096 0.113973014 0.036476884
000150 67 71 30 3f ce cd 2b 3e 99 86 36 3e d1 e7 b5 3e
       0.6892304 0.16777727 0.17824782 0.35528424
000160 ca 47 a6 be e2 fb 44 3e 69 19 6a 3d a2 36 e6 3e
       -0.32476646 0.1923671 0.05715314 0.44963557
000170 9a 86 3a bc 4e 64 02 3d c4 17 bd 3c 8b a9 5b be
       -0.011384631 0.03183394 0.023082621 -0.21451394
000180 bd cf 03 bf 33 ba 37 3e 17 79 e6 b9 6b 0d 58 be
       -0.5148886 0.17942123 -0.00043959238 -0.21098869
000190 ea c9 a3 be 56 f5 0b bd 3a 03 ed 3d 78 f0 f0 3b
       -0.31989986 -0.034169517 0.11572881 0.007352885
0001a0 91 97 38 3d 0d 98 0b bf c1 35 a1 3d dd 82 9a 3d
       0.04506642 -0.54528886 0.07871581 0.075444914
0001b0 c9 47 af bc 58 43 64 be 96 32 91 3e b7 08 93 be
       -0.021396535 -0.22291315 0.28358907 -0.28717586
0001c0 70 3e cd 3d c9 d9 8a 3e 43 38 a0 3e ab 8e b7 be
       0.10021675 0.27119282 0.31292924 -0.35851035
0001d0 46 4c c6 be 80 f6 17 3c 9d 58 98 bb 4f 6d 80 3e
       -0.38730067 0.009275079 -0.0046492354 0.25083396
0001e0 f3 54 3e be ef ef 9e 3d 6a 35 57 3e 55 f0 13 3d
       -0.18587093 0.077606075 0.2101647 0.03611787
0001f0 dc 02 e9 3d c4 a8 cd bd e2 64 46 bd 6c 12 29 be
       0.113774985 -0.10041955 -0.048436053 -0.16510934
000200 32 96 1e 3e 71 05 80 3e 2f bf 38 3e 6a 7b 84 bc
       0.15486982 0.2500415 0.18041681 -0.01617213
000210 a5 55 3d bb 23 a7 49 3e 0d f2 fc bd 3f 90 92 be
       -0.002889016 0.19692664 -0.12350855 -0.28625676
000220 cb 74 bb be 4d e7 4c 3e e6 fa 2f bd a2 57 ca be
       -0.36612543 0.20010109 -0.042963885 -0.39519984
000230 ab 96 46 bd a8 78 ef 3e 10 4d 3c bd ae a3 b6 be
       -0.048483532 0.4677174 -0.04597193 -0.35671753
000240 7c 60 5d 3e a8 5d 8b be 0c ef f3 3e 6c f6 79 3e
       0.21618837 -0.27219892 0.47643316 0.24410409
000250 02 43 06 be d9 cc 94 bd 54 3f 88 3e d7 b2 c1 be
       -0.13111499 -0.07265634 0.26610816 -0.37831756
000260 9d e6 9f be 67 0d 1e be 91 45 81 be 6a 75 bd 3e
       -0.3123063 -0.154348 -0.25248387 0.37003642
000270 b8 b6 c0 3e 71 a7 84 be 53 29 07 3e 6c c3 37 bf
       0.37639403 -0.25908998 0.13199358 -0.71782565
000280 d5 e3 30 be 69 27 80 bd d9 ec bf be c7 8c 3a 3e
       -0.17274411 -0.06257517 -0.37485388 0.18217765
000290 c9 7d a1 bc be 34 36 be e5 c5 1c be ed 87 38 bd
       -0.0197133 -0.17793557 -0.15309866 -0.045051504
0002a0 f5 03 2c 3e 56 d8 b5 3e 32 5e e0 be e3 21 9b bc
       0.16798384 0.35516614 -0.43821865 -0.018937057
0002b0 69 7e b8 3e 32 4e 14 be 7b fc c1 3d d9 3d 91 3e
       0.36033943 -0.14482954 0.09471985 0.283675
0002c0 d8 15 53 3d b0 e2 0e 3d 2a ef 15 bd 6e 50 f1 3b
       0.051534504 0.034884155 -0.036605038 0.0073643243
0002d0 eb 5a 74 3d 09 9e 81 bd 8d e6 61 be 71 ad af be
       0.05965702 -0.06328971 -0.22060604 -0.34312013
0002e0 53 95 72 be d4 53 81 3e 78 7a ea bd bf 22 96 3d
       -0.23689775 0.25259268 -0.1144914 0.07330846
0002f0 74 a0 ae 3e a6 51 03 bd e8 36 2d be 72 e6 c9 3e
       0.3410679 -0.032060288 -0.16915476 0.39433628
000300 74 5c 3b 3d 94 68 a1 3d e5 c6 99 3e 5f 8b 81 3e
       0.045742467 0.07881275 0.30034557 0.25301644
000310 0a 00 aa be 4d 18 b3 3e b5 1a 17 be 45 22 1c bc
       -0.33203155 0.34979478 -0.14756282 -0.009529655
000320 62 0c 84 bd ad bc bb 3d 17 cb ab 3d 39 a8 94 be
       -0.06447674 0.091668464 0.08388346 -0.29034594
000330 a9 c3 91 3d c5 10 36 bd fc da ee be 80 1a f3 3e
       0.07117397 -0.044449586 -0.46651447 0.47481155
000340 05 ed 94 3e eb b2 1f bd 8a 12 bd 3c ab e9 30 be
       0.29087082 -0.03898899 0.02308013 -0.17276637
000350 4f 80 1b 3f fb 79 8e be ba 99 10 3e 21 ff 02 be
       0.6074266 -0.2782744 0.14121142 -0.12792636
000360 39 2a 45 3e 8c f1 59 be 62 d6 66 3e 06 77 53 be
       0.19254388 -0.21283549 0.22542718 -0.20650873
000370 01 8e 01 3f f6 16 d7 bc ef a0 2a 3d ab aa 57 3e
       0.50607306 -0.026256066 0.041657384 0.21061198
000380 54 f8 6f 3d 1c ce a9 be d7 f6 dc bd 08 95 d2 3e
       0.058586434 -0.3316506 -0.107892685 0.41129327
000390 55 e7 d1 be 9b b5 ab 3d eb 40 06 3f d4 3b 8e bd
       -0.40996805 0.08384248 0.52442807 -0.06945005
0003a0 56 55 e1 3d 74 9e 78 3d 02 1b 7a 3e 37 86 b7 3d
       0.11002605 0.060697988 0.24424365 0.08961146
0003b0 0e 1d 19 be b1 44 45 be 8f 63 c1 3d f5 1f 4c 3d
       -0.1495249 -0.19264485 0.094428174 0.049835164
0003c0 12 e2 9c 3d 0a cf d9 3c 95 0f 8b bd 6a cd a2 3e
       0.07660307 0.026587982 -0.067900814 0.31797343
0003d0 7f 8c c3 3d da f6 49 3d 3a 1c c6 be 67 9c f7 3c
       0.09548282 0.04930768 -0.3869341 0.030225946
0003e0 9f 82 b5 bd 96 d6 fc 3d 77 b0 10 3e 99 40 51 be
       -0.088628046 0.123456165 0.14129816 -0.20434798
0003f0 e0 4f 82 bc af f4 84 bd 8c fe b3 be 11 6e ba 3e
       -0.015907228 -0.06491982 -0.3515514 0.364121

layers.10.bias f4 [128]
000000 3c 92 90 3d e5 80 24 3d e6 0b e8 bd 83 2c 9c bb
       0.07059142 0.040161986 -0.113303944 -0.0047660484
000010 b7 89 c9 bd bf c9 4f be 1c f0 9f 3e 14 59 3c 3d
       -0.0984072 -0.20291804 0.31237876 0.04598339
000020 8b ec 04 3e d8 b0 2a 3e 91 b2 2c bd f5 62 34 3d
       0.12980859 0.16669023 -0.04216248 0.044039685
000030 d2 5b 1b 3e 29 b0 0f 3e b5 78 76 be 63 6f c2 3d
       0.15171745 0.14032044 -0.24069484 0.094939016
000040 01 d6 01 3e 1d 3c 4f bd 84 f8 a0 bd a8 87 af 3e
       0.12679292 -0.050594438 -0.078599006 0.34283185
000050 e0 85 cc 3e 65 05 5a bd 3a ff 33 be 18 88 6a 3e
       0.3994589 -0.0532278 -0.1757783 0.22903478
000060 d4 97 4a 3e 09 fa a0 bc a8 4e fd bc 45 8c 02 3d
       0.1978448 -0.019650476 -0.030921295 0.031872053
000070 3c ba 9b 3e 77 3a 83 3e 2a f7 66 bd 1c 40 f8 bd
       0.30415523 0.25630543 -0.056388058 -0.12121603
000080 c8 a2 3c 3e 1a af 0f 3e 6a 02 b7 bd 40 be b7 3e
       0.18421471 0.1403164 -0.08936007 0.35887337
000090 38 a4 9d bd b7 87 bd 3d d9 e0 6d 3e 14 42 a2 3d
       -0.07697338 0.09254401 0.23230304 0.0792276
0000a0 94 cd 87 be cb f4 90 bc 2b d0 49 3e 95 d7 50 bc
       -0.2652403 -0.017694851 0.19708316 -0.012746711
0000b0 52 21 82 bd 43 56 e3 3d a2 ad a3 3e b5 d2 e1 3d
       -0.063540116 0.111004375 0.3196841 0.11026517
0000c0 a4 9d 80 3d df a9 df bb 94 89 0b 3e f2 0e 77 3e
       0.062800676 -0.00682567 0.136267 0.24126795
0000d0 b5 9b 34 3e ab 36 90 3c 83 4a 26 3e a3 f7 75 3e
       0.17637523 0.017604193 0.16239361 0.24020247
0000e0 e3 cb c8 3d 37 2f 2e 3c ea b8 cd 3b 2e fa 76 3d
       0.09804513 0.010631374 0.006278147 0.060297184
0000f0 25 30 c9 3c cf 26 bc 3e f1 5c c3 3e c8 f5 58 3e
       0.02455909 0.3674836 0.38156846 0.21187508
000100 78 f1 80 3e c2 51 40 be 2c 3c 35 3e 5e 3d 9d bd
       0.25184226 -0.18781188 0.17698735 -0.076777205
000110 40 29 c1 bd d7 5a 5e bd b1 59 2b bd cc 1e b3 bc
       -0.09431696 -0.05428585 -0.041833583 -0.021865271
000120 60 fb 87 be e8 2e 96 3d 30 5e 0d bd ad ea 36 bd
       -0.2655897 0.073331654 -0.034513652 -0.044657398
000130 28 f2 8f 3e 13 9f 28 be 4c 42 56 3c 56 0e 65 3d
       0.28114438 -0.16466932 0.01307733 0.055921875
000140 75 0b 82 3e 4f c4 66 be 8e 19 53 3e 69 f4 8b 3e
       0.25399366 -0.22535823 0.20615217 0.27334908
000150 4b dd bd be ce fe 1c 3e 20 ab 8d be b0 79 83 3d
       -0.37082896 0.15331575 -0.2766962 0.064196944
000160 62 e9 2d 3e 44 1d 2e 3e 7d 13 b8 bd ba 87 da bb
       0.1698356 0.17003351 -0.08988092 -0.006669012
000170 c1 ed 01 3f 5f 22 96 bb f7 7c 30 3e a0 5b 02 be
       0.5075341 -0.004581734 0.1723517 -0.12730265
000180 28 03 b9 3b bd 81 9d 3d e9 8b 6e 3e a4 1a a4 bd
       0.005646128 0.07690761 0.23295559 -0.08012894
000190 56 37 26 bc e8 35 2b 3e 92 e4 57 3e d8 65 ab 3d
       -0.010145029 0.16719782 0.21083286 0.083690345
0001a0 fb 40 e2 3e 23 2c af bb 04 db 13 3e d2 70 13 3e
       0.441902 -0.0053458377 0.14439017 0.14398506
0001b0 37 b1 65 3e 5c 6e 14 be 2c 51 8a 3d ed af 9b 3d
       0.22430883 -0.14495224 0.067537636 0.076019146
0001c0 6d 2e bd 3e 80 5e 18 3d 2f 85 6d 3e e4 c8 45 3c
       0.36949483 0.037199497 0.23195337 0.012071822
0001d0 d8 fd 15 3d 3f 1a 03 3e cc f7 dc 3e 88 f4 a2 3e
       0.036619037 0.12802981 0.43157804 0.31827188
0001e0 a5 e4 06 3d 78 2e c9 3d df 9e 16 3e bb 5b e8 3d
       0.032932896 0.09823316 0.14709042 0.11345621
0001f0 8d 0c 8b 3e 03 3a 49 3e d2 b6 bb bc 0f 7e af 39
       0.27158013 0.19651036 -0.022914324 0.00033472522

layers.11.weight f4 [128]
000000 33 68 14 40 d0 38 ef 3f 6a 2f fb 3f 82 90 10 40
       2.3188598 1.8689213 1.9623845 2.25882
000010 7c 9a 1b 40 fd 7e 12 40 9d a5 13 40 6c 87 09 40
       2.431304 2.2890007 2.3069832 2.1488905
000020 8d 1b 02 40 75 16 04 40 9c 07 f3 3f ed 73 14 40
       2.0329316 2.0638707 1.8986697 2.3195755
000030 0b d2 12 40 84 ec 1d 40 d8 4f 0f 40 30 ad 09 40
       2.29407 2.4675608 2.2392483 2.1511955
000040 de 58 08 40 9a e4 05 40 2c 69 1f 40 ef 9e 0e 40
       2.130424 2.0920777 2.4907942 2.2284505
000050 d0 99 0e 40 7a f6 09 40 38 59 0b 40 8f 1e 0f 40
       2.228138 2.1556687 2.1773205 2.2362401
000060 76 55 0e 40 ee 3d 0b 40 d5 71 13 40 f4 b8 25 40
       2.2239661 2.175655 2.3038228 2.5894136
000070 73 c4 13 40 c8 22 0c 40 3e 20 26 40 29 70 23 40
       2.3088653 2.1896229 2.595718 2.5537207
000080 1a 45 05 40 d7 47 08 40 1d de 15 40 6f f8 14 40
       2.0823426 2.1293848 2.3416817 2.3276632
000090 6a 04 06 40 47 77 ec 3f e9 90 0b 40 6c 7b 0f 40
       2.0940194 1.84739 2.1807196 2.241908
0000a0 dd 74 14 40 f7 19 03 40 bf 18 0e 40 05 12 04 40
       2.3196328 2.0484598 2.2202604 2.0635998
0000b0 0c 1e 00 40 db ad e5 3f c6 2b 17 40 9e 1e 05 40
       2.001834 1.7943681 2.3620467 2.0799937
0000c0 e3 12 02 40 53 d1 1f 40 dc 0a 17 40 3b 10 06 40
       2.0324028 2.4971511 2.3600378 2.0947406
0000d0 90 1f 07 40 b1 42 1b 40 21 c5 13 40 f3 8f 07 40
       2.1113014 2.4259455 2.3089068 2.118161
0000e0 7b 28 f6 3f 55 87 0f 40 ed d1 31 40 0f 1b fe 3f
       1.9231104 2.242635 2.7784379 1.9852008
0000f0 c5 68 01 40 0f c1 07 40 40 d2 25 40 65 68 14 40
       2.0220196 2.1211584 2.5909576 2.3188717
000100 31 b7 1d 40 19 34 01 40 1b 91 34 40 9c e3 08 40
       2.464306 2.0188048 2.8213565 2.1388922
000110 2a ca 0b 40 31 2a 1c 40 17 65 07 40 51 c6 10 40
       2.184214 2.4400752 2.115545 2.2621043
000120 bd ed 10 40 3e 53 2d 40 fe 63 05 40 15 53 1c 40
       2.2645104 2.7082057 2.084228 2.442571
000130 de b8 28 40 f0 14 18 40 de aa 1d 40 50 24 11 40
       2.6362834 2.376278 2.463554 2.2678413
000140 62 07 12 40 46 f3 0a 40 12 d7 1e 40 1d 99 f6 3f
       2.2817006 2.1710982 2.4818769 1.9265476
000150 07 a9 13 40 ce e8 07 40 4a 0f 12 40 74 60 1a 40
       2.3071916 2.1235843 2.2821832 2.412137
000160 b1 de 1b 40 25 90 1f 40 b2 27 06 40 c1 eb 12 40
       2.435467 2.493173 2.0961728 2.2956393
000170 42 ef 16 40 b7 e6 0c 40 80 dd 0b 40 47 23 07 40
       2.3583531 2.2015817 2.1853943 2.1115282
000180 33 a4 0e 40 2f 05 1e 40 8d fe ea 3f 48 63 08 40
       2.228772 2.4690664 1.8358933 2.1310596
000190 78 9b 0b 40 d8 f0 2b 40 ac c9 14 40 54 42 0c 40
       2.181364 2.686575 2.324809 2.1915483
0001a0 9d c7 2f 40 c4 b7 1b 40 10 af 16 40 0b 03 2c 40
       2.7465584 2.4330912 2.354435 2.6876857
0001b0 4f fd 03 40 86 15 0c 40 8e 7b fa 3f b6 86 ed 3f
       2.0623357 2.1888137 1.9568956 1.8556736
0001c0 62 08 0e 40 a3 b0 05 40 d2 c5 19 40 a8 f3 15 40
       2.2192616 2.088906 2.402699 2.3429966
0001d0 ce 1d 15 40 bc c9 0f 40 9e 36 0e 40 ef 6b 13 40
       2.3299441 2.246688 2.2220836 2.3034627
0001e0 dd b6 15 40 46 75 2c 40 93 6a 0c 40 a5 e2 11 40
       2.339286 2.6946578 2.1940048 2.2794583
0001f0 3c f8 20 40 3c e1 0b 40 71 5d 06 40 54 1b 1a 40
       2.515151 2.1856222 2.0994532 2.407918

layers.11.bias f4 [128]
000000 e4 3e 55 bf 16 b2 56 be f6 95 12 bf 1b a4 58 bf
       -0.8329909 -0.20966372 -0.5726007 -0.84625405
000010 11 00 5e bf 3b 70 7f bf d0 d6 90 bf 68 bf 4d bf
       -0.8671885 -0.99780625 -1.1315556 -0.8037019
000020 8e 90 7e bf 02 8f 8d bf 6c 45 41 bf e5 26 7d bf
       -0.9943932 -1.1059268 -0.75496554 -0.98887473
000030 6f a6 41 bf 83 f3 86 bf 0d 1a 33 bf 2b 0f 5b bf
       -0.7564458 -1.0543064 -0.69961625 -0.8557002
000040 bb 80 66 bf 83 df 0f bf ca b1 3a bf 83 db 74 bf
       -0.9004018 -0.56200427 -0.72927535 -0.9564745
000050 2c 4d 59 bf 20 44 5d bf 1d 00 31 bf fe 3f 38 bf
       -0.8488338 -0.86432076 -0.691408 -0.71972644
000060 e7 ca 3b bd ec 67 43 bf f6 65 50 bf 3d 57 8f bf
       -0.0458478 -0.7633045 -0.8140558 -1.1198498
000070 d8 3c 6c bf 0a 2b 30 bf 7e 32 88 bf 7d 99 98 bf
       -0.9228034 -0.6881567 -1.0640409 -1.1921841
000080 d2 9a 33 bf 4b 38 08 be 5d 23 55 bf f3 ba 7a bf
       -0.7015811 -0.13302724 -0.83257085 -0.9794151
000090 2d 43 38 bf a7 35 27 bf 90 9f 5b bf 2b a4 45 bf
       -0.719775 -0.6531624 -0.8579035 -0.77203625
0000a0 d4 47 88 bf 1a f4 fc be 85 25 7f bf fa ad d2 be
       -1.064692 -0.49404985 -0.99666625 -0.4114836
0000b0 11 c7 2b bf 37 1e 54 bf bf ef 4b bf e4 3d bd be
       -0.67100626 -0.82858604 -0.796627 -0.3696128
0000c0 78 38 23 bf 25 6d 88 bf 91 a1 63 bf 43 72 d5 be
       -0.6375804 -1.0658308 -0.88918406 -0.41688737
0000d0 94 9f 61 bf 80 fe 6c bf 12 0a 64 bf 3a 30 68 bf
       -0.8813412 -0.92575836 -0.89077866 -0.9069859
0000e0 c2 ac 50 bf 9c 5a 5f bf 27 d1 b0 bf 76 a1 4b bf
       -0.8151361 -0.87247634 -1.3813828 -0.79543245
0000f0 b2 df 24 bf 5e 06 26 bf bc 4c 74 bf 7d 6f 88 bf
       -0.6440383 -0.64853466 -0.9542959 -1.0659024
000100 6a 78 34 bf ce 06 13 bf 6a 59 9b bf c3 04 28 bf
       -0.7049624 -0.5743226 -1.2136662 -0.65632266
000110 39 94 01 bf a8 b5 9f bf 7f a7 39 bf 09 bf 6f bf
       -0.50616795 -1.2477312 -0.72521204 -0.9365087
000120 a4 84 86 bf b3 73 b2 bf 81 42 31 bf 4c e2 79 bf
       -1.0509229 -1.3941559 -0.692421 -0.97610927
000130 6c e9 8d bf e3 26 95 bf cd 3e 32 bf e4 9d 70 bf
       -1.108686 -1.1652492 -0.69627076 -0.9399092
000140 d9 a3 7c bf da ca 62 bf 88 39 71 bf 76 3d 45 bf
       -0.9868751 -0.88590777 -0.9422841 -0.77046907
000150 dd 4f 66 bf 73 11 37 bf 92 01 88 bf ae 14 17 bf
       -0.8996561 -0.71511 -1.0625479 -0.5901593
000160 26 cb 51 bf d9 b0 89 bf 0e 52 9a 3d 8e 24 de be
       -0.81950605 -1.0757095 0.07535182 -0.43387264
000170 8f e7 0a bf 2f e6 5b bf 69 73 64 bf 3a 5a 33 bf
       -0.5425958 -0.8589811 -0.892386 -0.7005955
000180 a1 7a 3f bf f5 36 4c bf 8a 60 ff be b4 70 4d bf
       -0.7479649 -0.7977136 -0.4987834 -0.80250096
000190 2b 23 44 be 17 fb a9 bf 8e f8 54 bf 84 6b ba be
       -0.1915404 -1.3279752 -0.83191764 -0.36410153
0001a0 33 7e a8 bf ef 9b 47 bf 72 52 5c bf 66 fd aa bf
       -1.3163513 -0.7797231 -0.860633 -1.3358581
0001b0 b8 46 3c bf 06 8f 20 be 46 d2 61 be f5 14 3e bf
       -0.7354541 -0.15679559 -0.22052869 -0.7425073
0001c0 e3 40 52 bf 51 1d 24 bf c5 db 88 bf ce f3 72 bf
       -0.8213026 -0.64107233 -1.0692068 -0.94903266
0001d0 38 b2 bd be e3 da 7e bf a9 b3 84 bf ce 0d 8a bf
       -0.37050033 -0.99552745 -1.0367328 -1.0785463
0001e0 9d 97 52 bf 49 80 93 bf 87 9e 6a be 6b c5 4f bf
       -0.82262594 -1.1523525 -0.22912036 -0.8116061
0001f0 bb 8f 79 bf bf 24 6d bf b2 98 da be a6 cc 94 bf
       -0.9748494 -0.92634195 -0.42694622 -1.1624954

layers.11.running_mean f4 [128]
000000 b8 09 72 3d 23 a3 5a 3e 67 2a 7c be 47 5b e2 bc
       0.0590913 0.21351294 -0.2462555 -0.027631415
000010 cf 0c 8b be 5d 96 e2 be 77 59 66 3e 93 24 f9 bd
       -0.2715821 -0.44255343 0.22495066 -0.12165179
000020 ca 69 13 3d a7 ed 32 3e 9d 90 18 be 0f 99 2f bd
       0.03598956 0.1747347 -0.14898916 -0.042870577
000030 60 55 1d 3e e6 f2 b7 3d a9 2d 9a be de c1 0b 3d
       0.15364599 0.08981876 -0.3011296 0.034120433
000040 82 75 24 3e 81 c5 ca bd 13 91 a8 be f9 c6 be 3e
       0.1606045 -0.09900952 -0.32923183 0.3726118
000050 76 15 cc 3e 9e 25 95 bb 0d 58 8b be 46 21 1d 3e
       0.39860123 -0.0045516035 -0.27215615 0.15344724
000060 bd d6 b7 3e 8b a9 2a bd fe 24 f1 bd 71 c1 b0 bd
       0.3590602 -0.041665595 -0.11774634 -0.08630646
000070 be 77 45 3e b2 80 7c 3d 6f c2 77 be 17 aa e9 bd
       0.1928396 0.06164617 -0.24195264 -0.11409395
000080 1d 48 08 3e 97 e0 9e 3e ca dd 80 be ad 9c 92 3e
       0.13308759 0.31030723 -0.25169212 0.2863516
000090 52 e9 37 be 4a 4f 03 3c ca 45 29 3e 2d c4 02 3d
       -0.17960098 0.008014509 0.16530529 0.03192537
0000a0 3e b4 c1 be d5 cf fc bd 7b c7 31 3d ce 42 36 bd
       -0.37832826 -0.12344328 0.04340313 -0.044497304
0000b0 17 4b 28 be 08 57 e5 3d d4 8f bf 3e d2 99 84 3d
       -0.16434895 0.111982405 0.3741442 0.064746514
0000c0 09 1a b9 3c d4 ff d7 3d 7b a3 0b 3e 19 9d 8b 3e
       0.022595422 0.10546842 0.13636582 0.27268293
0000d0 d7 c1 f8 bc 63 fc 87 3c b7 75 b7 3d d9 2e ba 3d
       -0.030365868 0.01659984 0.08957999 0.09090967
0000e0 ab f5 84 bd f2 01 42 be 13 9a 02 be fc d8 11 3e
       -0.0649217 -0.18946055 -0.12754087 0.14242929
0000f0 ff 2a 15 be ed 5a 9d 3e ad 09 ca 3e 79 d0 f8 3d
       -0.14567183 0.30733433 0.39460507 0.12149138
000100 26 cb 01 3e c7 5d a1 be 62 a0 64 3d 3b 3a 1f be
       0.12675151 -0.3151686 0.055817015 -0.15549557
000110 31 9a e1 bd 0f 6b dd bd 7d 55 5b be 42 47 4d be
       -0.11015738 -0.108114354 -0.2141933 -0.20046714
000120 44 5d b2 be 87 f5 f6 bd 7e 5d 3f 3c 45 a5 f1 bd
       -0.3483678 -0.120585494 0.011680005 -0.11799101
000130 30 6b 9d 3e a1 4c 92 be 14 29 a2 3c 1f 53 10 bd
       0.3074584 -0.28574088 0.019794978 -0.03523552
000140 4b 3a 82 3e d9 18 a4 be a3 fa 4d 3e 3c 2b 5f 3e
       0.254351 -0.32050207 0.20115142 0.21793836
000150 7e 64 e3 be d0 1f eb 3d af cb cd be ff c9 dc 3d
       -0.44412607 0.11480677 -0.4019446 0.10780715
000160 d6 9b 82 3d 6d 62 84 3d 7e a7 92 bd b4 72 ac 3d
       0.063773796 0.06464086 -0.07160853 0.084203154
000170 36 01 a9 3e 8c 6c b8 3c 7e 47 a5 3d 27 9b 97 be
       0.33008736 0.022512697 0.08070277 -0.2961056
000180 e4 d4 0c bb 2f d9 96 3d 37 3c 01 3e c5 c9 d9 bd
       -0.0021489197 0.07365643 0.12620626 -0.106341876
000190 b3 46 67 3d 67 33 11 3e b3 92 66 3d 32 6f b0 3d
       0.05646391 0.14179765 0.056292247 0.08614959
0001a0 d2 86 c4 3e 77 2f 1d bd 1f e9 8f 3d 50 89 6a bd
       0.3838411 -0.038375344 0.07026886 -0.057259858
0001b0 b6 32 f6 3d b3 b5 e6 bd 7b 3c 90 3a ae 17 9c 3d
       0.12021391 -0.11265125 0.0011004353 0.07621704
0001c0 e1 86 98 3e 9e eb a1 bc f2 13 09 3e 9b 84 cc bd
       0.29790404 -0.019765671 0.13386515 -0.0998623
0001d0 40 6b 82 3d 79 c3 92 3d 6d 0c 72 3e 3d 5b 91 3e
       0.063681126 0.0716619 0.23637553 0.28389922
0001e0 c1 09 75 3c bd 9e a6 3d bb f4 99 3e 64 5f e6 3d
       0.014955939 0.08135746 0.30069527 0.11248663
0001f0 bd 66 39 3e 71 cb c7 3c 18 79 b4 3d 8e d6 74 3c
       0.18105598 0.024389 0.08812159 0.014943732

layers.11.running_var f4 [128]
000000 7d ff 35 3d 51 cb 55 3d a3 aa 3a 3d 34 44 61 3d
       0.044433106 0.05219585 0.045572888 0.054996684
000010 ea 13 4e 3d 8a c3 7b 3d 0f 4f 3d 3d 25 94 26 3d
       0.05031196 0.061465777 0.046217974 0.040668625
000020 e3 ed 51 3d d8 f8 46 3d d0 91 2c 3d fd 80 6a 3d
       0.051252257 0.04857716 0.042131245 0.05725192
000030 3e e1 39 3d 93 16 3c 3d e6 84 26 3d 1b 10 4f 3d
       0.045380823 0.045919966 0.040654086 0.05055247
000040 52 12 41 3d 71 d0 44 3d 79 43 53 3d 2a cf 34 3d
       0.047136612 0.048050348 0.05157802 0.04414288
000050 e9 31 2e 3d 17 fb 0d 3d e2 46 6d 3d c1 3f 56 3d
       0.042528067 0.034663286 0.057928927 0.052306894
000060 78 d3 83 3d 1f 01 38 3d 3b f1 3a 3d f9 21 64 3d
       0.06436819 0.044922944 0.04564021 0.05569646
000070 17 7b 41 3d 41 25 8c 3d 6a f3 4e 3d 4b 3f 32 3d
       0.04723653 0.06843043 0.050525106 0.043517392
000080 2b 3e 2b 3d ff 76 80 3d 16 4d 45 3d d5 c7 26 3d
       0.041807335 0.06272697 0.048169218 0.04071792
000090 81 9d 30 3d db 6c 34 3d 51 76 35 3d a8 7b 26 3d
       0.043118957 0.044049125 0.04430229 0.04064527
0000a0 45 c1 60 3d fb b3 64 3d 83 61 50 3d 32 89 54 3d
       0.054871816 0.055835705 0.050874244 0.051888652
0000b0 07 b9 3d 3d b3 ed 5e 3d b6 8f 4e 3d 1c b4 69 3d
       0.046319034 0.054425906 0.050430022 0.05705653
0000c0 41 b4 4c 3d eb ff 22 3d 4e 63 16 3d 2a 48 30 3d
       0.04997659 0.039794844 0.036715798 0.04303757
0000d0 86 36 80 3d f7 8a 1a 3d 81 70 3c 3d 20 7f 2f 3d
       0.062603995 0.037730183 0.04600573 0.042845845
0000e0 63 a0 56 3d d1 58 64 3d 60 ce 46 3d 8a a3 3c 3d
       0.05239905 0.055748764 0.04853666 0.0460544
0000f0 69 bf 5d 3d 3d 70 2e 3d db eb 29 3d 2f 6f 55 3d
       0.05413762 0.042587508 0.041484695 0.052107986
000100 44 38 4c 3d d7 98 1a 3d d4 5c 4f 3d 17 9b 20 3d
       0.049858347 0.037743416 0.050625637 0.039210405
000110 42 1c 41 3d 07 04 43 3d 5b 2f 2c 3d a8 93 46 3d
       0.04714609 0.047611263 0.04203735 0.04848066
000120 95 c7 4c 3d 4b 88 3f 3d 29 ea 36 3d a0 5d 31 3d
       0.049995024 0.04676084 0.044656906 0.04330218
000130 dd 32 5c 3d 57 3b 2c 3d 69 e2 33 3d d6 a4 2d 3d
       0.053759445 0.04204878 0.043917093 0.042393528
000140 c9 68 47 3d 16 c6 33 3d 30 6a 57 3d 0e e5 3c 3d
       0.048683915 0.04389008 0.052591503 0.04611688
000150 86 df 45 3d f2 2b 4a 3d 9c ed 8b 3d 8a 50 78 3d
       0.04830887 0.049358316 0.0683243 0.060623683
000160 ec 05 4d 3d de 66 3f 3d 10 56 3a 3d 41 46 4c 3d
       0.050054476 0.04672896 0.04549223 0.049871687
000170 ed a4 29 3d e0 f4 1a 3d 81 ff 29 3d a4 46 37 3d
       0.04141705 0.037831187 0.041503433 0.044745103
000180 7e 87 28 3d f9 41 4e 3d be c7 57 3d 87 36 4e 3d
       0.04114484 0.050355885 0.052680723 0.05034497
000190 d5 3c 77 3d 62 05 4b 3d de 17 39 3d 8e 61 51 3d
       0.06036075 0.04956568 0.045188777 0.051118426
0001a0 90 55 41 3d c8 d5 2e 3d cf 15 35 3d cf fe 89 3d
       0.04720074 0.042684346 0.04421025 0.06738054
0001b0 cf b1 18 3d ae 75 5d 3d 60 b8 5e 3d 5c 4a 21 3d
       0.037278946 0.054067306 0.054375052 0.039377555
0001c0 e8 51 29 3d e1 13 5a 3d ad 10 5a 3d 97 0e 3f 3d
       0.041337878 0.053241614 0.05323856 0.046644773
0001d0 1c c5 2d 3d b4 85 59 3d fd 49 63 3d 6f f1 32 3d
       0.042424306 0.053106025 0.055490483 0.04368728
0001e0 83 d7 56 3d 46 7b 4d 3d d8 23 4e 3d 0f 4e 15 3d
       0.05245162 0.05016639 0.050327152 0.036451396
0001f0 d0 9b 35 3d ea 91 2e 3d 3a 6e 94 3d ef 27 17 3d
       0.044338048 0.042619623 0.072475865 0.036903318
