13_ncRNA_RNAFM/rna_type_checkpoint.pt (torch, 34976 bytes, 2 tensors)

fc.weight f4 [13, 640]
000000 c3 3a 26 bf 75 58 dc be 40 d8 fb 3e ad a7 4f 3f
       -0.64933413 -0.43036237 0.49188423 0.8111523
000010 16 98 79 bf e9 2a 3a 3f f7 5e a7 3e 76 78 1b bf
       -0.9749769 0.72721726 0.3268964 -0.60730684
000020 fb 0a 37 be 8a 19 30 bf 78 b5 ca be f7 aa 7e be
       -0.17875282 -0.6878897 -0.39591575 -0.24869905
000030 10 72 0a 3e 61 5c 12 bf a5 e7 03 bf 80 11 53 be
       0.13520074 -0.5717221 -0.51525337 -0.20612144
000040 1e f7 92 3f 68 6e c5 3d fd 14 a3 be 35 e7 19 bf
       1.1481664 0.09640199 -0.3185195 -0.6011842
000050 28 1e b1 3f 05 8d e6 3e 06 a5 1e 3f 64 27 8b be
       1.3837328 0.45029464 0.61970556 -0.2717849
000060 c8 5e 30 bf f3 7b 75 be f6 f4 a2 3f fc bd 28 bf
       -0.68894625 -0.23973064 1.2731006 -0.65914893
000070 89 d5 df 3d 5c a4 ac bd ae a6 2c bf 7e 11 67 bf
       0.109294005 -0.084297866 -0.67441833 -0.90261066
000080 7e 99 c4 be c2 0d 96 3e 2d 1f e7 3e f0 89 9f be
       -0.38398355 0.2930737 0.45140973 -0.31159925
000090 4b e4 24 3f 16 db b5 3e c7 bf a2 3f 73 ee 1f bf
       0.6441085 0.35518712 1.2714776 -0.6247322
0000a0 72 2f 68 be 04 40 93 bd b6 61 30 bf b6 be 02 be
       -0.22674349 -0.071899444 -0.68899095 -0.12768063
0000b0 db 0a 1e bf 35 45 1d bf d1 26 d0 be df 18 34 3f
       -0.61735314 -0.61433727 -0.40654615 0.7035045
0000c0 22 6d 2a bf 11 d7 91 bf 95 51 21 bf d7 36 a6 be
       -0.66572773 -1.1393758 -0.6301511 -0.32463714
0000d0 25 7b 88 3d 66 cb 5d bf 3e a7 dd be e6 21 a7 bf
       0.06664113 -0.86638486 -0.43291658 -1.305722
0000e0 36 bc 36 3f 3e 98 29 3f b3 73 66 3d 86 9c 31 bf
       0.7138094 0.6624793 0.056262683 -0.6937946
0000f0 3d ce 60 3f 0d 00 ef 3e cb f6 f4 be 16 64 0e 3f
       0.87814695 0.46679726 -0.47844538 0.5562147
000100 63 02 7f 3f f4 a1 97 3e 54 aa 31 3f fd 79 b8 3f
       0.99613017 0.29615748 0.69400525 1.4412228
000110 31 d1 df 3e 29 23 46 bf c6 0a ff 3e b3 1f 99 3d
       0.43714288 -0.773974 0.49812907 0.07476749
000120 ce 34 8e be b6 63 62 3d 4e 6a 94 3f 95 c9 4b be
       -0.27774662 0.055270873 1.1594942 -0.19901116
000130 58 aa 86 3f fd b1 07 3f a0 80 48 3f 31 43 0d 3f
       1.0520735 0.53005964 0.78321266 0.5518065
000140 2e 13 04 bf 0f 92 06 3e 46 4f 16 3f 0d f9 a4 3e
       -0.51591766 0.13141654 0.5871471 0.3222126
000150 15 3a 28 bf ae 36 fd be 1d 3d c2 bf 57 fc 3b be
       -0.65713626 -0.4945578 -1.51749 -0.18357979
000160 5f ca 72 bf 88 4d 8a 3b d8 fa a8 3e 61 9b 44 3e
       -0.94840044 0.004220668 0.3300388 0.19199897
000170 d4 24 29 3e b4 45 86 bf b3 c2 0c 3f e7 57 81 bf
       0.16517955 -1.0490022 0.5498459 -1.0104951
000180 35 74 9a 3e 71 eb 3b 3f b5 7a 05 be 73 bb 7c 3f
       0.30166784 0.7340613 -0.1303509 0.98723525
000190 74 80 9f 3f ee b8 be 3d 5a 1c 2b bf 9c 82 8f be
       1.2461076 0.09312616 -0.66840136 -0.28029335
0001a0 c0 10 a9 3f 3e 6c 93 be f7 7e 62 3f c3 8f 24 3e
       1.3208237 -0.2879352 0.8847498 0.16070466
0001b0 8b 69 13 bf 6b 73 02 3f 84 f5 5f bf fe 14 8a 3f
       -0.5758292 0.50957364 -0.87484 1.0787656
0001c0 68 15 13 3e 34 4e a0 bd 1c 3f 76 3e 03 67 e4 3e
       0.14363635 -0.07827416 0.24047512 0.44609842
0001d0 b0 25 93 be bd 5f 85 be c2 8f b3 3e 75 31 5d bf
       -0.2873969 -0.26049605 0.35070616 -0.8640359
0001e0 cc 89 8d 3f d8 e0 d0 bd 8f 58 98 3f ee 27 e6 be
       1.1057677 -0.101991355 1.1902026 -0.4495234
0001f0 50 d5 9d 3e 1f e2 7f 3e ac 78 24 3e 31 28 51 3e
       0.30826807 0.24988602 0.16061658 0.20425488
000200 8d c5 c0 3f d5 59 9a 3e dd cf 9d 3e 48 5b 4d 3f
       1.5060288 0.3014666 0.3082265 0.8021741
000210 35 08 62 3e bf 8e 08 3e 13 51 49 3f d8 c0 07 bf
       0.22073443 0.13335703 0.78639334 -0.5302863
000220 c6 91 ba bf a4 1d 69 3f 4b 36 5e be 67 c8 e0 3d
       -1.4575737 0.91060853 -0.21700399 0.10975724
000230 30 9f 35 bf 86 a4 90 bf 61 c2 a3 3f 8c aa 14 bf
       -0.70946026 -1.1300209 1.2793695 -0.58072734
000240 5b 46 cd be ec 1b 31 3e 7f 7f 2c be c9 1e 3d bf
       -0.4009274 0.17295808 -0.16845511 -0.738751
000250 04 5b 18 bf b2 1a cb be 1b e7 0d bf 98 80 b8 3e
       -0.5951388 -0.39668804 -0.55430764 0.3603561
000260 f1 44 11 bf 9a bf 25 3f 14 c0 0d 3d 49 26 aa 3f
       -0.5674582 0.64745486 0.034607008 1.3292934
000270 24 62 15 3d e1 ef 49 3e 9f 15 02 bf 0f d4 96 3c
       0.036470547 0.19720413 -0.5081424 0.018411664
000280 88 b7 8d 3e 49 58 7d 3f 92 52 b5 3e 79 c8 2d bf
       0.27679086 0.9896284 0.3541456 -0.6788402
000290 b4 40 36 be 16 e5 50 be e7 28 17 bf eb 58 84 bd
       -0.1779812 -0.2039989 -0.5904679 -0.06462272
0002a0 05 92 47 3e f2 5e 93 3f ad fb 95 bf 11 e4 3e 3f
       0.19489296 1.151335 -1.171743 0.7456675
0002b0 65 23 48 3e 0f 80 81 3f 4c 31 f6 be 7e 5d da be
       0.19544752 1.0117205 -0.48084486 -0.42649454
0002c0 cd f3 58 3e c2 be 98 3f 21 24 c4 be 9d b1 0a 3d
       0.21186753 1.1933215 -0.38308814 0.03386079
0002d0 db 4c 1e bf b2 74 9f 3e 5e af 10 3f 13 ff f3 3c
       -0.6183602 0.3114372 0.5651759 0.029784715
0002e0 ef af 1b 3f c6 ed 47 3e dc 87 ba be 57 23 b6 3e
       0.6081533 0.19524297 -0.36431777 0.35573837
0002f0 c0 a9 2a bf c6 8d 3c 3f 48 7a e7 be e3 56 23 bf
       -0.6666527 0.7365383 -0.4521048 -0.63804454
000300 2a d7 b5 be 74 54 60 bf 9d d6 63 3f 44 ca bf bf
       -0.3551572 -0.87628865 0.8899935 -1.4983602
000310 07 0f 3a be 03 61 05 3f fc 26 15 3f 8c 78 ff be
       -0.18169795 0.52101153 0.5826261 -0.49896657
000320 8b e0 a4 bf 41 6c 48 be fa c1 4a bf db ac a8 be
       -1.2881025 -0.19572546 -0.79202235 -0.32944378
000330 fe 91 a2 3d 71 a6 10 bf 9f c6 c6 3e 96 3e 52 3f
       0.07938002 -0.5650397 0.3882341 0.8212675
000340 4b ae 1c bf 90 24 1d bf 39 7f e6 3b c7 f8 c9 3f
       -0.6120345 -0.61383915 0.007034209 1.5779046
000350 28 1b 0e bf eb f5 41 bf 70 33 d1 3d 7a e9 ae be
       -0.5551019 -0.75765866 0.10214889 -0.34162503
000360 23 7b f1 3e fc ea 0a bf b0 87 fa be 11 65 24 3f
       0.47164258 -0.5426481 -0.48931646 0.64216715
000370 75 ac 26 bf 60 20 a0 3f c2 81 77 3c d1 80 1c bf
       -0.651069 1.250988 0.01510662 -0.6113406
000380 98 8c 4d 3f b1 70 86 bf a1 aa b8 3f a5 ff 42 3f
       0.80292654 -1.0503141 1.4427072 0.7617133
000390 6a 02 aa 3e 75 ed dd be 4b d1 98 3e 6f 01 0a 3d
       0.33204967 -0.43345228 0.29847178 0.033692773
0003a0 1f 06 21 3f a9 d5 7a bf c1 e7 90 3f ea 9c 45 3f
       0.62899965 -0.9798227 1.1320726 0.77192557
0003b0 86 6d 55 bf bd 5e af 3f f7 d1 1d 3f 1c 07 75 bf
       -0.83370245 1.3700787 0.61648506 -0.95713973
0003c0 a4 85 98 bd 98 38 e0 3e 2b 82 a7 be f7 d1 2e be
       -0.07447365 0.43793178 -0.32716498 -0.17072283
0003d0 b9 f6 64 3d 90 8f 15 bf 43 a7 02 3f f1 6e 9f 3f
       0.055899356 -0.58422184 0.5103647 1.2455732
0003e0 b4 fe c2 3e 58 2b 86 be 9f 8a 01 bf b0 26 a4 be
       0.38084948 -0.26204944 -0.50602144 -0.32060766
0003f0 db f8 bb 3f d3 9c f8 3f 6b 86 7a bf 7e f3 e2 be
       1.468532 1.9422859 -0.97861356 -0.44326395

fc.bias f4 [13]
000000 aa ec d9 3e 40 ff 7b 3e 41 0b 26 3f 78 75 e9 be
       0.42563373 0.24609089 0.6486092 -0.45597434
000010 4b 82 d3 3d e2 29 17 3e d8 78 32 bf 2e 7b ca 3e
       0.10327586 0.14762071 -0.6971564 0.39547104
000020 69 4d 30 bf 34 4c bf 3d 4e 5b 64 bd 16 60 4c bf
       -0.6886812 0.093407065 -0.055751137 -0.79834116
000030 0f d4 e5 3e
       0.4488835
